module {
  oneflow.job @UNetGraph_0(%arg0: tensor<2x4x64x64xf32>, %arg1: tensor<si64>, %arg2: tensor<2x77x768xf16>) -> tensor<2x4x64x64xf16> {
    %output, %ctrl_output = "oneflow.variable"() {data_type = 9 : i32, device_name = ["@0:0"], device_tag = "cuda", hierarchy = [1], op_name = "unet.time_embedding.linear_1.weight", output_lbns = ["unet.time_embedding.linear_1.weight/out"], parallel = #sbp.parallel<[] -> [[#sbp.B]]>, scope_symbol_id = 80 : i64, shape = [1280 : si64, 320 : si64]} : () -> (tensor<1280x320xf16>, tensor<i1>)
    %output_0, %ctrl_output_1 = "oneflow.variable"() {data_type = 9 : i32, device_name = ["@0:0"], device_tag = "cuda", hierarchy = [1], op_name = "unet.time_embedding.linear_1.bias", output_lbns = ["unet.time_embedding.linear_1.bias/out"], parallel = #sbp.parallel<[] -> [[#sbp.B]]>, scope_symbol_id = 90 : i64, shape = [1280 : si64]} : () -> (tensor<1280xf16>, tensor<i1>)
    %output_2, %ctrl_output_3 = "oneflow.variable"() {data_type = 9 : i32, device_name = ["@0:0"], device_tag = "cuda", hierarchy = [1], op_name = "unet.time_embedding.linear_2.weight", output_lbns = ["unet.time_embedding.linear_2.weight/out"], parallel = #sbp.parallel<[] -> [[#sbp.B]]>, scope_symbol_id = 102 : i64, shape = [1280 : si64, 1280 : si64]} : () -> (tensor<1280x1280xf16>, tensor<i1>)
    %output_4, %ctrl_output_5 = "oneflow.variable"() {data_type = 9 : i32, device_name = ["@0:0"], device_tag = "cuda", hierarchy = [1], op_name = "unet.time_embedding.linear_2.bias", output_lbns = ["unet.time_embedding.linear_2.bias/out"], parallel = #sbp.parallel<[] -> [[#sbp.B]]>, scope_symbol_id = 109 : i64, shape = [1280 : si64]} : () -> (tensor<1280xf16>, tensor<i1>)
    %output_6, %ctrl_output_7 = "oneflow.variable"() {data_type = 9 : i32, device_name = ["@0:0"], device_tag = "cuda", hierarchy = [1], op_name = "variable_413", output_lbns = ["variable_413/out"], parallel = #sbp.parallel<[] -> [[#sbp.B]]>, scope_symbol_id = 117 : i64, shape = [320 : si64, 3 : si64, 3 : si64, 4 : si64]} : () -> (tensor<320x3x3x4xf16>, tensor<i1>)
    %output_8, %ctrl_output_9 = "oneflow.variable"() {data_type = 9 : i32, device_name = ["@0:0"], device_tag = "cuda", hierarchy = [1], op_name = "unet.conv_in.bias", output_lbns = ["unet.conv_in.bias/out"], parallel = #sbp.parallel<[] -> [[#sbp.B]]>, scope_symbol_id = 121 : i64, shape = [320 : si64]} : () -> (tensor<320xf16>, tensor<i1>)
    %output_10, %ctrl_output_11 = "oneflow.variable"() {data_type = 9 : i32, device_name = ["@0:0"], device_tag = "cuda", hierarchy = [1], op_name = "unet.down_blocks.0.resnets.0.norm1.weight", output_lbns = ["unet.down_blocks.0.resnets.0.norm1.weight/out"], parallel = #sbp.parallel<[] -> [[#sbp.B]]>, scope_symbol_id = 134 : i64, shape = [320 : si64]} : () -> (tensor<320xf16>, tensor<i1>)
    %output_12, %ctrl_output_13 = "oneflow.variable"() {data_type = 9 : i32, device_name = ["@0:0"], device_tag = "cuda", hierarchy = [1], op_name = "unet.down_blocks.0.resnets.0.norm1.bias", output_lbns = ["unet.down_blocks.0.resnets.0.norm1.bias/out"], parallel = #sbp.parallel<[] -> [[#sbp.B]]>, scope_symbol_id = 138 : i64, shape = [320 : si64]} : () -> (tensor<320xf16>, tensor<i1>)
    %output_14, %ctrl_output_15 = "oneflow.variable"() {data_type = 9 : i32, device_name = ["@0:0"], device_tag = "cuda", hierarchy = [1], op_name = "variable_412", output_lbns = ["variable_412/out"], parallel = #sbp.parallel<[] -> [[#sbp.B]]>, scope_symbol_id = 150 : i64, shape = [320 : si64, 3 : si64, 3 : si64, 320 : si64]} : () -> (tensor<320x3x3x320xf16>, tensor<i1>)
    %output_16, %ctrl_output_17 = "oneflow.variable"() {data_type = 9 : i32, device_name = ["@0:0"], device_tag = "cuda", hierarchy = [1], op_name = "unet.down_blocks.0.resnets.0.conv1.bias", output_lbns = ["unet.down_blocks.0.resnets.0.conv1.bias/out"], parallel = #sbp.parallel<[] -> [[#sbp.B]]>, scope_symbol_id = 154 : i64, shape = [320 : si64]} : () -> (tensor<320xf16>, tensor<i1>)
    %output_18, %ctrl_output_19 = "oneflow.variable"() {data_type = 9 : i32, device_name = ["@0:0"], device_tag = "cuda", hierarchy = [1], op_name = "unet.down_blocks.0.resnets.0.time_emb_proj.weight", output_lbns = ["unet.down_blocks.0.resnets.0.time_emb_proj.weight/out"], parallel = #sbp.parallel<[] -> [[#sbp.B]]>, scope_symbol_id = 165 : i64, shape = [320 : si64, 1280 : si64]} : () -> (tensor<320x1280xf16>, tensor<i1>)
    %output_20, %ctrl_output_21 = "oneflow.variable"() {data_type = 9 : i32, device_name = ["@0:0"], device_tag = "cuda", hierarchy = [1], op_name = "unet.down_blocks.0.resnets.0.time_emb_proj.bias", output_lbns = ["unet.down_blocks.0.resnets.0.time_emb_proj.bias/out"], parallel = #sbp.parallel<[] -> [[#sbp.B]]>, scope_symbol_id = 172 : i64, shape = [320 : si64]} : () -> (tensor<320xf16>, tensor<i1>)
    %output_22, %ctrl_output_23 = "oneflow.variable"() {data_type = 9 : i32, device_name = ["@0:0"], device_tag = "cuda", hierarchy = [1], op_name = "unet.down_blocks.0.resnets.0.norm2.weight", output_lbns = ["unet.down_blocks.0.resnets.0.norm2.weight/out"], parallel = #sbp.parallel<[] -> [[#sbp.B]]>, scope_symbol_id = 189 : i64, shape = [320 : si64]} : () -> (tensor<320xf16>, tensor<i1>)
    %output_24, %ctrl_output_25 = "oneflow.variable"() {data_type = 9 : i32, device_name = ["@0:0"], device_tag = "cuda", hierarchy = [1], op_name = "unet.down_blocks.0.resnets.0.norm2.bias", output_lbns = ["unet.down_blocks.0.resnets.0.norm2.bias/out"], parallel = #sbp.parallel<[] -> [[#sbp.B]]>, scope_symbol_id = 193 : i64, shape = [320 : si64]} : () -> (tensor<320xf16>, tensor<i1>)
    %output_26, %ctrl_output_27 = "oneflow.variable"() {data_type = 9 : i32, device_name = ["@0:0"], device_tag = "cuda", hierarchy = [1], op_name = "variable_411", output_lbns = ["variable_411/out"], parallel = #sbp.parallel<[] -> [[#sbp.B]]>, scope_symbol_id = 205 : i64, shape = [320 : si64, 3 : si64, 3 : si64, 320 : si64]} : () -> (tensor<320x3x3x320xf16>, tensor<i1>)
    %output_28, %ctrl_output_29 = "oneflow.variable"() {data_type = 9 : i32, device_name = ["@0:0"], device_tag = "cuda", hierarchy = [1], op_name = "unet.down_blocks.0.resnets.0.conv2.bias", output_lbns = ["unet.down_blocks.0.resnets.0.conv2.bias/out"], parallel = #sbp.parallel<[] -> [[#sbp.B]]>, scope_symbol_id = 209 : i64, shape = [320 : si64]} : () -> (tensor<320xf16>, tensor<i1>)
    %output_30, %ctrl_output_31 = "oneflow.variable"() {data_type = 9 : i32, device_name = ["@0:0"], device_tag = "cuda", hierarchy = [1], op_name = "unet.down_blocks.0.attentions.0.norm.weight", output_lbns = ["unet.down_blocks.0.attentions.0.norm.weight/out"], parallel = #sbp.parallel<[] -> [[#sbp.B]]>, scope_symbol_id = 224 : i64, shape = [320 : si64]} : () -> (tensor<320xf16>, tensor<i1>)
    %output_32, %ctrl_output_33 = "oneflow.variable"() {data_type = 9 : i32, device_name = ["@0:0"], device_tag = "cuda", hierarchy = [1], op_name = "unet.down_blocks.0.attentions.0.norm.bias", output_lbns = ["unet.down_blocks.0.attentions.0.norm.bias/out"], parallel = #sbp.parallel<[] -> [[#sbp.B]]>, scope_symbol_id = 228 : i64, shape = [320 : si64]} : () -> (tensor<320xf16>, tensor<i1>)
    %output_34, %ctrl_output_35 = "oneflow.variable"() {data_type = 9 : i32, device_name = ["@0:0"], device_tag = "cuda", hierarchy = [1], op_name = "variable_410", output_lbns = ["variable_410/out"], parallel = #sbp.parallel<[] -> [[#sbp.B]]>, scope_symbol_id = 236 : i64, shape = [320 : si64, 1 : si64, 1 : si64, 320 : si64]} : () -> (tensor<320x1x1x320xf16>, tensor<i1>)
    %output_36, %ctrl_output_37 = "oneflow.variable"() {data_type = 9 : i32, device_name = ["@0:0"], device_tag = "cuda", hierarchy = [1], op_name = "unet.down_blocks.0.attentions.0.proj_in.bias", output_lbns = ["unet.down_blocks.0.attentions.0.proj_in.bias/out"], parallel = #sbp.parallel<[] -> [[#sbp.B]]>, scope_symbol_id = 240 : i64, shape = [320 : si64]} : () -> (tensor<320xf16>, tensor<i1>)
    %output_38, %ctrl_output_39 = "oneflow.variable"() {data_type = 9 : i32, device_name = ["@0:0"], device_tag = "cuda", hierarchy = [1], op_name = "unet.down_blocks.0.attentions.0.transformer_blocks.0.norm1.weight", output_lbns = ["unet.down_blocks.0.attentions.0.transformer_blocks.0.norm1.weight/out"], parallel = #sbp.parallel<[] -> [[#sbp.B]]>, scope_symbol_id = 255 : i64, shape = [320 : si64]} : () -> (tensor<320xf16>, tensor<i1>)
    %output_40, %ctrl_output_41 = "oneflow.variable"() {data_type = 9 : i32, device_name = ["@0:0"], device_tag = "cuda", hierarchy = [1], op_name = "unet.down_blocks.0.attentions.0.transformer_blocks.0.norm1.bias", output_lbns = ["unet.down_blocks.0.attentions.0.transformer_blocks.0.norm1.bias/out"], parallel = #sbp.parallel<[] -> [[#sbp.B]]>, scope_symbol_id = 259 : i64, shape = [320 : si64]} : () -> (tensor<320xf16>, tensor<i1>)
    %output_42, %ctrl_output_43 = "oneflow.variable"() {data_type = 9 : i32, device_name = ["@0:0"], device_tag = "cuda", hierarchy = [1], op_name = "unet.down_blocks.0.attentions.0.transformer_blocks.0.attn1.to_q.weight", output_lbns = ["unet.down_blocks.0.attentions.0.transformer_blocks.0.attn1.to_q.weight/out"], parallel = #sbp.parallel<[] -> [[#sbp.B]]>, scope_symbol_id = 268 : i64, shape = [320 : si64, 320 : si64]} : () -> (tensor<320x320xf16>, tensor<i1>)
    %output_44, %ctrl_output_45 = "oneflow.variable"() {data_type = 9 : i32, device_name = ["@0:0"], device_tag = "cuda", hierarchy = [1], op_name = "unet.down_blocks.0.attentions.0.transformer_blocks.0.attn1.to_k.weight", output_lbns = ["unet.down_blocks.0.attentions.0.transformer_blocks.0.attn1.to_k.weight/out"], parallel = #sbp.parallel<[] -> [[#sbp.B]]>, scope_symbol_id = 276 : i64, shape = [320 : si64, 320 : si64]} : () -> (tensor<320x320xf16>, tensor<i1>)
    %output_46, %ctrl_output_47 = "oneflow.variable"() {data_type = 9 : i32, device_name = ["@0:0"], device_tag = "cuda", hierarchy = [1], op_name = "unet.down_blocks.0.attentions.0.transformer_blocks.0.attn1.to_v.weight", output_lbns = ["unet.down_blocks.0.attentions.0.transformer_blocks.0.attn1.to_v.weight/out"], parallel = #sbp.parallel<[] -> [[#sbp.B]]>, scope_symbol_id = 284 : i64, shape = [320 : si64, 320 : si64]} : () -> (tensor<320x320xf16>, tensor<i1>)
    %output_48, %ctrl_output_49 = "oneflow.variable"() {data_type = 9 : i32, device_name = ["@0:0"], device_tag = "cuda", hierarchy = [1], op_name = "unet.down_blocks.0.attentions.0.transformer_blocks.0.attn1.to_out.0.weight", output_lbns = ["unet.down_blocks.0.attentions.0.transformer_blocks.0.attn1.to_out.0.weight/out"], parallel = #sbp.parallel<[] -> [[#sbp.B]]>, scope_symbol_id = 296 : i64, shape = [320 : si64, 320 : si64]} : () -> (tensor<320x320xf16>, tensor<i1>)
    %output_50, %ctrl_output_51 = "oneflow.variable"() {data_type = 9 : i32, device_name = ["@0:0"], device_tag = "cuda", hierarchy = [1], op_name = "unet.down_blocks.0.attentions.0.transformer_blocks.0.attn1.to_out.0.bias", output_lbns = ["unet.down_blocks.0.attentions.0.transformer_blocks.0.attn1.to_out.0.bias/out"], parallel = #sbp.parallel<[] -> [[#sbp.B]]>, scope_symbol_id = 303 : i64, shape = [320 : si64]} : () -> (tensor<320xf16>, tensor<i1>)
    %output_52, %ctrl_output_53 = "oneflow.variable"() {data_type = 9 : i32, device_name = ["@0:0"], device_tag = "cuda", hierarchy = [1], op_name = "unet.down_blocks.0.attentions.0.transformer_blocks.0.norm2.weight", output_lbns = ["unet.down_blocks.0.attentions.0.transformer_blocks.0.norm2.weight/out"], parallel = #sbp.parallel<[] -> [[#sbp.B]]>, scope_symbol_id = 315 : i64, shape = [320 : si64]} : () -> (tensor<320xf16>, tensor<i1>)
    %output_54, %ctrl_output_55 = "oneflow.variable"() {data_type = 9 : i32, device_name = ["@0:0"], device_tag = "cuda", hierarchy = [1], op_name = "unet.down_blocks.0.attentions.0.transformer_blocks.0.norm2.bias", output_lbns = ["unet.down_blocks.0.attentions.0.transformer_blocks.0.norm2.bias/out"], parallel = #sbp.parallel<[] -> [[#sbp.B]]>, scope_symbol_id = 319 : i64, shape = [320 : si64]} : () -> (tensor<320xf16>, tensor<i1>)
    %output_56, %ctrl_output_57 = "oneflow.variable"() {data_type = 9 : i32, device_name = ["@0:0"], device_tag = "cuda", hierarchy = [1], op_name = "unet.down_blocks.0.attentions.0.transformer_blocks.0.attn2.to_q.weight", output_lbns = ["unet.down_blocks.0.attentions.0.transformer_blocks.0.attn2.to_q.weight/out"], parallel = #sbp.parallel<[] -> [[#sbp.B]]>, scope_symbol_id = 328 : i64, shape = [320 : si64, 320 : si64]} : () -> (tensor<320x320xf16>, tensor<i1>)
    %output_58, %ctrl_output_59 = "oneflow.variable"() {data_type = 9 : i32, device_name = ["@0:0"], device_tag = "cuda", hierarchy = [1], op_name = "unet.down_blocks.0.attentions.0.transformer_blocks.0.attn2.to_k.weight", output_lbns = ["unet.down_blocks.0.attentions.0.transformer_blocks.0.attn2.to_k.weight/out"], parallel = #sbp.parallel<[] -> [[#sbp.B]]>, scope_symbol_id = 336 : i64, shape = [320 : si64, 768 : si64]} : () -> (tensor<320x768xf16>, tensor<i1>)
    %output_60, %ctrl_output_61 = "oneflow.variable"() {data_type = 9 : i32, device_name = ["@0:0"], device_tag = "cuda", hierarchy = [1], op_name = "unet.down_blocks.0.attentions.0.transformer_blocks.0.attn2.to_v.weight", output_lbns = ["unet.down_blocks.0.attentions.0.transformer_blocks.0.attn2.to_v.weight/out"], parallel = #sbp.parallel<[] -> [[#sbp.B]]>, scope_symbol_id = 344 : i64, shape = [320 : si64, 768 : si64]} : () -> (tensor<320x768xf16>, tensor<i1>)
    %output_62, %ctrl_output_63 = "oneflow.variable"() {data_type = 9 : i32, device_name = ["@0:0"], device_tag = "cuda", hierarchy = [1], op_name = "unet.down_blocks.0.attentions.0.transformer_blocks.0.attn2.to_out.0.weight", output_lbns = ["unet.down_blocks.0.attentions.0.transformer_blocks.0.attn2.to_out.0.weight/out"], parallel = #sbp.parallel<[] -> [[#sbp.B]]>, scope_symbol_id = 356 : i64, shape = [320 : si64, 320 : si64]} : () -> (tensor<320x320xf16>, tensor<i1>)
    %output_64, %ctrl_output_65 = "oneflow.variable"() {data_type = 9 : i32, device_name = ["@0:0"], device_tag = "cuda", hierarchy = [1], op_name = "unet.down_blocks.0.attentions.0.transformer_blocks.0.attn2.to_out.0.bias", output_lbns = ["unet.down_blocks.0.attentions.0.transformer_blocks.0.attn2.to_out.0.bias/out"], parallel = #sbp.parallel<[] -> [[#sbp.B]]>, scope_symbol_id = 363 : i64, shape = [320 : si64]} : () -> (tensor<320xf16>, tensor<i1>)
    %output_66, %ctrl_output_67 = "oneflow.variable"() {data_type = 9 : i32, device_name = ["@0:0"], device_tag = "cuda", hierarchy = [1], op_name = "unet.down_blocks.0.attentions.0.transformer_blocks.0.norm3.weight", output_lbns = ["unet.down_blocks.0.attentions.0.transformer_blocks.0.norm3.weight/out"], parallel = #sbp.parallel<[] -> [[#sbp.B]]>, scope_symbol_id = 375 : i64, shape = [320 : si64]} : () -> (tensor<320xf16>, tensor<i1>)
    %output_68, %ctrl_output_69 = "oneflow.variable"() {data_type = 9 : i32, device_name = ["@0:0"], device_tag = "cuda", hierarchy = [1], op_name = "unet.down_blocks.0.attentions.0.transformer_blocks.0.norm3.bias", output_lbns = ["unet.down_blocks.0.attentions.0.transformer_blocks.0.norm3.bias/out"], parallel = #sbp.parallel<[] -> [[#sbp.B]]>, scope_symbol_id = 379 : i64, shape = [320 : si64]} : () -> (tensor<320xf16>, tensor<i1>)
    %output_70, %ctrl_output_71 = "oneflow.variable"() {data_type = 9 : i32, device_name = ["@0:0"], device_tag = "cuda", hierarchy = [1], op_name = "unet.down_blocks.0.attentions.0.transformer_blocks.0.ff.net.0.proj.weight", output_lbns = ["unet.down_blocks.0.attentions.0.transformer_blocks.0.ff.net.0.proj.weight/out"], parallel = #sbp.parallel<[] -> [[#sbp.B]]>, scope_symbol_id = 390 : i64, shape = [2560 : si64, 320 : si64]} : () -> (tensor<2560x320xf16>, tensor<i1>)
    %output_72, %ctrl_output_73 = "oneflow.variable"() {data_type = 9 : i32, device_name = ["@0:0"], device_tag = "cuda", hierarchy = [1], op_name = "unet.down_blocks.0.attentions.0.transformer_blocks.0.ff.net.0.proj.bias", output_lbns = ["unet.down_blocks.0.attentions.0.transformer_blocks.0.ff.net.0.proj.bias/out"], parallel = #sbp.parallel<[] -> [[#sbp.B]]>, scope_symbol_id = 397 : i64, shape = [2560 : si64]} : () -> (tensor<2560xf16>, tensor<i1>)
    %output_74, %ctrl_output_75 = "oneflow.variable"() {data_type = 9 : i32, device_name = ["@0:0"], device_tag = "cuda", hierarchy = [1], op_name = "unet.down_blocks.0.attentions.0.transformer_blocks.0.ff.net.2.weight", output_lbns = ["unet.down_blocks.0.attentions.0.transformer_blocks.0.ff.net.2.weight/out"], parallel = #sbp.parallel<[] -> [[#sbp.B]]>, scope_symbol_id = 418 : i64, shape = [320 : si64, 1280 : si64]} : () -> (tensor<320x1280xf16>, tensor<i1>)
    %output_76, %ctrl_output_77 = "oneflow.variable"() {data_type = 9 : i32, device_name = ["@0:0"], device_tag = "cuda", hierarchy = [1], op_name = "unet.down_blocks.0.attentions.0.transformer_blocks.0.ff.net.2.bias", output_lbns = ["unet.down_blocks.0.attentions.0.transformer_blocks.0.ff.net.2.bias/out"], parallel = #sbp.parallel<[] -> [[#sbp.B]]>, scope_symbol_id = 425 : i64, shape = [320 : si64]} : () -> (tensor<320xf16>, tensor<i1>)
    %output_78, %ctrl_output_79 = "oneflow.variable"() {data_type = 9 : i32, device_name = ["@0:0"], device_tag = "cuda", hierarchy = [1], op_name = "variable_409", output_lbns = ["variable_409/out"], parallel = #sbp.parallel<[] -> [[#sbp.B]]>, scope_symbol_id = 442 : i64, shape = [320 : si64, 1 : si64, 1 : si64, 320 : si64]} : () -> (tensor<320x1x1x320xf16>, tensor<i1>)
    %output_80, %ctrl_output_81 = "oneflow.variable"() {data_type = 9 : i32, device_name = ["@0:0"], device_tag = "cuda", hierarchy = [1], op_name = "unet.down_blocks.0.attentions.0.proj_out.bias", output_lbns = ["unet.down_blocks.0.attentions.0.proj_out.bias/out"], parallel = #sbp.parallel<[] -> [[#sbp.B]]>, scope_symbol_id = 446 : i64, shape = [320 : si64]} : () -> (tensor<320xf16>, tensor<i1>)
    %output_82, %ctrl_output_83 = "oneflow.variable"() {data_type = 9 : i32, device_name = ["@0:0"], device_tag = "cuda", hierarchy = [1], op_name = "unet.down_blocks.0.resnets.1.norm1.weight", output_lbns = ["unet.down_blocks.0.resnets.1.norm1.weight/out"], parallel = #sbp.parallel<[] -> [[#sbp.B]]>, scope_symbol_id = 458 : i64, shape = [320 : si64]} : () -> (tensor<320xf16>, tensor<i1>)
    %output_84, %ctrl_output_85 = "oneflow.variable"() {data_type = 9 : i32, device_name = ["@0:0"], device_tag = "cuda", hierarchy = [1], op_name = "unet.down_blocks.0.resnets.1.norm1.bias", output_lbns = ["unet.down_blocks.0.resnets.1.norm1.bias/out"], parallel = #sbp.parallel<[] -> [[#sbp.B]]>, scope_symbol_id = 462 : i64, shape = [320 : si64]} : () -> (tensor<320xf16>, tensor<i1>)
    %output_86, %ctrl_output_87 = "oneflow.variable"() {data_type = 9 : i32, device_name = ["@0:0"], device_tag = "cuda", hierarchy = [1], op_name = "variable_408", output_lbns = ["variable_408/out"], parallel = #sbp.parallel<[] -> [[#sbp.B]]>, scope_symbol_id = 474 : i64, shape = [320 : si64, 3 : si64, 3 : si64, 320 : si64]} : () -> (tensor<320x3x3x320xf16>, tensor<i1>)
    %output_88, %ctrl_output_89 = "oneflow.variable"() {data_type = 9 : i32, device_name = ["@0:0"], device_tag = "cuda", hierarchy = [1], op_name = "unet.down_blocks.0.resnets.1.conv1.bias", output_lbns = ["unet.down_blocks.0.resnets.1.conv1.bias/out"], parallel = #sbp.parallel<[] -> [[#sbp.B]]>, scope_symbol_id = 478 : i64, shape = [320 : si64]} : () -> (tensor<320xf16>, tensor<i1>)
    %output_90, %ctrl_output_91 = "oneflow.variable"() {data_type = 9 : i32, device_name = ["@0:0"], device_tag = "cuda", hierarchy = [1], op_name = "unet.down_blocks.0.resnets.1.time_emb_proj.weight", output_lbns = ["unet.down_blocks.0.resnets.1.time_emb_proj.weight/out"], parallel = #sbp.parallel<[] -> [[#sbp.B]]>, scope_symbol_id = 489 : i64, shape = [320 : si64, 1280 : si64]} : () -> (tensor<320x1280xf16>, tensor<i1>)
    %output_92, %ctrl_output_93 = "oneflow.variable"() {data_type = 9 : i32, device_name = ["@0:0"], device_tag = "cuda", hierarchy = [1], op_name = "unet.down_blocks.0.resnets.1.time_emb_proj.bias", output_lbns = ["unet.down_blocks.0.resnets.1.time_emb_proj.bias/out"], parallel = #sbp.parallel<[] -> [[#sbp.B]]>, scope_symbol_id = 496 : i64, shape = [320 : si64]} : () -> (tensor<320xf16>, tensor<i1>)
    %output_94, %ctrl_output_95 = "oneflow.variable"() {data_type = 9 : i32, device_name = ["@0:0"], device_tag = "cuda", hierarchy = [1], op_name = "unet.down_blocks.0.resnets.1.norm2.weight", output_lbns = ["unet.down_blocks.0.resnets.1.norm2.weight/out"], parallel = #sbp.parallel<[] -> [[#sbp.B]]>, scope_symbol_id = 513 : i64, shape = [320 : si64]} : () -> (tensor<320xf16>, tensor<i1>)
    %output_96, %ctrl_output_97 = "oneflow.variable"() {data_type = 9 : i32, device_name = ["@0:0"], device_tag = "cuda", hierarchy = [1], op_name = "unet.down_blocks.0.resnets.1.norm2.bias", output_lbns = ["unet.down_blocks.0.resnets.1.norm2.bias/out"], parallel = #sbp.parallel<[] -> [[#sbp.B]]>, scope_symbol_id = 517 : i64, shape = [320 : si64]} : () -> (tensor<320xf16>, tensor<i1>)
    %output_98, %ctrl_output_99 = "oneflow.variable"() {data_type = 9 : i32, device_name = ["@0:0"], device_tag = "cuda", hierarchy = [1], op_name = "variable_407", output_lbns = ["variable_407/out"], parallel = #sbp.parallel<[] -> [[#sbp.B]]>, scope_symbol_id = 529 : i64, shape = [320 : si64, 3 : si64, 3 : si64, 320 : si64]} : () -> (tensor<320x3x3x320xf16>, tensor<i1>)
    %output_100, %ctrl_output_101 = "oneflow.variable"() {data_type = 9 : i32, device_name = ["@0:0"], device_tag = "cuda", hierarchy = [1], op_name = "unet.down_blocks.0.resnets.1.conv2.bias", output_lbns = ["unet.down_blocks.0.resnets.1.conv2.bias/out"], parallel = #sbp.parallel<[] -> [[#sbp.B]]>, scope_symbol_id = 533 : i64, shape = [320 : si64]} : () -> (tensor<320xf16>, tensor<i1>)
    %output_102, %ctrl_output_103 = "oneflow.variable"() {data_type = 9 : i32, device_name = ["@0:0"], device_tag = "cuda", hierarchy = [1], op_name = "unet.down_blocks.0.attentions.1.norm.weight", output_lbns = ["unet.down_blocks.0.attentions.1.norm.weight/out"], parallel = #sbp.parallel<[] -> [[#sbp.B]]>, scope_symbol_id = 548 : i64, shape = [320 : si64]} : () -> (tensor<320xf16>, tensor<i1>)
    %output_104, %ctrl_output_105 = "oneflow.variable"() {data_type = 9 : i32, device_name = ["@0:0"], device_tag = "cuda", hierarchy = [1], op_name = "unet.down_blocks.0.attentions.1.norm.bias", output_lbns = ["unet.down_blocks.0.attentions.1.norm.bias/out"], parallel = #sbp.parallel<[] -> [[#sbp.B]]>, scope_symbol_id = 552 : i64, shape = [320 : si64]} : () -> (tensor<320xf16>, tensor<i1>)
    %output_106, %ctrl_output_107 = "oneflow.variable"() {data_type = 9 : i32, device_name = ["@0:0"], device_tag = "cuda", hierarchy = [1], op_name = "variable_406", output_lbns = ["variable_406/out"], parallel = #sbp.parallel<[] -> [[#sbp.B]]>, scope_symbol_id = 560 : i64, shape = [320 : si64, 1 : si64, 1 : si64, 320 : si64]} : () -> (tensor<320x1x1x320xf16>, tensor<i1>)
    %output_108, %ctrl_output_109 = "oneflow.variable"() {data_type = 9 : i32, device_name = ["@0:0"], device_tag = "cuda", hierarchy = [1], op_name = "unet.down_blocks.0.attentions.1.proj_in.bias", output_lbns = ["unet.down_blocks.0.attentions.1.proj_in.bias/out"], parallel = #sbp.parallel<[] -> [[#sbp.B]]>, scope_symbol_id = 564 : i64, shape = [320 : si64]} : () -> (tensor<320xf16>, tensor<i1>)
    %output_110, %ctrl_output_111 = "oneflow.variable"() {data_type = 9 : i32, device_name = ["@0:0"], device_tag = "cuda", hierarchy = [1], op_name = "unet.down_blocks.0.attentions.1.transformer_blocks.0.norm1.weight", output_lbns = ["unet.down_blocks.0.attentions.1.transformer_blocks.0.norm1.weight/out"], parallel = #sbp.parallel<[] -> [[#sbp.B]]>, scope_symbol_id = 579 : i64, shape = [320 : si64]} : () -> (tensor<320xf16>, tensor<i1>)
    %output_112, %ctrl_output_113 = "oneflow.variable"() {data_type = 9 : i32, device_name = ["@0:0"], device_tag = "cuda", hierarchy = [1], op_name = "unet.down_blocks.0.attentions.1.transformer_blocks.0.norm1.bias", output_lbns = ["unet.down_blocks.0.attentions.1.transformer_blocks.0.norm1.bias/out"], parallel = #sbp.parallel<[] -> [[#sbp.B]]>, scope_symbol_id = 583 : i64, shape = [320 : si64]} : () -> (tensor<320xf16>, tensor<i1>)
    %output_114, %ctrl_output_115 = "oneflow.variable"() {data_type = 9 : i32, device_name = ["@0:0"], device_tag = "cuda", hierarchy = [1], op_name = "unet.down_blocks.0.attentions.1.transformer_blocks.0.attn1.to_q.weight", output_lbns = ["unet.down_blocks.0.attentions.1.transformer_blocks.0.attn1.to_q.weight/out"], parallel = #sbp.parallel<[] -> [[#sbp.B]]>, scope_symbol_id = 592 : i64, shape = [320 : si64, 320 : si64]} : () -> (tensor<320x320xf16>, tensor<i1>)
    %output_116, %ctrl_output_117 = "oneflow.variable"() {data_type = 9 : i32, device_name = ["@0:0"], device_tag = "cuda", hierarchy = [1], op_name = "unet.down_blocks.0.attentions.1.transformer_blocks.0.attn1.to_k.weight", output_lbns = ["unet.down_blocks.0.attentions.1.transformer_blocks.0.attn1.to_k.weight/out"], parallel = #sbp.parallel<[] -> [[#sbp.B]]>, scope_symbol_id = 600 : i64, shape = [320 : si64, 320 : si64]} : () -> (tensor<320x320xf16>, tensor<i1>)
    %output_118, %ctrl_output_119 = "oneflow.variable"() {data_type = 9 : i32, device_name = ["@0:0"], device_tag = "cuda", hierarchy = [1], op_name = "unet.down_blocks.0.attentions.1.transformer_blocks.0.attn1.to_v.weight", output_lbns = ["unet.down_blocks.0.attentions.1.transformer_blocks.0.attn1.to_v.weight/out"], parallel = #sbp.parallel<[] -> [[#sbp.B]]>, scope_symbol_id = 608 : i64, shape = [320 : si64, 320 : si64]} : () -> (tensor<320x320xf16>, tensor<i1>)
    %output_120, %ctrl_output_121 = "oneflow.variable"() {data_type = 9 : i32, device_name = ["@0:0"], device_tag = "cuda", hierarchy = [1], op_name = "unet.down_blocks.0.attentions.1.transformer_blocks.0.attn1.to_out.0.weight", output_lbns = ["unet.down_blocks.0.attentions.1.transformer_blocks.0.attn1.to_out.0.weight/out"], parallel = #sbp.parallel<[] -> [[#sbp.B]]>, scope_symbol_id = 620 : i64, shape = [320 : si64, 320 : si64]} : () -> (tensor<320x320xf16>, tensor<i1>)
    %output_122, %ctrl_output_123 = "oneflow.variable"() {data_type = 9 : i32, device_name = ["@0:0"], device_tag = "cuda", hierarchy = [1], op_name = "unet.down_blocks.0.attentions.1.transformer_blocks.0.attn1.to_out.0.bias", output_lbns = ["unet.down_blocks.0.attentions.1.transformer_blocks.0.attn1.to_out.0.bias/out"], parallel = #sbp.parallel<[] -> [[#sbp.B]]>, scope_symbol_id = 627 : i64, shape = [320 : si64]} : () -> (tensor<320xf16>, tensor<i1>)
    %output_124, %ctrl_output_125 = "oneflow.variable"() {data_type = 9 : i32, device_name = ["@0:0"], device_tag = "cuda", hierarchy = [1], op_name = "unet.down_blocks.0.attentions.1.transformer_blocks.0.norm2.weight", output_lbns = ["unet.down_blocks.0.attentions.1.transformer_blocks.0.norm2.weight/out"], parallel = #sbp.parallel<[] -> [[#sbp.B]]>, scope_symbol_id = 639 : i64, shape = [320 : si64]} : () -> (tensor<320xf16>, tensor<i1>)
    %output_126, %ctrl_output_127 = "oneflow.variable"() {data_type = 9 : i32, device_name = ["@0:0"], device_tag = "cuda", hierarchy = [1], op_name = "unet.down_blocks.0.attentions.1.transformer_blocks.0.norm2.bias", output_lbns = ["unet.down_blocks.0.attentions.1.transformer_blocks.0.norm2.bias/out"], parallel = #sbp.parallel<[] -> [[#sbp.B]]>, scope_symbol_id = 643 : i64, shape = [320 : si64]} : () -> (tensor<320xf16>, tensor<i1>)
    %output_128, %ctrl_output_129 = "oneflow.variable"() {data_type = 9 : i32, device_name = ["@0:0"], device_tag = "cuda", hierarchy = [1], op_name = "unet.down_blocks.0.attentions.1.transformer_blocks.0.attn2.to_q.weight", output_lbns = ["unet.down_blocks.0.attentions.1.transformer_blocks.0.attn2.to_q.weight/out"], parallel = #sbp.parallel<[] -> [[#sbp.B]]>, scope_symbol_id = 652 : i64, shape = [320 : si64, 320 : si64]} : () -> (tensor<320x320xf16>, tensor<i1>)
    %output_130, %ctrl_output_131 = "oneflow.variable"() {data_type = 9 : i32, device_name = ["@0:0"], device_tag = "cuda", hierarchy = [1], op_name = "unet.down_blocks.0.attentions.1.transformer_blocks.0.attn2.to_k.weight", output_lbns = ["unet.down_blocks.0.attentions.1.transformer_blocks.0.attn2.to_k.weight/out"], parallel = #sbp.parallel<[] -> [[#sbp.B]]>, scope_symbol_id = 660 : i64, shape = [320 : si64, 768 : si64]} : () -> (tensor<320x768xf16>, tensor<i1>)
    %output_132, %ctrl_output_133 = "oneflow.variable"() {data_type = 9 : i32, device_name = ["@0:0"], device_tag = "cuda", hierarchy = [1], op_name = "unet.down_blocks.0.attentions.1.transformer_blocks.0.attn2.to_v.weight", output_lbns = ["unet.down_blocks.0.attentions.1.transformer_blocks.0.attn2.to_v.weight/out"], parallel = #sbp.parallel<[] -> [[#sbp.B]]>, scope_symbol_id = 668 : i64, shape = [320 : si64, 768 : si64]} : () -> (tensor<320x768xf16>, tensor<i1>)
    %output_134, %ctrl_output_135 = "oneflow.variable"() {data_type = 9 : i32, device_name = ["@0:0"], device_tag = "cuda", hierarchy = [1], op_name = "unet.down_blocks.0.attentions.1.transformer_blocks.0.attn2.to_out.0.weight", output_lbns = ["unet.down_blocks.0.attentions.1.transformer_blocks.0.attn2.to_out.0.weight/out"], parallel = #sbp.parallel<[] -> [[#sbp.B]]>, scope_symbol_id = 680 : i64, shape = [320 : si64, 320 : si64]} : () -> (tensor<320x320xf16>, tensor<i1>)
    %output_136, %ctrl_output_137 = "oneflow.variable"() {data_type = 9 : i32, device_name = ["@0:0"], device_tag = "cuda", hierarchy = [1], op_name = "unet.down_blocks.0.attentions.1.transformer_blocks.0.attn2.to_out.0.bias", output_lbns = ["unet.down_blocks.0.attentions.1.transformer_blocks.0.attn2.to_out.0.bias/out"], parallel = #sbp.parallel<[] -> [[#sbp.B]]>, scope_symbol_id = 687 : i64, shape = [320 : si64]} : () -> (tensor<320xf16>, tensor<i1>)
    %output_138, %ctrl_output_139 = "oneflow.variable"() {data_type = 9 : i32, device_name = ["@0:0"], device_tag = "cuda", hierarchy = [1], op_name = "unet.down_blocks.0.attentions.1.transformer_blocks.0.norm3.weight", output_lbns = ["unet.down_blocks.0.attentions.1.transformer_blocks.0.norm3.weight/out"], parallel = #sbp.parallel<[] -> [[#sbp.B]]>, scope_symbol_id = 699 : i64, shape = [320 : si64]} : () -> (tensor<320xf16>, tensor<i1>)
    %output_140, %ctrl_output_141 = "oneflow.variable"() {data_type = 9 : i32, device_name = ["@0:0"], device_tag = "cuda", hierarchy = [1], op_name = "unet.down_blocks.0.attentions.1.transformer_blocks.0.norm3.bias", output_lbns = ["unet.down_blocks.0.attentions.1.transformer_blocks.0.norm3.bias/out"], parallel = #sbp.parallel<[] -> [[#sbp.B]]>, scope_symbol_id = 703 : i64, shape = [320 : si64]} : () -> (tensor<320xf16>, tensor<i1>)
    %output_142, %ctrl_output_143 = "oneflow.variable"() {data_type = 9 : i32, device_name = ["@0:0"], device_tag = "cuda", hierarchy = [1], op_name = "unet.down_blocks.0.attentions.1.transformer_blocks.0.ff.net.0.proj.weight", output_lbns = ["unet.down_blocks.0.attentions.1.transformer_blocks.0.ff.net.0.proj.weight/out"], parallel = #sbp.parallel<[] -> [[#sbp.B]]>, scope_symbol_id = 714 : i64, shape = [2560 : si64, 320 : si64]} : () -> (tensor<2560x320xf16>, tensor<i1>)
    %output_144, %ctrl_output_145 = "oneflow.variable"() {data_type = 9 : i32, device_name = ["@0:0"], device_tag = "cuda", hierarchy = [1], op_name = "unet.down_blocks.0.attentions.1.transformer_blocks.0.ff.net.0.proj.bias", output_lbns = ["unet.down_blocks.0.attentions.1.transformer_blocks.0.ff.net.0.proj.bias/out"], parallel = #sbp.parallel<[] -> [[#sbp.B]]>, scope_symbol_id = 721 : i64, shape = [2560 : si64]} : () -> (tensor<2560xf16>, tensor<i1>)
    %output_146, %ctrl_output_147 = "oneflow.variable"() {data_type = 9 : i32, device_name = ["@0:0"], device_tag = "cuda", hierarchy = [1], op_name = "unet.down_blocks.0.attentions.1.transformer_blocks.0.ff.net.2.weight", output_lbns = ["unet.down_blocks.0.attentions.1.transformer_blocks.0.ff.net.2.weight/out"], parallel = #sbp.parallel<[] -> [[#sbp.B]]>, scope_symbol_id = 742 : i64, shape = [320 : si64, 1280 : si64]} : () -> (tensor<320x1280xf16>, tensor<i1>)
    %output_148, %ctrl_output_149 = "oneflow.variable"() {data_type = 9 : i32, device_name = ["@0:0"], device_tag = "cuda", hierarchy = [1], op_name = "unet.down_blocks.0.attentions.1.transformer_blocks.0.ff.net.2.bias", output_lbns = ["unet.down_blocks.0.attentions.1.transformer_blocks.0.ff.net.2.bias/out"], parallel = #sbp.parallel<[] -> [[#sbp.B]]>, scope_symbol_id = 749 : i64, shape = [320 : si64]} : () -> (tensor<320xf16>, tensor<i1>)
    %output_150, %ctrl_output_151 = "oneflow.variable"() {data_type = 9 : i32, device_name = ["@0:0"], device_tag = "cuda", hierarchy = [1], op_name = "variable_405", output_lbns = ["variable_405/out"], parallel = #sbp.parallel<[] -> [[#sbp.B]]>, scope_symbol_id = 766 : i64, shape = [320 : si64, 1 : si64, 1 : si64, 320 : si64]} : () -> (tensor<320x1x1x320xf16>, tensor<i1>)
    %output_152, %ctrl_output_153 = "oneflow.variable"() {data_type = 9 : i32, device_name = ["@0:0"], device_tag = "cuda", hierarchy = [1], op_name = "unet.down_blocks.0.attentions.1.proj_out.bias", output_lbns = ["unet.down_blocks.0.attentions.1.proj_out.bias/out"], parallel = #sbp.parallel<[] -> [[#sbp.B]]>, scope_symbol_id = 770 : i64, shape = [320 : si64]} : () -> (tensor<320xf16>, tensor<i1>)
    %output_154, %ctrl_output_155 = "oneflow.variable"() {data_type = 9 : i32, device_name = ["@0:0"], device_tag = "cuda", hierarchy = [1], op_name = "variable_404", output_lbns = ["variable_404/out"], parallel = #sbp.parallel<[] -> [[#sbp.B]]>, scope_symbol_id = 782 : i64, shape = [320 : si64, 3 : si64, 3 : si64, 320 : si64]} : () -> (tensor<320x3x3x320xf16>, tensor<i1>)
    %output_156, %ctrl_output_157 = "oneflow.variable"() {data_type = 9 : i32, device_name = ["@0:0"], device_tag = "cuda", hierarchy = [1], op_name = "unet.down_blocks.0.downsamplers.0.conv.bias", output_lbns = ["unet.down_blocks.0.downsamplers.0.conv.bias/out"], parallel = #sbp.parallel<[] -> [[#sbp.B]]>, scope_symbol_id = 786 : i64, shape = [320 : si64]} : () -> (tensor<320xf16>, tensor<i1>)
    %output_158, %ctrl_output_159 = "oneflow.variable"() {data_type = 9 : i32, device_name = ["@0:0"], device_tag = "cuda", hierarchy = [1], op_name = "unet.down_blocks.1.resnets.0.norm1.weight", output_lbns = ["unet.down_blocks.1.resnets.0.norm1.weight/out"], parallel = #sbp.parallel<[] -> [[#sbp.B]]>, scope_symbol_id = 796 : i64, shape = [320 : si64]} : () -> (tensor<320xf16>, tensor<i1>)
    %output_160, %ctrl_output_161 = "oneflow.variable"() {data_type = 9 : i32, device_name = ["@0:0"], device_tag = "cuda", hierarchy = [1], op_name = "unet.down_blocks.1.resnets.0.norm1.bias", output_lbns = ["unet.down_blocks.1.resnets.0.norm1.bias/out"], parallel = #sbp.parallel<[] -> [[#sbp.B]]>, scope_symbol_id = 800 : i64, shape = [320 : si64]} : () -> (tensor<320xf16>, tensor<i1>)
    %output_162, %ctrl_output_163 = "oneflow.variable"() {data_type = 9 : i32, device_name = ["@0:0"], device_tag = "cuda", hierarchy = [1], op_name = "variable_403", output_lbns = ["variable_403/out"], parallel = #sbp.parallel<[] -> [[#sbp.B]]>, scope_symbol_id = 812 : i64, shape = [640 : si64, 3 : si64, 3 : si64, 320 : si64]} : () -> (tensor<640x3x3x320xf16>, tensor<i1>)
    %output_164, %ctrl_output_165 = "oneflow.variable"() {data_type = 9 : i32, device_name = ["@0:0"], device_tag = "cuda", hierarchy = [1], op_name = "unet.down_blocks.1.resnets.0.conv1.bias", output_lbns = ["unet.down_blocks.1.resnets.0.conv1.bias/out"], parallel = #sbp.parallel<[] -> [[#sbp.B]]>, scope_symbol_id = 816 : i64, shape = [640 : si64]} : () -> (tensor<640xf16>, tensor<i1>)
    %output_166, %ctrl_output_167 = "oneflow.variable"() {data_type = 9 : i32, device_name = ["@0:0"], device_tag = "cuda", hierarchy = [1], op_name = "unet.down_blocks.1.resnets.0.time_emb_proj.weight", output_lbns = ["unet.down_blocks.1.resnets.0.time_emb_proj.weight/out"], parallel = #sbp.parallel<[] -> [[#sbp.B]]>, scope_symbol_id = 827 : i64, shape = [640 : si64, 1280 : si64]} : () -> (tensor<640x1280xf16>, tensor<i1>)
    %output_168, %ctrl_output_169 = "oneflow.variable"() {data_type = 9 : i32, device_name = ["@0:0"], device_tag = "cuda", hierarchy = [1], op_name = "unet.down_blocks.1.resnets.0.time_emb_proj.bias", output_lbns = ["unet.down_blocks.1.resnets.0.time_emb_proj.bias/out"], parallel = #sbp.parallel<[] -> [[#sbp.B]]>, scope_symbol_id = 834 : i64, shape = [640 : si64]} : () -> (tensor<640xf16>, tensor<i1>)
    %output_170, %ctrl_output_171 = "oneflow.variable"() {data_type = 9 : i32, device_name = ["@0:0"], device_tag = "cuda", hierarchy = [1], op_name = "unet.down_blocks.1.resnets.0.norm2.weight", output_lbns = ["unet.down_blocks.1.resnets.0.norm2.weight/out"], parallel = #sbp.parallel<[] -> [[#sbp.B]]>, scope_symbol_id = 851 : i64, shape = [640 : si64]} : () -> (tensor<640xf16>, tensor<i1>)
    %output_172, %ctrl_output_173 = "oneflow.variable"() {data_type = 9 : i32, device_name = ["@0:0"], device_tag = "cuda", hierarchy = [1], op_name = "unet.down_blocks.1.resnets.0.norm2.bias", output_lbns = ["unet.down_blocks.1.resnets.0.norm2.bias/out"], parallel = #sbp.parallel<[] -> [[#sbp.B]]>, scope_symbol_id = 855 : i64, shape = [640 : si64]} : () -> (tensor<640xf16>, tensor<i1>)
    %output_174, %ctrl_output_175 = "oneflow.variable"() {data_type = 9 : i32, device_name = ["@0:0"], device_tag = "cuda", hierarchy = [1], op_name = "variable_402", output_lbns = ["variable_402/out"], parallel = #sbp.parallel<[] -> [[#sbp.B]]>, scope_symbol_id = 867 : i64, shape = [640 : si64, 3 : si64, 3 : si64, 640 : si64]} : () -> (tensor<640x3x3x640xf16>, tensor<i1>)
    %output_176, %ctrl_output_177 = "oneflow.variable"() {data_type = 9 : i32, device_name = ["@0:0"], device_tag = "cuda", hierarchy = [1], op_name = "unet.down_blocks.1.resnets.0.conv2.bias", output_lbns = ["unet.down_blocks.1.resnets.0.conv2.bias/out"], parallel = #sbp.parallel<[] -> [[#sbp.B]]>, scope_symbol_id = 871 : i64, shape = [640 : si64]} : () -> (tensor<640xf16>, tensor<i1>)
    %output_178, %ctrl_output_179 = "oneflow.variable"() {data_type = 9 : i32, device_name = ["@0:0"], device_tag = "cuda", hierarchy = [1], op_name = "variable_401", output_lbns = ["variable_401/out"], parallel = #sbp.parallel<[] -> [[#sbp.B]]>, scope_symbol_id = 879 : i64, shape = [640 : si64, 1 : si64, 1 : si64, 320 : si64]} : () -> (tensor<640x1x1x320xf16>, tensor<i1>)
    %output_180, %ctrl_output_181 = "oneflow.variable"() {data_type = 9 : i32, device_name = ["@0:0"], device_tag = "cuda", hierarchy = [1], op_name = "unet.down_blocks.1.resnets.0.conv_shortcut.bias", output_lbns = ["unet.down_blocks.1.resnets.0.conv_shortcut.bias/out"], parallel = #sbp.parallel<[] -> [[#sbp.B]]>, scope_symbol_id = 883 : i64, shape = [640 : si64]} : () -> (tensor<640xf16>, tensor<i1>)
    %output_182, %ctrl_output_183 = "oneflow.variable"() {data_type = 9 : i32, device_name = ["@0:0"], device_tag = "cuda", hierarchy = [1], op_name = "unet.down_blocks.1.attentions.0.norm.weight", output_lbns = ["unet.down_blocks.1.attentions.0.norm.weight/out"], parallel = #sbp.parallel<[] -> [[#sbp.B]]>, scope_symbol_id = 898 : i64, shape = [640 : si64]} : () -> (tensor<640xf16>, tensor<i1>)
    %output_184, %ctrl_output_185 = "oneflow.variable"() {data_type = 9 : i32, device_name = ["@0:0"], device_tag = "cuda", hierarchy = [1], op_name = "unet.down_blocks.1.attentions.0.norm.bias", output_lbns = ["unet.down_blocks.1.attentions.0.norm.bias/out"], parallel = #sbp.parallel<[] -> [[#sbp.B]]>, scope_symbol_id = 902 : i64, shape = [640 : si64]} : () -> (tensor<640xf16>, tensor<i1>)
    %output_186, %ctrl_output_187 = "oneflow.variable"() {data_type = 9 : i32, device_name = ["@0:0"], device_tag = "cuda", hierarchy = [1], op_name = "variable_400", output_lbns = ["variable_400/out"], parallel = #sbp.parallel<[] -> [[#sbp.B]]>, scope_symbol_id = 910 : i64, shape = [640 : si64, 1 : si64, 1 : si64, 640 : si64]} : () -> (tensor<640x1x1x640xf16>, tensor<i1>)
    %output_188, %ctrl_output_189 = "oneflow.variable"() {data_type = 9 : i32, device_name = ["@0:0"], device_tag = "cuda", hierarchy = [1], op_name = "unet.down_blocks.1.attentions.0.proj_in.bias", output_lbns = ["unet.down_blocks.1.attentions.0.proj_in.bias/out"], parallel = #sbp.parallel<[] -> [[#sbp.B]]>, scope_symbol_id = 914 : i64, shape = [640 : si64]} : () -> (tensor<640xf16>, tensor<i1>)
    %output_190, %ctrl_output_191 = "oneflow.variable"() {data_type = 9 : i32, device_name = ["@0:0"], device_tag = "cuda", hierarchy = [1], op_name = "unet.down_blocks.1.attentions.0.transformer_blocks.0.norm1.weight", output_lbns = ["unet.down_blocks.1.attentions.0.transformer_blocks.0.norm1.weight/out"], parallel = #sbp.parallel<[] -> [[#sbp.B]]>, scope_symbol_id = 929 : i64, shape = [640 : si64]} : () -> (tensor<640xf16>, tensor<i1>)
    %output_192, %ctrl_output_193 = "oneflow.variable"() {data_type = 9 : i32, device_name = ["@0:0"], device_tag = "cuda", hierarchy = [1], op_name = "unet.down_blocks.1.attentions.0.transformer_blocks.0.norm1.bias", output_lbns = ["unet.down_blocks.1.attentions.0.transformer_blocks.0.norm1.bias/out"], parallel = #sbp.parallel<[] -> [[#sbp.B]]>, scope_symbol_id = 933 : i64, shape = [640 : si64]} : () -> (tensor<640xf16>, tensor<i1>)
    %output_194, %ctrl_output_195 = "oneflow.variable"() {data_type = 9 : i32, device_name = ["@0:0"], device_tag = "cuda", hierarchy = [1], op_name = "unet.down_blocks.1.attentions.0.transformer_blocks.0.attn1.to_q.weight", output_lbns = ["unet.down_blocks.1.attentions.0.transformer_blocks.0.attn1.to_q.weight/out"], parallel = #sbp.parallel<[] -> [[#sbp.B]]>, scope_symbol_id = 942 : i64, shape = [640 : si64, 640 : si64]} : () -> (tensor<640x640xf16>, tensor<i1>)
    %output_196, %ctrl_output_197 = "oneflow.variable"() {data_type = 9 : i32, device_name = ["@0:0"], device_tag = "cuda", hierarchy = [1], op_name = "unet.down_blocks.1.attentions.0.transformer_blocks.0.attn1.to_k.weight", output_lbns = ["unet.down_blocks.1.attentions.0.transformer_blocks.0.attn1.to_k.weight/out"], parallel = #sbp.parallel<[] -> [[#sbp.B]]>, scope_symbol_id = 950 : i64, shape = [640 : si64, 640 : si64]} : () -> (tensor<640x640xf16>, tensor<i1>)
    %output_198, %ctrl_output_199 = "oneflow.variable"() {data_type = 9 : i32, device_name = ["@0:0"], device_tag = "cuda", hierarchy = [1], op_name = "unet.down_blocks.1.attentions.0.transformer_blocks.0.attn1.to_v.weight", output_lbns = ["unet.down_blocks.1.attentions.0.transformer_blocks.0.attn1.to_v.weight/out"], parallel = #sbp.parallel<[] -> [[#sbp.B]]>, scope_symbol_id = 958 : i64, shape = [640 : si64, 640 : si64]} : () -> (tensor<640x640xf16>, tensor<i1>)
    %output_200, %ctrl_output_201 = "oneflow.variable"() {data_type = 9 : i32, device_name = ["@0:0"], device_tag = "cuda", hierarchy = [1], op_name = "unet.down_blocks.1.attentions.0.transformer_blocks.0.attn1.to_out.0.weight", output_lbns = ["unet.down_blocks.1.attentions.0.transformer_blocks.0.attn1.to_out.0.weight/out"], parallel = #sbp.parallel<[] -> [[#sbp.B]]>, scope_symbol_id = 970 : i64, shape = [640 : si64, 640 : si64]} : () -> (tensor<640x640xf16>, tensor<i1>)
    %output_202, %ctrl_output_203 = "oneflow.variable"() {data_type = 9 : i32, device_name = ["@0:0"], device_tag = "cuda", hierarchy = [1], op_name = "unet.down_blocks.1.attentions.0.transformer_blocks.0.attn1.to_out.0.bias", output_lbns = ["unet.down_blocks.1.attentions.0.transformer_blocks.0.attn1.to_out.0.bias/out"], parallel = #sbp.parallel<[] -> [[#sbp.B]]>, scope_symbol_id = 977 : i64, shape = [640 : si64]} : () -> (tensor<640xf16>, tensor<i1>)
    %output_204, %ctrl_output_205 = "oneflow.variable"() {data_type = 9 : i32, device_name = ["@0:0"], device_tag = "cuda", hierarchy = [1], op_name = "unet.down_blocks.1.attentions.0.transformer_blocks.0.norm2.weight", output_lbns = ["unet.down_blocks.1.attentions.0.transformer_blocks.0.norm2.weight/out"], parallel = #sbp.parallel<[] -> [[#sbp.B]]>, scope_symbol_id = 989 : i64, shape = [640 : si64]} : () -> (tensor<640xf16>, tensor<i1>)
    %output_206, %ctrl_output_207 = "oneflow.variable"() {data_type = 9 : i32, device_name = ["@0:0"], device_tag = "cuda", hierarchy = [1], op_name = "unet.down_blocks.1.attentions.0.transformer_blocks.0.norm2.bias", output_lbns = ["unet.down_blocks.1.attentions.0.transformer_blocks.0.norm2.bias/out"], parallel = #sbp.parallel<[] -> [[#sbp.B]]>, scope_symbol_id = 993 : i64, shape = [640 : si64]} : () -> (tensor<640xf16>, tensor<i1>)
    %output_208, %ctrl_output_209 = "oneflow.variable"() {data_type = 9 : i32, device_name = ["@0:0"], device_tag = "cuda", hierarchy = [1], op_name = "unet.down_blocks.1.attentions.0.transformer_blocks.0.attn2.to_q.weight", output_lbns = ["unet.down_blocks.1.attentions.0.transformer_blocks.0.attn2.to_q.weight/out"], parallel = #sbp.parallel<[] -> [[#sbp.B]]>, scope_symbol_id = 1002 : i64, shape = [640 : si64, 640 : si64]} : () -> (tensor<640x640xf16>, tensor<i1>)
    %output_210, %ctrl_output_211 = "oneflow.variable"() {data_type = 9 : i32, device_name = ["@0:0"], device_tag = "cuda", hierarchy = [1], op_name = "unet.down_blocks.1.attentions.0.transformer_blocks.0.attn2.to_k.weight", output_lbns = ["unet.down_blocks.1.attentions.0.transformer_blocks.0.attn2.to_k.weight/out"], parallel = #sbp.parallel<[] -> [[#sbp.B]]>, scope_symbol_id = 1010 : i64, shape = [640 : si64, 768 : si64]} : () -> (tensor<640x768xf16>, tensor<i1>)
    %output_212, %ctrl_output_213 = "oneflow.variable"() {data_type = 9 : i32, device_name = ["@0:0"], device_tag = "cuda", hierarchy = [1], op_name = "unet.down_blocks.1.attentions.0.transformer_blocks.0.attn2.to_v.weight", output_lbns = ["unet.down_blocks.1.attentions.0.transformer_blocks.0.attn2.to_v.weight/out"], parallel = #sbp.parallel<[] -> [[#sbp.B]]>, scope_symbol_id = 1018 : i64, shape = [640 : si64, 768 : si64]} : () -> (tensor<640x768xf16>, tensor<i1>)
    %output_214, %ctrl_output_215 = "oneflow.variable"() {data_type = 9 : i32, device_name = ["@0:0"], device_tag = "cuda", hierarchy = [1], op_name = "unet.down_blocks.1.attentions.0.transformer_blocks.0.attn2.to_out.0.weight", output_lbns = ["unet.down_blocks.1.attentions.0.transformer_blocks.0.attn2.to_out.0.weight/out"], parallel = #sbp.parallel<[] -> [[#sbp.B]]>, scope_symbol_id = 1030 : i64, shape = [640 : si64, 640 : si64]} : () -> (tensor<640x640xf16>, tensor<i1>)
    %output_216, %ctrl_output_217 = "oneflow.variable"() {data_type = 9 : i32, device_name = ["@0:0"], device_tag = "cuda", hierarchy = [1], op_name = "unet.down_blocks.1.attentions.0.transformer_blocks.0.attn2.to_out.0.bias", output_lbns = ["unet.down_blocks.1.attentions.0.transformer_blocks.0.attn2.to_out.0.bias/out"], parallel = #sbp.parallel<[] -> [[#sbp.B]]>, scope_symbol_id = 1037 : i64, shape = [640 : si64]} : () -> (tensor<640xf16>, tensor<i1>)
    %output_218, %ctrl_output_219 = "oneflow.variable"() {data_type = 9 : i32, device_name = ["@0:0"], device_tag = "cuda", hierarchy = [1], op_name = "unet.down_blocks.1.attentions.0.transformer_blocks.0.norm3.weight", output_lbns = ["unet.down_blocks.1.attentions.0.transformer_blocks.0.norm3.weight/out"], parallel = #sbp.parallel<[] -> [[#sbp.B]]>, scope_symbol_id = 1049 : i64, shape = [640 : si64]} : () -> (tensor<640xf16>, tensor<i1>)
    %output_220, %ctrl_output_221 = "oneflow.variable"() {data_type = 9 : i32, device_name = ["@0:0"], device_tag = "cuda", hierarchy = [1], op_name = "unet.down_blocks.1.attentions.0.transformer_blocks.0.norm3.bias", output_lbns = ["unet.down_blocks.1.attentions.0.transformer_blocks.0.norm3.bias/out"], parallel = #sbp.parallel<[] -> [[#sbp.B]]>, scope_symbol_id = 1053 : i64, shape = [640 : si64]} : () -> (tensor<640xf16>, tensor<i1>)
    %output_222, %ctrl_output_223 = "oneflow.variable"() {data_type = 9 : i32, device_name = ["@0:0"], device_tag = "cuda", hierarchy = [1], op_name = "unet.down_blocks.1.attentions.0.transformer_blocks.0.ff.net.0.proj.weight", output_lbns = ["unet.down_blocks.1.attentions.0.transformer_blocks.0.ff.net.0.proj.weight/out"], parallel = #sbp.parallel<[] -> [[#sbp.B]]>, scope_symbol_id = 1064 : i64, shape = [5120 : si64, 640 : si64]} : () -> (tensor<5120x640xf16>, tensor<i1>)
    %output_224, %ctrl_output_225 = "oneflow.variable"() {data_type = 9 : i32, device_name = ["@0:0"], device_tag = "cuda", hierarchy = [1], op_name = "unet.down_blocks.1.attentions.0.transformer_blocks.0.ff.net.0.proj.bias", output_lbns = ["unet.down_blocks.1.attentions.0.transformer_blocks.0.ff.net.0.proj.bias/out"], parallel = #sbp.parallel<[] -> [[#sbp.B]]>, scope_symbol_id = 1071 : i64, shape = [5120 : si64]} : () -> (tensor<5120xf16>, tensor<i1>)
    %output_226, %ctrl_output_227 = "oneflow.variable"() {data_type = 9 : i32, device_name = ["@0:0"], device_tag = "cuda", hierarchy = [1], op_name = "unet.down_blocks.1.attentions.0.transformer_blocks.0.ff.net.2.weight", output_lbns = ["unet.down_blocks.1.attentions.0.transformer_blocks.0.ff.net.2.weight/out"], parallel = #sbp.parallel<[] -> [[#sbp.B]]>, scope_symbol_id = 1092 : i64, shape = [640 : si64, 2560 : si64]} : () -> (tensor<640x2560xf16>, tensor<i1>)
    %output_228, %ctrl_output_229 = "oneflow.variable"() {data_type = 9 : i32, device_name = ["@0:0"], device_tag = "cuda", hierarchy = [1], op_name = "unet.down_blocks.1.attentions.0.transformer_blocks.0.ff.net.2.bias", output_lbns = ["unet.down_blocks.1.attentions.0.transformer_blocks.0.ff.net.2.bias/out"], parallel = #sbp.parallel<[] -> [[#sbp.B]]>, scope_symbol_id = 1099 : i64, shape = [640 : si64]} : () -> (tensor<640xf16>, tensor<i1>)
    %output_230, %ctrl_output_231 = "oneflow.variable"() {data_type = 9 : i32, device_name = ["@0:0"], device_tag = "cuda", hierarchy = [1], op_name = "variable_399", output_lbns = ["variable_399/out"], parallel = #sbp.parallel<[] -> [[#sbp.B]]>, scope_symbol_id = 1116 : i64, shape = [640 : si64, 1 : si64, 1 : si64, 640 : si64]} : () -> (tensor<640x1x1x640xf16>, tensor<i1>)
    %output_232, %ctrl_output_233 = "oneflow.variable"() {data_type = 9 : i32, device_name = ["@0:0"], device_tag = "cuda", hierarchy = [1], op_name = "unet.down_blocks.1.attentions.0.proj_out.bias", output_lbns = ["unet.down_blocks.1.attentions.0.proj_out.bias/out"], parallel = #sbp.parallel<[] -> [[#sbp.B]]>, scope_symbol_id = 1120 : i64, shape = [640 : si64]} : () -> (tensor<640xf16>, tensor<i1>)
    %output_234, %ctrl_output_235 = "oneflow.variable"() {data_type = 9 : i32, device_name = ["@0:0"], device_tag = "cuda", hierarchy = [1], op_name = "unet.down_blocks.1.resnets.1.norm1.weight", output_lbns = ["unet.down_blocks.1.resnets.1.norm1.weight/out"], parallel = #sbp.parallel<[] -> [[#sbp.B]]>, scope_symbol_id = 1132 : i64, shape = [640 : si64]} : () -> (tensor<640xf16>, tensor<i1>)
    %output_236, %ctrl_output_237 = "oneflow.variable"() {data_type = 9 : i32, device_name = ["@0:0"], device_tag = "cuda", hierarchy = [1], op_name = "unet.down_blocks.1.resnets.1.norm1.bias", output_lbns = ["unet.down_blocks.1.resnets.1.norm1.bias/out"], parallel = #sbp.parallel<[] -> [[#sbp.B]]>, scope_symbol_id = 1136 : i64, shape = [640 : si64]} : () -> (tensor<640xf16>, tensor<i1>)
    %output_238, %ctrl_output_239 = "oneflow.variable"() {data_type = 9 : i32, device_name = ["@0:0"], device_tag = "cuda", hierarchy = [1], op_name = "variable_398", output_lbns = ["variable_398/out"], parallel = #sbp.parallel<[] -> [[#sbp.B]]>, scope_symbol_id = 1148 : i64, shape = [640 : si64, 3 : si64, 3 : si64, 640 : si64]} : () -> (tensor<640x3x3x640xf16>, tensor<i1>)
    %output_240, %ctrl_output_241 = "oneflow.variable"() {data_type = 9 : i32, device_name = ["@0:0"], device_tag = "cuda", hierarchy = [1], op_name = "unet.down_blocks.1.resnets.1.conv1.bias", output_lbns = ["unet.down_blocks.1.resnets.1.conv1.bias/out"], parallel = #sbp.parallel<[] -> [[#sbp.B]]>, scope_symbol_id = 1152 : i64, shape = [640 : si64]} : () -> (tensor<640xf16>, tensor<i1>)
    %output_242, %ctrl_output_243 = "oneflow.variable"() {data_type = 9 : i32, device_name = ["@0:0"], device_tag = "cuda", hierarchy = [1], op_name = "unet.down_blocks.1.resnets.1.time_emb_proj.weight", output_lbns = ["unet.down_blocks.1.resnets.1.time_emb_proj.weight/out"], parallel = #sbp.parallel<[] -> [[#sbp.B]]>, scope_symbol_id = 1163 : i64, shape = [640 : si64, 1280 : si64]} : () -> (tensor<640x1280xf16>, tensor<i1>)
    %output_244, %ctrl_output_245 = "oneflow.variable"() {data_type = 9 : i32, device_name = ["@0:0"], device_tag = "cuda", hierarchy = [1], op_name = "unet.down_blocks.1.resnets.1.time_emb_proj.bias", output_lbns = ["unet.down_blocks.1.resnets.1.time_emb_proj.bias/out"], parallel = #sbp.parallel<[] -> [[#sbp.B]]>, scope_symbol_id = 1170 : i64, shape = [640 : si64]} : () -> (tensor<640xf16>, tensor<i1>)
    %output_246, %ctrl_output_247 = "oneflow.variable"() {data_type = 9 : i32, device_name = ["@0:0"], device_tag = "cuda", hierarchy = [1], op_name = "unet.down_blocks.1.resnets.1.norm2.weight", output_lbns = ["unet.down_blocks.1.resnets.1.norm2.weight/out"], parallel = #sbp.parallel<[] -> [[#sbp.B]]>, scope_symbol_id = 1187 : i64, shape = [640 : si64]} : () -> (tensor<640xf16>, tensor<i1>)
    %output_248, %ctrl_output_249 = "oneflow.variable"() {data_type = 9 : i32, device_name = ["@0:0"], device_tag = "cuda", hierarchy = [1], op_name = "unet.down_blocks.1.resnets.1.norm2.bias", output_lbns = ["unet.down_blocks.1.resnets.1.norm2.bias/out"], parallel = #sbp.parallel<[] -> [[#sbp.B]]>, scope_symbol_id = 1191 : i64, shape = [640 : si64]} : () -> (tensor<640xf16>, tensor<i1>)
    %output_250, %ctrl_output_251 = "oneflow.variable"() {data_type = 9 : i32, device_name = ["@0:0"], device_tag = "cuda", hierarchy = [1], op_name = "variable_397", output_lbns = ["variable_397/out"], parallel = #sbp.parallel<[] -> [[#sbp.B]]>, scope_symbol_id = 1203 : i64, shape = [640 : si64, 3 : si64, 3 : si64, 640 : si64]} : () -> (tensor<640x3x3x640xf16>, tensor<i1>)
    %output_252, %ctrl_output_253 = "oneflow.variable"() {data_type = 9 : i32, device_name = ["@0:0"], device_tag = "cuda", hierarchy = [1], op_name = "unet.down_blocks.1.resnets.1.conv2.bias", output_lbns = ["unet.down_blocks.1.resnets.1.conv2.bias/out"], parallel = #sbp.parallel<[] -> [[#sbp.B]]>, scope_symbol_id = 1207 : i64, shape = [640 : si64]} : () -> (tensor<640xf16>, tensor<i1>)
    %output_254, %ctrl_output_255 = "oneflow.variable"() {data_type = 9 : i32, device_name = ["@0:0"], device_tag = "cuda", hierarchy = [1], op_name = "unet.down_blocks.1.attentions.1.norm.weight", output_lbns = ["unet.down_blocks.1.attentions.1.norm.weight/out"], parallel = #sbp.parallel<[] -> [[#sbp.B]]>, scope_symbol_id = 1222 : i64, shape = [640 : si64]} : () -> (tensor<640xf16>, tensor<i1>)
    %output_256, %ctrl_output_257 = "oneflow.variable"() {data_type = 9 : i32, device_name = ["@0:0"], device_tag = "cuda", hierarchy = [1], op_name = "unet.down_blocks.1.attentions.1.norm.bias", output_lbns = ["unet.down_blocks.1.attentions.1.norm.bias/out"], parallel = #sbp.parallel<[] -> [[#sbp.B]]>, scope_symbol_id = 1226 : i64, shape = [640 : si64]} : () -> (tensor<640xf16>, tensor<i1>)
    %output_258, %ctrl_output_259 = "oneflow.variable"() {data_type = 9 : i32, device_name = ["@0:0"], device_tag = "cuda", hierarchy = [1], op_name = "variable_396", output_lbns = ["variable_396/out"], parallel = #sbp.parallel<[] -> [[#sbp.B]]>, scope_symbol_id = 1234 : i64, shape = [640 : si64, 1 : si64, 1 : si64, 640 : si64]} : () -> (tensor<640x1x1x640xf16>, tensor<i1>)
    %output_260, %ctrl_output_261 = "oneflow.variable"() {data_type = 9 : i32, device_name = ["@0:0"], device_tag = "cuda", hierarchy = [1], op_name = "unet.down_blocks.1.attentions.1.proj_in.bias", output_lbns = ["unet.down_blocks.1.attentions.1.proj_in.bias/out"], parallel = #sbp.parallel<[] -> [[#sbp.B]]>, scope_symbol_id = 1238 : i64, shape = [640 : si64]} : () -> (tensor<640xf16>, tensor<i1>)
    %output_262, %ctrl_output_263 = "oneflow.variable"() {data_type = 9 : i32, device_name = ["@0:0"], device_tag = "cuda", hierarchy = [1], op_name = "unet.down_blocks.1.attentions.1.transformer_blocks.0.norm1.weight", output_lbns = ["unet.down_blocks.1.attentions.1.transformer_blocks.0.norm1.weight/out"], parallel = #sbp.parallel<[] -> [[#sbp.B]]>, scope_symbol_id = 1253 : i64, shape = [640 : si64]} : () -> (tensor<640xf16>, tensor<i1>)
    %output_264, %ctrl_output_265 = "oneflow.variable"() {data_type = 9 : i32, device_name = ["@0:0"], device_tag = "cuda", hierarchy = [1], op_name = "unet.down_blocks.1.attentions.1.transformer_blocks.0.norm1.bias", output_lbns = ["unet.down_blocks.1.attentions.1.transformer_blocks.0.norm1.bias/out"], parallel = #sbp.parallel<[] -> [[#sbp.B]]>, scope_symbol_id = 1257 : i64, shape = [640 : si64]} : () -> (tensor<640xf16>, tensor<i1>)
    %output_266, %ctrl_output_267 = "oneflow.variable"() {data_type = 9 : i32, device_name = ["@0:0"], device_tag = "cuda", hierarchy = [1], op_name = "unet.down_blocks.1.attentions.1.transformer_blocks.0.attn1.to_q.weight", output_lbns = ["unet.down_blocks.1.attentions.1.transformer_blocks.0.attn1.to_q.weight/out"], parallel = #sbp.parallel<[] -> [[#sbp.B]]>, scope_symbol_id = 1266 : i64, shape = [640 : si64, 640 : si64]} : () -> (tensor<640x640xf16>, tensor<i1>)
    %output_268, %ctrl_output_269 = "oneflow.variable"() {data_type = 9 : i32, device_name = ["@0:0"], device_tag = "cuda", hierarchy = [1], op_name = "unet.down_blocks.1.attentions.1.transformer_blocks.0.attn1.to_k.weight", output_lbns = ["unet.down_blocks.1.attentions.1.transformer_blocks.0.attn1.to_k.weight/out"], parallel = #sbp.parallel<[] -> [[#sbp.B]]>, scope_symbol_id = 1274 : i64, shape = [640 : si64, 640 : si64]} : () -> (tensor<640x640xf16>, tensor<i1>)
    %output_270, %ctrl_output_271 = "oneflow.variable"() {data_type = 9 : i32, device_name = ["@0:0"], device_tag = "cuda", hierarchy = [1], op_name = "unet.down_blocks.1.attentions.1.transformer_blocks.0.attn1.to_v.weight", output_lbns = ["unet.down_blocks.1.attentions.1.transformer_blocks.0.attn1.to_v.weight/out"], parallel = #sbp.parallel<[] -> [[#sbp.B]]>, scope_symbol_id = 1282 : i64, shape = [640 : si64, 640 : si64]} : () -> (tensor<640x640xf16>, tensor<i1>)
    %output_272, %ctrl_output_273 = "oneflow.variable"() {data_type = 9 : i32, device_name = ["@0:0"], device_tag = "cuda", hierarchy = [1], op_name = "unet.down_blocks.1.attentions.1.transformer_blocks.0.attn1.to_out.0.weight", output_lbns = ["unet.down_blocks.1.attentions.1.transformer_blocks.0.attn1.to_out.0.weight/out"], parallel = #sbp.parallel<[] -> [[#sbp.B]]>, scope_symbol_id = 1294 : i64, shape = [640 : si64, 640 : si64]} : () -> (tensor<640x640xf16>, tensor<i1>)
    %output_274, %ctrl_output_275 = "oneflow.variable"() {data_type = 9 : i32, device_name = ["@0:0"], device_tag = "cuda", hierarchy = [1], op_name = "unet.down_blocks.1.attentions.1.transformer_blocks.0.attn1.to_out.0.bias", output_lbns = ["unet.down_blocks.1.attentions.1.transformer_blocks.0.attn1.to_out.0.bias/out"], parallel = #sbp.parallel<[] -> [[#sbp.B]]>, scope_symbol_id = 1301 : i64, shape = [640 : si64]} : () -> (tensor<640xf16>, tensor<i1>)
    %output_276, %ctrl_output_277 = "oneflow.variable"() {data_type = 9 : i32, device_name = ["@0:0"], device_tag = "cuda", hierarchy = [1], op_name = "unet.down_blocks.1.attentions.1.transformer_blocks.0.norm2.weight", output_lbns = ["unet.down_blocks.1.attentions.1.transformer_blocks.0.norm2.weight/out"], parallel = #sbp.parallel<[] -> [[#sbp.B]]>, scope_symbol_id = 1313 : i64, shape = [640 : si64]} : () -> (tensor<640xf16>, tensor<i1>)
    %output_278, %ctrl_output_279 = "oneflow.variable"() {data_type = 9 : i32, device_name = ["@0:0"], device_tag = "cuda", hierarchy = [1], op_name = "unet.down_blocks.1.attentions.1.transformer_blocks.0.norm2.bias", output_lbns = ["unet.down_blocks.1.attentions.1.transformer_blocks.0.norm2.bias/out"], parallel = #sbp.parallel<[] -> [[#sbp.B]]>, scope_symbol_id = 1317 : i64, shape = [640 : si64]} : () -> (tensor<640xf16>, tensor<i1>)
    %output_280, %ctrl_output_281 = "oneflow.variable"() {data_type = 9 : i32, device_name = ["@0:0"], device_tag = "cuda", hierarchy = [1], op_name = "unet.down_blocks.1.attentions.1.transformer_blocks.0.attn2.to_q.weight", output_lbns = ["unet.down_blocks.1.attentions.1.transformer_blocks.0.attn2.to_q.weight/out"], parallel = #sbp.parallel<[] -> [[#sbp.B]]>, scope_symbol_id = 1326 : i64, shape = [640 : si64, 640 : si64]} : () -> (tensor<640x640xf16>, tensor<i1>)
    %output_282, %ctrl_output_283 = "oneflow.variable"() {data_type = 9 : i32, device_name = ["@0:0"], device_tag = "cuda", hierarchy = [1], op_name = "unet.down_blocks.1.attentions.1.transformer_blocks.0.attn2.to_k.weight", output_lbns = ["unet.down_blocks.1.attentions.1.transformer_blocks.0.attn2.to_k.weight/out"], parallel = #sbp.parallel<[] -> [[#sbp.B]]>, scope_symbol_id = 1334 : i64, shape = [640 : si64, 768 : si64]} : () -> (tensor<640x768xf16>, tensor<i1>)
    %output_284, %ctrl_output_285 = "oneflow.variable"() {data_type = 9 : i32, device_name = ["@0:0"], device_tag = "cuda", hierarchy = [1], op_name = "unet.down_blocks.1.attentions.1.transformer_blocks.0.attn2.to_v.weight", output_lbns = ["unet.down_blocks.1.attentions.1.transformer_blocks.0.attn2.to_v.weight/out"], parallel = #sbp.parallel<[] -> [[#sbp.B]]>, scope_symbol_id = 1342 : i64, shape = [640 : si64, 768 : si64]} : () -> (tensor<640x768xf16>, tensor<i1>)
    %output_286, %ctrl_output_287 = "oneflow.variable"() {data_type = 9 : i32, device_name = ["@0:0"], device_tag = "cuda", hierarchy = [1], op_name = "unet.down_blocks.1.attentions.1.transformer_blocks.0.attn2.to_out.0.weight", output_lbns = ["unet.down_blocks.1.attentions.1.transformer_blocks.0.attn2.to_out.0.weight/out"], parallel = #sbp.parallel<[] -> [[#sbp.B]]>, scope_symbol_id = 1354 : i64, shape = [640 : si64, 640 : si64]} : () -> (tensor<640x640xf16>, tensor<i1>)
    %output_288, %ctrl_output_289 = "oneflow.variable"() {data_type = 9 : i32, device_name = ["@0:0"], device_tag = "cuda", hierarchy = [1], op_name = "unet.down_blocks.1.attentions.1.transformer_blocks.0.attn2.to_out.0.bias", output_lbns = ["unet.down_blocks.1.attentions.1.transformer_blocks.0.attn2.to_out.0.bias/out"], parallel = #sbp.parallel<[] -> [[#sbp.B]]>, scope_symbol_id = 1361 : i64, shape = [640 : si64]} : () -> (tensor<640xf16>, tensor<i1>)
    %output_290, %ctrl_output_291 = "oneflow.variable"() {data_type = 9 : i32, device_name = ["@0:0"], device_tag = "cuda", hierarchy = [1], op_name = "unet.down_blocks.1.attentions.1.transformer_blocks.0.norm3.weight", output_lbns = ["unet.down_blocks.1.attentions.1.transformer_blocks.0.norm3.weight/out"], parallel = #sbp.parallel<[] -> [[#sbp.B]]>, scope_symbol_id = 1373 : i64, shape = [640 : si64]} : () -> (tensor<640xf16>, tensor<i1>)
    %output_292, %ctrl_output_293 = "oneflow.variable"() {data_type = 9 : i32, device_name = ["@0:0"], device_tag = "cuda", hierarchy = [1], op_name = "unet.down_blocks.1.attentions.1.transformer_blocks.0.norm3.bias", output_lbns = ["unet.down_blocks.1.attentions.1.transformer_blocks.0.norm3.bias/out"], parallel = #sbp.parallel<[] -> [[#sbp.B]]>, scope_symbol_id = 1377 : i64, shape = [640 : si64]} : () -> (tensor<640xf16>, tensor<i1>)
    %output_294, %ctrl_output_295 = "oneflow.variable"() {data_type = 9 : i32, device_name = ["@0:0"], device_tag = "cuda", hierarchy = [1], op_name = "unet.down_blocks.1.attentions.1.transformer_blocks.0.ff.net.0.proj.weight", output_lbns = ["unet.down_blocks.1.attentions.1.transformer_blocks.0.ff.net.0.proj.weight/out"], parallel = #sbp.parallel<[] -> [[#sbp.B]]>, scope_symbol_id = 1388 : i64, shape = [5120 : si64, 640 : si64]} : () -> (tensor<5120x640xf16>, tensor<i1>)
    %output_296, %ctrl_output_297 = "oneflow.variable"() {data_type = 9 : i32, device_name = ["@0:0"], device_tag = "cuda", hierarchy = [1], op_name = "unet.down_blocks.1.attentions.1.transformer_blocks.0.ff.net.0.proj.bias", output_lbns = ["unet.down_blocks.1.attentions.1.transformer_blocks.0.ff.net.0.proj.bias/out"], parallel = #sbp.parallel<[] -> [[#sbp.B]]>, scope_symbol_id = 1395 : i64, shape = [5120 : si64]} : () -> (tensor<5120xf16>, tensor<i1>)
    %output_298, %ctrl_output_299 = "oneflow.variable"() {data_type = 9 : i32, device_name = ["@0:0"], device_tag = "cuda", hierarchy = [1], op_name = "unet.down_blocks.1.attentions.1.transformer_blocks.0.ff.net.2.weight", output_lbns = ["unet.down_blocks.1.attentions.1.transformer_blocks.0.ff.net.2.weight/out"], parallel = #sbp.parallel<[] -> [[#sbp.B]]>, scope_symbol_id = 1416 : i64, shape = [640 : si64, 2560 : si64]} : () -> (tensor<640x2560xf16>, tensor<i1>)
    %output_300, %ctrl_output_301 = "oneflow.variable"() {data_type = 9 : i32, device_name = ["@0:0"], device_tag = "cuda", hierarchy = [1], op_name = "unet.down_blocks.1.attentions.1.transformer_blocks.0.ff.net.2.bias", output_lbns = ["unet.down_blocks.1.attentions.1.transformer_blocks.0.ff.net.2.bias/out"], parallel = #sbp.parallel<[] -> [[#sbp.B]]>, scope_symbol_id = 1423 : i64, shape = [640 : si64]} : () -> (tensor<640xf16>, tensor<i1>)
    %output_302, %ctrl_output_303 = "oneflow.variable"() {data_type = 9 : i32, device_name = ["@0:0"], device_tag = "cuda", hierarchy = [1], op_name = "variable_395", output_lbns = ["variable_395/out"], parallel = #sbp.parallel<[] -> [[#sbp.B]]>, scope_symbol_id = 1440 : i64, shape = [640 : si64, 1 : si64, 1 : si64, 640 : si64]} : () -> (tensor<640x1x1x640xf16>, tensor<i1>)
    %output_304, %ctrl_output_305 = "oneflow.variable"() {data_type = 9 : i32, device_name = ["@0:0"], device_tag = "cuda", hierarchy = [1], op_name = "unet.down_blocks.1.attentions.1.proj_out.bias", output_lbns = ["unet.down_blocks.1.attentions.1.proj_out.bias/out"], parallel = #sbp.parallel<[] -> [[#sbp.B]]>, scope_symbol_id = 1444 : i64, shape = [640 : si64]} : () -> (tensor<640xf16>, tensor<i1>)
    %output_306, %ctrl_output_307 = "oneflow.variable"() {data_type = 9 : i32, device_name = ["@0:0"], device_tag = "cuda", hierarchy = [1], op_name = "variable_394", output_lbns = ["variable_394/out"], parallel = #sbp.parallel<[] -> [[#sbp.B]]>, scope_symbol_id = 1456 : i64, shape = [640 : si64, 3 : si64, 3 : si64, 640 : si64]} : () -> (tensor<640x3x3x640xf16>, tensor<i1>)
    %output_308, %ctrl_output_309 = "oneflow.variable"() {data_type = 9 : i32, device_name = ["@0:0"], device_tag = "cuda", hierarchy = [1], op_name = "unet.down_blocks.1.downsamplers.0.conv.bias", output_lbns = ["unet.down_blocks.1.downsamplers.0.conv.bias/out"], parallel = #sbp.parallel<[] -> [[#sbp.B]]>, scope_symbol_id = 1460 : i64, shape = [640 : si64]} : () -> (tensor<640xf16>, tensor<i1>)
    %output_310, %ctrl_output_311 = "oneflow.variable"() {data_type = 9 : i32, device_name = ["@0:0"], device_tag = "cuda", hierarchy = [1], op_name = "unet.down_blocks.2.resnets.0.norm1.weight", output_lbns = ["unet.down_blocks.2.resnets.0.norm1.weight/out"], parallel = #sbp.parallel<[] -> [[#sbp.B]]>, scope_symbol_id = 1470 : i64, shape = [640 : si64]} : () -> (tensor<640xf16>, tensor<i1>)
    %output_312, %ctrl_output_313 = "oneflow.variable"() {data_type = 9 : i32, device_name = ["@0:0"], device_tag = "cuda", hierarchy = [1], op_name = "unet.down_blocks.2.resnets.0.norm1.bias", output_lbns = ["unet.down_blocks.2.resnets.0.norm1.bias/out"], parallel = #sbp.parallel<[] -> [[#sbp.B]]>, scope_symbol_id = 1474 : i64, shape = [640 : si64]} : () -> (tensor<640xf16>, tensor<i1>)
    %output_314, %ctrl_output_315 = "oneflow.variable"() {data_type = 9 : i32, device_name = ["@0:0"], device_tag = "cuda", hierarchy = [1], op_name = "variable_393", output_lbns = ["variable_393/out"], parallel = #sbp.parallel<[] -> [[#sbp.B]]>, scope_symbol_id = 1486 : i64, shape = [1280 : si64, 3 : si64, 3 : si64, 640 : si64]} : () -> (tensor<1280x3x3x640xf16>, tensor<i1>)
    %output_316, %ctrl_output_317 = "oneflow.variable"() {data_type = 9 : i32, device_name = ["@0:0"], device_tag = "cuda", hierarchy = [1], op_name = "unet.down_blocks.2.resnets.0.conv1.bias", output_lbns = ["unet.down_blocks.2.resnets.0.conv1.bias/out"], parallel = #sbp.parallel<[] -> [[#sbp.B]]>, scope_symbol_id = 1490 : i64, shape = [1280 : si64]} : () -> (tensor<1280xf16>, tensor<i1>)
    %output_318, %ctrl_output_319 = "oneflow.variable"() {data_type = 9 : i32, device_name = ["@0:0"], device_tag = "cuda", hierarchy = [1], op_name = "unet.down_blocks.2.resnets.0.time_emb_proj.weight", output_lbns = ["unet.down_blocks.2.resnets.0.time_emb_proj.weight/out"], parallel = #sbp.parallel<[] -> [[#sbp.B]]>, scope_symbol_id = 1501 : i64, shape = [1280 : si64, 1280 : si64]} : () -> (tensor<1280x1280xf16>, tensor<i1>)
    %output_320, %ctrl_output_321 = "oneflow.variable"() {data_type = 9 : i32, device_name = ["@0:0"], device_tag = "cuda", hierarchy = [1], op_name = "unet.down_blocks.2.resnets.0.time_emb_proj.bias", output_lbns = ["unet.down_blocks.2.resnets.0.time_emb_proj.bias/out"], parallel = #sbp.parallel<[] -> [[#sbp.B]]>, scope_symbol_id = 1508 : i64, shape = [1280 : si64]} : () -> (tensor<1280xf16>, tensor<i1>)
    %output_322, %ctrl_output_323 = "oneflow.variable"() {data_type = 9 : i32, device_name = ["@0:0"], device_tag = "cuda", hierarchy = [1], op_name = "unet.down_blocks.2.resnets.0.norm2.weight", output_lbns = ["unet.down_blocks.2.resnets.0.norm2.weight/out"], parallel = #sbp.parallel<[] -> [[#sbp.B]]>, scope_symbol_id = 1525 : i64, shape = [1280 : si64]} : () -> (tensor<1280xf16>, tensor<i1>)
    %output_324, %ctrl_output_325 = "oneflow.variable"() {data_type = 9 : i32, device_name = ["@0:0"], device_tag = "cuda", hierarchy = [1], op_name = "unet.down_blocks.2.resnets.0.norm2.bias", output_lbns = ["unet.down_blocks.2.resnets.0.norm2.bias/out"], parallel = #sbp.parallel<[] -> [[#sbp.B]]>, scope_symbol_id = 1529 : i64, shape = [1280 : si64]} : () -> (tensor<1280xf16>, tensor<i1>)
    %output_326, %ctrl_output_327 = "oneflow.variable"() {data_type = 9 : i32, device_name = ["@0:0"], device_tag = "cuda", hierarchy = [1], op_name = "variable_392", output_lbns = ["variable_392/out"], parallel = #sbp.parallel<[] -> [[#sbp.B]]>, scope_symbol_id = 1541 : i64, shape = [1280 : si64, 3 : si64, 3 : si64, 1280 : si64]} : () -> (tensor<1280x3x3x1280xf16>, tensor<i1>)
    %output_328, %ctrl_output_329 = "oneflow.variable"() {data_type = 9 : i32, device_name = ["@0:0"], device_tag = "cuda", hierarchy = [1], op_name = "unet.down_blocks.2.resnets.0.conv2.bias", output_lbns = ["unet.down_blocks.2.resnets.0.conv2.bias/out"], parallel = #sbp.parallel<[] -> [[#sbp.B]]>, scope_symbol_id = 1545 : i64, shape = [1280 : si64]} : () -> (tensor<1280xf16>, tensor<i1>)
    %output_330, %ctrl_output_331 = "oneflow.variable"() {data_type = 9 : i32, device_name = ["@0:0"], device_tag = "cuda", hierarchy = [1], op_name = "variable_391", output_lbns = ["variable_391/out"], parallel = #sbp.parallel<[] -> [[#sbp.B]]>, scope_symbol_id = 1553 : i64, shape = [1280 : si64, 1 : si64, 1 : si64, 640 : si64]} : () -> (tensor<1280x1x1x640xf16>, tensor<i1>)
    %output_332, %ctrl_output_333 = "oneflow.variable"() {data_type = 9 : i32, device_name = ["@0:0"], device_tag = "cuda", hierarchy = [1], op_name = "unet.down_blocks.2.resnets.0.conv_shortcut.bias", output_lbns = ["unet.down_blocks.2.resnets.0.conv_shortcut.bias/out"], parallel = #sbp.parallel<[] -> [[#sbp.B]]>, scope_symbol_id = 1557 : i64, shape = [1280 : si64]} : () -> (tensor<1280xf16>, tensor<i1>)
    %output_334, %ctrl_output_335 = "oneflow.variable"() {data_type = 9 : i32, device_name = ["@0:0"], device_tag = "cuda", hierarchy = [1], op_name = "unet.down_blocks.2.attentions.0.norm.weight", output_lbns = ["unet.down_blocks.2.attentions.0.norm.weight/out"], parallel = #sbp.parallel<[] -> [[#sbp.B]]>, scope_symbol_id = 1572 : i64, shape = [1280 : si64]} : () -> (tensor<1280xf16>, tensor<i1>)
    %output_336, %ctrl_output_337 = "oneflow.variable"() {data_type = 9 : i32, device_name = ["@0:0"], device_tag = "cuda", hierarchy = [1], op_name = "unet.down_blocks.2.attentions.0.norm.bias", output_lbns = ["unet.down_blocks.2.attentions.0.norm.bias/out"], parallel = #sbp.parallel<[] -> [[#sbp.B]]>, scope_symbol_id = 1576 : i64, shape = [1280 : si64]} : () -> (tensor<1280xf16>, tensor<i1>)
    %output_338, %ctrl_output_339 = "oneflow.variable"() {data_type = 9 : i32, device_name = ["@0:0"], device_tag = "cuda", hierarchy = [1], op_name = "variable_390", output_lbns = ["variable_390/out"], parallel = #sbp.parallel<[] -> [[#sbp.B]]>, scope_symbol_id = 1584 : i64, shape = [1280 : si64, 1 : si64, 1 : si64, 1280 : si64]} : () -> (tensor<1280x1x1x1280xf16>, tensor<i1>)
    %output_340, %ctrl_output_341 = "oneflow.variable"() {data_type = 9 : i32, device_name = ["@0:0"], device_tag = "cuda", hierarchy = [1], op_name = "unet.down_blocks.2.attentions.0.proj_in.bias", output_lbns = ["unet.down_blocks.2.attentions.0.proj_in.bias/out"], parallel = #sbp.parallel<[] -> [[#sbp.B]]>, scope_symbol_id = 1588 : i64, shape = [1280 : si64]} : () -> (tensor<1280xf16>, tensor<i1>)
    %output_342, %ctrl_output_343 = "oneflow.variable"() {data_type = 9 : i32, device_name = ["@0:0"], device_tag = "cuda", hierarchy = [1], op_name = "unet.down_blocks.2.attentions.0.transformer_blocks.0.norm1.weight", output_lbns = ["unet.down_blocks.2.attentions.0.transformer_blocks.0.norm1.weight/out"], parallel = #sbp.parallel<[] -> [[#sbp.B]]>, scope_symbol_id = 1603 : i64, shape = [1280 : si64]} : () -> (tensor<1280xf16>, tensor<i1>)
    %output_344, %ctrl_output_345 = "oneflow.variable"() {data_type = 9 : i32, device_name = ["@0:0"], device_tag = "cuda", hierarchy = [1], op_name = "unet.down_blocks.2.attentions.0.transformer_blocks.0.norm1.bias", output_lbns = ["unet.down_blocks.2.attentions.0.transformer_blocks.0.norm1.bias/out"], parallel = #sbp.parallel<[] -> [[#sbp.B]]>, scope_symbol_id = 1607 : i64, shape = [1280 : si64]} : () -> (tensor<1280xf16>, tensor<i1>)
    %output_346, %ctrl_output_347 = "oneflow.variable"() {data_type = 9 : i32, device_name = ["@0:0"], device_tag = "cuda", hierarchy = [1], op_name = "unet.down_blocks.2.attentions.0.transformer_blocks.0.attn1.to_q.weight", output_lbns = ["unet.down_blocks.2.attentions.0.transformer_blocks.0.attn1.to_q.weight/out"], parallel = #sbp.parallel<[] -> [[#sbp.B]]>, scope_symbol_id = 1616 : i64, shape = [1280 : si64, 1280 : si64]} : () -> (tensor<1280x1280xf16>, tensor<i1>)
    %output_348, %ctrl_output_349 = "oneflow.variable"() {data_type = 9 : i32, device_name = ["@0:0"], device_tag = "cuda", hierarchy = [1], op_name = "unet.down_blocks.2.attentions.0.transformer_blocks.0.attn1.to_k.weight", output_lbns = ["unet.down_blocks.2.attentions.0.transformer_blocks.0.attn1.to_k.weight/out"], parallel = #sbp.parallel<[] -> [[#sbp.B]]>, scope_symbol_id = 1624 : i64, shape = [1280 : si64, 1280 : si64]} : () -> (tensor<1280x1280xf16>, tensor<i1>)
    %output_350, %ctrl_output_351 = "oneflow.variable"() {data_type = 9 : i32, device_name = ["@0:0"], device_tag = "cuda", hierarchy = [1], op_name = "unet.down_blocks.2.attentions.0.transformer_blocks.0.attn1.to_v.weight", output_lbns = ["unet.down_blocks.2.attentions.0.transformer_blocks.0.attn1.to_v.weight/out"], parallel = #sbp.parallel<[] -> [[#sbp.B]]>, scope_symbol_id = 1632 : i64, shape = [1280 : si64, 1280 : si64]} : () -> (tensor<1280x1280xf16>, tensor<i1>)
    %output_352, %ctrl_output_353 = "oneflow.variable"() {data_type = 9 : i32, device_name = ["@0:0"], device_tag = "cuda", hierarchy = [1], op_name = "unet.down_blocks.2.attentions.0.transformer_blocks.0.attn1.to_out.0.weight", output_lbns = ["unet.down_blocks.2.attentions.0.transformer_blocks.0.attn1.to_out.0.weight/out"], parallel = #sbp.parallel<[] -> [[#sbp.B]]>, scope_symbol_id = 1644 : i64, shape = [1280 : si64, 1280 : si64]} : () -> (tensor<1280x1280xf16>, tensor<i1>)
    %output_354, %ctrl_output_355 = "oneflow.variable"() {data_type = 9 : i32, device_name = ["@0:0"], device_tag = "cuda", hierarchy = [1], op_name = "unet.down_blocks.2.attentions.0.transformer_blocks.0.attn1.to_out.0.bias", output_lbns = ["unet.down_blocks.2.attentions.0.transformer_blocks.0.attn1.to_out.0.bias/out"], parallel = #sbp.parallel<[] -> [[#sbp.B]]>, scope_symbol_id = 1651 : i64, shape = [1280 : si64]} : () -> (tensor<1280xf16>, tensor<i1>)
    %output_356, %ctrl_output_357 = "oneflow.variable"() {data_type = 9 : i32, device_name = ["@0:0"], device_tag = "cuda", hierarchy = [1], op_name = "unet.down_blocks.2.attentions.0.transformer_blocks.0.norm2.weight", output_lbns = ["unet.down_blocks.2.attentions.0.transformer_blocks.0.norm2.weight/out"], parallel = #sbp.parallel<[] -> [[#sbp.B]]>, scope_symbol_id = 1663 : i64, shape = [1280 : si64]} : () -> (tensor<1280xf16>, tensor<i1>)
    %output_358, %ctrl_output_359 = "oneflow.variable"() {data_type = 9 : i32, device_name = ["@0:0"], device_tag = "cuda", hierarchy = [1], op_name = "unet.down_blocks.2.attentions.0.transformer_blocks.0.norm2.bias", output_lbns = ["unet.down_blocks.2.attentions.0.transformer_blocks.0.norm2.bias/out"], parallel = #sbp.parallel<[] -> [[#sbp.B]]>, scope_symbol_id = 1667 : i64, shape = [1280 : si64]} : () -> (tensor<1280xf16>, tensor<i1>)
    %output_360, %ctrl_output_361 = "oneflow.variable"() {data_type = 9 : i32, device_name = ["@0:0"], device_tag = "cuda", hierarchy = [1], op_name = "unet.down_blocks.2.attentions.0.transformer_blocks.0.attn2.to_q.weight", output_lbns = ["unet.down_blocks.2.attentions.0.transformer_blocks.0.attn2.to_q.weight/out"], parallel = #sbp.parallel<[] -> [[#sbp.B]]>, scope_symbol_id = 1676 : i64, shape = [1280 : si64, 1280 : si64]} : () -> (tensor<1280x1280xf16>, tensor<i1>)
    %output_362, %ctrl_output_363 = "oneflow.variable"() {data_type = 9 : i32, device_name = ["@0:0"], device_tag = "cuda", hierarchy = [1], op_name = "unet.down_blocks.2.attentions.0.transformer_blocks.0.attn2.to_k.weight", output_lbns = ["unet.down_blocks.2.attentions.0.transformer_blocks.0.attn2.to_k.weight/out"], parallel = #sbp.parallel<[] -> [[#sbp.B]]>, scope_symbol_id = 1684 : i64, shape = [1280 : si64, 768 : si64]} : () -> (tensor<1280x768xf16>, tensor<i1>)
    %output_364, %ctrl_output_365 = "oneflow.variable"() {data_type = 9 : i32, device_name = ["@0:0"], device_tag = "cuda", hierarchy = [1], op_name = "unet.down_blocks.2.attentions.0.transformer_blocks.0.attn2.to_v.weight", output_lbns = ["unet.down_blocks.2.attentions.0.transformer_blocks.0.attn2.to_v.weight/out"], parallel = #sbp.parallel<[] -> [[#sbp.B]]>, scope_symbol_id = 1692 : i64, shape = [1280 : si64, 768 : si64]} : () -> (tensor<1280x768xf16>, tensor<i1>)
    %output_366, %ctrl_output_367 = "oneflow.variable"() {data_type = 9 : i32, device_name = ["@0:0"], device_tag = "cuda", hierarchy = [1], op_name = "unet.down_blocks.2.attentions.0.transformer_blocks.0.attn2.to_out.0.weight", output_lbns = ["unet.down_blocks.2.attentions.0.transformer_blocks.0.attn2.to_out.0.weight/out"], parallel = #sbp.parallel<[] -> [[#sbp.B]]>, scope_symbol_id = 1704 : i64, shape = [1280 : si64, 1280 : si64]} : () -> (tensor<1280x1280xf16>, tensor<i1>)
    %output_368, %ctrl_output_369 = "oneflow.variable"() {data_type = 9 : i32, device_name = ["@0:0"], device_tag = "cuda", hierarchy = [1], op_name = "unet.down_blocks.2.attentions.0.transformer_blocks.0.attn2.to_out.0.bias", output_lbns = ["unet.down_blocks.2.attentions.0.transformer_blocks.0.attn2.to_out.0.bias/out"], parallel = #sbp.parallel<[] -> [[#sbp.B]]>, scope_symbol_id = 1711 : i64, shape = [1280 : si64]} : () -> (tensor<1280xf16>, tensor<i1>)
    %output_370, %ctrl_output_371 = "oneflow.variable"() {data_type = 9 : i32, device_name = ["@0:0"], device_tag = "cuda", hierarchy = [1], op_name = "unet.down_blocks.2.attentions.0.transformer_blocks.0.norm3.weight", output_lbns = ["unet.down_blocks.2.attentions.0.transformer_blocks.0.norm3.weight/out"], parallel = #sbp.parallel<[] -> [[#sbp.B]]>, scope_symbol_id = 1723 : i64, shape = [1280 : si64]} : () -> (tensor<1280xf16>, tensor<i1>)
    %output_372, %ctrl_output_373 = "oneflow.variable"() {data_type = 9 : i32, device_name = ["@0:0"], device_tag = "cuda", hierarchy = [1], op_name = "unet.down_blocks.2.attentions.0.transformer_blocks.0.norm3.bias", output_lbns = ["unet.down_blocks.2.attentions.0.transformer_blocks.0.norm3.bias/out"], parallel = #sbp.parallel<[] -> [[#sbp.B]]>, scope_symbol_id = 1727 : i64, shape = [1280 : si64]} : () -> (tensor<1280xf16>, tensor<i1>)
    %output_374, %ctrl_output_375 = "oneflow.variable"() {data_type = 9 : i32, device_name = ["@0:0"], device_tag = "cuda", hierarchy = [1], op_name = "unet.down_blocks.2.attentions.0.transformer_blocks.0.ff.net.0.proj.weight", output_lbns = ["unet.down_blocks.2.attentions.0.transformer_blocks.0.ff.net.0.proj.weight/out"], parallel = #sbp.parallel<[] -> [[#sbp.B]]>, scope_symbol_id = 1738 : i64, shape = [10240 : si64, 1280 : si64]} : () -> (tensor<10240x1280xf16>, tensor<i1>)
    %output_376, %ctrl_output_377 = "oneflow.variable"() {data_type = 9 : i32, device_name = ["@0:0"], device_tag = "cuda", hierarchy = [1], op_name = "unet.down_blocks.2.attentions.0.transformer_blocks.0.ff.net.0.proj.bias", output_lbns = ["unet.down_blocks.2.attentions.0.transformer_blocks.0.ff.net.0.proj.bias/out"], parallel = #sbp.parallel<[] -> [[#sbp.B]]>, scope_symbol_id = 1745 : i64, shape = [10240 : si64]} : () -> (tensor<10240xf16>, tensor<i1>)
    %output_378, %ctrl_output_379 = "oneflow.variable"() {data_type = 9 : i32, device_name = ["@0:0"], device_tag = "cuda", hierarchy = [1], op_name = "unet.down_blocks.2.attentions.0.transformer_blocks.0.ff.net.2.weight", output_lbns = ["unet.down_blocks.2.attentions.0.transformer_blocks.0.ff.net.2.weight/out"], parallel = #sbp.parallel<[] -> [[#sbp.B]]>, scope_symbol_id = 1766 : i64, shape = [1280 : si64, 5120 : si64]} : () -> (tensor<1280x5120xf16>, tensor<i1>)
    %output_380, %ctrl_output_381 = "oneflow.variable"() {data_type = 9 : i32, device_name = ["@0:0"], device_tag = "cuda", hierarchy = [1], op_name = "unet.down_blocks.2.attentions.0.transformer_blocks.0.ff.net.2.bias", output_lbns = ["unet.down_blocks.2.attentions.0.transformer_blocks.0.ff.net.2.bias/out"], parallel = #sbp.parallel<[] -> [[#sbp.B]]>, scope_symbol_id = 1773 : i64, shape = [1280 : si64]} : () -> (tensor<1280xf16>, tensor<i1>)
    %output_382, %ctrl_output_383 = "oneflow.variable"() {data_type = 9 : i32, device_name = ["@0:0"], device_tag = "cuda", hierarchy = [1], op_name = "variable_389", output_lbns = ["variable_389/out"], parallel = #sbp.parallel<[] -> [[#sbp.B]]>, scope_symbol_id = 1790 : i64, shape = [1280 : si64, 1 : si64, 1 : si64, 1280 : si64]} : () -> (tensor<1280x1x1x1280xf16>, tensor<i1>)
    %output_384, %ctrl_output_385 = "oneflow.variable"() {data_type = 9 : i32, device_name = ["@0:0"], device_tag = "cuda", hierarchy = [1], op_name = "unet.down_blocks.2.attentions.0.proj_out.bias", output_lbns = ["unet.down_blocks.2.attentions.0.proj_out.bias/out"], parallel = #sbp.parallel<[] -> [[#sbp.B]]>, scope_symbol_id = 1794 : i64, shape = [1280 : si64]} : () -> (tensor<1280xf16>, tensor<i1>)
    %output_386, %ctrl_output_387 = "oneflow.variable"() {data_type = 9 : i32, device_name = ["@0:0"], device_tag = "cuda", hierarchy = [1], op_name = "unet.down_blocks.2.resnets.1.norm1.weight", output_lbns = ["unet.down_blocks.2.resnets.1.norm1.weight/out"], parallel = #sbp.parallel<[] -> [[#sbp.B]]>, scope_symbol_id = 1806 : i64, shape = [1280 : si64]} : () -> (tensor<1280xf16>, tensor<i1>)
    %output_388, %ctrl_output_389 = "oneflow.variable"() {data_type = 9 : i32, device_name = ["@0:0"], device_tag = "cuda", hierarchy = [1], op_name = "unet.down_blocks.2.resnets.1.norm1.bias", output_lbns = ["unet.down_blocks.2.resnets.1.norm1.bias/out"], parallel = #sbp.parallel<[] -> [[#sbp.B]]>, scope_symbol_id = 1810 : i64, shape = [1280 : si64]} : () -> (tensor<1280xf16>, tensor<i1>)
    %output_390, %ctrl_output_391 = "oneflow.variable"() {data_type = 9 : i32, device_name = ["@0:0"], device_tag = "cuda", hierarchy = [1], op_name = "variable_388", output_lbns = ["variable_388/out"], parallel = #sbp.parallel<[] -> [[#sbp.B]]>, scope_symbol_id = 1822 : i64, shape = [1280 : si64, 3 : si64, 3 : si64, 1280 : si64]} : () -> (tensor<1280x3x3x1280xf16>, tensor<i1>)
    %output_392, %ctrl_output_393 = "oneflow.variable"() {data_type = 9 : i32, device_name = ["@0:0"], device_tag = "cuda", hierarchy = [1], op_name = "unet.down_blocks.2.resnets.1.conv1.bias", output_lbns = ["unet.down_blocks.2.resnets.1.conv1.bias/out"], parallel = #sbp.parallel<[] -> [[#sbp.B]]>, scope_symbol_id = 1826 : i64, shape = [1280 : si64]} : () -> (tensor<1280xf16>, tensor<i1>)
    %output_394, %ctrl_output_395 = "oneflow.variable"() {data_type = 9 : i32, device_name = ["@0:0"], device_tag = "cuda", hierarchy = [1], op_name = "unet.down_blocks.2.resnets.1.time_emb_proj.weight", output_lbns = ["unet.down_blocks.2.resnets.1.time_emb_proj.weight/out"], parallel = #sbp.parallel<[] -> [[#sbp.B]]>, scope_symbol_id = 1837 : i64, shape = [1280 : si64, 1280 : si64]} : () -> (tensor<1280x1280xf16>, tensor<i1>)
    %output_396, %ctrl_output_397 = "oneflow.variable"() {data_type = 9 : i32, device_name = ["@0:0"], device_tag = "cuda", hierarchy = [1], op_name = "unet.down_blocks.2.resnets.1.time_emb_proj.bias", output_lbns = ["unet.down_blocks.2.resnets.1.time_emb_proj.bias/out"], parallel = #sbp.parallel<[] -> [[#sbp.B]]>, scope_symbol_id = 1844 : i64, shape = [1280 : si64]} : () -> (tensor<1280xf16>, tensor<i1>)
    %output_398, %ctrl_output_399 = "oneflow.variable"() {data_type = 9 : i32, device_name = ["@0:0"], device_tag = "cuda", hierarchy = [1], op_name = "unet.down_blocks.2.resnets.1.norm2.weight", output_lbns = ["unet.down_blocks.2.resnets.1.norm2.weight/out"], parallel = #sbp.parallel<[] -> [[#sbp.B]]>, scope_symbol_id = 1861 : i64, shape = [1280 : si64]} : () -> (tensor<1280xf16>, tensor<i1>)
    %output_400, %ctrl_output_401 = "oneflow.variable"() {data_type = 9 : i32, device_name = ["@0:0"], device_tag = "cuda", hierarchy = [1], op_name = "unet.down_blocks.2.resnets.1.norm2.bias", output_lbns = ["unet.down_blocks.2.resnets.1.norm2.bias/out"], parallel = #sbp.parallel<[] -> [[#sbp.B]]>, scope_symbol_id = 1865 : i64, shape = [1280 : si64]} : () -> (tensor<1280xf16>, tensor<i1>)
    %output_402, %ctrl_output_403 = "oneflow.variable"() {data_type = 9 : i32, device_name = ["@0:0"], device_tag = "cuda", hierarchy = [1], op_name = "variable_387", output_lbns = ["variable_387/out"], parallel = #sbp.parallel<[] -> [[#sbp.B]]>, scope_symbol_id = 1877 : i64, shape = [1280 : si64, 3 : si64, 3 : si64, 1280 : si64]} : () -> (tensor<1280x3x3x1280xf16>, tensor<i1>)
    %output_404, %ctrl_output_405 = "oneflow.variable"() {data_type = 9 : i32, device_name = ["@0:0"], device_tag = "cuda", hierarchy = [1], op_name = "unet.down_blocks.2.resnets.1.conv2.bias", output_lbns = ["unet.down_blocks.2.resnets.1.conv2.bias/out"], parallel = #sbp.parallel<[] -> [[#sbp.B]]>, scope_symbol_id = 1881 : i64, shape = [1280 : si64]} : () -> (tensor<1280xf16>, tensor<i1>)
    %output_406, %ctrl_output_407 = "oneflow.variable"() {data_type = 9 : i32, device_name = ["@0:0"], device_tag = "cuda", hierarchy = [1], op_name = "unet.down_blocks.2.attentions.1.norm.weight", output_lbns = ["unet.down_blocks.2.attentions.1.norm.weight/out"], parallel = #sbp.parallel<[] -> [[#sbp.B]]>, scope_symbol_id = 1896 : i64, shape = [1280 : si64]} : () -> (tensor<1280xf16>, tensor<i1>)
    %output_408, %ctrl_output_409 = "oneflow.variable"() {data_type = 9 : i32, device_name = ["@0:0"], device_tag = "cuda", hierarchy = [1], op_name = "unet.down_blocks.2.attentions.1.norm.bias", output_lbns = ["unet.down_blocks.2.attentions.1.norm.bias/out"], parallel = #sbp.parallel<[] -> [[#sbp.B]]>, scope_symbol_id = 1900 : i64, shape = [1280 : si64]} : () -> (tensor<1280xf16>, tensor<i1>)
    %output_410, %ctrl_output_411 = "oneflow.variable"() {data_type = 9 : i32, device_name = ["@0:0"], device_tag = "cuda", hierarchy = [1], op_name = "variable_386", output_lbns = ["variable_386/out"], parallel = #sbp.parallel<[] -> [[#sbp.B]]>, scope_symbol_id = 1908 : i64, shape = [1280 : si64, 1 : si64, 1 : si64, 1280 : si64]} : () -> (tensor<1280x1x1x1280xf16>, tensor<i1>)
    %output_412, %ctrl_output_413 = "oneflow.variable"() {data_type = 9 : i32, device_name = ["@0:0"], device_tag = "cuda", hierarchy = [1], op_name = "unet.down_blocks.2.attentions.1.proj_in.bias", output_lbns = ["unet.down_blocks.2.attentions.1.proj_in.bias/out"], parallel = #sbp.parallel<[] -> [[#sbp.B]]>, scope_symbol_id = 1912 : i64, shape = [1280 : si64]} : () -> (tensor<1280xf16>, tensor<i1>)
    %output_414, %ctrl_output_415 = "oneflow.variable"() {data_type = 9 : i32, device_name = ["@0:0"], device_tag = "cuda", hierarchy = [1], op_name = "unet.down_blocks.2.attentions.1.transformer_blocks.0.norm1.weight", output_lbns = ["unet.down_blocks.2.attentions.1.transformer_blocks.0.norm1.weight/out"], parallel = #sbp.parallel<[] -> [[#sbp.B]]>, scope_symbol_id = 1927 : i64, shape = [1280 : si64]} : () -> (tensor<1280xf16>, tensor<i1>)
    %output_416, %ctrl_output_417 = "oneflow.variable"() {data_type = 9 : i32, device_name = ["@0:0"], device_tag = "cuda", hierarchy = [1], op_name = "unet.down_blocks.2.attentions.1.transformer_blocks.0.norm1.bias", output_lbns = ["unet.down_blocks.2.attentions.1.transformer_blocks.0.norm1.bias/out"], parallel = #sbp.parallel<[] -> [[#sbp.B]]>, scope_symbol_id = 1931 : i64, shape = [1280 : si64]} : () -> (tensor<1280xf16>, tensor<i1>)
    %output_418, %ctrl_output_419 = "oneflow.variable"() {data_type = 9 : i32, device_name = ["@0:0"], device_tag = "cuda", hierarchy = [1], op_name = "unet.down_blocks.2.attentions.1.transformer_blocks.0.attn1.to_q.weight", output_lbns = ["unet.down_blocks.2.attentions.1.transformer_blocks.0.attn1.to_q.weight/out"], parallel = #sbp.parallel<[] -> [[#sbp.B]]>, scope_symbol_id = 1940 : i64, shape = [1280 : si64, 1280 : si64]} : () -> (tensor<1280x1280xf16>, tensor<i1>)
    %output_420, %ctrl_output_421 = "oneflow.variable"() {data_type = 9 : i32, device_name = ["@0:0"], device_tag = "cuda", hierarchy = [1], op_name = "unet.down_blocks.2.attentions.1.transformer_blocks.0.attn1.to_k.weight", output_lbns = ["unet.down_blocks.2.attentions.1.transformer_blocks.0.attn1.to_k.weight/out"], parallel = #sbp.parallel<[] -> [[#sbp.B]]>, scope_symbol_id = 1948 : i64, shape = [1280 : si64, 1280 : si64]} : () -> (tensor<1280x1280xf16>, tensor<i1>)
    %output_422, %ctrl_output_423 = "oneflow.variable"() {data_type = 9 : i32, device_name = ["@0:0"], device_tag = "cuda", hierarchy = [1], op_name = "unet.down_blocks.2.attentions.1.transformer_blocks.0.attn1.to_v.weight", output_lbns = ["unet.down_blocks.2.attentions.1.transformer_blocks.0.attn1.to_v.weight/out"], parallel = #sbp.parallel<[] -> [[#sbp.B]]>, scope_symbol_id = 1956 : i64, shape = [1280 : si64, 1280 : si64]} : () -> (tensor<1280x1280xf16>, tensor<i1>)
    %output_424, %ctrl_output_425 = "oneflow.variable"() {data_type = 9 : i32, device_name = ["@0:0"], device_tag = "cuda", hierarchy = [1], op_name = "unet.down_blocks.2.attentions.1.transformer_blocks.0.attn1.to_out.0.weight", output_lbns = ["unet.down_blocks.2.attentions.1.transformer_blocks.0.attn1.to_out.0.weight/out"], parallel = #sbp.parallel<[] -> [[#sbp.B]]>, scope_symbol_id = 1968 : i64, shape = [1280 : si64, 1280 : si64]} : () -> (tensor<1280x1280xf16>, tensor<i1>)
    %output_426, %ctrl_output_427 = "oneflow.variable"() {data_type = 9 : i32, device_name = ["@0:0"], device_tag = "cuda", hierarchy = [1], op_name = "unet.down_blocks.2.attentions.1.transformer_blocks.0.attn1.to_out.0.bias", output_lbns = ["unet.down_blocks.2.attentions.1.transformer_blocks.0.attn1.to_out.0.bias/out"], parallel = #sbp.parallel<[] -> [[#sbp.B]]>, scope_symbol_id = 1975 : i64, shape = [1280 : si64]} : () -> (tensor<1280xf16>, tensor<i1>)
    %output_428, %ctrl_output_429 = "oneflow.variable"() {data_type = 9 : i32, device_name = ["@0:0"], device_tag = "cuda", hierarchy = [1], op_name = "unet.down_blocks.2.attentions.1.transformer_blocks.0.norm2.weight", output_lbns = ["unet.down_blocks.2.attentions.1.transformer_blocks.0.norm2.weight/out"], parallel = #sbp.parallel<[] -> [[#sbp.B]]>, scope_symbol_id = 1987 : i64, shape = [1280 : si64]} : () -> (tensor<1280xf16>, tensor<i1>)
    %output_430, %ctrl_output_431 = "oneflow.variable"() {data_type = 9 : i32, device_name = ["@0:0"], device_tag = "cuda", hierarchy = [1], op_name = "unet.down_blocks.2.attentions.1.transformer_blocks.0.norm2.bias", output_lbns = ["unet.down_blocks.2.attentions.1.transformer_blocks.0.norm2.bias/out"], parallel = #sbp.parallel<[] -> [[#sbp.B]]>, scope_symbol_id = 1991 : i64, shape = [1280 : si64]} : () -> (tensor<1280xf16>, tensor<i1>)
    %output_432, %ctrl_output_433 = "oneflow.variable"() {data_type = 9 : i32, device_name = ["@0:0"], device_tag = "cuda", hierarchy = [1], op_name = "unet.down_blocks.2.attentions.1.transformer_blocks.0.attn2.to_q.weight", output_lbns = ["unet.down_blocks.2.attentions.1.transformer_blocks.0.attn2.to_q.weight/out"], parallel = #sbp.parallel<[] -> [[#sbp.B]]>, scope_symbol_id = 2000 : i64, shape = [1280 : si64, 1280 : si64]} : () -> (tensor<1280x1280xf16>, tensor<i1>)
    %output_434, %ctrl_output_435 = "oneflow.variable"() {data_type = 9 : i32, device_name = ["@0:0"], device_tag = "cuda", hierarchy = [1], op_name = "unet.down_blocks.2.attentions.1.transformer_blocks.0.attn2.to_k.weight", output_lbns = ["unet.down_blocks.2.attentions.1.transformer_blocks.0.attn2.to_k.weight/out"], parallel = #sbp.parallel<[] -> [[#sbp.B]]>, scope_symbol_id = 2008 : i64, shape = [1280 : si64, 768 : si64]} : () -> (tensor<1280x768xf16>, tensor<i1>)
    %output_436, %ctrl_output_437 = "oneflow.variable"() {data_type = 9 : i32, device_name = ["@0:0"], device_tag = "cuda", hierarchy = [1], op_name = "unet.down_blocks.2.attentions.1.transformer_blocks.0.attn2.to_v.weight", output_lbns = ["unet.down_blocks.2.attentions.1.transformer_blocks.0.attn2.to_v.weight/out"], parallel = #sbp.parallel<[] -> [[#sbp.B]]>, scope_symbol_id = 2016 : i64, shape = [1280 : si64, 768 : si64]} : () -> (tensor<1280x768xf16>, tensor<i1>)
    %output_438, %ctrl_output_439 = "oneflow.variable"() {data_type = 9 : i32, device_name = ["@0:0"], device_tag = "cuda", hierarchy = [1], op_name = "unet.down_blocks.2.attentions.1.transformer_blocks.0.attn2.to_out.0.weight", output_lbns = ["unet.down_blocks.2.attentions.1.transformer_blocks.0.attn2.to_out.0.weight/out"], parallel = #sbp.parallel<[] -> [[#sbp.B]]>, scope_symbol_id = 2028 : i64, shape = [1280 : si64, 1280 : si64]} : () -> (tensor<1280x1280xf16>, tensor<i1>)
    %output_440, %ctrl_output_441 = "oneflow.variable"() {data_type = 9 : i32, device_name = ["@0:0"], device_tag = "cuda", hierarchy = [1], op_name = "unet.down_blocks.2.attentions.1.transformer_blocks.0.attn2.to_out.0.bias", output_lbns = ["unet.down_blocks.2.attentions.1.transformer_blocks.0.attn2.to_out.0.bias/out"], parallel = #sbp.parallel<[] -> [[#sbp.B]]>, scope_symbol_id = 2035 : i64, shape = [1280 : si64]} : () -> (tensor<1280xf16>, tensor<i1>)
    %output_442, %ctrl_output_443 = "oneflow.variable"() {data_type = 9 : i32, device_name = ["@0:0"], device_tag = "cuda", hierarchy = [1], op_name = "unet.down_blocks.2.attentions.1.transformer_blocks.0.norm3.weight", output_lbns = ["unet.down_blocks.2.attentions.1.transformer_blocks.0.norm3.weight/out"], parallel = #sbp.parallel<[] -> [[#sbp.B]]>, scope_symbol_id = 2047 : i64, shape = [1280 : si64]} : () -> (tensor<1280xf16>, tensor<i1>)
    %output_444, %ctrl_output_445 = "oneflow.variable"() {data_type = 9 : i32, device_name = ["@0:0"], device_tag = "cuda", hierarchy = [1], op_name = "unet.down_blocks.2.attentions.1.transformer_blocks.0.norm3.bias", output_lbns = ["unet.down_blocks.2.attentions.1.transformer_blocks.0.norm3.bias/out"], parallel = #sbp.parallel<[] -> [[#sbp.B]]>, scope_symbol_id = 2051 : i64, shape = [1280 : si64]} : () -> (tensor<1280xf16>, tensor<i1>)
    %output_446, %ctrl_output_447 = "oneflow.variable"() {data_type = 9 : i32, device_name = ["@0:0"], device_tag = "cuda", hierarchy = [1], op_name = "unet.down_blocks.2.attentions.1.transformer_blocks.0.ff.net.0.proj.weight", output_lbns = ["unet.down_blocks.2.attentions.1.transformer_blocks.0.ff.net.0.proj.weight/out"], parallel = #sbp.parallel<[] -> [[#sbp.B]]>, scope_symbol_id = 2062 : i64, shape = [10240 : si64, 1280 : si64]} : () -> (tensor<10240x1280xf16>, tensor<i1>)
    %output_448, %ctrl_output_449 = "oneflow.variable"() {data_type = 9 : i32, device_name = ["@0:0"], device_tag = "cuda", hierarchy = [1], op_name = "unet.down_blocks.2.attentions.1.transformer_blocks.0.ff.net.0.proj.bias", output_lbns = ["unet.down_blocks.2.attentions.1.transformer_blocks.0.ff.net.0.proj.bias/out"], parallel = #sbp.parallel<[] -> [[#sbp.B]]>, scope_symbol_id = 2069 : i64, shape = [10240 : si64]} : () -> (tensor<10240xf16>, tensor<i1>)
    %output_450, %ctrl_output_451 = "oneflow.variable"() {data_type = 9 : i32, device_name = ["@0:0"], device_tag = "cuda", hierarchy = [1], op_name = "unet.down_blocks.2.attentions.1.transformer_blocks.0.ff.net.2.weight", output_lbns = ["unet.down_blocks.2.attentions.1.transformer_blocks.0.ff.net.2.weight/out"], parallel = #sbp.parallel<[] -> [[#sbp.B]]>, scope_symbol_id = 2090 : i64, shape = [1280 : si64, 5120 : si64]} : () -> (tensor<1280x5120xf16>, tensor<i1>)
    %output_452, %ctrl_output_453 = "oneflow.variable"() {data_type = 9 : i32, device_name = ["@0:0"], device_tag = "cuda", hierarchy = [1], op_name = "unet.down_blocks.2.attentions.1.transformer_blocks.0.ff.net.2.bias", output_lbns = ["unet.down_blocks.2.attentions.1.transformer_blocks.0.ff.net.2.bias/out"], parallel = #sbp.parallel<[] -> [[#sbp.B]]>, scope_symbol_id = 2097 : i64, shape = [1280 : si64]} : () -> (tensor<1280xf16>, tensor<i1>)
    %output_454, %ctrl_output_455 = "oneflow.variable"() {data_type = 9 : i32, device_name = ["@0:0"], device_tag = "cuda", hierarchy = [1], op_name = "variable_385", output_lbns = ["variable_385/out"], parallel = #sbp.parallel<[] -> [[#sbp.B]]>, scope_symbol_id = 2114 : i64, shape = [1280 : si64, 1 : si64, 1 : si64, 1280 : si64]} : () -> (tensor<1280x1x1x1280xf16>, tensor<i1>)
    %output_456, %ctrl_output_457 = "oneflow.variable"() {data_type = 9 : i32, device_name = ["@0:0"], device_tag = "cuda", hierarchy = [1], op_name = "unet.down_blocks.2.attentions.1.proj_out.bias", output_lbns = ["unet.down_blocks.2.attentions.1.proj_out.bias/out"], parallel = #sbp.parallel<[] -> [[#sbp.B]]>, scope_symbol_id = 2118 : i64, shape = [1280 : si64]} : () -> (tensor<1280xf16>, tensor<i1>)
    %output_458, %ctrl_output_459 = "oneflow.variable"() {data_type = 9 : i32, device_name = ["@0:0"], device_tag = "cuda", hierarchy = [1], op_name = "variable_384", output_lbns = ["variable_384/out"], parallel = #sbp.parallel<[] -> [[#sbp.B]]>, scope_symbol_id = 2130 : i64, shape = [1280 : si64, 3 : si64, 3 : si64, 1280 : si64]} : () -> (tensor<1280x3x3x1280xf16>, tensor<i1>)
    %output_460, %ctrl_output_461 = "oneflow.variable"() {data_type = 9 : i32, device_name = ["@0:0"], device_tag = "cuda", hierarchy = [1], op_name = "unet.down_blocks.2.downsamplers.0.conv.bias", output_lbns = ["unet.down_blocks.2.downsamplers.0.conv.bias/out"], parallel = #sbp.parallel<[] -> [[#sbp.B]]>, scope_symbol_id = 2134 : i64, shape = [1280 : si64]} : () -> (tensor<1280xf16>, tensor<i1>)
    %output_462, %ctrl_output_463 = "oneflow.variable"() {data_type = 9 : i32, device_name = ["@0:0"], device_tag = "cuda", hierarchy = [1], op_name = "unet.down_blocks.3.resnets.0.norm1.weight", output_lbns = ["unet.down_blocks.3.resnets.0.norm1.weight/out"], parallel = #sbp.parallel<[] -> [[#sbp.B]]>, scope_symbol_id = 2144 : i64, shape = [1280 : si64]} : () -> (tensor<1280xf16>, tensor<i1>)
    %output_464, %ctrl_output_465 = "oneflow.variable"() {data_type = 9 : i32, device_name = ["@0:0"], device_tag = "cuda", hierarchy = [1], op_name = "unet.down_blocks.3.resnets.0.norm1.bias", output_lbns = ["unet.down_blocks.3.resnets.0.norm1.bias/out"], parallel = #sbp.parallel<[] -> [[#sbp.B]]>, scope_symbol_id = 2148 : i64, shape = [1280 : si64]} : () -> (tensor<1280xf16>, tensor<i1>)
    %output_466, %ctrl_output_467 = "oneflow.variable"() {data_type = 9 : i32, device_name = ["@0:0"], device_tag = "cuda", hierarchy = [1], op_name = "variable_383", output_lbns = ["variable_383/out"], parallel = #sbp.parallel<[] -> [[#sbp.B]]>, scope_symbol_id = 2160 : i64, shape = [1280 : si64, 3 : si64, 3 : si64, 1280 : si64]} : () -> (tensor<1280x3x3x1280xf16>, tensor<i1>)
    %output_468, %ctrl_output_469 = "oneflow.variable"() {data_type = 9 : i32, device_name = ["@0:0"], device_tag = "cuda", hierarchy = [1], op_name = "unet.down_blocks.3.resnets.0.conv1.bias", output_lbns = ["unet.down_blocks.3.resnets.0.conv1.bias/out"], parallel = #sbp.parallel<[] -> [[#sbp.B]]>, scope_symbol_id = 2164 : i64, shape = [1280 : si64]} : () -> (tensor<1280xf16>, tensor<i1>)
    %output_470, %ctrl_output_471 = "oneflow.variable"() {data_type = 9 : i32, device_name = ["@0:0"], device_tag = "cuda", hierarchy = [1], op_name = "unet.down_blocks.3.resnets.0.time_emb_proj.weight", output_lbns = ["unet.down_blocks.3.resnets.0.time_emb_proj.weight/out"], parallel = #sbp.parallel<[] -> [[#sbp.B]]>, scope_symbol_id = 2175 : i64, shape = [1280 : si64, 1280 : si64]} : () -> (tensor<1280x1280xf16>, tensor<i1>)
    %output_472, %ctrl_output_473 = "oneflow.variable"() {data_type = 9 : i32, device_name = ["@0:0"], device_tag = "cuda", hierarchy = [1], op_name = "unet.down_blocks.3.resnets.0.time_emb_proj.bias", output_lbns = ["unet.down_blocks.3.resnets.0.time_emb_proj.bias/out"], parallel = #sbp.parallel<[] -> [[#sbp.B]]>, scope_symbol_id = 2182 : i64, shape = [1280 : si64]} : () -> (tensor<1280xf16>, tensor<i1>)
    %output_474, %ctrl_output_475 = "oneflow.variable"() {data_type = 9 : i32, device_name = ["@0:0"], device_tag = "cuda", hierarchy = [1], op_name = "unet.down_blocks.3.resnets.0.norm2.weight", output_lbns = ["unet.down_blocks.3.resnets.0.norm2.weight/out"], parallel = #sbp.parallel<[] -> [[#sbp.B]]>, scope_symbol_id = 2199 : i64, shape = [1280 : si64]} : () -> (tensor<1280xf16>, tensor<i1>)
    %output_476, %ctrl_output_477 = "oneflow.variable"() {data_type = 9 : i32, device_name = ["@0:0"], device_tag = "cuda", hierarchy = [1], op_name = "unet.down_blocks.3.resnets.0.norm2.bias", output_lbns = ["unet.down_blocks.3.resnets.0.norm2.bias/out"], parallel = #sbp.parallel<[] -> [[#sbp.B]]>, scope_symbol_id = 2203 : i64, shape = [1280 : si64]} : () -> (tensor<1280xf16>, tensor<i1>)
    %output_478, %ctrl_output_479 = "oneflow.variable"() {data_type = 9 : i32, device_name = ["@0:0"], device_tag = "cuda", hierarchy = [1], op_name = "variable_382", output_lbns = ["variable_382/out"], parallel = #sbp.parallel<[] -> [[#sbp.B]]>, scope_symbol_id = 2215 : i64, shape = [1280 : si64, 3 : si64, 3 : si64, 1280 : si64]} : () -> (tensor<1280x3x3x1280xf16>, tensor<i1>)
    %output_480, %ctrl_output_481 = "oneflow.variable"() {data_type = 9 : i32, device_name = ["@0:0"], device_tag = "cuda", hierarchy = [1], op_name = "unet.down_blocks.3.resnets.0.conv2.bias", output_lbns = ["unet.down_blocks.3.resnets.0.conv2.bias/out"], parallel = #sbp.parallel<[] -> [[#sbp.B]]>, scope_symbol_id = 2219 : i64, shape = [1280 : si64]} : () -> (tensor<1280xf16>, tensor<i1>)
    %output_482, %ctrl_output_483 = "oneflow.variable"() {data_type = 9 : i32, device_name = ["@0:0"], device_tag = "cuda", hierarchy = [1], op_name = "unet.down_blocks.3.resnets.1.norm1.weight", output_lbns = ["unet.down_blocks.3.resnets.1.norm1.weight/out"], parallel = #sbp.parallel<[] -> [[#sbp.B]]>, scope_symbol_id = 2234 : i64, shape = [1280 : si64]} : () -> (tensor<1280xf16>, tensor<i1>)
    %output_484, %ctrl_output_485 = "oneflow.variable"() {data_type = 9 : i32, device_name = ["@0:0"], device_tag = "cuda", hierarchy = [1], op_name = "unet.down_blocks.3.resnets.1.norm1.bias", output_lbns = ["unet.down_blocks.3.resnets.1.norm1.bias/out"], parallel = #sbp.parallel<[] -> [[#sbp.B]]>, scope_symbol_id = 2238 : i64, shape = [1280 : si64]} : () -> (tensor<1280xf16>, tensor<i1>)
    %output_486, %ctrl_output_487 = "oneflow.variable"() {data_type = 9 : i32, device_name = ["@0:0"], device_tag = "cuda", hierarchy = [1], op_name = "variable_381", output_lbns = ["variable_381/out"], parallel = #sbp.parallel<[] -> [[#sbp.B]]>, scope_symbol_id = 2250 : i64, shape = [1280 : si64, 3 : si64, 3 : si64, 1280 : si64]} : () -> (tensor<1280x3x3x1280xf16>, tensor<i1>)
    %output_488, %ctrl_output_489 = "oneflow.variable"() {data_type = 9 : i32, device_name = ["@0:0"], device_tag = "cuda", hierarchy = [1], op_name = "unet.down_blocks.3.resnets.1.conv1.bias", output_lbns = ["unet.down_blocks.3.resnets.1.conv1.bias/out"], parallel = #sbp.parallel<[] -> [[#sbp.B]]>, scope_symbol_id = 2254 : i64, shape = [1280 : si64]} : () -> (tensor<1280xf16>, tensor<i1>)
    %output_490, %ctrl_output_491 = "oneflow.variable"() {data_type = 9 : i32, device_name = ["@0:0"], device_tag = "cuda", hierarchy = [1], op_name = "unet.down_blocks.3.resnets.1.time_emb_proj.weight", output_lbns = ["unet.down_blocks.3.resnets.1.time_emb_proj.weight/out"], parallel = #sbp.parallel<[] -> [[#sbp.B]]>, scope_symbol_id = 2265 : i64, shape = [1280 : si64, 1280 : si64]} : () -> (tensor<1280x1280xf16>, tensor<i1>)
    %output_492, %ctrl_output_493 = "oneflow.variable"() {data_type = 9 : i32, device_name = ["@0:0"], device_tag = "cuda", hierarchy = [1], op_name = "unet.down_blocks.3.resnets.1.time_emb_proj.bias", output_lbns = ["unet.down_blocks.3.resnets.1.time_emb_proj.bias/out"], parallel = #sbp.parallel<[] -> [[#sbp.B]]>, scope_symbol_id = 2272 : i64, shape = [1280 : si64]} : () -> (tensor<1280xf16>, tensor<i1>)
    %output_494, %ctrl_output_495 = "oneflow.variable"() {data_type = 9 : i32, device_name = ["@0:0"], device_tag = "cuda", hierarchy = [1], op_name = "unet.down_blocks.3.resnets.1.norm2.weight", output_lbns = ["unet.down_blocks.3.resnets.1.norm2.weight/out"], parallel = #sbp.parallel<[] -> [[#sbp.B]]>, scope_symbol_id = 2289 : i64, shape = [1280 : si64]} : () -> (tensor<1280xf16>, tensor<i1>)
    %output_496, %ctrl_output_497 = "oneflow.variable"() {data_type = 9 : i32, device_name = ["@0:0"], device_tag = "cuda", hierarchy = [1], op_name = "unet.down_blocks.3.resnets.1.norm2.bias", output_lbns = ["unet.down_blocks.3.resnets.1.norm2.bias/out"], parallel = #sbp.parallel<[] -> [[#sbp.B]]>, scope_symbol_id = 2293 : i64, shape = [1280 : si64]} : () -> (tensor<1280xf16>, tensor<i1>)
    %output_498, %ctrl_output_499 = "oneflow.variable"() {data_type = 9 : i32, device_name = ["@0:0"], device_tag = "cuda", hierarchy = [1], op_name = "variable_380", output_lbns = ["variable_380/out"], parallel = #sbp.parallel<[] -> [[#sbp.B]]>, scope_symbol_id = 2305 : i64, shape = [1280 : si64, 3 : si64, 3 : si64, 1280 : si64]} : () -> (tensor<1280x3x3x1280xf16>, tensor<i1>)
    %output_500, %ctrl_output_501 = "oneflow.variable"() {data_type = 9 : i32, device_name = ["@0:0"], device_tag = "cuda", hierarchy = [1], op_name = "unet.down_blocks.3.resnets.1.conv2.bias", output_lbns = ["unet.down_blocks.3.resnets.1.conv2.bias/out"], parallel = #sbp.parallel<[] -> [[#sbp.B]]>, scope_symbol_id = 2309 : i64, shape = [1280 : si64]} : () -> (tensor<1280xf16>, tensor<i1>)
    %output_502, %ctrl_output_503 = "oneflow.variable"() {data_type = 9 : i32, device_name = ["@0:0"], device_tag = "cuda", hierarchy = [1], op_name = "unet.mid_block.resnets.0.norm1.weight", output_lbns = ["unet.mid_block.resnets.0.norm1.weight/out"], parallel = #sbp.parallel<[] -> [[#sbp.B]]>, scope_symbol_id = 2325 : i64, shape = [1280 : si64]} : () -> (tensor<1280xf16>, tensor<i1>)
    %output_504, %ctrl_output_505 = "oneflow.variable"() {data_type = 9 : i32, device_name = ["@0:0"], device_tag = "cuda", hierarchy = [1], op_name = "unet.mid_block.resnets.0.norm1.bias", output_lbns = ["unet.mid_block.resnets.0.norm1.bias/out"], parallel = #sbp.parallel<[] -> [[#sbp.B]]>, scope_symbol_id = 2329 : i64, shape = [1280 : si64]} : () -> (tensor<1280xf16>, tensor<i1>)
    %output_506, %ctrl_output_507 = "oneflow.variable"() {data_type = 9 : i32, device_name = ["@0:0"], device_tag = "cuda", hierarchy = [1], op_name = "variable_379", output_lbns = ["variable_379/out"], parallel = #sbp.parallel<[] -> [[#sbp.B]]>, scope_symbol_id = 2341 : i64, shape = [1280 : si64, 3 : si64, 3 : si64, 1280 : si64]} : () -> (tensor<1280x3x3x1280xf16>, tensor<i1>)
    %output_508, %ctrl_output_509 = "oneflow.variable"() {data_type = 9 : i32, device_name = ["@0:0"], device_tag = "cuda", hierarchy = [1], op_name = "unet.mid_block.resnets.0.conv1.bias", output_lbns = ["unet.mid_block.resnets.0.conv1.bias/out"], parallel = #sbp.parallel<[] -> [[#sbp.B]]>, scope_symbol_id = 2345 : i64, shape = [1280 : si64]} : () -> (tensor<1280xf16>, tensor<i1>)
    %output_510, %ctrl_output_511 = "oneflow.variable"() {data_type = 9 : i32, device_name = ["@0:0"], device_tag = "cuda", hierarchy = [1], op_name = "unet.mid_block.resnets.0.time_emb_proj.weight", output_lbns = ["unet.mid_block.resnets.0.time_emb_proj.weight/out"], parallel = #sbp.parallel<[] -> [[#sbp.B]]>, scope_symbol_id = 2356 : i64, shape = [1280 : si64, 1280 : si64]} : () -> (tensor<1280x1280xf16>, tensor<i1>)
    %output_512, %ctrl_output_513 = "oneflow.variable"() {data_type = 9 : i32, device_name = ["@0:0"], device_tag = "cuda", hierarchy = [1], op_name = "unet.mid_block.resnets.0.time_emb_proj.bias", output_lbns = ["unet.mid_block.resnets.0.time_emb_proj.bias/out"], parallel = #sbp.parallel<[] -> [[#sbp.B]]>, scope_symbol_id = 2363 : i64, shape = [1280 : si64]} : () -> (tensor<1280xf16>, tensor<i1>)
    %output_514, %ctrl_output_515 = "oneflow.variable"() {data_type = 9 : i32, device_name = ["@0:0"], device_tag = "cuda", hierarchy = [1], op_name = "unet.mid_block.resnets.0.norm2.weight", output_lbns = ["unet.mid_block.resnets.0.norm2.weight/out"], parallel = #sbp.parallel<[] -> [[#sbp.B]]>, scope_symbol_id = 2380 : i64, shape = [1280 : si64]} : () -> (tensor<1280xf16>, tensor<i1>)
    %output_516, %ctrl_output_517 = "oneflow.variable"() {data_type = 9 : i32, device_name = ["@0:0"], device_tag = "cuda", hierarchy = [1], op_name = "unet.mid_block.resnets.0.norm2.bias", output_lbns = ["unet.mid_block.resnets.0.norm2.bias/out"], parallel = #sbp.parallel<[] -> [[#sbp.B]]>, scope_symbol_id = 2384 : i64, shape = [1280 : si64]} : () -> (tensor<1280xf16>, tensor<i1>)
    %output_518, %ctrl_output_519 = "oneflow.variable"() {data_type = 9 : i32, device_name = ["@0:0"], device_tag = "cuda", hierarchy = [1], op_name = "variable_378", output_lbns = ["variable_378/out"], parallel = #sbp.parallel<[] -> [[#sbp.B]]>, scope_symbol_id = 2396 : i64, shape = [1280 : si64, 3 : si64, 3 : si64, 1280 : si64]} : () -> (tensor<1280x3x3x1280xf16>, tensor<i1>)
    %output_520, %ctrl_output_521 = "oneflow.variable"() {data_type = 9 : i32, device_name = ["@0:0"], device_tag = "cuda", hierarchy = [1], op_name = "unet.mid_block.resnets.0.conv2.bias", output_lbns = ["unet.mid_block.resnets.0.conv2.bias/out"], parallel = #sbp.parallel<[] -> [[#sbp.B]]>, scope_symbol_id = 2400 : i64, shape = [1280 : si64]} : () -> (tensor<1280xf16>, tensor<i1>)
    %output_522, %ctrl_output_523 = "oneflow.variable"() {data_type = 9 : i32, device_name = ["@0:0"], device_tag = "cuda", hierarchy = [1], op_name = "unet.mid_block.attentions.0.norm.weight", output_lbns = ["unet.mid_block.attentions.0.norm.weight/out"], parallel = #sbp.parallel<[] -> [[#sbp.B]]>, scope_symbol_id = 2415 : i64, shape = [1280 : si64]} : () -> (tensor<1280xf16>, tensor<i1>)
    %output_524, %ctrl_output_525 = "oneflow.variable"() {data_type = 9 : i32, device_name = ["@0:0"], device_tag = "cuda", hierarchy = [1], op_name = "unet.mid_block.attentions.0.norm.bias", output_lbns = ["unet.mid_block.attentions.0.norm.bias/out"], parallel = #sbp.parallel<[] -> [[#sbp.B]]>, scope_symbol_id = 2419 : i64, shape = [1280 : si64]} : () -> (tensor<1280xf16>, tensor<i1>)
    %output_526, %ctrl_output_527 = "oneflow.variable"() {data_type = 9 : i32, device_name = ["@0:0"], device_tag = "cuda", hierarchy = [1], op_name = "variable_377", output_lbns = ["variable_377/out"], parallel = #sbp.parallel<[] -> [[#sbp.B]]>, scope_symbol_id = 2427 : i64, shape = [1280 : si64, 1 : si64, 1 : si64, 1280 : si64]} : () -> (tensor<1280x1x1x1280xf16>, tensor<i1>)
    %output_528, %ctrl_output_529 = "oneflow.variable"() {data_type = 9 : i32, device_name = ["@0:0"], device_tag = "cuda", hierarchy = [1], op_name = "unet.mid_block.attentions.0.proj_in.bias", output_lbns = ["unet.mid_block.attentions.0.proj_in.bias/out"], parallel = #sbp.parallel<[] -> [[#sbp.B]]>, scope_symbol_id = 2431 : i64, shape = [1280 : si64]} : () -> (tensor<1280xf16>, tensor<i1>)
    %output_530, %ctrl_output_531 = "oneflow.variable"() {data_type = 9 : i32, device_name = ["@0:0"], device_tag = "cuda", hierarchy = [1], op_name = "unet.mid_block.attentions.0.transformer_blocks.0.norm1.weight", output_lbns = ["unet.mid_block.attentions.0.transformer_blocks.0.norm1.weight/out"], parallel = #sbp.parallel<[] -> [[#sbp.B]]>, scope_symbol_id = 2446 : i64, shape = [1280 : si64]} : () -> (tensor<1280xf16>, tensor<i1>)
    %output_532, %ctrl_output_533 = "oneflow.variable"() {data_type = 9 : i32, device_name = ["@0:0"], device_tag = "cuda", hierarchy = [1], op_name = "unet.mid_block.attentions.0.transformer_blocks.0.norm1.bias", output_lbns = ["unet.mid_block.attentions.0.transformer_blocks.0.norm1.bias/out"], parallel = #sbp.parallel<[] -> [[#sbp.B]]>, scope_symbol_id = 2450 : i64, shape = [1280 : si64]} : () -> (tensor<1280xf16>, tensor<i1>)
    %output_534, %ctrl_output_535 = "oneflow.variable"() {data_type = 9 : i32, device_name = ["@0:0"], device_tag = "cuda", hierarchy = [1], op_name = "unet.mid_block.attentions.0.transformer_blocks.0.attn1.to_q.weight", output_lbns = ["unet.mid_block.attentions.0.transformer_blocks.0.attn1.to_q.weight/out"], parallel = #sbp.parallel<[] -> [[#sbp.B]]>, scope_symbol_id = 2459 : i64, shape = [1280 : si64, 1280 : si64]} : () -> (tensor<1280x1280xf16>, tensor<i1>)
    %output_536, %ctrl_output_537 = "oneflow.variable"() {data_type = 9 : i32, device_name = ["@0:0"], device_tag = "cuda", hierarchy = [1], op_name = "unet.mid_block.attentions.0.transformer_blocks.0.attn1.to_k.weight", output_lbns = ["unet.mid_block.attentions.0.transformer_blocks.0.attn1.to_k.weight/out"], parallel = #sbp.parallel<[] -> [[#sbp.B]]>, scope_symbol_id = 2467 : i64, shape = [1280 : si64, 1280 : si64]} : () -> (tensor<1280x1280xf16>, tensor<i1>)
    %output_538, %ctrl_output_539 = "oneflow.variable"() {data_type = 9 : i32, device_name = ["@0:0"], device_tag = "cuda", hierarchy = [1], op_name = "unet.mid_block.attentions.0.transformer_blocks.0.attn1.to_v.weight", output_lbns = ["unet.mid_block.attentions.0.transformer_blocks.0.attn1.to_v.weight/out"], parallel = #sbp.parallel<[] -> [[#sbp.B]]>, scope_symbol_id = 2475 : i64, shape = [1280 : si64, 1280 : si64]} : () -> (tensor<1280x1280xf16>, tensor<i1>)
    %output_540, %ctrl_output_541 = "oneflow.variable"() {data_type = 9 : i32, device_name = ["@0:0"], device_tag = "cuda", hierarchy = [1], op_name = "unet.mid_block.attentions.0.transformer_blocks.0.attn1.to_out.0.weight", output_lbns = ["unet.mid_block.attentions.0.transformer_blocks.0.attn1.to_out.0.weight/out"], parallel = #sbp.parallel<[] -> [[#sbp.B]]>, scope_symbol_id = 2487 : i64, shape = [1280 : si64, 1280 : si64]} : () -> (tensor<1280x1280xf16>, tensor<i1>)
    %output_542, %ctrl_output_543 = "oneflow.variable"() {data_type = 9 : i32, device_name = ["@0:0"], device_tag = "cuda", hierarchy = [1], op_name = "unet.mid_block.attentions.0.transformer_blocks.0.attn1.to_out.0.bias", output_lbns = ["unet.mid_block.attentions.0.transformer_blocks.0.attn1.to_out.0.bias/out"], parallel = #sbp.parallel<[] -> [[#sbp.B]]>, scope_symbol_id = 2494 : i64, shape = [1280 : si64]} : () -> (tensor<1280xf16>, tensor<i1>)
    %output_544, %ctrl_output_545 = "oneflow.variable"() {data_type = 9 : i32, device_name = ["@0:0"], device_tag = "cuda", hierarchy = [1], op_name = "unet.mid_block.attentions.0.transformer_blocks.0.norm2.weight", output_lbns = ["unet.mid_block.attentions.0.transformer_blocks.0.norm2.weight/out"], parallel = #sbp.parallel<[] -> [[#sbp.B]]>, scope_symbol_id = 2506 : i64, shape = [1280 : si64]} : () -> (tensor<1280xf16>, tensor<i1>)
    %output_546, %ctrl_output_547 = "oneflow.variable"() {data_type = 9 : i32, device_name = ["@0:0"], device_tag = "cuda", hierarchy = [1], op_name = "unet.mid_block.attentions.0.transformer_blocks.0.norm2.bias", output_lbns = ["unet.mid_block.attentions.0.transformer_blocks.0.norm2.bias/out"], parallel = #sbp.parallel<[] -> [[#sbp.B]]>, scope_symbol_id = 2510 : i64, shape = [1280 : si64]} : () -> (tensor<1280xf16>, tensor<i1>)
    %output_548, %ctrl_output_549 = "oneflow.variable"() {data_type = 9 : i32, device_name = ["@0:0"], device_tag = "cuda", hierarchy = [1], op_name = "unet.mid_block.attentions.0.transformer_blocks.0.attn2.to_q.weight", output_lbns = ["unet.mid_block.attentions.0.transformer_blocks.0.attn2.to_q.weight/out"], parallel = #sbp.parallel<[] -> [[#sbp.B]]>, scope_symbol_id = 2519 : i64, shape = [1280 : si64, 1280 : si64]} : () -> (tensor<1280x1280xf16>, tensor<i1>)
    %output_550, %ctrl_output_551 = "oneflow.variable"() {data_type = 9 : i32, device_name = ["@0:0"], device_tag = "cuda", hierarchy = [1], op_name = "unet.mid_block.attentions.0.transformer_blocks.0.attn2.to_k.weight", output_lbns = ["unet.mid_block.attentions.0.transformer_blocks.0.attn2.to_k.weight/out"], parallel = #sbp.parallel<[] -> [[#sbp.B]]>, scope_symbol_id = 2527 : i64, shape = [1280 : si64, 768 : si64]} : () -> (tensor<1280x768xf16>, tensor<i1>)
    %output_552, %ctrl_output_553 = "oneflow.variable"() {data_type = 9 : i32, device_name = ["@0:0"], device_tag = "cuda", hierarchy = [1], op_name = "unet.mid_block.attentions.0.transformer_blocks.0.attn2.to_v.weight", output_lbns = ["unet.mid_block.attentions.0.transformer_blocks.0.attn2.to_v.weight/out"], parallel = #sbp.parallel<[] -> [[#sbp.B]]>, scope_symbol_id = 2535 : i64, shape = [1280 : si64, 768 : si64]} : () -> (tensor<1280x768xf16>, tensor<i1>)
    %output_554, %ctrl_output_555 = "oneflow.variable"() {data_type = 9 : i32, device_name = ["@0:0"], device_tag = "cuda", hierarchy = [1], op_name = "unet.mid_block.attentions.0.transformer_blocks.0.attn2.to_out.0.weight", output_lbns = ["unet.mid_block.attentions.0.transformer_blocks.0.attn2.to_out.0.weight/out"], parallel = #sbp.parallel<[] -> [[#sbp.B]]>, scope_symbol_id = 2547 : i64, shape = [1280 : si64, 1280 : si64]} : () -> (tensor<1280x1280xf16>, tensor<i1>)
    %output_556, %ctrl_output_557 = "oneflow.variable"() {data_type = 9 : i32, device_name = ["@0:0"], device_tag = "cuda", hierarchy = [1], op_name = "unet.mid_block.attentions.0.transformer_blocks.0.attn2.to_out.0.bias", output_lbns = ["unet.mid_block.attentions.0.transformer_blocks.0.attn2.to_out.0.bias/out"], parallel = #sbp.parallel<[] -> [[#sbp.B]]>, scope_symbol_id = 2554 : i64, shape = [1280 : si64]} : () -> (tensor<1280xf16>, tensor<i1>)
    %output_558, %ctrl_output_559 = "oneflow.variable"() {data_type = 9 : i32, device_name = ["@0:0"], device_tag = "cuda", hierarchy = [1], op_name = "unet.mid_block.attentions.0.transformer_blocks.0.norm3.weight", output_lbns = ["unet.mid_block.attentions.0.transformer_blocks.0.norm3.weight/out"], parallel = #sbp.parallel<[] -> [[#sbp.B]]>, scope_symbol_id = 2566 : i64, shape = [1280 : si64]} : () -> (tensor<1280xf16>, tensor<i1>)
    %output_560, %ctrl_output_561 = "oneflow.variable"() {data_type = 9 : i32, device_name = ["@0:0"], device_tag = "cuda", hierarchy = [1], op_name = "unet.mid_block.attentions.0.transformer_blocks.0.norm3.bias", output_lbns = ["unet.mid_block.attentions.0.transformer_blocks.0.norm3.bias/out"], parallel = #sbp.parallel<[] -> [[#sbp.B]]>, scope_symbol_id = 2570 : i64, shape = [1280 : si64]} : () -> (tensor<1280xf16>, tensor<i1>)
    %output_562, %ctrl_output_563 = "oneflow.variable"() {data_type = 9 : i32, device_name = ["@0:0"], device_tag = "cuda", hierarchy = [1], op_name = "unet.mid_block.attentions.0.transformer_blocks.0.ff.net.0.proj.weight", output_lbns = ["unet.mid_block.attentions.0.transformer_blocks.0.ff.net.0.proj.weight/out"], parallel = #sbp.parallel<[] -> [[#sbp.B]]>, scope_symbol_id = 2581 : i64, shape = [10240 : si64, 1280 : si64]} : () -> (tensor<10240x1280xf16>, tensor<i1>)
    %output_564, %ctrl_output_565 = "oneflow.variable"() {data_type = 9 : i32, device_name = ["@0:0"], device_tag = "cuda", hierarchy = [1], op_name = "unet.mid_block.attentions.0.transformer_blocks.0.ff.net.0.proj.bias", output_lbns = ["unet.mid_block.attentions.0.transformer_blocks.0.ff.net.0.proj.bias/out"], parallel = #sbp.parallel<[] -> [[#sbp.B]]>, scope_symbol_id = 2588 : i64, shape = [10240 : si64]} : () -> (tensor<10240xf16>, tensor<i1>)
    %output_566, %ctrl_output_567 = "oneflow.variable"() {data_type = 9 : i32, device_name = ["@0:0"], device_tag = "cuda", hierarchy = [1], op_name = "unet.mid_block.attentions.0.transformer_blocks.0.ff.net.2.weight", output_lbns = ["unet.mid_block.attentions.0.transformer_blocks.0.ff.net.2.weight/out"], parallel = #sbp.parallel<[] -> [[#sbp.B]]>, scope_symbol_id = 2609 : i64, shape = [1280 : si64, 5120 : si64]} : () -> (tensor<1280x5120xf16>, tensor<i1>)
    %output_568, %ctrl_output_569 = "oneflow.variable"() {data_type = 9 : i32, device_name = ["@0:0"], device_tag = "cuda", hierarchy = [1], op_name = "unet.mid_block.attentions.0.transformer_blocks.0.ff.net.2.bias", output_lbns = ["unet.mid_block.attentions.0.transformer_blocks.0.ff.net.2.bias/out"], parallel = #sbp.parallel<[] -> [[#sbp.B]]>, scope_symbol_id = 2616 : i64, shape = [1280 : si64]} : () -> (tensor<1280xf16>, tensor<i1>)
    %output_570, %ctrl_output_571 = "oneflow.variable"() {data_type = 9 : i32, device_name = ["@0:0"], device_tag = "cuda", hierarchy = [1], op_name = "variable_376", output_lbns = ["variable_376/out"], parallel = #sbp.parallel<[] -> [[#sbp.B]]>, scope_symbol_id = 2633 : i64, shape = [1280 : si64, 1 : si64, 1 : si64, 1280 : si64]} : () -> (tensor<1280x1x1x1280xf16>, tensor<i1>)
    %output_572, %ctrl_output_573 = "oneflow.variable"() {data_type = 9 : i32, device_name = ["@0:0"], device_tag = "cuda", hierarchy = [1], op_name = "unet.mid_block.attentions.0.proj_out.bias", output_lbns = ["unet.mid_block.attentions.0.proj_out.bias/out"], parallel = #sbp.parallel<[] -> [[#sbp.B]]>, scope_symbol_id = 2637 : i64, shape = [1280 : si64]} : () -> (tensor<1280xf16>, tensor<i1>)
    %output_574, %ctrl_output_575 = "oneflow.variable"() {data_type = 9 : i32, device_name = ["@0:0"], device_tag = "cuda", hierarchy = [1], op_name = "unet.mid_block.resnets.1.norm1.weight", output_lbns = ["unet.mid_block.resnets.1.norm1.weight/out"], parallel = #sbp.parallel<[] -> [[#sbp.B]]>, scope_symbol_id = 2649 : i64, shape = [1280 : si64]} : () -> (tensor<1280xf16>, tensor<i1>)
    %output_576, %ctrl_output_577 = "oneflow.variable"() {data_type = 9 : i32, device_name = ["@0:0"], device_tag = "cuda", hierarchy = [1], op_name = "unet.mid_block.resnets.1.norm1.bias", output_lbns = ["unet.mid_block.resnets.1.norm1.bias/out"], parallel = #sbp.parallel<[] -> [[#sbp.B]]>, scope_symbol_id = 2653 : i64, shape = [1280 : si64]} : () -> (tensor<1280xf16>, tensor<i1>)
    %output_578, %ctrl_output_579 = "oneflow.variable"() {data_type = 9 : i32, device_name = ["@0:0"], device_tag = "cuda", hierarchy = [1], op_name = "variable_375", output_lbns = ["variable_375/out"], parallel = #sbp.parallel<[] -> [[#sbp.B]]>, scope_symbol_id = 2665 : i64, shape = [1280 : si64, 3 : si64, 3 : si64, 1280 : si64]} : () -> (tensor<1280x3x3x1280xf16>, tensor<i1>)
    %output_580, %ctrl_output_581 = "oneflow.variable"() {data_type = 9 : i32, device_name = ["@0:0"], device_tag = "cuda", hierarchy = [1], op_name = "unet.mid_block.resnets.1.conv1.bias", output_lbns = ["unet.mid_block.resnets.1.conv1.bias/out"], parallel = #sbp.parallel<[] -> [[#sbp.B]]>, scope_symbol_id = 2669 : i64, shape = [1280 : si64]} : () -> (tensor<1280xf16>, tensor<i1>)
    %output_582, %ctrl_output_583 = "oneflow.variable"() {data_type = 9 : i32, device_name = ["@0:0"], device_tag = "cuda", hierarchy = [1], op_name = "unet.mid_block.resnets.1.time_emb_proj.weight", output_lbns = ["unet.mid_block.resnets.1.time_emb_proj.weight/out"], parallel = #sbp.parallel<[] -> [[#sbp.B]]>, scope_symbol_id = 2680 : i64, shape = [1280 : si64, 1280 : si64]} : () -> (tensor<1280x1280xf16>, tensor<i1>)
    %output_584, %ctrl_output_585 = "oneflow.variable"() {data_type = 9 : i32, device_name = ["@0:0"], device_tag = "cuda", hierarchy = [1], op_name = "unet.mid_block.resnets.1.time_emb_proj.bias", output_lbns = ["unet.mid_block.resnets.1.time_emb_proj.bias/out"], parallel = #sbp.parallel<[] -> [[#sbp.B]]>, scope_symbol_id = 2687 : i64, shape = [1280 : si64]} : () -> (tensor<1280xf16>, tensor<i1>)
    %output_586, %ctrl_output_587 = "oneflow.variable"() {data_type = 9 : i32, device_name = ["@0:0"], device_tag = "cuda", hierarchy = [1], op_name = "unet.mid_block.resnets.1.norm2.weight", output_lbns = ["unet.mid_block.resnets.1.norm2.weight/out"], parallel = #sbp.parallel<[] -> [[#sbp.B]]>, scope_symbol_id = 2704 : i64, shape = [1280 : si64]} : () -> (tensor<1280xf16>, tensor<i1>)
    %output_588, %ctrl_output_589 = "oneflow.variable"() {data_type = 9 : i32, device_name = ["@0:0"], device_tag = "cuda", hierarchy = [1], op_name = "unet.mid_block.resnets.1.norm2.bias", output_lbns = ["unet.mid_block.resnets.1.norm2.bias/out"], parallel = #sbp.parallel<[] -> [[#sbp.B]]>, scope_symbol_id = 2708 : i64, shape = [1280 : si64]} : () -> (tensor<1280xf16>, tensor<i1>)
    %output_590, %ctrl_output_591 = "oneflow.variable"() {data_type = 9 : i32, device_name = ["@0:0"], device_tag = "cuda", hierarchy = [1], op_name = "variable_374", output_lbns = ["variable_374/out"], parallel = #sbp.parallel<[] -> [[#sbp.B]]>, scope_symbol_id = 2720 : i64, shape = [1280 : si64, 3 : si64, 3 : si64, 1280 : si64]} : () -> (tensor<1280x3x3x1280xf16>, tensor<i1>)
    %output_592, %ctrl_output_593 = "oneflow.variable"() {data_type = 9 : i32, device_name = ["@0:0"], device_tag = "cuda", hierarchy = [1], op_name = "unet.mid_block.resnets.1.conv2.bias", output_lbns = ["unet.mid_block.resnets.1.conv2.bias/out"], parallel = #sbp.parallel<[] -> [[#sbp.B]]>, scope_symbol_id = 2724 : i64, shape = [1280 : si64]} : () -> (tensor<1280xf16>, tensor<i1>)
    %output_594, %ctrl_output_595 = "oneflow.variable"() {data_type = 9 : i32, device_name = ["@0:0"], device_tag = "cuda", hierarchy = [1], op_name = "unet.up_blocks.0.resnets.0.norm1.weight", output_lbns = ["unet.up_blocks.0.resnets.0.norm1.weight/out"], parallel = #sbp.parallel<[] -> [[#sbp.B]]>, scope_symbol_id = 2743 : i64, shape = [2560 : si64]} : () -> (tensor<2560xf16>, tensor<i1>)
    %output_596, %ctrl_output_597 = "oneflow.variable"() {data_type = 9 : i32, device_name = ["@0:0"], device_tag = "cuda", hierarchy = [1], op_name = "unet.up_blocks.0.resnets.0.norm1.bias", output_lbns = ["unet.up_blocks.0.resnets.0.norm1.bias/out"], parallel = #sbp.parallel<[] -> [[#sbp.B]]>, scope_symbol_id = 2747 : i64, shape = [2560 : si64]} : () -> (tensor<2560xf16>, tensor<i1>)
    %output_598, %ctrl_output_599 = "oneflow.variable"() {data_type = 9 : i32, device_name = ["@0:0"], device_tag = "cuda", hierarchy = [1], op_name = "variable_373", output_lbns = ["variable_373/out"], parallel = #sbp.parallel<[] -> [[#sbp.B]]>, scope_symbol_id = 2759 : i64, shape = [1280 : si64, 3 : si64, 3 : si64, 2560 : si64]} : () -> (tensor<1280x3x3x2560xf16>, tensor<i1>)
    %output_600, %ctrl_output_601 = "oneflow.variable"() {data_type = 9 : i32, device_name = ["@0:0"], device_tag = "cuda", hierarchy = [1], op_name = "unet.up_blocks.0.resnets.0.conv1.bias", output_lbns = ["unet.up_blocks.0.resnets.0.conv1.bias/out"], parallel = #sbp.parallel<[] -> [[#sbp.B]]>, scope_symbol_id = 2763 : i64, shape = [1280 : si64]} : () -> (tensor<1280xf16>, tensor<i1>)
    %output_602, %ctrl_output_603 = "oneflow.variable"() {data_type = 9 : i32, device_name = ["@0:0"], device_tag = "cuda", hierarchy = [1], op_name = "unet.up_blocks.0.resnets.0.time_emb_proj.weight", output_lbns = ["unet.up_blocks.0.resnets.0.time_emb_proj.weight/out"], parallel = #sbp.parallel<[] -> [[#sbp.B]]>, scope_symbol_id = 2774 : i64, shape = [1280 : si64, 1280 : si64]} : () -> (tensor<1280x1280xf16>, tensor<i1>)
    %output_604, %ctrl_output_605 = "oneflow.variable"() {data_type = 9 : i32, device_name = ["@0:0"], device_tag = "cuda", hierarchy = [1], op_name = "unet.up_blocks.0.resnets.0.time_emb_proj.bias", output_lbns = ["unet.up_blocks.0.resnets.0.time_emb_proj.bias/out"], parallel = #sbp.parallel<[] -> [[#sbp.B]]>, scope_symbol_id = 2781 : i64, shape = [1280 : si64]} : () -> (tensor<1280xf16>, tensor<i1>)
    %output_606, %ctrl_output_607 = "oneflow.variable"() {data_type = 9 : i32, device_name = ["@0:0"], device_tag = "cuda", hierarchy = [1], op_name = "unet.up_blocks.0.resnets.0.norm2.weight", output_lbns = ["unet.up_blocks.0.resnets.0.norm2.weight/out"], parallel = #sbp.parallel<[] -> [[#sbp.B]]>, scope_symbol_id = 2798 : i64, shape = [1280 : si64]} : () -> (tensor<1280xf16>, tensor<i1>)
    %output_608, %ctrl_output_609 = "oneflow.variable"() {data_type = 9 : i32, device_name = ["@0:0"], device_tag = "cuda", hierarchy = [1], op_name = "unet.up_blocks.0.resnets.0.norm2.bias", output_lbns = ["unet.up_blocks.0.resnets.0.norm2.bias/out"], parallel = #sbp.parallel<[] -> [[#sbp.B]]>, scope_symbol_id = 2802 : i64, shape = [1280 : si64]} : () -> (tensor<1280xf16>, tensor<i1>)
    %output_610, %ctrl_output_611 = "oneflow.variable"() {data_type = 9 : i32, device_name = ["@0:0"], device_tag = "cuda", hierarchy = [1], op_name = "variable_372", output_lbns = ["variable_372/out"], parallel = #sbp.parallel<[] -> [[#sbp.B]]>, scope_symbol_id = 2814 : i64, shape = [1280 : si64, 3 : si64, 3 : si64, 1280 : si64]} : () -> (tensor<1280x3x3x1280xf16>, tensor<i1>)
    %output_612, %ctrl_output_613 = "oneflow.variable"() {data_type = 9 : i32, device_name = ["@0:0"], device_tag = "cuda", hierarchy = [1], op_name = "unet.up_blocks.0.resnets.0.conv2.bias", output_lbns = ["unet.up_blocks.0.resnets.0.conv2.bias/out"], parallel = #sbp.parallel<[] -> [[#sbp.B]]>, scope_symbol_id = 2818 : i64, shape = [1280 : si64]} : () -> (tensor<1280xf16>, tensor<i1>)
    %output_614, %ctrl_output_615 = "oneflow.variable"() {data_type = 9 : i32, device_name = ["@0:0"], device_tag = "cuda", hierarchy = [1], op_name = "variable_371", output_lbns = ["variable_371/out"], parallel = #sbp.parallel<[] -> [[#sbp.B]]>, scope_symbol_id = 2826 : i64, shape = [1280 : si64, 1 : si64, 1 : si64, 2560 : si64]} : () -> (tensor<1280x1x1x2560xf16>, tensor<i1>)
    %output_616, %ctrl_output_617 = "oneflow.variable"() {data_type = 9 : i32, device_name = ["@0:0"], device_tag = "cuda", hierarchy = [1], op_name = "unet.up_blocks.0.resnets.0.conv_shortcut.bias", output_lbns = ["unet.up_blocks.0.resnets.0.conv_shortcut.bias/out"], parallel = #sbp.parallel<[] -> [[#sbp.B]]>, scope_symbol_id = 2830 : i64, shape = [1280 : si64]} : () -> (tensor<1280xf16>, tensor<i1>)
    %output_618, %ctrl_output_619 = "oneflow.variable"() {data_type = 9 : i32, device_name = ["@0:0"], device_tag = "cuda", hierarchy = [1], op_name = "unet.up_blocks.0.resnets.1.norm1.weight", output_lbns = ["unet.up_blocks.0.resnets.1.norm1.weight/out"], parallel = #sbp.parallel<[] -> [[#sbp.B]]>, scope_symbol_id = 2848 : i64, shape = [2560 : si64]} : () -> (tensor<2560xf16>, tensor<i1>)
    %output_620, %ctrl_output_621 = "oneflow.variable"() {data_type = 9 : i32, device_name = ["@0:0"], device_tag = "cuda", hierarchy = [1], op_name = "unet.up_blocks.0.resnets.1.norm1.bias", output_lbns = ["unet.up_blocks.0.resnets.1.norm1.bias/out"], parallel = #sbp.parallel<[] -> [[#sbp.B]]>, scope_symbol_id = 2852 : i64, shape = [2560 : si64]} : () -> (tensor<2560xf16>, tensor<i1>)
    %output_622, %ctrl_output_623 = "oneflow.variable"() {data_type = 9 : i32, device_name = ["@0:0"], device_tag = "cuda", hierarchy = [1], op_name = "variable_370", output_lbns = ["variable_370/out"], parallel = #sbp.parallel<[] -> [[#sbp.B]]>, scope_symbol_id = 2864 : i64, shape = [1280 : si64, 3 : si64, 3 : si64, 2560 : si64]} : () -> (tensor<1280x3x3x2560xf16>, tensor<i1>)
    %output_624, %ctrl_output_625 = "oneflow.variable"() {data_type = 9 : i32, device_name = ["@0:0"], device_tag = "cuda", hierarchy = [1], op_name = "unet.up_blocks.0.resnets.1.conv1.bias", output_lbns = ["unet.up_blocks.0.resnets.1.conv1.bias/out"], parallel = #sbp.parallel<[] -> [[#sbp.B]]>, scope_symbol_id = 2868 : i64, shape = [1280 : si64]} : () -> (tensor<1280xf16>, tensor<i1>)
    %output_626, %ctrl_output_627 = "oneflow.variable"() {data_type = 9 : i32, device_name = ["@0:0"], device_tag = "cuda", hierarchy = [1], op_name = "unet.up_blocks.0.resnets.1.time_emb_proj.weight", output_lbns = ["unet.up_blocks.0.resnets.1.time_emb_proj.weight/out"], parallel = #sbp.parallel<[] -> [[#sbp.B]]>, scope_symbol_id = 2879 : i64, shape = [1280 : si64, 1280 : si64]} : () -> (tensor<1280x1280xf16>, tensor<i1>)
    %output_628, %ctrl_output_629 = "oneflow.variable"() {data_type = 9 : i32, device_name = ["@0:0"], device_tag = "cuda", hierarchy = [1], op_name = "unet.up_blocks.0.resnets.1.time_emb_proj.bias", output_lbns = ["unet.up_blocks.0.resnets.1.time_emb_proj.bias/out"], parallel = #sbp.parallel<[] -> [[#sbp.B]]>, scope_symbol_id = 2886 : i64, shape = [1280 : si64]} : () -> (tensor<1280xf16>, tensor<i1>)
    %output_630, %ctrl_output_631 = "oneflow.variable"() {data_type = 9 : i32, device_name = ["@0:0"], device_tag = "cuda", hierarchy = [1], op_name = "unet.up_blocks.0.resnets.1.norm2.weight", output_lbns = ["unet.up_blocks.0.resnets.1.norm2.weight/out"], parallel = #sbp.parallel<[] -> [[#sbp.B]]>, scope_symbol_id = 2903 : i64, shape = [1280 : si64]} : () -> (tensor<1280xf16>, tensor<i1>)
    %output_632, %ctrl_output_633 = "oneflow.variable"() {data_type = 9 : i32, device_name = ["@0:0"], device_tag = "cuda", hierarchy = [1], op_name = "unet.up_blocks.0.resnets.1.norm2.bias", output_lbns = ["unet.up_blocks.0.resnets.1.norm2.bias/out"], parallel = #sbp.parallel<[] -> [[#sbp.B]]>, scope_symbol_id = 2907 : i64, shape = [1280 : si64]} : () -> (tensor<1280xf16>, tensor<i1>)
    %output_634, %ctrl_output_635 = "oneflow.variable"() {data_type = 9 : i32, device_name = ["@0:0"], device_tag = "cuda", hierarchy = [1], op_name = "variable_369", output_lbns = ["variable_369/out"], parallel = #sbp.parallel<[] -> [[#sbp.B]]>, scope_symbol_id = 2919 : i64, shape = [1280 : si64, 3 : si64, 3 : si64, 1280 : si64]} : () -> (tensor<1280x3x3x1280xf16>, tensor<i1>)
    %output_636, %ctrl_output_637 = "oneflow.variable"() {data_type = 9 : i32, device_name = ["@0:0"], device_tag = "cuda", hierarchy = [1], op_name = "unet.up_blocks.0.resnets.1.conv2.bias", output_lbns = ["unet.up_blocks.0.resnets.1.conv2.bias/out"], parallel = #sbp.parallel<[] -> [[#sbp.B]]>, scope_symbol_id = 2923 : i64, shape = [1280 : si64]} : () -> (tensor<1280xf16>, tensor<i1>)
    %output_638, %ctrl_output_639 = "oneflow.variable"() {data_type = 9 : i32, device_name = ["@0:0"], device_tag = "cuda", hierarchy = [1], op_name = "variable_368", output_lbns = ["variable_368/out"], parallel = #sbp.parallel<[] -> [[#sbp.B]]>, scope_symbol_id = 2931 : i64, shape = [1280 : si64, 1 : si64, 1 : si64, 2560 : si64]} : () -> (tensor<1280x1x1x2560xf16>, tensor<i1>)
    %output_640, %ctrl_output_641 = "oneflow.variable"() {data_type = 9 : i32, device_name = ["@0:0"], device_tag = "cuda", hierarchy = [1], op_name = "unet.up_blocks.0.resnets.1.conv_shortcut.bias", output_lbns = ["unet.up_blocks.0.resnets.1.conv_shortcut.bias/out"], parallel = #sbp.parallel<[] -> [[#sbp.B]]>, scope_symbol_id = 2935 : i64, shape = [1280 : si64]} : () -> (tensor<1280xf16>, tensor<i1>)
    %output_642, %ctrl_output_643 = "oneflow.variable"() {data_type = 9 : i32, device_name = ["@0:0"], device_tag = "cuda", hierarchy = [1], op_name = "unet.up_blocks.0.resnets.2.norm1.weight", output_lbns = ["unet.up_blocks.0.resnets.2.norm1.weight/out"], parallel = #sbp.parallel<[] -> [[#sbp.B]]>, scope_symbol_id = 2953 : i64, shape = [2560 : si64]} : () -> (tensor<2560xf16>, tensor<i1>)
    %output_644, %ctrl_output_645 = "oneflow.variable"() {data_type = 9 : i32, device_name = ["@0:0"], device_tag = "cuda", hierarchy = [1], op_name = "unet.up_blocks.0.resnets.2.norm1.bias", output_lbns = ["unet.up_blocks.0.resnets.2.norm1.bias/out"], parallel = #sbp.parallel<[] -> [[#sbp.B]]>, scope_symbol_id = 2957 : i64, shape = [2560 : si64]} : () -> (tensor<2560xf16>, tensor<i1>)
    %output_646, %ctrl_output_647 = "oneflow.variable"() {data_type = 9 : i32, device_name = ["@0:0"], device_tag = "cuda", hierarchy = [1], op_name = "variable_367", output_lbns = ["variable_367/out"], parallel = #sbp.parallel<[] -> [[#sbp.B]]>, scope_symbol_id = 2969 : i64, shape = [1280 : si64, 3 : si64, 3 : si64, 2560 : si64]} : () -> (tensor<1280x3x3x2560xf16>, tensor<i1>)
    %output_648, %ctrl_output_649 = "oneflow.variable"() {data_type = 9 : i32, device_name = ["@0:0"], device_tag = "cuda", hierarchy = [1], op_name = "unet.up_blocks.0.resnets.2.conv1.bias", output_lbns = ["unet.up_blocks.0.resnets.2.conv1.bias/out"], parallel = #sbp.parallel<[] -> [[#sbp.B]]>, scope_symbol_id = 2973 : i64, shape = [1280 : si64]} : () -> (tensor<1280xf16>, tensor<i1>)
    %output_650, %ctrl_output_651 = "oneflow.variable"() {data_type = 9 : i32, device_name = ["@0:0"], device_tag = "cuda", hierarchy = [1], op_name = "unet.up_blocks.0.resnets.2.time_emb_proj.weight", output_lbns = ["unet.up_blocks.0.resnets.2.time_emb_proj.weight/out"], parallel = #sbp.parallel<[] -> [[#sbp.B]]>, scope_symbol_id = 2984 : i64, shape = [1280 : si64, 1280 : si64]} : () -> (tensor<1280x1280xf16>, tensor<i1>)
    %output_652, %ctrl_output_653 = "oneflow.variable"() {data_type = 9 : i32, device_name = ["@0:0"], device_tag = "cuda", hierarchy = [1], op_name = "unet.up_blocks.0.resnets.2.time_emb_proj.bias", output_lbns = ["unet.up_blocks.0.resnets.2.time_emb_proj.bias/out"], parallel = #sbp.parallel<[] -> [[#sbp.B]]>, scope_symbol_id = 2991 : i64, shape = [1280 : si64]} : () -> (tensor<1280xf16>, tensor<i1>)
    %output_654, %ctrl_output_655 = "oneflow.variable"() {data_type = 9 : i32, device_name = ["@0:0"], device_tag = "cuda", hierarchy = [1], op_name = "unet.up_blocks.0.resnets.2.norm2.weight", output_lbns = ["unet.up_blocks.0.resnets.2.norm2.weight/out"], parallel = #sbp.parallel<[] -> [[#sbp.B]]>, scope_symbol_id = 3008 : i64, shape = [1280 : si64]} : () -> (tensor<1280xf16>, tensor<i1>)
    %output_656, %ctrl_output_657 = "oneflow.variable"() {data_type = 9 : i32, device_name = ["@0:0"], device_tag = "cuda", hierarchy = [1], op_name = "unet.up_blocks.0.resnets.2.norm2.bias", output_lbns = ["unet.up_blocks.0.resnets.2.norm2.bias/out"], parallel = #sbp.parallel<[] -> [[#sbp.B]]>, scope_symbol_id = 3012 : i64, shape = [1280 : si64]} : () -> (tensor<1280xf16>, tensor<i1>)
    %output_658, %ctrl_output_659 = "oneflow.variable"() {data_type = 9 : i32, device_name = ["@0:0"], device_tag = "cuda", hierarchy = [1], op_name = "variable_366", output_lbns = ["variable_366/out"], parallel = #sbp.parallel<[] -> [[#sbp.B]]>, scope_symbol_id = 3024 : i64, shape = [1280 : si64, 3 : si64, 3 : si64, 1280 : si64]} : () -> (tensor<1280x3x3x1280xf16>, tensor<i1>)
    %output_660, %ctrl_output_661 = "oneflow.variable"() {data_type = 9 : i32, device_name = ["@0:0"], device_tag = "cuda", hierarchy = [1], op_name = "unet.up_blocks.0.resnets.2.conv2.bias", output_lbns = ["unet.up_blocks.0.resnets.2.conv2.bias/out"], parallel = #sbp.parallel<[] -> [[#sbp.B]]>, scope_symbol_id = 3028 : i64, shape = [1280 : si64]} : () -> (tensor<1280xf16>, tensor<i1>)
    %output_662, %ctrl_output_663 = "oneflow.variable"() {data_type = 9 : i32, device_name = ["@0:0"], device_tag = "cuda", hierarchy = [1], op_name = "variable_365", output_lbns = ["variable_365/out"], parallel = #sbp.parallel<[] -> [[#sbp.B]]>, scope_symbol_id = 3036 : i64, shape = [1280 : si64, 1 : si64, 1 : si64, 2560 : si64]} : () -> (tensor<1280x1x1x2560xf16>, tensor<i1>)
    %output_664, %ctrl_output_665 = "oneflow.variable"() {data_type = 9 : i32, device_name = ["@0:0"], device_tag = "cuda", hierarchy = [1], op_name = "unet.up_blocks.0.resnets.2.conv_shortcut.bias", output_lbns = ["unet.up_blocks.0.resnets.2.conv_shortcut.bias/out"], parallel = #sbp.parallel<[] -> [[#sbp.B]]>, scope_symbol_id = 3040 : i64, shape = [1280 : si64]} : () -> (tensor<1280xf16>, tensor<i1>)
    %output_666, %ctrl_output_667 = "oneflow.variable"() {data_type = 9 : i32, device_name = ["@0:0"], device_tag = "cuda", hierarchy = [1], op_name = "variable_364", output_lbns = ["variable_364/out"], parallel = #sbp.parallel<[] -> [[#sbp.B]]>, scope_symbol_id = 3058 : i64, shape = [1280 : si64, 3 : si64, 3 : si64, 1280 : si64]} : () -> (tensor<1280x3x3x1280xf16>, tensor<i1>)
    %output_668, %ctrl_output_669 = "oneflow.variable"() {data_type = 9 : i32, device_name = ["@0:0"], device_tag = "cuda", hierarchy = [1], op_name = "unet.up_blocks.0.upsamplers.0.conv.bias", output_lbns = ["unet.up_blocks.0.upsamplers.0.conv.bias/out"], parallel = #sbp.parallel<[] -> [[#sbp.B]]>, scope_symbol_id = 3062 : i64, shape = [1280 : si64]} : () -> (tensor<1280xf16>, tensor<i1>)
    %output_670, %ctrl_output_671 = "oneflow.variable"() {data_type = 9 : i32, device_name = ["@0:0"], device_tag = "cuda", hierarchy = [1], op_name = "unet.up_blocks.1.resnets.0.norm1.weight", output_lbns = ["unet.up_blocks.1.resnets.0.norm1.weight/out"], parallel = #sbp.parallel<[] -> [[#sbp.B]]>, scope_symbol_id = 3075 : i64, shape = [2560 : si64]} : () -> (tensor<2560xf16>, tensor<i1>)
    %output_672, %ctrl_output_673 = "oneflow.variable"() {data_type = 9 : i32, device_name = ["@0:0"], device_tag = "cuda", hierarchy = [1], op_name = "unet.up_blocks.1.resnets.0.norm1.bias", output_lbns = ["unet.up_blocks.1.resnets.0.norm1.bias/out"], parallel = #sbp.parallel<[] -> [[#sbp.B]]>, scope_symbol_id = 3079 : i64, shape = [2560 : si64]} : () -> (tensor<2560xf16>, tensor<i1>)
    %output_674, %ctrl_output_675 = "oneflow.variable"() {data_type = 9 : i32, device_name = ["@0:0"], device_tag = "cuda", hierarchy = [1], op_name = "variable_363", output_lbns = ["variable_363/out"], parallel = #sbp.parallel<[] -> [[#sbp.B]]>, scope_symbol_id = 3091 : i64, shape = [1280 : si64, 3 : si64, 3 : si64, 2560 : si64]} : () -> (tensor<1280x3x3x2560xf16>, tensor<i1>)
    %output_676, %ctrl_output_677 = "oneflow.variable"() {data_type = 9 : i32, device_name = ["@0:0"], device_tag = "cuda", hierarchy = [1], op_name = "unet.up_blocks.1.resnets.0.conv1.bias", output_lbns = ["unet.up_blocks.1.resnets.0.conv1.bias/out"], parallel = #sbp.parallel<[] -> [[#sbp.B]]>, scope_symbol_id = 3095 : i64, shape = [1280 : si64]} : () -> (tensor<1280xf16>, tensor<i1>)
    %output_678, %ctrl_output_679 = "oneflow.variable"() {data_type = 9 : i32, device_name = ["@0:0"], device_tag = "cuda", hierarchy = [1], op_name = "unet.up_blocks.1.resnets.0.time_emb_proj.weight", output_lbns = ["unet.up_blocks.1.resnets.0.time_emb_proj.weight/out"], parallel = #sbp.parallel<[] -> [[#sbp.B]]>, scope_symbol_id = 3106 : i64, shape = [1280 : si64, 1280 : si64]} : () -> (tensor<1280x1280xf16>, tensor<i1>)
    %output_680, %ctrl_output_681 = "oneflow.variable"() {data_type = 9 : i32, device_name = ["@0:0"], device_tag = "cuda", hierarchy = [1], op_name = "unet.up_blocks.1.resnets.0.time_emb_proj.bias", output_lbns = ["unet.up_blocks.1.resnets.0.time_emb_proj.bias/out"], parallel = #sbp.parallel<[] -> [[#sbp.B]]>, scope_symbol_id = 3113 : i64, shape = [1280 : si64]} : () -> (tensor<1280xf16>, tensor<i1>)
    %output_682, %ctrl_output_683 = "oneflow.variable"() {data_type = 9 : i32, device_name = ["@0:0"], device_tag = "cuda", hierarchy = [1], op_name = "unet.up_blocks.1.resnets.0.norm2.weight", output_lbns = ["unet.up_blocks.1.resnets.0.norm2.weight/out"], parallel = #sbp.parallel<[] -> [[#sbp.B]]>, scope_symbol_id = 3130 : i64, shape = [1280 : si64]} : () -> (tensor<1280xf16>, tensor<i1>)
    %output_684, %ctrl_output_685 = "oneflow.variable"() {data_type = 9 : i32, device_name = ["@0:0"], device_tag = "cuda", hierarchy = [1], op_name = "unet.up_blocks.1.resnets.0.norm2.bias", output_lbns = ["unet.up_blocks.1.resnets.0.norm2.bias/out"], parallel = #sbp.parallel<[] -> [[#sbp.B]]>, scope_symbol_id = 3134 : i64, shape = [1280 : si64]} : () -> (tensor<1280xf16>, tensor<i1>)
    %output_686, %ctrl_output_687 = "oneflow.variable"() {data_type = 9 : i32, device_name = ["@0:0"], device_tag = "cuda", hierarchy = [1], op_name = "variable_362", output_lbns = ["variable_362/out"], parallel = #sbp.parallel<[] -> [[#sbp.B]]>, scope_symbol_id = 3146 : i64, shape = [1280 : si64, 3 : si64, 3 : si64, 1280 : si64]} : () -> (tensor<1280x3x3x1280xf16>, tensor<i1>)
    %output_688, %ctrl_output_689 = "oneflow.variable"() {data_type = 9 : i32, device_name = ["@0:0"], device_tag = "cuda", hierarchy = [1], op_name = "unet.up_blocks.1.resnets.0.conv2.bias", output_lbns = ["unet.up_blocks.1.resnets.0.conv2.bias/out"], parallel = #sbp.parallel<[] -> [[#sbp.B]]>, scope_symbol_id = 3150 : i64, shape = [1280 : si64]} : () -> (tensor<1280xf16>, tensor<i1>)
    %output_690, %ctrl_output_691 = "oneflow.variable"() {data_type = 9 : i32, device_name = ["@0:0"], device_tag = "cuda", hierarchy = [1], op_name = "variable_361", output_lbns = ["variable_361/out"], parallel = #sbp.parallel<[] -> [[#sbp.B]]>, scope_symbol_id = 3158 : i64, shape = [1280 : si64, 1 : si64, 1 : si64, 2560 : si64]} : () -> (tensor<1280x1x1x2560xf16>, tensor<i1>)
    %output_692, %ctrl_output_693 = "oneflow.variable"() {data_type = 9 : i32, device_name = ["@0:0"], device_tag = "cuda", hierarchy = [1], op_name = "unet.up_blocks.1.resnets.0.conv_shortcut.bias", output_lbns = ["unet.up_blocks.1.resnets.0.conv_shortcut.bias/out"], parallel = #sbp.parallel<[] -> [[#sbp.B]]>, scope_symbol_id = 3162 : i64, shape = [1280 : si64]} : () -> (tensor<1280xf16>, tensor<i1>)
    %output_694, %ctrl_output_695 = "oneflow.variable"() {data_type = 9 : i32, device_name = ["@0:0"], device_tag = "cuda", hierarchy = [1], op_name = "unet.up_blocks.1.attentions.0.norm.weight", output_lbns = ["unet.up_blocks.1.attentions.0.norm.weight/out"], parallel = #sbp.parallel<[] -> [[#sbp.B]]>, scope_symbol_id = 3177 : i64, shape = [1280 : si64]} : () -> (tensor<1280xf16>, tensor<i1>)
    %output_696, %ctrl_output_697 = "oneflow.variable"() {data_type = 9 : i32, device_name = ["@0:0"], device_tag = "cuda", hierarchy = [1], op_name = "unet.up_blocks.1.attentions.0.norm.bias", output_lbns = ["unet.up_blocks.1.attentions.0.norm.bias/out"], parallel = #sbp.parallel<[] -> [[#sbp.B]]>, scope_symbol_id = 3181 : i64, shape = [1280 : si64]} : () -> (tensor<1280xf16>, tensor<i1>)
    %output_698, %ctrl_output_699 = "oneflow.variable"() {data_type = 9 : i32, device_name = ["@0:0"], device_tag = "cuda", hierarchy = [1], op_name = "variable_360", output_lbns = ["variable_360/out"], parallel = #sbp.parallel<[] -> [[#sbp.B]]>, scope_symbol_id = 3189 : i64, shape = [1280 : si64, 1 : si64, 1 : si64, 1280 : si64]} : () -> (tensor<1280x1x1x1280xf16>, tensor<i1>)
    %output_700, %ctrl_output_701 = "oneflow.variable"() {data_type = 9 : i32, device_name = ["@0:0"], device_tag = "cuda", hierarchy = [1], op_name = "unet.up_blocks.1.attentions.0.proj_in.bias", output_lbns = ["unet.up_blocks.1.attentions.0.proj_in.bias/out"], parallel = #sbp.parallel<[] -> [[#sbp.B]]>, scope_symbol_id = 3193 : i64, shape = [1280 : si64]} : () -> (tensor<1280xf16>, tensor<i1>)
    %output_702, %ctrl_output_703 = "oneflow.variable"() {data_type = 9 : i32, device_name = ["@0:0"], device_tag = "cuda", hierarchy = [1], op_name = "unet.up_blocks.1.attentions.0.transformer_blocks.0.norm1.weight", output_lbns = ["unet.up_blocks.1.attentions.0.transformer_blocks.0.norm1.weight/out"], parallel = #sbp.parallel<[] -> [[#sbp.B]]>, scope_symbol_id = 3208 : i64, shape = [1280 : si64]} : () -> (tensor<1280xf16>, tensor<i1>)
    %output_704, %ctrl_output_705 = "oneflow.variable"() {data_type = 9 : i32, device_name = ["@0:0"], device_tag = "cuda", hierarchy = [1], op_name = "unet.up_blocks.1.attentions.0.transformer_blocks.0.norm1.bias", output_lbns = ["unet.up_blocks.1.attentions.0.transformer_blocks.0.norm1.bias/out"], parallel = #sbp.parallel<[] -> [[#sbp.B]]>, scope_symbol_id = 3212 : i64, shape = [1280 : si64]} : () -> (tensor<1280xf16>, tensor<i1>)
    %output_706, %ctrl_output_707 = "oneflow.variable"() {data_type = 9 : i32, device_name = ["@0:0"], device_tag = "cuda", hierarchy = [1], op_name = "unet.up_blocks.1.attentions.0.transformer_blocks.0.attn1.to_q.weight", output_lbns = ["unet.up_blocks.1.attentions.0.transformer_blocks.0.attn1.to_q.weight/out"], parallel = #sbp.parallel<[] -> [[#sbp.B]]>, scope_symbol_id = 3221 : i64, shape = [1280 : si64, 1280 : si64]} : () -> (tensor<1280x1280xf16>, tensor<i1>)
    %output_708, %ctrl_output_709 = "oneflow.variable"() {data_type = 9 : i32, device_name = ["@0:0"], device_tag = "cuda", hierarchy = [1], op_name = "unet.up_blocks.1.attentions.0.transformer_blocks.0.attn1.to_k.weight", output_lbns = ["unet.up_blocks.1.attentions.0.transformer_blocks.0.attn1.to_k.weight/out"], parallel = #sbp.parallel<[] -> [[#sbp.B]]>, scope_symbol_id = 3229 : i64, shape = [1280 : si64, 1280 : si64]} : () -> (tensor<1280x1280xf16>, tensor<i1>)
    %output_710, %ctrl_output_711 = "oneflow.variable"() {data_type = 9 : i32, device_name = ["@0:0"], device_tag = "cuda", hierarchy = [1], op_name = "unet.up_blocks.1.attentions.0.transformer_blocks.0.attn1.to_v.weight", output_lbns = ["unet.up_blocks.1.attentions.0.transformer_blocks.0.attn1.to_v.weight/out"], parallel = #sbp.parallel<[] -> [[#sbp.B]]>, scope_symbol_id = 3237 : i64, shape = [1280 : si64, 1280 : si64]} : () -> (tensor<1280x1280xf16>, tensor<i1>)
…
    %data_output_3033, %ctrl_output_3034 = "oneflow.user"(%data_output_3031, %data_output_3017) {device_name = ["@0:0"], device_tag = "cuda", hierarchy = [1], input_sizes = [2 : i32], op_name = "unet.up_blocks.3.attentions.1.transformer_blocks.0-add_n-840", op_type_name = "add_n", operand_segment_sizes = dense<[2, 0]> : vector<2xi32>, output_lbns = ["unet.up_blocks.3.attentions.1.transformer_blocks.0-add_n-840/out_0"], output_sizes = [1 : i32], result_segment_sizes = dense<1> : vector<2xi32>, scope_symbol_id = 5670 : i64} : (tensor<2x4096x320xf16>, tensor<2x4096x320xf16>) -> (tensor<2x4096x320xf16>, tensor<i1>)
    %data_output_3035:3, %ctrl_output_3036 = "oneflow.user"(%data_output_3033, %output_1258, %output_1256) {begin_norm_axis = 2 : si64, begin_params_axis = 2 : si64, center = true, device_name = ["@0:0"], device_tag = "cuda", epsilon = 1.000000e-05 : f64, hierarchy = [1], input_sizes = [1 : i32, 1 : i32, 1 : i32], op_name = "unet.up_blocks.3.attentions.1.transformer_blocks.0.norm2-layer_norm-841", op_type_name = "layer_norm", operand_segment_sizes = dense<[3, 0]> : vector<2xi32>, output_lbns = ["unet.up_blocks.3.attentions.1.transformer_blocks.0.norm2-layer_norm-841/y_0", "unet.up_blocks.3.attentions.1.transformer_blocks.0.norm2-layer_norm-841/mean_0", "unet.up_blocks.3.attentions.1.transformer_blocks.0.norm2-layer_norm-841/inv_variance_0"], output_sizes = [1 : i32, 1 : i32, 1 : i32], result_segment_sizes = dense<[3, 1]> : vector<2xi32>, scale = true, scope_symbol_id = 5682 : i64} : (tensor<2x4096x320xf16>, tensor<320xf16>, tensor<320xf16>) -> (tensor<2x4096x320xf16>, tensor<2x4096xf32>, tensor<2x4096xf32>, tensor<i1>)
    %data_output_3037, %ctrl_output_3038 = "oneflow.user"(%data_output_3035#0, %output_1260) {alpha = 1.000000e+00 : f64, device_name = ["@0:0"], device_tag = "cuda", hierarchy = [1], input_sizes = [1 : i32, 1 : i32, 0 : i32], op_name = "unet.up_blocks.3.attentions.1.transformer_blocks.0.attn2.to_q-broadcast_matmul-842", op_type_name = "broadcast_matmul", operand_segment_sizes = dense<[2, 0]> : vector<2xi32>, output_lbns = ["unet.up_blocks.3.attentions.1.transformer_blocks.0.attn2.to_q-broadcast_matmul-842/out_0"], output_sizes = [1 : i32], result_segment_sizes = dense<1> : vector<2xi32>, scope_symbol_id = 5691 : i64, transpose_a = false, transpose_b = true} : (tensor<2x4096x320xf16>, tensor<320x320xf16>) -> (tensor<2x4096x320xf16>, tensor<i1>)
    %data_output_3039, %ctrl_output_3040 = "oneflow.user"(%data_output_3037, %data_output_1439, %data_output_1389) {causal = false, device_name = ["@0:0"], device_tag = "cuda", hierarchy = [1], input_sizes = [1 : i32, 1 : i32, 1 : i32], key_hidden_slice_end = -1 : si64, key_hidden_slice_start = 0 : si64, num_heads = 8 : si64, op_name = "unet.up_blocks.3.attentions.1.transformer_blocks.0.attn2-fused_multi_head_attention_inference-845", op_type_name = "fused_multi_head_attention_inference", operand_segment_sizes = dense<[3, 0]> : vector<2xi32>, output_lbns = ["unet.up_blocks.3.attentions.1.transformer_blocks.0.attn2-fused_multi_head_attention_inference-845/out_0"], output_sizes = [1 : i32], query_hidden_slice_end = -1 : si64, query_hidden_slice_start = 0 : si64, result_segment_sizes = dense<1> : vector<2xi32>, scope_symbol_id = 5710 : i64, value_hidden_slice_end = -1 : si64, value_hidden_slice_start = 0 : si64} : (tensor<2x4096x320xf16>, tensor<2x77x320xf16>, tensor<2x77x320xf16>) -> (tensor<2x4096x320xf16>, tensor<i1>)
    %data_output_3041, %ctrl_output_3042 = "oneflow.user"(%data_output_3039, %output_1266) {alpha = 1.000000e+00 : f64, device_name = ["@0:0"], device_tag = "cuda", hierarchy = [1], input_sizes = [1 : i32, 1 : i32, 0 : i32], op_name = "unet.up_blocks.3.attentions.1.transformer_blocks.0.attn2.to_out.0-broadcast_matmul-846", op_type_name = "broadcast_matmul", operand_segment_sizes = dense<[2, 0]> : vector<2xi32>, output_lbns = ["unet.up_blocks.3.attentions.1.transformer_blocks.0.attn2.to_out.0-broadcast_matmul-846/out_0"], output_sizes = [1 : i32], result_segment_sizes = dense<1> : vector<2xi32>, scope_symbol_id = 5719 : i64, transpose_a = false, transpose_b = true} : (tensor<2x4096x320xf16>, tensor<320x320xf16>) -> (tensor<2x4096x320xf16>, tensor<i1>)
    %data_output_3043, %ctrl_output_3044 = "oneflow.user"(%data_output_3041, %output_1268) {device_name = ["@0:0"], device_tag = "cuda", hierarchy = [1], input_sizes = [1 : i32, 1 : i32], op_name = "unet.up_blocks.3.attentions.1.transformer_blocks.0.attn2.to_out.0-broadcast_add-847", op_type_name = "broadcast_add", operand_segment_sizes = dense<[2, 0]> : vector<2xi32>, output_lbns = ["unet.up_blocks.3.attentions.1.transformer_blocks.0.attn2.to_out.0-broadcast_add-847/z_0"], output_sizes = [1 : i32], result_segment_sizes = dense<1> : vector<2xi32>, scope_symbol_id = 5719 : i64} : (tensor<2x4096x320xf16>, tensor<320xf16>) -> (tensor<2x4096x320xf16>, tensor<i1>)
    %data_output_3045, %ctrl_output_3046 = "oneflow.user"(%data_output_3043, %data_output_3033) {device_name = ["@0:0"], device_tag = "cuda", hierarchy = [1], input_sizes = [2 : i32], op_name = "unet.up_blocks.3.attentions.1.transformer_blocks.0-add_n-848", op_type_name = "add_n", operand_segment_sizes = dense<[2, 0]> : vector<2xi32>, output_lbns = ["unet.up_blocks.3.attentions.1.transformer_blocks.0-add_n-848/out_0"], output_sizes = [1 : i32], result_segment_sizes = dense<1> : vector<2xi32>, scope_symbol_id = 5670 : i64} : (tensor<2x4096x320xf16>, tensor<2x4096x320xf16>) -> (tensor<2x4096x320xf16>, tensor<i1>)
    %data_output_3047:3, %ctrl_output_3048 = "oneflow.user"(%data_output_3045, %output_1272, %output_1270) {begin_norm_axis = 2 : si64, begin_params_axis = 2 : si64, center = true, device_name = ["@0:0"], device_tag = "cuda", epsilon = 1.000000e-05 : f64, hierarchy = [1], input_sizes = [1 : i32, 1 : i32, 1 : i32], op_name = "unet.up_blocks.3.attentions.1.transformer_blocks.0.norm3-layer_norm-849", op_type_name = "layer_norm", operand_segment_sizes = dense<[3, 0]> : vector<2xi32>, output_lbns = ["unet.up_blocks.3.attentions.1.transformer_blocks.0.norm3-layer_norm-849/y_0", "unet.up_blocks.3.attentions.1.transformer_blocks.0.norm3-layer_norm-849/mean_0", "unet.up_blocks.3.attentions.1.transformer_blocks.0.norm3-layer_norm-849/inv_variance_0"], output_sizes = [1 : i32, 1 : i32, 1 : i32], result_segment_sizes = dense<[3, 1]> : vector<2xi32>, scale = true, scope_symbol_id = 5742 : i64} : (tensor<2x4096x320xf16>, tensor<320xf16>, tensor<320xf16>) -> (tensor<2x4096x320xf16>, tensor<2x4096xf32>, tensor<2x4096xf32>, tensor<i1>)
    %data_output_3049, %ctrl_output_3050 = "oneflow.user"(%data_output_3047#0, %output_1274) {alpha = 1.000000e+00 : f64, device_name = ["@0:0"], device_tag = "cuda", hierarchy = [1], input_sizes = [1 : i32, 1 : i32, 0 : i32], op_name = "unet.up_blocks.3.attentions.1.transformer_blocks.0.ff.net.0.proj-broadcast_matmul-850", op_type_name = "broadcast_matmul", operand_segment_sizes = dense<[2, 0]> : vector<2xi32>, output_lbns = ["unet.up_blocks.3.attentions.1.transformer_blocks.0.ff.net.0.proj-broadcast_matmul-850/out_0"], output_sizes = [1 : i32], result_segment_sizes = dense<1> : vector<2xi32>, scope_symbol_id = 5753 : i64, transpose_a = false, transpose_b = true} : (tensor<2x4096x320xf16>, tensor<2560x320xf16>) -> (tensor<2x4096x2560xf16>, tensor<i1>)
    %data_output_3051, %ctrl_output_3052 = "oneflow.user"(%data_output_3049, %output_1276) {device_name = ["@0:0"], device_tag = "cuda", hierarchy = [1], input_sizes = [1 : i32, 1 : i32], op_name = "unet.up_blocks.3.attentions.1.transformer_blocks.0.ff.net.0.proj-broadcast_add-851", op_type_name = "broadcast_add", operand_segment_sizes = dense<[2, 0]> : vector<2xi32>, output_lbns = ["unet.up_blocks.3.attentions.1.transformer_blocks.0.ff.net.0.proj-broadcast_add-851/z_0"], output_sizes = [1 : i32], result_segment_sizes = dense<1> : vector<2xi32>, scope_symbol_id = 5753 : i64} : (tensor<2x4096x2560xf16>, tensor<2560xf16>) -> (tensor<2x4096x2560xf16>, tensor<i1>)
    %data_output_3053, %ctrl_output_3054 = "oneflow.user"(%data_output_3051) {device_name = ["@0:0"], device_tag = "cuda", dim = 2 : si64, hierarchy = [1], input_sizes = [1 : i32], length = 1280 : si64, op_name = "unet.up_blocks.3.attentions.1.transformer_blocks.0.ff.net.0-narrow-852", op_type_name = "narrow", operand_segment_sizes = dense<[1, 0]> : vector<2xi32>, output_lbns = ["unet.up_blocks.3.attentions.1.transformer_blocks.0.ff.net.0-narrow-852/out_0"], output_sizes = [1 : i32], result_segment_sizes = dense<1> : vector<2xi32>, scope_symbol_id = 5763 : i64, start = 0 : si64} : (tensor<2x4096x2560xf16>) -> (tensor<2x4096x1280xf16>, tensor<i1>)
    %data_output_3055, %ctrl_output_3056 = "oneflow.user"(%data_output_3051) {device_name = ["@0:0"], device_tag = "cuda", dim = 2 : si64, hierarchy = [1], input_sizes = [1 : i32], length = 1280 : si64, op_name = "unet.up_blocks.3.attentions.1.transformer_blocks.0.ff.net.0-narrow-853", op_type_name = "narrow", operand_segment_sizes = dense<[1, 0]> : vector<2xi32>, output_lbns = ["unet.up_blocks.3.attentions.1.transformer_blocks.0.ff.net.0-narrow-853/out_0"], output_sizes = [1 : i32], result_segment_sizes = dense<1> : vector<2xi32>, scope_symbol_id = 5763 : i64, start = 1280 : si64} : (tensor<2x4096x2560xf16>) -> (tensor<2x4096x1280xf16>, tensor<i1>)
    %data_output_3057, %ctrl_output_3058 = "oneflow.user"(%data_output_3055) {device_name = ["@0:0"], device_tag = "cuda", hierarchy = [1], input_sizes = [1 : i32], op_name = "unet.up_blocks.3.attentions.1.transformer_blocks.0.ff.net.0-gelu-854", op_type_name = "gelu", operand_segment_sizes = dense<[1, 0]> : vector<2xi32>, output_lbns = ["unet.up_blocks.3.attentions.1.transformer_blocks.0.ff.net.0-gelu-854/out_0"], output_sizes = [1 : i32], result_segment_sizes = dense<1> : vector<2xi32>, scope_symbol_id = 5763 : i64} : (tensor<2x4096x1280xf16>) -> (tensor<2x4096x1280xf16>, tensor<i1>)
    %data_output_3059, %ctrl_output_3060 = "oneflow.user"(%data_output_3053, %data_output_3057) {device_name = ["@0:0"], device_tag = "cuda", hierarchy = [1], input_sizes = [1 : i32, 1 : i32], op_name = "unet.up_blocks.3.attentions.1.transformer_blocks.0.ff.net.0-broadcast_mul-855", op_type_name = "broadcast_mul", operand_segment_sizes = dense<[2, 0]> : vector<2xi32>, output_lbns = ["unet.up_blocks.3.attentions.1.transformer_blocks.0.ff.net.0-broadcast_mul-855/z_0"], output_sizes = [1 : i32], result_segment_sizes = dense<1> : vector<2xi32>, scope_symbol_id = 5763 : i64} : (tensor<2x4096x1280xf16>, tensor<2x4096x1280xf16>) -> (tensor<2x4096x1280xf16>, tensor<i1>)
    %data_output_3061, %ctrl_output_3062 = "oneflow.user"(%data_output_3059, %output_1278) {alpha = 1.000000e+00 : f64, device_name = ["@0:0"], device_tag = "cuda", hierarchy = [1], input_sizes = [1 : i32, 1 : i32, 0 : i32], op_name = "unet.up_blocks.3.attentions.1.transformer_blocks.0.ff.net.2-broadcast_matmul-856", op_type_name = "broadcast_matmul", operand_segment_sizes = dense<[2, 0]> : vector<2xi32>, output_lbns = ["unet.up_blocks.3.attentions.1.transformer_blocks.0.ff.net.2-broadcast_matmul-856/out_0"], output_sizes = [1 : i32], result_segment_sizes = dense<1> : vector<2xi32>, scope_symbol_id = 5781 : i64, transpose_a = false, transpose_b = true} : (tensor<2x4096x1280xf16>, tensor<320x1280xf16>) -> (tensor<2x4096x320xf16>, tensor<i1>)
    %data_output_3063, %ctrl_output_3064 = "oneflow.user"(%data_output_3061, %output_1280) {device_name = ["@0:0"], device_tag = "cuda", hierarchy = [1], input_sizes = [1 : i32, 1 : i32], op_name = "unet.up_blocks.3.attentions.1.transformer_blocks.0.ff.net.2-broadcast_add-857", op_type_name = "broadcast_add", operand_segment_sizes = dense<[2, 0]> : vector<2xi32>, output_lbns = ["unet.up_blocks.3.attentions.1.transformer_blocks.0.ff.net.2-broadcast_add-857/z_0"], output_sizes = [1 : i32], result_segment_sizes = dense<1> : vector<2xi32>, scope_symbol_id = 5781 : i64} : (tensor<2x4096x320xf16>, tensor<320xf16>) -> (tensor<2x4096x320xf16>, tensor<i1>)
    %data_output_3065, %ctrl_output_3066 = "oneflow.user"(%data_output_3063, %data_output_3045) {device_name = ["@0:0"], device_tag = "cuda", hierarchy = [1], input_sizes = [2 : i32], op_name = "unet.up_blocks.3.attentions.1.transformer_blocks.0-add_n-858", op_type_name = "add_n", operand_segment_sizes = dense<[2, 0]> : vector<2xi32>, output_lbns = ["unet.up_blocks.3.attentions.1.transformer_blocks.0-add_n-858/out_0"], output_sizes = [1 : i32], result_segment_sizes = dense<1> : vector<2xi32>, scope_symbol_id = 5670 : i64} : (tensor<2x4096x320xf16>, tensor<2x4096x320xf16>) -> (tensor<2x4096x320xf16>, tensor<i1>)
    %data_output_3067, %ctrl_output_3068 = "oneflow.user"(%data_output_3065) {device_name = ["@0:0"], device_tag = "cuda", hierarchy = [1], input_sizes = [1 : i32], op_name = "unet.up_blocks.3.attentions.1-reshape-859", op_type_name = "reshape", operand_segment_sizes = dense<[1, 0]> : vector<2xi32>, output_lbns = ["unet.up_blocks.3.attentions.1-reshape-859/out_0"], output_sizes = [1 : i32], result_segment_sizes = dense<1> : vector<2xi32>, scope_symbol_id = 5606 : i64, shape = [2 : si64, 64 : si64, 64 : si64, 320 : si64]} : (tensor<2x4096x320xf16>) -> (tensor<2x64x64x320xf16>, tensor<i1>)
    %data_output_3069, %ctrl_output_3070 = "oneflow.user"(%data_output_3067, %output_1282, %output_1284) {data_format = "channels_last", device_name = ["@0:0"], device_tag = "cuda", dilation_rate = [1 : si32, 1 : si32], filters = 320 : si32, groups = 1 : si32, hierarchy = [1], input_sizes = [1 : i32, 1 : i32, 1 : i32, 0 : i32], kernel_size = [1 : si32, 1 : si32], op_name = "unet.up_blocks.3.attentions.1.proj_out-conv2d-861", op_type_name = "conv2d", operand_segment_sizes = dense<[3, 0]> : vector<2xi32>, output_lbns = ["unet.up_blocks.3.attentions.1.proj_out-conv2d-861/out_0"], output_sizes = [1 : i32], padding_before = [0 : si32, 0 : si32], result_segment_sizes = dense<1> : vector<2xi32>, scope_symbol_id = 5809 : i64, strides = [1 : si32, 1 : si32]} : (tensor<2x64x64x320xf16>, tensor<320x1x1x320xf16>, tensor<320xf16>) -> (tensor<2x64x64x320xf16>, tensor<i1>)
    %data_output_3071, %ctrl_output_3072 = "oneflow.user"(%data_output_3069, %data_output_3011) {device_name = ["@0:0"], device_tag = "cuda", hierarchy = [1], input_sizes = [2 : i32], op_name = "unet.up_blocks.3.attentions.1-add_n-862", op_type_name = "add_n", operand_segment_sizes = dense<[2, 0]> : vector<2xi32>, output_lbns = ["unet.up_blocks.3.attentions.1-add_n-862/out_0"], output_sizes = [1 : i32], result_segment_sizes = dense<1> : vector<2xi32>, scope_symbol_id = 5606 : i64} : (tensor<2x64x64x320xf16>, tensor<2x64x64x320xf16>) -> (tensor<2x64x64x320xf16>, tensor<i1>)
    %data_output_3073, %ctrl_output_3074 = "oneflow.user"(%data_output_3071, %data_output_1459) {axis = 3 : si64, device_name = ["@0:0"], device_tag = "cuda", hierarchy = [1], input_sizes = [2 : i32], max_dim_size = 640 : si64, op_name = "unet.up_blocks.3-concat-863", op_type_name = "concat", operand_segment_sizes = dense<[2, 0]> : vector<2xi32>, output_lbns = ["unet.up_blocks.3-concat-863/out_0"], output_sizes = [1 : i32], result_segment_sizes = dense<1> : vector<2xi32>, scope_symbol_id = 5137 : i64} : (tensor<2x64x64x320xf16>, tensor<2x64x64x320xf16>) -> (tensor<2x64x64x640xf16>, tensor<i1>)
    %data_output_3075:3, %ctrl_output_3076 = "oneflow.user"(%data_output_3073, %output_1288, %output_1286) {activation = "none", affine = true, data_format = "channels_last", device_name = ["@0:0"], device_tag = "cuda", epsilon = 1.000000e-05 : f64, hierarchy = [1], input_sizes = [1 : i32, 1 : i32, 1 : i32], num_groups = 32 : si32, op_name = "unet.up_blocks.3.resnets.2.norm1-group_norm-864", op_type_name = "group_norm", operand_segment_sizes = dense<[3, 0]> : vector<2xi32>, output_lbns = ["unet.up_blocks.3.resnets.2.norm1-group_norm-864/y_0", "unet.up_blocks.3.resnets.2.norm1-group_norm-864/mean_0", "unet.up_blocks.3.resnets.2.norm1-group_norm-864/inv_variance_0"], output_sizes = [1 : i32, 1 : i32, 1 : i32], result_segment_sizes = dense<[3, 1]> : vector<2xi32>, scope_symbol_id = 5828 : i64} : (tensor<2x64x64x640xf16>, tensor<640xf16>, tensor<640xf16>) -> (tensor<2x64x64x640xf16>, tensor<2x32xf32>, tensor<2x32xf32>, tensor<i1>)
    %data_output_3077, %ctrl_output_3078 = "oneflow.user"(%data_output_3073, %output_1306, %output_1308) {data_format = "channels_last", device_name = ["@0:0"], device_tag = "cuda", dilation_rate = [1 : si32, 1 : si32], filters = 320 : si32, groups = 1 : si32, hierarchy = [1], input_sizes = [1 : i32, 1 : i32, 1 : i32, 0 : i32], kernel_size = [1 : si32, 1 : si32], op_name = "unet.up_blocks.3.resnets.2.conv_shortcut-conv2d-876", op_type_name = "conv2d", operand_segment_sizes = dense<[3, 0]> : vector<2xi32>, output_lbns = ["unet.up_blocks.3.resnets.2.conv_shortcut-conv2d-876/out_0"], output_sizes = [1 : i32], padding_before = [0 : si32, 0 : si32], result_segment_sizes = dense<1> : vector<2xi32>, scope_symbol_id = 5911 : i64, strides = [1 : si32, 1 : si32]} : (tensor<2x64x64x640xf16>, tensor<320x1x1x640xf16>, tensor<320xf16>) -> (tensor<2x64x64x320xf16>, tensor<i1>)
    %data_output_3079, %ctrl_output_3080 = "oneflow.user"(%data_output_3075#0) {device_name = ["@0:0"], device_tag = "cuda", hierarchy = [1], input_sizes = [1 : i32], op_name = "unet.up_blocks.3.resnets.2.nonlinearity-silu-865", op_type_name = "silu", operand_segment_sizes = dense<[1, 0]> : vector<2xi32>, output_lbns = ["unet.up_blocks.3.resnets.2.nonlinearity-silu-865/out_0"], output_sizes = [1 : i32], result_segment_sizes = dense<1> : vector<2xi32>, scope_symbol_id = 5832 : i64} : (tensor<2x64x64x640xf16>) -> (tensor<2x64x64x640xf16>, tensor<i1>)
    %data_output_3081, %ctrl_output_3082 = "oneflow.user"(%data_output_3079, %output_1290, %output_1292) {data_format = "channels_last", device_name = ["@0:0"], device_tag = "cuda", dilation_rate = [1 : si32, 1 : si32], filters = 320 : si32, groups = 1 : si32, hierarchy = [1], input_sizes = [1 : i32, 1 : i32, 1 : i32, 0 : i32], kernel_size = [3 : si32, 3 : si32], op_name = "unet.up_blocks.3.resnets.2.conv1-conv2d-866", op_type_name = "conv2d", operand_segment_sizes = dense<[3, 0]> : vector<2xi32>, output_lbns = ["unet.up_blocks.3.resnets.2.conv1-conv2d-866/out_0"], output_sizes = [1 : i32], padding_before = [1 : si32, 1 : si32], result_segment_sizes = dense<1> : vector<2xi32>, scope_symbol_id = 5844 : i64, strides = [1 : si32, 1 : si32]} : (tensor<2x64x64x640xf16>, tensor<320x3x3x640xf16>, tensor<320xf16>) -> (tensor<2x64x64x320xf16>, tensor<i1>)
    %data_output_3083, %ctrl_output_3084 = "oneflow.user"(%data_output_3081, %data_output_1691) {device_name = ["@0:0"], device_tag = "cuda", hierarchy = [1], input_sizes = [1 : i32, 1 : i32], op_name = "unet.up_blocks.3.resnets.2-broadcast_add-872", op_type_name = "broadcast_add", operand_segment_sizes = dense<[2, 0]> : vector<2xi32>, output_lbns = ["unet.up_blocks.3.resnets.2-broadcast_add-872/z_0"], output_sizes = [1 : i32], result_segment_sizes = dense<1> : vector<2xi32>, scope_symbol_id = 5865 : i64} : (tensor<2x64x64x320xf16>, tensor<2x1x1x320xf16>) -> (tensor<2x64x64x320xf16>, tensor<i1>)
    %data_output_3085:3, %ctrl_output_3086 = "oneflow.user"(%data_output_3083, %output_1300, %output_1298) {activation = "none", affine = true, data_format = "channels_last", device_name = ["@0:0"], device_tag = "cuda", epsilon = 1.000000e-05 : f64, hierarchy = [1], input_sizes = [1 : i32, 1 : i32, 1 : i32], num_groups = 32 : si32, op_name = "unet.up_blocks.3.resnets.2.norm2-group_norm-873", op_type_name = "group_norm", operand_segment_sizes = dense<[3, 0]> : vector<2xi32>, output_lbns = ["unet.up_blocks.3.resnets.2.norm2-group_norm-873/y_0", "unet.up_blocks.3.resnets.2.norm2-group_norm-873/mean_0", "unet.up_blocks.3.resnets.2.norm2-group_norm-873/inv_variance_0"], output_sizes = [1 : i32, 1 : i32, 1 : i32], result_segment_sizes = dense<[3, 1]> : vector<2xi32>, scope_symbol_id = 5883 : i64} : (tensor<2x64x64x320xf16>, tensor<320xf16>, tensor<320xf16>) -> (tensor<2x64x64x320xf16>, tensor<2x32xf32>, tensor<2x32xf32>, tensor<i1>)
    %data_output_3087, %ctrl_output_3088 = "oneflow.user"(%data_output_3085#0) {device_name = ["@0:0"], device_tag = "cuda", hierarchy = [1], input_sizes = [1 : i32], op_name = "unet.up_blocks.3.resnets.2.nonlinearity-silu-874", op_type_name = "silu", operand_segment_sizes = dense<[1, 0]> : vector<2xi32>, output_lbns = ["unet.up_blocks.3.resnets.2.nonlinearity-silu-874/out_0"], output_sizes = [1 : i32], result_segment_sizes = dense<1> : vector<2xi32>, scope_symbol_id = 5832 : i64} : (tensor<2x64x64x320xf16>) -> (tensor<2x64x64x320xf16>, tensor<i1>)
    %data_output_3089, %ctrl_output_3090 = "oneflow.user"(%data_output_3087, %output_1302, %output_1304) {data_format = "channels_last", device_name = ["@0:0"], device_tag = "cuda", dilation_rate = [1 : si32, 1 : si32], filters = 320 : si32, groups = 1 : si32, hierarchy = [1], input_sizes = [1 : i32, 1 : i32, 1 : i32, 0 : i32], kernel_size = [3 : si32, 3 : si32], op_name = "unet.up_blocks.3.resnets.2.conv2-conv2d-875", op_type_name = "conv2d", operand_segment_sizes = dense<[3, 0]> : vector<2xi32>, output_lbns = ["unet.up_blocks.3.resnets.2.conv2-conv2d-875/out_0"], output_sizes = [1 : i32], padding_before = [1 : si32, 1 : si32], result_segment_sizes = dense<1> : vector<2xi32>, scope_symbol_id = 5899 : i64, strides = [1 : si32, 1 : si32]} : (tensor<2x64x64x320xf16>, tensor<320x3x3x320xf16>, tensor<320xf16>) -> (tensor<2x64x64x320xf16>, tensor<i1>)
    %data_output_3091, %ctrl_output_3092 = "oneflow.user"(%data_output_3077, %data_output_3089) {device_name = ["@0:0"], device_tag = "cuda", hierarchy = [1], input_sizes = [2 : i32], op_name = "unet.up_blocks.3.resnets.2-add_n-877", op_type_name = "add_n", operand_segment_sizes = dense<[2, 0]> : vector<2xi32>, output_lbns = ["unet.up_blocks.3.resnets.2-add_n-877/out_0"], output_sizes = [1 : i32], result_segment_sizes = dense<1> : vector<2xi32>, scope_symbol_id = 5865 : i64} : (tensor<2x64x64x320xf16>, tensor<2x64x64x320xf16>) -> (tensor<2x64x64x320xf16>, tensor<i1>)
    %data_output_3093, %ctrl_output_3094 = "oneflow.user"(%data_output_3091) {device_name = ["@0:0"], device_tag = "cuda", float_operand = 1.000000e+00 : f64, has_float_operand = true, has_int_operand = false, hierarchy = [1], input_sizes = [1 : i32], int_operand = 0 : si64, op_name = "unet.up_blocks.3.resnets.2-scalar_div-878", op_type_name = "scalar_div", operand_segment_sizes = dense<[1, 0]> : vector<2xi32>, output_lbns = ["unet.up_blocks.3.resnets.2-scalar_div-878/out_0"], output_sizes = [1 : i32], result_segment_sizes = dense<1> : vector<2xi32>, scope_symbol_id = 5865 : i64} : (tensor<2x64x64x320xf16>) -> (tensor<2x64x64x320xf16>, tensor<i1>)
    %data_output_3095:3, %ctrl_output_3096 = "oneflow.user"(%data_output_3093, %output_1312, %output_1310) {activation = "none", affine = true, data_format = "channels_last", device_name = ["@0:0"], device_tag = "cuda", epsilon = 9.9999999999999995E-7 : f64, hierarchy = [1], input_sizes = [1 : i32, 1 : i32, 1 : i32], num_groups = 32 : si32, op_name = "unet.up_blocks.3.attentions.2.norm-group_norm-879", op_type_name = "group_norm", operand_segment_sizes = dense<[3, 0]> : vector<2xi32>, output_lbns = ["unet.up_blocks.3.attentions.2.norm-group_norm-879/y_0", "unet.up_blocks.3.attentions.2.norm-group_norm-879/mean_0", "unet.up_blocks.3.attentions.2.norm-group_norm-879/inv_variance_0"], output_sizes = [1 : i32, 1 : i32, 1 : i32], result_segment_sizes = dense<[3, 1]> : vector<2xi32>, scope_symbol_id = 5930 : i64} : (tensor<2x64x64x320xf16>, tensor<320xf16>, tensor<320xf16>) -> (tensor<2x64x64x320xf16>, tensor<2x32xf32>, tensor<2x32xf32>, tensor<i1>)
    %data_output_3097, %ctrl_output_3098 = "oneflow.user"(%data_output_3095#0, %output_1314, %output_1316) {data_format = "channels_last", device_name = ["@0:0"], device_tag = "cuda", dilation_rate = [1 : si32, 1 : si32], filters = 320 : si32, groups = 1 : si32, hierarchy = [1], input_sizes = [1 : i32, 1 : i32, 1 : i32, 0 : i32], kernel_size = [1 : si32, 1 : si32], op_name = "unet.up_blocks.3.attentions.2.proj_in-conv2d-880", op_type_name = "conv2d", operand_segment_sizes = dense<[3, 0]> : vector<2xi32>, output_lbns = ["unet.up_blocks.3.attentions.2.proj_in-conv2d-880/out_0"], output_sizes = [1 : i32], padding_before = [0 : si32, 0 : si32], result_segment_sizes = dense<1> : vector<2xi32>, scope_symbol_id = 5942 : i64, strides = [1 : si32, 1 : si32]} : (tensor<2x64x64x320xf16>, tensor<320x1x1x320xf16>, tensor<320xf16>) -> (tensor<2x64x64x320xf16>, tensor<i1>)
    %data_output_3099, %ctrl_output_3100 = "oneflow.user"(%data_output_3097) {device_name = ["@0:0"], device_tag = "cuda", hierarchy = [1], input_sizes = [1 : i32], op_name = "unet.up_blocks.3.attentions.2-reshape-882", op_type_name = "reshape", operand_segment_sizes = dense<[1, 0]> : vector<2xi32>, output_lbns = ["unet.up_blocks.3.attentions.2-reshape-882/out_0"], output_sizes = [1 : i32], result_segment_sizes = dense<1> : vector<2xi32>, scope_symbol_id = 5945 : i64, shape = [2 : si64, 4096 : si64, 320 : si64]} : (tensor<2x64x64x320xf16>) -> (tensor<2x4096x320xf16>, tensor<i1>)
    %data_output_3101:3, %ctrl_output_3102 = "oneflow.user"(%data_output_3099, %output_1320, %output_1318) {begin_norm_axis = 2 : si64, begin_params_axis = 2 : si64, center = true, device_name = ["@0:0"], device_tag = "cuda", epsilon = 1.000000e-05 : f64, hierarchy = [1], input_sizes = [1 : i32, 1 : i32, 1 : i32], op_name = "unet.up_blocks.3.attentions.2.transformer_blocks.0.norm1-layer_norm-883", op_type_name = "layer_norm", operand_segment_sizes = dense<[3, 0]> : vector<2xi32>, output_lbns = ["unet.up_blocks.3.attentions.2.transformer_blocks.0.norm1-layer_norm-883/y_0", "unet.up_blocks.3.attentions.2.transformer_blocks.0.norm1-layer_norm-883/mean_0", "unet.up_blocks.3.attentions.2.transformer_blocks.0.norm1-layer_norm-883/inv_variance_0"], output_sizes = [1 : i32, 1 : i32, 1 : i32], result_segment_sizes = dense<[3, 1]> : vector<2xi32>, scale = true, scope_symbol_id = 5961 : i64} : (tensor<2x4096x320xf16>, tensor<320xf16>, tensor<320xf16>) -> (tensor<2x4096x320xf16>, tensor<2x4096xf32>, tensor<2x4096xf32>, tensor<i1>)
    %data_output_3103, %ctrl_output_3104 = "oneflow.user"(%data_output_3101#0, %output_1326) {alpha = 1.000000e+00 : f64, device_name = ["@0:0"], device_tag = "cuda", hierarchy = [1], input_sizes = [1 : i32, 1 : i32, 0 : i32], op_name = "unet.up_blocks.3.attentions.2.transformer_blocks.0.attn1.to_v-broadcast_matmul-886", op_type_name = "broadcast_matmul", operand_segment_sizes = dense<[2, 0]> : vector<2xi32>, output_lbns = ["unet.up_blocks.3.attentions.2.transformer_blocks.0.attn1.to_v-broadcast_matmul-886/out_0"], output_sizes = [1 : i32], result_segment_sizes = dense<1> : vector<2xi32>, scope_symbol_id = 5986 : i64, transpose_a = false, transpose_b = true} : (tensor<2x4096x320xf16>, tensor<320x320xf16>) -> (tensor<2x4096x320xf16>, tensor<i1>)
    %data_output_3105, %ctrl_output_3106 = "oneflow.user"(%data_output_3101#0, %output_1322) {alpha = 1.000000e+00 : f64, device_name = ["@0:0"], device_tag = "cuda", hierarchy = [1], input_sizes = [1 : i32, 1 : i32, 0 : i32], op_name = "unet.up_blocks.3.attentions.2.transformer_blocks.0.attn1.to_q-broadcast_matmul-884", op_type_name = "broadcast_matmul", operand_segment_sizes = dense<[2, 0]> : vector<2xi32>, output_lbns = ["unet.up_blocks.3.attentions.2.transformer_blocks.0.attn1.to_q-broadcast_matmul-884/out_0"], output_sizes = [1 : i32], result_segment_sizes = dense<1> : vector<2xi32>, scope_symbol_id = 5970 : i64, transpose_a = false, transpose_b = true} : (tensor<2x4096x320xf16>, tensor<320x320xf16>) -> (tensor<2x4096x320xf16>, tensor<i1>)
    %data_output_3107, %ctrl_output_3108 = "oneflow.user"(%data_output_3101#0, %output_1324) {alpha = 1.000000e+00 : f64, device_name = ["@0:0"], device_tag = "cuda", hierarchy = [1], input_sizes = [1 : i32, 1 : i32, 0 : i32], op_name = "unet.up_blocks.3.attentions.2.transformer_blocks.0.attn1.to_k-broadcast_matmul-885", op_type_name = "broadcast_matmul", operand_segment_sizes = dense<[2, 0]> : vector<2xi32>, output_lbns = ["unet.up_blocks.3.attentions.2.transformer_blocks.0.attn1.to_k-broadcast_matmul-885/out_0"], output_sizes = [1 : i32], result_segment_sizes = dense<1> : vector<2xi32>, scope_symbol_id = 5978 : i64, transpose_a = false, transpose_b = true} : (tensor<2x4096x320xf16>, tensor<320x320xf16>) -> (tensor<2x4096x320xf16>, tensor<i1>)
    %data_output_3109, %ctrl_output_3110 = "oneflow.user"(%data_output_3105, %data_output_3107, %data_output_3103) {causal = false, device_name = ["@0:0"], device_tag = "cuda", hierarchy = [1], input_sizes = [1 : i32, 1 : i32, 1 : i32], key_hidden_slice_end = -1 : si64, key_hidden_slice_start = 0 : si64, num_heads = 8 : si64, op_name = "unet.up_blocks.3.attentions.2.transformer_blocks.0.attn1-fused_multi_head_attention_inference-887", op_type_name = "fused_multi_head_attention_inference", operand_segment_sizes = dense<[3, 0]> : vector<2xi32>, output_lbns = ["unet.up_blocks.3.attentions.2.transformer_blocks.0.attn1-fused_multi_head_attention_inference-887/out_0"], output_sizes = [1 : i32], query_hidden_slice_end = -1 : si64, query_hidden_slice_start = 0 : si64, result_segment_sizes = dense<1> : vector<2xi32>, scope_symbol_id = 5989 : i64, value_hidden_slice_end = -1 : si64, value_hidden_slice_start = 0 : si64} : (tensor<2x4096x320xf16>, tensor<2x4096x320xf16>, tensor<2x4096x320xf16>) -> (tensor<2x4096x320xf16>, tensor<i1>)
    %data_output_3111, %ctrl_output_3112 = "oneflow.user"(%data_output_3109, %output_1328) {alpha = 1.000000e+00 : f64, device_name = ["@0:0"], device_tag = "cuda", hierarchy = [1], input_sizes = [1 : i32, 1 : i32, 0 : i32], op_name = "unet.up_blocks.3.attentions.2.transformer_blocks.0.attn1.to_out.0-broadcast_matmul-888", op_type_name = "broadcast_matmul", operand_segment_sizes = dense<[2, 0]> : vector<2xi32>, output_lbns = ["unet.up_blocks.3.attentions.2.transformer_blocks.0.attn1.to_out.0-broadcast_matmul-888/out_0"], output_sizes = [1 : i32], result_segment_sizes = dense<1> : vector<2xi32>, scope_symbol_id = 5998 : i64, transpose_a = false, transpose_b = true} : (tensor<2x4096x320xf16>, tensor<320x320xf16>) -> (tensor<2x4096x320xf16>, tensor<i1>)
    %data_output_3113, %ctrl_output_3114 = "oneflow.user"(%data_output_3111, %output_1330) {device_name = ["@0:0"], device_tag = "cuda", hierarchy = [1], input_sizes = [1 : i32, 1 : i32], op_name = "unet.up_blocks.3.attentions.2.transformer_blocks.0.attn1.to_out.0-broadcast_add-889", op_type_name = "broadcast_add", operand_segment_sizes = dense<[2, 0]> : vector<2xi32>, output_lbns = ["unet.up_blocks.3.attentions.2.transformer_blocks.0.attn1.to_out.0-broadcast_add-889/z_0"], output_sizes = [1 : i32], result_segment_sizes = dense<1> : vector<2xi32>, scope_symbol_id = 5998 : i64} : (tensor<2x4096x320xf16>, tensor<320xf16>) -> (tensor<2x4096x320xf16>, tensor<i1>)
    %data_output_3115, %ctrl_output_3116 = "oneflow.user"(%data_output_3113, %data_output_3099) {device_name = ["@0:0"], device_tag = "cuda", hierarchy = [1], input_sizes = [2 : i32], op_name = "unet.up_blocks.3.attentions.2.transformer_blocks.0-add_n-890", op_type_name = "add_n", operand_segment_sizes = dense<[2, 0]> : vector<2xi32>, output_lbns = ["unet.up_blocks.3.attentions.2.transformer_blocks.0-add_n-890/out_0"], output_sizes = [1 : i32], result_segment_sizes = dense<1> : vector<2xi32>, scope_symbol_id = 6009 : i64} : (tensor<2x4096x320xf16>, tensor<2x4096x320xf16>) -> (tensor<2x4096x320xf16>, tensor<i1>)
    %data_output_3117:3, %ctrl_output_3118 = "oneflow.user"(%data_output_3115, %output_1334, %output_1332) {begin_norm_axis = 2 : si64, begin_params_axis = 2 : si64, center = true, device_name = ["@0:0"], device_tag = "cuda", epsilon = 1.000000e-05 : f64, hierarchy = [1], input_sizes = [1 : i32, 1 : i32, 1 : i32], op_name = "unet.up_blocks.3.attentions.2.transformer_blocks.0.norm2-layer_norm-891", op_type_name = "layer_norm", operand_segment_sizes = dense<[3, 0]> : vector<2xi32>, output_lbns = ["unet.up_blocks.3.attentions.2.transformer_blocks.0.norm2-layer_norm-891/y_0", "unet.up_blocks.3.attentions.2.transformer_blocks.0.norm2-layer_norm-891/mean_0", "unet.up_blocks.3.attentions.2.transformer_blocks.0.norm2-layer_norm-891/inv_variance_0"], output_sizes = [1 : i32, 1 : i32, 1 : i32], result_segment_sizes = dense<[3, 1]> : vector<2xi32>, scale = true, scope_symbol_id = 6021 : i64} : (tensor<2x4096x320xf16>, tensor<320xf16>, tensor<320xf16>) -> (tensor<2x4096x320xf16>, tensor<2x4096xf32>, tensor<2x4096xf32>, tensor<i1>)
    %data_output_3119, %ctrl_output_3120 = "oneflow.user"(%data_output_3117#0, %output_1336) {alpha = 1.000000e+00 : f64, device_name = ["@0:0"], device_tag = "cuda", hierarchy = [1], input_sizes = [1 : i32, 1 : i32, 0 : i32], op_name = "unet.up_blocks.3.attentions.2.transformer_blocks.0.attn2.to_q-broadcast_matmul-892", op_type_name = "broadcast_matmul", operand_segment_sizes = dense<[2, 0]> : vector<2xi32>, output_lbns = ["unet.up_blocks.3.attentions.2.transformer_blocks.0.attn2.to_q-broadcast_matmul-892/out_0"], output_sizes = [1 : i32], result_segment_sizes = dense<1> : vector<2xi32>, scope_symbol_id = 6030 : i64, transpose_a = false, transpose_b = true} : (tensor<2x4096x320xf16>, tensor<320x320xf16>) -> (tensor<2x4096x320xf16>, tensor<i1>)
    %data_output_3121, %ctrl_output_3122 = "oneflow.user"(%data_output_3119, %data_output_1387, %data_output_1397) {causal = false, device_name = ["@0:0"], device_tag = "cuda", hierarchy = [1], input_sizes = [1 : i32, 1 : i32, 1 : i32], key_hidden_slice_end = -1 : si64, key_hidden_slice_start = 0 : si64, num_heads = 8 : si64, op_name = "unet.up_blocks.3.attentions.2.transformer_blocks.0.attn2-fused_multi_head_attention_inference-895", op_type_name = "fused_multi_head_attention_inference", operand_segment_sizes = dense<[3, 0]> : vector<2xi32>, output_lbns = ["unet.up_blocks.3.attentions.2.transformer_blocks.0.attn2-fused_multi_head_attention_inference-895/out_0"], output_sizes = [1 : i32], query_hidden_slice_end = -1 : si64, query_hidden_slice_start = 0 : si64, result_segment_sizes = dense<1> : vector<2xi32>, scope_symbol_id = 6049 : i64, value_hidden_slice_end = -1 : si64, value_hidden_slice_start = 0 : si64} : (tensor<2x4096x320xf16>, tensor<2x77x320xf16>, tensor<2x77x320xf16>) -> (tensor<2x4096x320xf16>, tensor<i1>)
    %data_output_3123, %ctrl_output_3124 = "oneflow.user"(%data_output_3121, %output_1342) {alpha = 1.000000e+00 : f64, device_name = ["@0:0"], device_tag = "cuda", hierarchy = [1], input_sizes = [1 : i32, 1 : i32, 0 : i32], op_name = "unet.up_blocks.3.attentions.2.transformer_blocks.0.attn2.to_out.0-broadcast_matmul-896", op_type_name = "broadcast_matmul", operand_segment_sizes = dense<[2, 0]> : vector<2xi32>, output_lbns = ["unet.up_blocks.3.attentions.2.transformer_blocks.0.attn2.to_out.0-broadcast_matmul-896/out_0"], output_sizes = [1 : i32], result_segment_sizes = dense<1> : vector<2xi32>, scope_symbol_id = 6058 : i64, transpose_a = false, transpose_b = true} : (tensor<2x4096x320xf16>, tensor<320x320xf16>) -> (tensor<2x4096x320xf16>, tensor<i1>)
    %data_output_3125, %ctrl_output_3126 = "oneflow.user"(%data_output_3123, %output_1344) {device_name = ["@0:0"], device_tag = "cuda", hierarchy = [1], input_sizes = [1 : i32, 1 : i32], op_name = "unet.up_blocks.3.attentions.2.transformer_blocks.0.attn2.to_out.0-broadcast_add-897", op_type_name = "broadcast_add", operand_segment_sizes = dense<[2, 0]> : vector<2xi32>, output_lbns = ["unet.up_blocks.3.attentions.2.transformer_blocks.0.attn2.to_out.0-broadcast_add-897/z_0"], output_sizes = [1 : i32], result_segment_sizes = dense<1> : vector<2xi32>, scope_symbol_id = 6058 : i64} : (tensor<2x4096x320xf16>, tensor<320xf16>) -> (tensor<2x4096x320xf16>, tensor<i1>)
    %data_output_3127, %ctrl_output_3128 = "oneflow.user"(%data_output_3125, %data_output_3115) {device_name = ["@0:0"], device_tag = "cuda", hierarchy = [1], input_sizes = [2 : i32], op_name = "unet.up_blocks.3.attentions.2.transformer_blocks.0-add_n-898", op_type_name = "add_n", operand_segment_sizes = dense<[2, 0]> : vector<2xi32>, output_lbns = ["unet.up_blocks.3.attentions.2.transformer_blocks.0-add_n-898/out_0"], output_sizes = [1 : i32], result_segment_sizes = dense<1> : vector<2xi32>, scope_symbol_id = 6009 : i64} : (tensor<2x4096x320xf16>, tensor<2x4096x320xf16>) -> (tensor<2x4096x320xf16>, tensor<i1>)
    %data_output_3129:3, %ctrl_output_3130 = "oneflow.user"(%data_output_3127, %output_1348, %output_1346) {begin_norm_axis = 2 : si64, begin_params_axis = 2 : si64, center = true, device_name = ["@0:0"], device_tag = "cuda", epsilon = 1.000000e-05 : f64, hierarchy = [1], input_sizes = [1 : i32, 1 : i32, 1 : i32], op_name = "unet.up_blocks.3.attentions.2.transformer_blocks.0.norm3-layer_norm-899", op_type_name = "layer_norm", operand_segment_sizes = dense<[3, 0]> : vector<2xi32>, output_lbns = ["unet.up_blocks.3.attentions.2.transformer_blocks.0.norm3-layer_norm-899/y_0", "unet.up_blocks.3.attentions.2.transformer_blocks.0.norm3-layer_norm-899/mean_0", "unet.up_blocks.3.attentions.2.transformer_blocks.0.norm3-layer_norm-899/inv_variance_0"], output_sizes = [1 : i32, 1 : i32, 1 : i32], result_segment_sizes = dense<[3, 1]> : vector<2xi32>, scale = true, scope_symbol_id = 6081 : i64} : (tensor<2x4096x320xf16>, tensor<320xf16>, tensor<320xf16>) -> (tensor<2x4096x320xf16>, tensor<2x4096xf32>, tensor<2x4096xf32>, tensor<i1>)
    %data_output_3131, %ctrl_output_3132 = "oneflow.user"(%data_output_3129#0, %output_1350) {alpha = 1.000000e+00 : f64, device_name = ["@0:0"], device_tag = "cuda", hierarchy = [1], input_sizes = [1 : i32, 1 : i32, 0 : i32], op_name = "unet.up_blocks.3.attentions.2.transformer_blocks.0.ff.net.0.proj-broadcast_matmul-900", op_type_name = "broadcast_matmul", operand_segment_sizes = dense<[2, 0]> : vector<2xi32>, output_lbns = ["unet.up_blocks.3.attentions.2.transformer_blocks.0.ff.net.0.proj-broadcast_matmul-900/out_0"], output_sizes = [1 : i32], result_segment_sizes = dense<1> : vector<2xi32>, scope_symbol_id = 6092 : i64, transpose_a = false, transpose_b = true} : (tensor<2x4096x320xf16>, tensor<2560x320xf16>) -> (tensor<2x4096x2560xf16>, tensor<i1>)
    %data_output_3133, %ctrl_output_3134 = "oneflow.user"(%data_output_3131, %output_1352) {device_name = ["@0:0"], device_tag = "cuda", hierarchy = [1], input_sizes = [1 : i32, 1 : i32], op_name = "unet.up_blocks.3.attentions.2.transformer_blocks.0.ff.net.0.proj-broadcast_add-901", op_type_name = "broadcast_add", operand_segment_sizes = dense<[2, 0]> : vector<2xi32>, output_lbns = ["unet.up_blocks.3.attentions.2.transformer_blocks.0.ff.net.0.proj-broadcast_add-901/z_0"], output_sizes = [1 : i32], result_segment_sizes = dense<1> : vector<2xi32>, scope_symbol_id = 6092 : i64} : (tensor<2x4096x2560xf16>, tensor<2560xf16>) -> (tensor<2x4096x2560xf16>, tensor<i1>)
    %data_output_3135, %ctrl_output_3136 = "oneflow.user"(%data_output_3133) {device_name = ["@0:0"], device_tag = "cuda", dim = 2 : si64, hierarchy = [1], input_sizes = [1 : i32], length = 1280 : si64, op_name = "unet.up_blocks.3.attentions.2.transformer_blocks.0.ff.net.0-narrow-902", op_type_name = "narrow", operand_segment_sizes = dense<[1, 0]> : vector<2xi32>, output_lbns = ["unet.up_blocks.3.attentions.2.transformer_blocks.0.ff.net.0-narrow-902/out_0"], output_sizes = [1 : i32], result_segment_sizes = dense<1> : vector<2xi32>, scope_symbol_id = 6102 : i64, start = 0 : si64} : (tensor<2x4096x2560xf16>) -> (tensor<2x4096x1280xf16>, tensor<i1>)
    %data_output_3137, %ctrl_output_3138 = "oneflow.user"(%data_output_3133) {device_name = ["@0:0"], device_tag = "cuda", dim = 2 : si64, hierarchy = [1], input_sizes = [1 : i32], length = 1280 : si64, op_name = "unet.up_blocks.3.attentions.2.transformer_blocks.0.ff.net.0-narrow-903", op_type_name = "narrow", operand_segment_sizes = dense<[1, 0]> : vector<2xi32>, output_lbns = ["unet.up_blocks.3.attentions.2.transformer_blocks.0.ff.net.0-narrow-903/out_0"], output_sizes = [1 : i32], result_segment_sizes = dense<1> : vector<2xi32>, scope_symbol_id = 6102 : i64, start = 1280 : si64} : (tensor<2x4096x2560xf16>) -> (tensor<2x4096x1280xf16>, tensor<i1>)
    %data_output_3139, %ctrl_output_3140 = "oneflow.user"(%data_output_3137) {device_name = ["@0:0"], device_tag = "cuda", hierarchy = [1], input_sizes = [1 : i32], op_name = "unet.up_blocks.3.attentions.2.transformer_blocks.0.ff.net.0-gelu-904", op_type_name = "gelu", operand_segment_sizes = dense<[1, 0]> : vector<2xi32>, output_lbns = ["unet.up_blocks.3.attentions.2.transformer_blocks.0.ff.net.0-gelu-904/out_0"], output_sizes = [1 : i32], result_segment_sizes = dense<1> : vector<2xi32>, scope_symbol_id = 6102 : i64} : (tensor<2x4096x1280xf16>) -> (tensor<2x4096x1280xf16>, tensor<i1>)
    %data_output_3141, %ctrl_output_3142 = "oneflow.user"(%data_output_3135, %data_output_3139) {device_name = ["@0:0"], device_tag = "cuda", hierarchy = [1], input_sizes = [1 : i32, 1 : i32], op_name = "unet.up_blocks.3.attentions.2.transformer_blocks.0.ff.net.0-broadcast_mul-905", op_type_name = "broadcast_mul", operand_segment_sizes = dense<[2, 0]> : vector<2xi32>, output_lbns = ["unet.up_blocks.3.attentions.2.transformer_blocks.0.ff.net.0-broadcast_mul-905/z_0"], output_sizes = [1 : i32], result_segment_sizes = dense<1> : vector<2xi32>, scope_symbol_id = 6102 : i64} : (tensor<2x4096x1280xf16>, tensor<2x4096x1280xf16>) -> (tensor<2x4096x1280xf16>, tensor<i1>)
    %data_output_3143, %ctrl_output_3144 = "oneflow.user"(%data_output_3141, %output_1354) {alpha = 1.000000e+00 : f64, device_name = ["@0:0"], device_tag = "cuda", hierarchy = [1], input_sizes = [1 : i32, 1 : i32, 0 : i32], op_name = "unet.up_blocks.3.attentions.2.transformer_blocks.0.ff.net.2-broadcast_matmul-906", op_type_name = "broadcast_matmul", operand_segment_sizes = dense<[2, 0]> : vector<2xi32>, output_lbns = ["unet.up_blocks.3.attentions.2.transformer_blocks.0.ff.net.2-broadcast_matmul-906/out_0"], output_sizes = [1 : i32], result_segment_sizes = dense<1> : vector<2xi32>, scope_symbol_id = 6120 : i64, transpose_a = false, transpose_b = true} : (tensor<2x4096x1280xf16>, tensor<320x1280xf16>) -> (tensor<2x4096x320xf16>, tensor<i1>)
    %data_output_3145, %ctrl_output_3146 = "oneflow.user"(%data_output_3143, %output_1356) {device_name = ["@0:0"], device_tag = "cuda", hierarchy = [1], input_sizes = [1 : i32, 1 : i32], op_name = "unet.up_blocks.3.attentions.2.transformer_blocks.0.ff.net.2-broadcast_add-907", op_type_name = "broadcast_add", operand_segment_sizes = dense<[2, 0]> : vector<2xi32>, output_lbns = ["unet.up_blocks.3.attentions.2.transformer_blocks.0.ff.net.2-broadcast_add-907/z_0"], output_sizes = [1 : i32], result_segment_sizes = dense<1> : vector<2xi32>, scope_symbol_id = 6120 : i64} : (tensor<2x4096x320xf16>, tensor<320xf16>) -> (tensor<2x4096x320xf16>, tensor<i1>)
    %data_output_3147, %ctrl_output_3148 = "oneflow.user"(%data_output_3145, %data_output_3127) {device_name = ["@0:0"], device_tag = "cuda", hierarchy = [1], input_sizes = [2 : i32], op_name = "unet.up_blocks.3.attentions.2.transformer_blocks.0-add_n-908", op_type_name = "add_n", operand_segment_sizes = dense<[2, 0]> : vector<2xi32>, output_lbns = ["unet.up_blocks.3.attentions.2.transformer_blocks.0-add_n-908/out_0"], output_sizes = [1 : i32], result_segment_sizes = dense<1> : vector<2xi32>, scope_symbol_id = 6009 : i64} : (tensor<2x4096x320xf16>, tensor<2x4096x320xf16>) -> (tensor<2x4096x320xf16>, tensor<i1>)
    %data_output_3149, %ctrl_output_3150 = "oneflow.user"(%data_output_3147) {device_name = ["@0:0"], device_tag = "cuda", hierarchy = [1], input_sizes = [1 : i32], op_name = "unet.up_blocks.3.attentions.2-reshape-909", op_type_name = "reshape", operand_segment_sizes = dense<[1, 0]> : vector<2xi32>, output_lbns = ["unet.up_blocks.3.attentions.2-reshape-909/out_0"], output_sizes = [1 : i32], result_segment_sizes = dense<1> : vector<2xi32>, scope_symbol_id = 5945 : i64, shape = [2 : si64, 64 : si64, 64 : si64, 320 : si64]} : (tensor<2x4096x320xf16>) -> (tensor<2x64x64x320xf16>, tensor<i1>)
    %data_output_3151, %ctrl_output_3152 = "oneflow.user"(%data_output_3149, %output_1358, %output_1360) {data_format = "channels_last", device_name = ["@0:0"], device_tag = "cuda", dilation_rate = [1 : si32, 1 : si32], filters = 320 : si32, groups = 1 : si32, hierarchy = [1], input_sizes = [1 : i32, 1 : i32, 1 : i32, 0 : i32], kernel_size = [1 : si32, 1 : si32], op_name = "unet.up_blocks.3.attentions.2.proj_out-conv2d-911", op_type_name = "conv2d", operand_segment_sizes = dense<[3, 0]> : vector<2xi32>, output_lbns = ["unet.up_blocks.3.attentions.2.proj_out-conv2d-911/out_0"], output_sizes = [1 : i32], padding_before = [0 : si32, 0 : si32], result_segment_sizes = dense<1> : vector<2xi32>, scope_symbol_id = 6148 : i64, strides = [1 : si32, 1 : si32]} : (tensor<2x64x64x320xf16>, tensor<320x1x1x320xf16>, tensor<320xf16>) -> (tensor<2x64x64x320xf16>, tensor<i1>)
    %data_output_3153, %ctrl_output_3154 = "oneflow.user"(%data_output_3151, %data_output_3093) {device_name = ["@0:0"], device_tag = "cuda", hierarchy = [1], input_sizes = [2 : i32], op_name = "unet.up_blocks.3.attentions.2-add_n-912", op_type_name = "add_n", operand_segment_sizes = dense<[2, 0]> : vector<2xi32>, output_lbns = ["unet.up_blocks.3.attentions.2-add_n-912/out_0"], output_sizes = [1 : i32], result_segment_sizes = dense<1> : vector<2xi32>, scope_symbol_id = 5945 : i64} : (tensor<2x64x64x320xf16>, tensor<2x64x64x320xf16>) -> (tensor<2x64x64x320xf16>, tensor<i1>)
    %data_output_3155, %ctrl_output_3156 = "oneflow.user"(%data_output_3153) {device_name = ["@0:0"], device_tag = "cuda", dtype = 2 : i32, hierarchy = [1], input_sizes = [1 : i32], op_name = "unet-cast-913", op_type_name = "cast", operand_segment_sizes = dense<[1, 0]> : vector<2xi32>, output_lbns = ["unet-cast-913/out_0"], output_sizes = [1 : i32], pin_memory = false, result_segment_sizes = dense<1> : vector<2xi32>, scope_symbol_id = 31 : i64} : (tensor<2x64x64x320xf16>) -> (tensor<2x64x64x320xf32>, tensor<i1>)
    %data_output_3157, %ctrl_output_3158 = "oneflow.user"(%data_output_3155) {device_name = ["@0:0"], device_tag = "cuda", dtype = 2 : i32, hierarchy = [1], input_sizes = [1 : i32], op_name = "unet-cast-914", op_type_name = "cast", operand_segment_sizes = dense<[1, 0]> : vector<2xi32>, output_lbns = ["unet-cast-914/out_0"], output_sizes = [1 : i32], pin_memory = false, result_segment_sizes = dense<1> : vector<2xi32>, scope_symbol_id = 31 : i64} : (tensor<2x64x64x320xf32>) -> (tensor<2x64x64x320xf32>, tensor<i1>)
    %data_output_3159:3, %ctrl_output_3160 = "oneflow.user"(%data_output_3157, %data_output_1379, %data_output_1377) {activation = "none", affine = true, data_format = "channels_last", device_name = ["@0:0"], device_tag = "cuda", epsilon = 1.000000e-05 : f64, hierarchy = [1], input_sizes = [1 : i32, 1 : i32, 1 : i32], num_groups = 32 : si32, op_name = "unet.conv_norm_out-group_norm-917", op_type_name = "group_norm", operand_segment_sizes = dense<[3, 0]> : vector<2xi32>, output_lbns = ["unet.conv_norm_out-group_norm-917/y_0", "unet.conv_norm_out-group_norm-917/mean_0", "unet.conv_norm_out-group_norm-917/inv_variance_0"], output_sizes = [1 : i32, 1 : i32, 1 : i32], result_segment_sizes = dense<[3, 1]> : vector<2xi32>, scope_symbol_id = 6169 : i64} : (tensor<2x64x64x320xf32>, tensor<320xf32>, tensor<320xf32>) -> (tensor<2x64x64x320xf32>, tensor<2x32xf32>, tensor<2x32xf32>, tensor<i1>)
    %data_output_3161, %ctrl_output_3162 = "oneflow.user"(%data_output_3159#0) {device_name = ["@0:0"], device_tag = "cuda", dtype = 9 : i32, hierarchy = [1], input_sizes = [1 : i32], op_name = "unet-cast-918", op_type_name = "cast", operand_segment_sizes = dense<[1, 0]> : vector<2xi32>, output_lbns = ["unet-cast-918/out_0"], output_sizes = [1 : i32], pin_memory = false, result_segment_sizes = dense<1> : vector<2xi32>, scope_symbol_id = 31 : i64} : (tensor<2x64x64x320xf32>) -> (tensor<2x64x64x320xf16>, tensor<i1>)
    %data_output_3163, %ctrl_output_3164 = "oneflow.user"(%data_output_3161) {device_name = ["@0:0"], device_tag = "cuda", hierarchy = [1], input_sizes = [1 : i32], op_name = "unet.conv_act-silu-919", op_type_name = "silu", operand_segment_sizes = dense<[1, 0]> : vector<2xi32>, output_lbns = ["unet.conv_act-silu-919/out_0"], output_sizes = [1 : i32], result_segment_sizes = dense<1> : vector<2xi32>, scope_symbol_id = 6182 : i64} : (tensor<2x64x64x320xf16>) -> (tensor<2x64x64x320xf16>, tensor<i1>)
    %data_output_3165, %ctrl_output_3166 = "oneflow.user"(%data_output_3163, %output_1366, %output_1368) {data_format = "channels_last", device_name = ["@0:0"], device_tag = "cuda", dilation_rate = [1 : si32, 1 : si32], filters = 4 : si32, groups = 1 : si32, hierarchy = [1], input_sizes = [1 : i32, 1 : i32, 1 : i32, 0 : i32], kernel_size = [3 : si32, 3 : si32], op_name = "unet.conv_out-conv2d-920", op_type_name = "conv2d", operand_segment_sizes = dense<[3, 0]> : vector<2xi32>, output_lbns = ["unet.conv_out-conv2d-920/out_0"], output_sizes = [1 : i32], padding_before = [1 : si32, 1 : si32], result_segment_sizes = dense<1> : vector<2xi32>, scope_symbol_id = 6194 : i64, strides = [1 : si32, 1 : si32]} : (tensor<2x64x64x320xf16>, tensor<4x3x3x320xf16>, tensor<4xf16>) -> (tensor<2x64x64x4xf16>, tensor<i1>)
    %data_output_3167, %ctrl_output_3168 = "oneflow.user"(%data_output_3165) {device_name = ["@0:0"], device_tag = "cuda", hierarchy = [1], input_sizes = [1 : i32], op_name = "unet.conv_out-conv2d-920_transpose_output_0", op_type_name = "transpose", operand_segment_sizes = dense<[1, 0]> : vector<2xi32>, output_lbns = ["unet.conv_out-conv2d-920_transpose_output_0/output_0"], output_sizes = [1 : i32], perm = [0 : si32, 3 : si32, 1 : si32, 2 : si32], result_segment_sizes = dense<1> : vector<2xi32>, scope_symbol_id = 6194 : i64} : (tensor<2x64x64x4xf16>) -> (tensor<2x4x64x64xf16>, tensor<i1>)
    %output_3169, %ctrl_output_3170 = "oneflow.output"(%data_output_3167) {data_type = 9 : i32, device_name = ["@0:0"], device_tag = "cuda", hierarchy = [1], is_dynamic = false, nd_sbp = ["B"], op_name = "_UNetGraph_0_output.0.0_2", output_lbns = ["_UNetGraph_0_output.0.0_2/out"], scope_symbol_id = 12 : i64, shape = [2 : si64, 4 : si64, 64 : si64, 64 : si64]} : (tensor<2x4x64x64xf16>) -> (tensor<2x4x64x64xf16>, tensor<i1>)
    oneflow.return %output_3169 : tensor<2x4x64x64xf16>
  }
}
