module {
  oneflow.job @UNetGraph_0(%V: tensor<2x4x64x64xf32>, %V: tensor<si64>, %V: tensor<2x77x768xf16>) -> tensor<2x4x64x64xf16> {
    %V = "oneflow.variable"() {data_type = 9 : i32, device_name = ["@0:0"], device_tag = "cuda", hierarchy = [1], op_name = "unet.time_embedding.linear_1.weight", output_lbns = ["unet.time_embedding.linear_1.weight/out"], parallel = #sbp.parallel<[] -> [[#sbp.B]]>, scope_symbol_id = 80 : i64, shape = [1280 : si64, 320 : si64]} : () -> tensor<1280x320xf16>
    %V = "oneflow.variable"() {data_type = 9 : i32, device_name = ["@0:0"], device_tag = "cuda", hierarchy = [1], op_name = "unet.time_embedding.linear_1.bias", output_lbns = ["unet.time_embedding.linear_1.bias/out"], parallel = #sbp.parallel<[] -> [[#sbp.B]]>, scope_symbol_id = 90 : i64, shape = [1280 : si64]} : () -> tensor<1280xf16>
    %V = "oneflow.variable"() {data_type = 9 : i32, device_name = ["@0:0"], device_tag = "cuda", hierarchy = [1], op_name = "unet.time_embedding.linear_2.weight", output_lbns = ["unet.time_embedding.linear_2.weight/out"], parallel = #sbp.parallel<[] -> [[#sbp.B]]>, scope_symbol_id = 102 : i64, shape = [1280 : si64, 1280 : si64]} : () -> tensor<1280x1280xf16>
    %V = "oneflow.variable"() {data_type = 9 : i32, device_name = ["@0:0"], device_tag = "cuda", hierarchy = [1], op_name = "unet.time_embedding.linear_2.bias", output_lbns = ["unet.time_embedding.linear_2.bias/out"], parallel = #sbp.parallel<[] -> [[#sbp.B]]>, scope_symbol_id = 109 : i64, shape = [1280 : si64]} : () -> tensor<1280xf16>
    %V = "oneflow.variable"() {data_type = 9 : i32, device_name = ["@0:0"], device_tag = "cuda", hierarchy = [1], op_name = "variable_413", output_lbns = ["variable_413/out"], parallel = #sbp.parallel<[] -> [[#sbp.B]]>, scope_symbol_id = 117 : i64, shape = [320 : si64, 3 : si64, 3 : si64, 4 : si64]} : () -> tensor<320x3x3x4xf16>
    %V = "oneflow.variable"() {data_type = 9 : i32, device_name = ["@0:0"], device_tag = "cuda", hierarchy = [1], op_name = "unet.conv_in.bias", output_lbns = ["unet.conv_in.bias/out"], parallel = #sbp.parallel<[] -> [[#sbp.B]]>, scope_symbol_id = 121 : i64, shape = [320 : si64]} : () -> tensor<320xf16>
    %V = "oneflow.variable"() {data_type = 9 : i32, device_name = ["@0:0"], device_tag = "cuda", hierarchy = [1], op_name = "unet.down_blocks.0.resnets.0.norm1.weight", output_lbns = ["unet.down_blocks.0.resnets.0.norm1.weight/out"], parallel = #sbp.parallel<[] -> [[#sbp.B]]>, scope_symbol_id = 134 : i64, shape = [320 : si64]} : () -> tensor<320xf16>
    %V = "oneflow.variable"() {data_type = 9 : i32, device_name = ["@0:0"], device_tag = "cuda", hierarchy = [1], op_name = "unet.down_blocks.0.resnets.0.norm1.bias", output_lbns = ["unet.down_blocks.0.resnets.0.norm1.bias/out"], parallel = #sbp.parallel<[] -> [[#sbp.B]]>, scope_symbol_id = 138 : i64, shape = [320 : si64]} : () -> tensor<320xf16>
    %V = "oneflow.variable"() {data_type = 9 : i32, device_name = ["@0:0"], device_tag = "cuda", hierarchy = [1], op_name = "variable_412", output_lbns = ["variable_412/out"], parallel = #sbp.parallel<[] -> [[#sbp.B]]>, scope_symbol_id = 150 : i64, shape = [320 : si64, 3 : si64, 3 : si64, 320 : si64]} : () -> tensor<320x3x3x320xf16>
    %V = "oneflow.variable"() {data_type = 9 : i32, device_name = ["@0:0"], device_tag = "cuda", hierarchy = [1], op_name = "unet.down_blocks.0.resnets.0.conv1.bias", output_lbns = ["unet.down_blocks.0.resnets.0.conv1.bias/out"], parallel = #sbp.parallel<[] -> [[#sbp.B]]>, scope_symbol_id = 154 : i64, shape = [320 : si64]} : () -> tensor<320xf16>
    %V = "oneflow.variable"() {data_type = 9 : i32, device_name = ["@0:0"], device_tag = "cuda", hierarchy = [1], op_name = "unet.down_blocks.0.resnets.0.time_emb_proj.weight", output_lbns = ["unet.down_blocks.0.resnets.0.time_emb_proj.weight/out"], parallel = #sbp.parallel<[] -> [[#sbp.B]]>, scope_symbol_id = 165 : i64, shape = [320 : si64, 1280 : si64]} : () -> tensor<320x1280xf16>
    %V = "oneflow.variable"() {data_type = 9 : i32, device_name = ["@0:0"], device_tag = "cuda", hierarchy = [1], op_name = "unet.down_blocks.0.resnets.0.time_emb_proj.bias", output_lbns = ["unet.down_blocks.0.resnets.0.time_emb_proj.bias/out"], parallel = #sbp.parallel<[] -> [[#sbp.B]]>, scope_symbol_id = 172 : i64, shape = [320 : si64]} : () -> tensor<320xf16>
    %V = "oneflow.variable"() {data_type = 9 : i32, device_name = ["@0:0"], device_tag = "cuda", hierarchy = [1], op_name = "unet.down_blocks.0.resnets.0.norm2.weight", output_lbns = ["unet.down_blocks.0.resnets.0.norm2.weight/out"], parallel = #sbp.parallel<[] -> [[#sbp.B]]>, scope_symbol_id = 189 : i64, shape = [320 : si64]} : () -> tensor<320xf16>
    %V = "oneflow.variable"() {data_type = 9 : i32, device_name = ["@0:0"], device_tag = "cuda", hierarchy = [1], op_name = "unet.down_blocks.0.resnets.0.norm2.bias", output_lbns = ["unet.down_blocks.0.resnets.0.norm2.bias/out"], parallel = #sbp.parallel<[] -> [[#sbp.B]]>, scope_symbol_id = 193 : i64, shape = [320 : si64]} : () -> tensor<320xf16>
    %V = "oneflow.variable"() {data_type = 9 : i32, device_name = ["@0:0"], device_tag = "cuda", hierarchy = [1], op_name = "variable_411", output_lbns = ["variable_411/out"], parallel = #sbp.parallel<[] -> [[#sbp.B]]>, scope_symbol_id = 205 : i64, shape = [320 : si64, 3 : si64, 3 : si64, 320 : si64]} : () -> tensor<320x3x3x320xf16>
    %V = "oneflow.variable"() {data_type = 9 : i32, device_name = ["@0:0"], device_tag = "cuda", hierarchy = [1], op_name = "unet.down_blocks.0.resnets.0.conv2.bias", output_lbns = ["unet.down_blocks.0.resnets.0.conv2.bias/out"], parallel = #sbp.parallel<[] -> [[#sbp.B]]>, scope_symbol_id = 209 : i64, shape = [320 : si64]} : () -> tensor<320xf16>
    %V = "oneflow.variable"() {data_type = 9 : i32, device_name = ["@0:0"], device_tag = "cuda", hierarchy = [1], op_name = "unet.down_blocks.0.attentions.0.norm.weight", output_lbns = ["unet.down_blocks.0.attentions.0.norm.weight/out"], parallel = #sbp.parallel<[] -> [[#sbp.B]]>, scope_symbol_id = 224 : i64, shape = [320 : si64]} : () -> tensor<320xf16>
    %V = "oneflow.variable"() {data_type = 9 : i32, device_name = ["@0:0"], device_tag = "cuda", hierarchy = [1], op_name = "unet.down_blocks.0.attentions.0.norm.bias", output_lbns = ["unet.down_blocks.0.attentions.0.norm.bias/out"], parallel = #sbp.parallel<[] -> [[#sbp.B]]>, scope_symbol_id = 228 : i64, shape = [320 : si64]} : () -> tensor<320xf16>
    %V = "oneflow.variable"() {data_type = 9 : i32, device_name = ["@0:0"], device_tag = "cuda", hierarchy = [1], op_name = "variable_410", output_lbns = ["variable_410/out"], parallel = #sbp.parallel<[] -> [[#sbp.B]]>, scope_symbol_id = 236 : i64, shape = [320 : si64, 1 : si64, 1 : si64, 320 : si64]} : () -> tensor<320x1x1x320xf16>
    %V = "oneflow.variable"() {data_type = 9 : i32, device_name = ["@0:0"], device_tag = "cuda", hierarchy = [1], op_name = "unet.down_blocks.0.attentions.0.proj_in.bias", output_lbns = ["unet.down_blocks.0.attentions.0.proj_in.bias/out"], parallel = #sbp.parallel<[] -> [[#sbp.B]]>, scope_symbol_id = 240 : i64, shape = [320 : si64]} : () -> tensor<320xf16>
    %V = "oneflow.variable"() {data_type = 9 : i32, device_name = ["@0:0"], device_tag = "cuda", hierarchy = [1], op_name = "unet.down_blocks.0.attentions.0.transformer_blocks.0.norm1.weight", output_lbns = ["unet.down_blocks.0.attentions.0.transformer_blocks.0.norm1.weight/out"], parallel = #sbp.parallel<[] -> [[#sbp.B]]>, scope_symbol_id = 255 : i64, shape = [320 : si64]} : () -> tensor<320xf16>
    %V = "oneflow.variable"() {data_type = 9 : i32, device_name = ["@0:0"], device_tag = "cuda", hierarchy = [1], op_name = "unet.down_blocks.0.attentions.0.transformer_blocks.0.norm1.bias", output_lbns = ["unet.down_blocks.0.attentions.0.transformer_blocks.0.norm1.bias/out"], parallel = #sbp.parallel<[] -> [[#sbp.B]]>, scope_symbol_id = 259 : i64, shape = [320 : si64]} : () -> tensor<320xf16>
    %V = "oneflow.variable"() {data_type = 9 : i32, device_name = ["@0:0"], device_tag = "cuda", hierarchy = [1], op_name = "unet.down_blocks.0.attentions.0.transformer_blocks.0.attn1.to_q.weight", output_lbns = ["unet.down_blocks.0.attentions.0.transformer_blocks.0.attn1.to_q.weight/out"], parallel = #sbp.parallel<[] -> [[#sbp.B]]>, scope_symbol_id = 268 : i64, shape = [320 : si64, 320 : si64]} : () -> tensor<320x320xf16>
    %V = "oneflow.variable"() {data_type = 9 : i32, device_name = ["@0:0"], device_tag = "cuda", hierarchy = [1], op_name = "unet.down_blocks.0.attentions.0.transformer_blocks.0.attn1.to_k.weight", output_lbns = ["unet.down_blocks.0.attentions.0.transformer_blocks.0.attn1.to_k.weight/out"], parallel = #sbp.parallel<[] -> [[#sbp.B]]>, scope_symbol_id = 276 : i64, shape = [320 : si64, 320 : si64]} : () -> tensor<320x320xf16>
    %V = "oneflow.variable"() {data_type = 9 : i32, device_name = ["@0:0"], device_tag = "cuda", hierarchy = [1], op_name = "unet.down_blocks.0.attentions.0.transformer_blocks.0.attn1.to_v.weight", output_lbns = ["unet.down_blocks.0.attentions.0.transformer_blocks.0.attn1.to_v.weight/out"], parallel = #sbp.parallel<[] -> [[#sbp.B]]>, scope_symbol_id = 284 : i64, shape = [320 : si64, 320 : si64]} : () -> tensor<320x320xf16>
    %V = "oneflow.variable"() {data_type = 9 : i32, device_name = ["@0:0"], device_tag = "cuda", hierarchy = [1], op_name = "unet.down_blocks.0.attentions.0.transformer_blocks.0.attn1.to_out.0.weight", output_lbns = ["unet.down_blocks.0.attentions.0.transformer_blocks.0.attn1.to_out.0.weight/out"], parallel = #sbp.parallel<[] -> [[#sbp.B]]>, scope_symbol_id = 296 : i64, shape = [320 : si64, 320 : si64]} : () -> tensor<320x320xf16>
    %V = "oneflow.variable"() {data_type = 9 : i32, device_name = ["@0:0"], device_tag = "cuda", hierarchy = [1], op_name = "unet.down_blocks.0.attentions.0.transformer_blocks.0.attn1.to_out.0.bias", output_lbns = ["unet.down_blocks.0.attentions.0.transformer_blocks.0.attn1.to_out.0.bias/out"], parallel = #sbp.parallel<[] -> [[#sbp.B]]>, scope_symbol_id = 303 : i64, shape = [320 : si64]} : () -> tensor<320xf16>
    %V = "oneflow.variable"() {data_type = 9 : i32, device_name = ["@0:0"], device_tag = "cuda", hierarchy = [1], op_name = "unet.down_blocks.0.attentions.0.transformer_blocks.0.norm2.weight", output_lbns = ["unet.down_blocks.0.attentions.0.transformer_blocks.0.norm2.weight/out"], parallel = #sbp.parallel<[] -> [[#sbp.B]]>, scope_symbol_id = 315 : i64, shape = [320 : si64]} : () -> tensor<320xf16>
    %V = "oneflow.variable"() {data_type = 9 : i32, device_name = ["@0:0"], device_tag = "cuda", hierarchy = [1], op_name = "unet.down_blocks.0.attentions.0.transformer_blocks.0.norm2.bias", output_lbns = ["unet.down_blocks.0.attentions.0.transformer_blocks.0.norm2.bias/out"], parallel = #sbp.parallel<[] -> [[#sbp.B]]>, scope_symbol_id = 319 : i64, shape = [320 : si64]} : () -> tensor<320xf16>
    %V = "oneflow.variable"() {data_type = 9 : i32, device_name = ["@0:0"], device_tag = "cuda", hierarchy = [1], op_name = "unet.down_blocks.0.attentions.0.transformer_blocks.0.attn2.to_q.weight", output_lbns = ["unet.down_blocks.0.attentions.0.transformer_blocks.0.attn2.to_q.weight/out"], parallel = #sbp.parallel<[] -> [[#sbp.B]]>, scope_symbol_id = 328 : i64, shape = [320 : si64, 320 : si64]} : () -> tensor<320x320xf16>
    %V = "oneflow.variable"() {data_type = 9 : i32, device_name = ["@0:0"], device_tag = "cuda", hierarchy = [1], op_name = "unet.down_blocks.0.attentions.0.transformer_blocks.0.attn2.to_k.weight", output_lbns = ["unet.down_blocks.0.attentions.0.transformer_blocks.0.attn2.to_k.weight/out"], parallel = #sbp.parallel<[] -> [[#sbp.B]]>, scope_symbol_id = 336 : i64, shape = [320 : si64, 768 : si64]} : () -> tensor<320x768xf16>
    %V = "oneflow.variable"() {data_type = 9 : i32, device_name = ["@0:0"], device_tag = "cuda", hierarchy = [1], op_name = "unet.down_blocks.0.attentions.0.transformer_blocks.0.attn2.to_v.weight", output_lbns = ["unet.down_blocks.0.attentions.0.transformer_blocks.0.attn2.to_v.weight/out"], parallel = #sbp.parallel<[] -> [[#sbp.B]]>, scope_symbol_id = 344 : i64, shape = [320 : si64, 768 : si64]} : () -> tensor<320x768xf16>
    %V = "oneflow.variable"() {data_type = 9 : i32, device_name = ["@0:0"], device_tag = "cuda", hierarchy = [1], op_name = "unet.down_blocks.0.attentions.0.transformer_blocks.0.attn2.to_out.0.weight", output_lbns = ["unet.down_blocks.0.attentions.0.transformer_blocks.0.attn2.to_out.0.weight/out"], parallel = #sbp.parallel<[] -> [[#sbp.B]]>, scope_symbol_id = 356 : i64, shape = [320 : si64, 320 : si64]} : () -> tensor<320x320xf16>
    %V = "oneflow.variable"() {data_type = 9 : i32, device_name = ["@0:0"], device_tag = "cuda", hierarchy = [1], op_name = "unet.down_blocks.0.attentions.0.transformer_blocks.0.attn2.to_out.0.bias", output_lbns = ["unet.down_blocks.0.attentions.0.transformer_blocks.0.attn2.to_out.0.bias/out"], parallel = #sbp.parallel<[] -> [[#sbp.B]]>, scope_symbol_id = 363 : i64, shape = [320 : si64]} : () -> tensor<320xf16>
    %V = "oneflow.variable"() {data_type = 9 : i32, device_name = ["@0:0"], device_tag = "cuda", hierarchy = [1], op_name = "unet.down_blocks.0.attentions.0.transformer_blocks.0.norm3.weight", output_lbns = ["unet.down_blocks.0.attentions.0.transformer_blocks.0.norm3.weight/out"], parallel = #sbp.parallel<[] -> [[#sbp.B]]>, scope_symbol_id = 375 : i64, shape = [320 : si64]} : () -> tensor<320xf16>
    %V = "oneflow.variable"() {data_type = 9 : i32, device_name = ["@0:0"], device_tag = "cuda", hierarchy = [1], op_name = "unet.down_blocks.0.attentions.0.transformer_blocks.0.norm3.bias", output_lbns = ["unet.down_blocks.0.attentions.0.transformer_blocks.0.norm3.bias/out"], parallel = #sbp.parallel<[] -> [[#sbp.B]]>, scope_symbol_id = 379 : i64, shape = [320 : si64]} : () -> tensor<320xf16>
    %V = "oneflow.variable"() {data_type = 9 : i32, device_name = ["@0:0"], device_tag = "cuda", hierarchy = [1], op_name = "unet.down_blocks.0.attentions.0.transformer_blocks.0.ff.net.0.proj.weight", output_lbns = ["unet.down_blocks.0.attentions.0.transformer_blocks.0.ff.net.0.proj.weight/out"], parallel = #sbp.parallel<[] -> [[#sbp.B]]>, scope_symbol_id = 390 : i64, shape = [2560 : si64, 320 : si64]} : () -> tensor<2560x320xf16>
    %V = "oneflow.variable"() {data_type = 9 : i32, device_name = ["@0:0"], device_tag = "cuda", hierarchy = [1], op_name = "unet.down_blocks.0.attentions.0.transformer_blocks.0.ff.net.0.proj.bias", output_lbns = ["unet.down_blocks.0.attentions.0.transformer_blocks.0.ff.net.0.proj.bias/out"], parallel = #sbp.parallel<[] -> [[#sbp.B]]>, scope_symbol_id = 397 : i64, shape = [2560 : si64]} : () -> tensor<2560xf16>
    %V = "oneflow.variable"() {data_type = 9 : i32, device_name = ["@0:0"], device_tag = "cuda", hierarchy = [1], op_name = "unet.down_blocks.0.attentions.0.transformer_blocks.0.ff.net.2.weight", output_lbns = ["unet.down_blocks.0.attentions.0.transformer_blocks.0.ff.net.2.weight/out"], parallel = #sbp.parallel<[] -> [[#sbp.B]]>, scope_symbol_id = 418 : i64, shape = [320 : si64, 1280 : si64]} : () -> tensor<320x1280xf16>
    %V = "oneflow.variable"() {data_type = 9 : i32, device_name = ["@0:0"], device_tag = "cuda", hierarchy = [1], op_name = "unet.down_blocks.0.attentions.0.transformer_blocks.0.ff.net.2.bias", output_lbns = ["unet.down_blocks.0.attentions.0.transformer_blocks.0.ff.net.2.bias/out"], parallel = #sbp.parallel<[] -> [[#sbp.B]]>, scope_symbol_id = 425 : i64, shape = [320 : si64]} : () -> tensor<320xf16>
    %V = "oneflow.variable"() {data_type = 9 : i32, device_name = ["@0:0"], device_tag = "cuda", hierarchy = [1], op_name = "variable_409", output_lbns = ["variable_409/out"], parallel = #sbp.parallel<[] -> [[#sbp.B]]>, scope_symbol_id = 442 : i64, shape = [320 : si64, 1 : si64, 1 : si64, 320 : si64]} : () -> tensor<320x1x1x320xf16>
    %V = "oneflow.variable"() {data_type = 9 : i32, device_name = ["@0:0"], device_tag = "cuda", hierarchy = [1], op_name = "unet.down_blocks.0.attentions.0.proj_out.bias", output_lbns = ["unet.down_blocks.0.attentions.0.proj_out.bias/out"], parallel = #sbp.parallel<[] -> [[#sbp.B]]>, scope_symbol_id = 446 : i64, shape = [320 : si64]} : () -> tensor<320xf16>
    %V = "oneflow.variable"() {data_type = 9 : i32, device_name = ["@0:0"], device_tag = "cuda", hierarchy = [1], op_name = "unet.down_blocks.0.resnets.1.norm1.weight", output_lbns = ["unet.down_blocks.0.resnets.1.norm1.weight/out"], parallel = #sbp.parallel<[] -> [[#sbp.B]]>, scope_symbol_id = 458 : i64, shape = [320 : si64]} : () -> tensor<320xf16>
    %V = "oneflow.variable"() {data_type = 9 : i32, device_name = ["@0:0"], device_tag = "cuda", hierarchy = [1], op_name = "unet.down_blocks.0.resnets.1.norm1.bias", output_lbns = ["unet.down_blocks.0.resnets.1.norm1.bias/out"], parallel = #sbp.parallel<[] -> [[#sbp.B]]>, scope_symbol_id = 462 : i64, shape = [320 : si64]} : () -> tensor<320xf16>
    %V = "oneflow.variable"() {data_type = 9 : i32, device_name = ["@0:0"], device_tag = "cuda", hierarchy = [1], op_name = "variable_408", output_lbns = ["variable_408/out"], parallel = #sbp.parallel<[] -> [[#sbp.B]]>, scope_symbol_id = 474 : i64, shape = [320 : si64, 3 : si64, 3 : si64, 320 : si64]} : () -> tensor<320x3x3x320xf16>
    %V = "oneflow.variable"() {data_type = 9 : i32, device_name = ["@0:0"], device_tag = "cuda", hierarchy = [1], op_name = "unet.down_blocks.0.resnets.1.conv1.bias", output_lbns = ["unet.down_blocks.0.resnets.1.conv1.bias/out"], parallel = #sbp.parallel<[] -> [[#sbp.B]]>, scope_symbol_id = 478 : i64, shape = [320 : si64]} : () -> tensor<320xf16>
    %V = "oneflow.variable"() {data_type = 9 : i32, device_name = ["@0:0"], device_tag = "cuda", hierarchy = [1], op_name = "unet.down_blocks.0.resnets.1.time_emb_proj.weight", output_lbns = ["unet.down_blocks.0.resnets.1.time_emb_proj.weight/out"], parallel = #sbp.parallel<[] -> [[#sbp.B]]>, scope_symbol_id = 489 : i64, shape = [320 : si64, 1280 : si64]} : () -> tensor<320x1280xf16>
    %V = "oneflow.variable"() {data_type = 9 : i32, device_name = ["@0:0"], device_tag = "cuda", hierarchy = [1], op_name = "unet.down_blocks.0.resnets.1.time_emb_proj.bias", output_lbns = ["unet.down_blocks.0.resnets.1.time_emb_proj.bias/out"], parallel = #sbp.parallel<[] -> [[#sbp.B]]>, scope_symbol_id = 496 : i64, shape = [320 : si64]} : () -> tensor<320xf16>
    %V = "oneflow.variable"() {data_type = 9 : i32, device_name = ["@0:0"], device_tag = "cuda", hierarchy = [1], op_name = "unet.down_blocks.0.resnets.1.norm2.weight", output_lbns = ["unet.down_blocks.0.resnets.1.norm2.weight/out"], parallel = #sbp.parallel<[] -> [[#sbp.B]]>, scope_symbol_id = 513 : i64, shape = [320 : si64]} : () -> tensor<320xf16>
    %V = "oneflow.variable"() {data_type = 9 : i32, device_name = ["@0:0"], device_tag = "cuda", hierarchy = [1], op_name = "unet.down_blocks.0.resnets.1.norm2.bias", output_lbns = ["unet.down_blocks.0.resnets.1.norm2.bias/out"], parallel = #sbp.parallel<[] -> [[#sbp.B]]>, scope_symbol_id = 517 : i64, shape = [320 : si64]} : () -> tensor<320xf16>
    %V = "oneflow.variable"() {data_type = 9 : i32, device_name = ["@0:0"], device_tag = "cuda", hierarchy = [1], op_name = "variable_407", output_lbns = ["variable_407/out"], parallel = #sbp.parallel<[] -> [[#sbp.B]]>, scope_symbol_id = 529 : i64, shape = [320 : si64, 3 : si64, 3 : si64, 320 : si64]} : () -> tensor<320x3x3x320xf16>
    %V = "oneflow.variable"() {data_type = 9 : i32, device_name = ["@0:0"], device_tag = "cuda", hierarchy = [1], op_name = "unet.down_blocks.0.resnets.1.conv2.bias", output_lbns = ["unet.down_blocks.0.resnets.1.conv2.bias/out"], parallel = #sbp.parallel<[] -> [[#sbp.B]]>, scope_symbol_id = 533 : i64, shape = [320 : si64]} : () -> tensor<320xf16>
    %V = "oneflow.variable"() {data_type = 9 : i32, device_name = ["@0:0"], device_tag = "cuda", hierarchy = [1], op_name = "unet.down_blocks.0.attentions.1.norm.weight", output_lbns = ["unet.down_blocks.0.attentions.1.norm.weight/out"], parallel = #sbp.parallel<[] -> [[#sbp.B]]>, scope_symbol_id = 548 : i64, shape = [320 : si64]} : () -> tensor<320xf16>
    %V = "oneflow.variable"() {data_type = 9 : i32, device_name = ["@0:0"], device_tag = "cuda", hierarchy = [1], op_name = "unet.down_blocks.0.attentions.1.norm.bias", output_lbns = ["unet.down_blocks.0.attentions.1.norm.bias/out"], parallel = #sbp.parallel<[] -> [[#sbp.B]]>, scope_symbol_id = 552 : i64, shape = [320 : si64]} : () -> tensor<320xf16>
    %V = "oneflow.variable"() {data_type = 9 : i32, device_name = ["@0:0"], device_tag = "cuda", hierarchy = [1], op_name = "variable_406", output_lbns = ["variable_406/out"], parallel = #sbp.parallel<[] -> [[#sbp.B]]>, scope_symbol_id = 560 : i64, shape = [320 : si64, 1 : si64, 1 : si64, 320 : si64]} : () -> tensor<320x1x1x320xf16>
    %V = "oneflow.variable"() {data_type = 9 : i32, device_name = ["@0:0"], device_tag = "cuda", hierarchy = [1], op_name = "unet.down_blocks.0.attentions.1.proj_in.bias", output_lbns = ["unet.down_blocks.0.attentions.1.proj_in.bias/out"], parallel = #sbp.parallel<[] -> [[#sbp.B]]>, scope_symbol_id = 564 : i64, shape = [320 : si64]} : () -> tensor<320xf16>
    %V = "oneflow.variable"() {data_type = 9 : i32, device_name = ["@0:0"], device_tag = "cuda", hierarchy = [1], op_name = "unet.down_blocks.0.attentions.1.transformer_blocks.0.norm1.weight", output_lbns = ["unet.down_blocks.0.attentions.1.transformer_blocks.0.norm1.weight/out"], parallel = #sbp.parallel<[] -> [[#sbp.B]]>, scope_symbol_id = 579 : i64, shape = [320 : si64]} : () -> tensor<320xf16>
    %V = "oneflow.variable"() {data_type = 9 : i32, device_name = ["@0:0"], device_tag = "cuda", hierarchy = [1], op_name = "unet.down_blocks.0.attentions.1.transformer_blocks.0.norm1.bias", output_lbns = ["unet.down_blocks.0.attentions.1.transformer_blocks.0.norm1.bias/out"], parallel = #sbp.parallel<[] -> [[#sbp.B]]>, scope_symbol_id = 583 : i64, shape = [320 : si64]} : () -> tensor<320xf16>
    %V = "oneflow.variable"() {data_type = 9 : i32, device_name = ["@0:0"], device_tag = "cuda", hierarchy = [1], op_name = "unet.down_blocks.0.attentions.1.transformer_blocks.0.attn1.to_q.weight", output_lbns = ["unet.down_blocks.0.attentions.1.transformer_blocks.0.attn1.to_q.weight/out"], parallel = #sbp.parallel<[] -> [[#sbp.B]]>, scope_symbol_id = 592 : i64, shape = [320 : si64, 320 : si64]} : () -> tensor<320x320xf16>
    %V = "oneflow.variable"() {data_type = 9 : i32, device_name = ["@0:0"], device_tag = "cuda", hierarchy = [1], op_name = "unet.down_blocks.0.attentions.1.transformer_blocks.0.attn1.to_k.weight", output_lbns = ["unet.down_blocks.0.attentions.1.transformer_blocks.0.attn1.to_k.weight/out"], parallel = #sbp.parallel<[] -> [[#sbp.B]]>, scope_symbol_id = 600 : i64, shape = [320 : si64, 320 : si64]} : () -> tensor<320x320xf16>
    %V = "oneflow.variable"() {data_type = 9 : i32, device_name = ["@0:0"], device_tag = "cuda", hierarchy = [1], op_name = "unet.down_blocks.0.attentions.1.transformer_blocks.0.attn1.to_v.weight", output_lbns = ["unet.down_blocks.0.attentions.1.transformer_blocks.0.attn1.to_v.weight/out"], parallel = #sbp.parallel<[] -> [[#sbp.B]]>, scope_symbol_id = 608 : i64, shape = [320 : si64, 320 : si64]} : () -> tensor<320x320xf16>
    %V = "oneflow.variable"() {data_type = 9 : i32, device_name = ["@0:0"], device_tag = "cuda", hierarchy = [1], op_name = "unet.down_blocks.0.attentions.1.transformer_blocks.0.attn1.to_out.0.weight", output_lbns = ["unet.down_blocks.0.attentions.1.transformer_blocks.0.attn1.to_out.0.weight/out"], parallel = #sbp.parallel<[] -> [[#sbp.B]]>, scope_symbol_id = 620 : i64, shape = [320 : si64, 320 : si64]} : () -> tensor<320x320xf16>
    %V = "oneflow.variable"() {data_type = 9 : i32, device_name = ["@0:0"], device_tag = "cuda", hierarchy = [1], op_name = "unet.down_blocks.0.attentions.1.transformer_blocks.0.attn1.to_out.0.bias", output_lbns = ["unet.down_blocks.0.attentions.1.transformer_blocks.0.attn1.to_out.0.bias/out"], parallel = #sbp.parallel<[] -> [[#sbp.B]]>, scope_symbol_id = 627 : i64, shape = [320 : si64]} : () -> tensor<320xf16>
    %V = "oneflow.variable"() {data_type = 9 : i32, device_name = ["@0:0"], device_tag = "cuda", hierarchy = [1], op_name = "unet.down_blocks.0.attentions.1.transformer_blocks.0.norm2.weight", output_lbns = ["unet.down_blocks.0.attentions.1.transformer_blocks.0.norm2.weight/out"], parallel = #sbp.parallel<[] -> [[#sbp.B]]>, scope_symbol_id = 639 : i64, shape = [320 : si64]} : () -> tensor<320xf16>
    %V = "oneflow.variable"() {data_type = 9 : i32, device_name = ["@0:0"], device_tag = "cuda", hierarchy = [1], op_name = "unet.down_blocks.0.attentions.1.transformer_blocks.0.norm2.bias", output_lbns = ["unet.down_blocks.0.attentions.1.transformer_blocks.0.norm2.bias/out"], parallel = #sbp.parallel<[] -> [[#sbp.B]]>, scope_symbol_id = 643 : i64, shape = [320 : si64]} : () -> tensor<320xf16>
    %V = "oneflow.variable"() {data_type = 9 : i32, device_name = ["@0:0"], device_tag = "cuda", hierarchy = [1], op_name = "unet.down_blocks.0.attentions.1.transformer_blocks.0.attn2.to_q.weight", output_lbns = ["unet.down_blocks.0.attentions.1.transformer_blocks.0.attn2.to_q.weight/out"], parallel = #sbp.parallel<[] -> [[#sbp.B]]>, scope_symbol_id = 652 : i64, shape = [320 : si64, 320 : si64]} : () -> tensor<320x320xf16>
    %V = "oneflow.variable"() {data_type = 9 : i32, device_name = ["@0:0"], device_tag = "cuda", hierarchy = [1], op_name = "unet.down_blocks.0.attentions.1.transformer_blocks.0.attn2.to_k.weight", output_lbns = ["unet.down_blocks.0.attentions.1.transformer_blocks.0.attn2.to_k.weight/out"], parallel = #sbp.parallel<[] -> [[#sbp.B]]>, scope_symbol_id = 660 : i64, shape = [320 : si64, 768 : si64]} : () -> tensor<320x768xf16>
    %V = "oneflow.variable"() {data_type = 9 : i32, device_name = ["@0:0"], device_tag = "cuda", hierarchy = [1], op_name = "unet.down_blocks.0.attentions.1.transformer_blocks.0.attn2.to_v.weight", output_lbns = ["unet.down_blocks.0.attentions.1.transformer_blocks.0.attn2.to_v.weight/out"], parallel = #sbp.parallel<[] -> [[#sbp.B]]>, scope_symbol_id = 668 : i64, shape = [320 : si64, 768 : si64]} : () -> tensor<320x768xf16>
    %V = "oneflow.variable"() {data_type = 9 : i32, device_name = ["@0:0"], device_tag = "cuda", hierarchy = [1], op_name = "unet.down_blocks.0.attentions.1.transformer_blocks.0.attn2.to_out.0.weight", output_lbns = ["unet.down_blocks.0.attentions.1.transformer_blocks.0.attn2.to_out.0.weight/out"], parallel = #sbp.parallel<[] -> [[#sbp.B]]>, scope_symbol_id = 680 : i64, shape = [320 : si64, 320 : si64]} : () -> tensor<320x320xf16>
    %V = "oneflow.variable"() {data_type = 9 : i32, device_name = ["@0:0"], device_tag = "cuda", hierarchy = [1], op_name = "unet.down_blocks.0.attentions.1.transformer_blocks.0.attn2.to_out.0.bias", output_lbns = ["unet.down_blocks.0.attentions.1.transformer_blocks.0.attn2.to_out.0.bias/out"], parallel = #sbp.parallel<[] -> [[#sbp.B]]>, scope_symbol_id = 687 : i64, shape = [320 : si64]} : () -> tensor<320xf16>
    %V = "oneflow.variable"() {data_type = 9 : i32, device_name = ["@0:0"], device_tag = "cuda", hierarchy = [1], op_name = "unet.down_blocks.0.attentions.1.transformer_blocks.0.norm3.weight", output_lbns = ["unet.down_blocks.0.attentions.1.transformer_blocks.0.norm3.weight/out"], parallel = #sbp.parallel<[] -> [[#sbp.B]]>, scope_symbol_id = 699 : i64, shape = [320 : si64]} : () -> tensor<320xf16>
    %V = "oneflow.variable"() {data_type = 9 : i32, device_name = ["@0:0"], device_tag = "cuda", hierarchy = [1], op_name = "unet.down_blocks.0.attentions.1.transformer_blocks.0.norm3.bias", output_lbns = ["unet.down_blocks.0.attentions.1.transformer_blocks.0.norm3.bias/out"], parallel = #sbp.parallel<[] -> [[#sbp.B]]>, scope_symbol_id = 703 : i64, shape = [320 : si64]} : () -> tensor<320xf16>
    %V = "oneflow.variable"() {data_type = 9 : i32, device_name = ["@0:0"], device_tag = "cuda", hierarchy = [1], op_name = "unet.down_blocks.0.attentions.1.transformer_blocks.0.ff.net.0.proj.weight", output_lbns = ["unet.down_blocks.0.attentions.1.transformer_blocks.0.ff.net.0.proj.weight/out"], parallel = #sbp.parallel<[] -> [[#sbp.B]]>, scope_symbol_id = 714 : i64, shape = [2560 : si64, 320 : si64]} : () -> tensor<2560x320xf16>
    %V = "oneflow.variable"() {data_type = 9 : i32, device_name = ["@0:0"], device_tag = "cuda", hierarchy = [1], op_name = "unet.down_blocks.0.attentions.1.transformer_blocks.0.ff.net.0.proj.bias", output_lbns = ["unet.down_blocks.0.attentions.1.transformer_blocks.0.ff.net.0.proj.bias/out"], parallel = #sbp.parallel<[] -> [[#sbp.B]]>, scope_symbol_id = 721 : i64, shape = [2560 : si64]} : () -> tensor<2560xf16>
    %V = "oneflow.variable"() {data_type = 9 : i32, device_name = ["@0:0"], device_tag = "cuda", hierarchy = [1], op_name = "unet.down_blocks.0.attentions.1.transformer_blocks.0.ff.net.2.weight", output_lbns = ["unet.down_blocks.0.attentions.1.transformer_blocks.0.ff.net.2.weight/out"], parallel = #sbp.parallel<[] -> [[#sbp.B]]>, scope_symbol_id = 742 : i64, shape = [320 : si64, 1280 : si64]} : () -> tensor<320x1280xf16>
    %V = "oneflow.variable"() {data_type = 9 : i32, device_name = ["@0:0"], device_tag = "cuda", hierarchy = [1], op_name = "unet.down_blocks.0.attentions.1.transformer_blocks.0.ff.net.2.bias", output_lbns = ["unet.down_blocks.0.attentions.1.transformer_blocks.0.ff.net.2.bias/out"], parallel = #sbp.parallel<[] -> [[#sbp.B]]>, scope_symbol_id = 749 : i64, shape = [320 : si64]} : () -> tensor<320xf16>
    %V = "oneflow.variable"() {data_type = 9 : i32, device_name = ["@0:0"], device_tag = "cuda", hierarchy = [1], op_name = "variable_405", output_lbns = ["variable_405/out"], parallel = #sbp.parallel<[] -> [[#sbp.B]]>, scope_symbol_id = 766 : i64, shape = [320 : si64, 1 : si64, 1 : si64, 320 : si64]} : () -> tensor<320x1x1x320xf16>
    %V = "oneflow.variable"() {data_type = 9 : i32, device_name = ["@0:0"], device_tag = "cuda", hierarchy = [1], op_name = "unet.down_blocks.0.attentions.1.proj_out.bias", output_lbns = ["unet.down_blocks.0.attentions.1.proj_out.bias/out"], parallel = #sbp.parallel<[] -> [[#sbp.B]]>, scope_symbol_id = 770 : i64, shape = [320 : si64]} : () -> tensor<320xf16>
    %V = "oneflow.variable"() {data_type = 9 : i32, device_name = ["@0:0"], device_tag = "cuda", hierarchy = [1], op_name = "variable_404", output_lbns = ["variable_404/out"], parallel = #sbp.parallel<[] -> [[#sbp.B]]>, scope_symbol_id = 782 : i64, shape = [320 : si64, 3 : si64, 3 : si64, 320 : si64]} : () -> tensor<320x3x3x320xf16>
    %V = "oneflow.variable"() {data_type = 9 : i32, device_name = ["@0:0"], device_tag = "cuda", hierarchy = [1], op_name = "unet.down_blocks.0.downsamplers.0.conv.bias", output_lbns = ["unet.down_blocks.0.downsamplers.0.conv.bias/out"], parallel = #sbp.parallel<[] -> [[#sbp.B]]>, scope_symbol_id = 786 : i64, shape = [320 : si64]} : () -> tensor<320xf16>
    %V = "oneflow.variable"() {data_type = 9 : i32, device_name = ["@0:0"], device_tag = "cuda", hierarchy = [1], op_name = "unet.down_blocks.1.resnets.0.norm1.weight", output_lbns = ["unet.down_blocks.1.resnets.0.norm1.weight/out"], parallel = #sbp.parallel<[] -> [[#sbp.B]]>, scope_symbol_id = 796 : i64, shape = [320 : si64]} : () -> tensor<320xf16>
    %V = "oneflow.variable"() {data_type = 9 : i32, device_name = ["@0:0"], device_tag = "cuda", hierarchy = [1], op_name = "unet.down_blocks.1.resnets.0.norm1.bias", output_lbns = ["unet.down_blocks.1.resnets.0.norm1.bias/out"], parallel = #sbp.parallel<[] -> [[#sbp.B]]>, scope_symbol_id = 800 : i64, shape = [320 : si64]} : () -> tensor<320xf16>
    %V = "oneflow.variable"() {data_type = 9 : i32, device_name = ["@0:0"], device_tag = "cuda", hierarchy = [1], op_name = "variable_403", output_lbns = ["variable_403/out"], parallel = #sbp.parallel<[] -> [[#sbp.B]]>, scope_symbol_id = 812 : i64, shape = [640 : si64, 3 : si64, 3 : si64, 320 : si64]} : () -> tensor<640x3x3x320xf16>
    %V = "oneflow.variable"() {data_type = 9 : i32, device_name = ["@0:0"], device_tag = "cuda", hierarchy = [1], op_name = "unet.down_blocks.1.resnets.0.conv1.bias", output_lbns = ["unet.down_blocks.1.resnets.0.conv1.bias/out"], parallel = #sbp.parallel<[] -> [[#sbp.B]]>, scope_symbol_id = 816 : i64, shape = [640 : si64]} : () -> tensor<640xf16>
    %V = "oneflow.variable"() {data_type = 9 : i32, device_name = ["@0:0"], device_tag = "cuda", hierarchy = [1], op_name = "unet.down_blocks.1.resnets.0.time_emb_proj.weight", output_lbns = ["unet.down_blocks.1.resnets.0.time_emb_proj.weight/out"], parallel = #sbp.parallel<[] -> [[#sbp.B]]>, scope_symbol_id = 827 : i64, shape = [640 : si64, 1280 : si64]} : () -> tensor<640x1280xf16>
    %V = "oneflow.variable"() {data_type = 9 : i32, device_name = ["@0:0"], device_tag = "cuda", hierarchy = [1], op_name = "unet.down_blocks.1.resnets.0.time_emb_proj.bias", output_lbns = ["unet.down_blocks.1.resnets.0.time_emb_proj.bias/out"], parallel = #sbp.parallel<[] -> [[#sbp.B]]>, scope_symbol_id = 834 : i64, shape = [640 : si64]} : () -> tensor<640xf16>
    %V = "oneflow.variable"() {data_type = 9 : i32, device_name = ["@0:0"], device_tag = "cuda", hierarchy = [1], op_name = "unet.down_blocks.1.resnets.0.norm2.weight", output_lbns = ["unet.down_blocks.1.resnets.0.norm2.weight/out"], parallel = #sbp.parallel<[] -> [[#sbp.B]]>, scope_symbol_id = 851 : i64, shape = [640 : si64]} : () -> tensor<640xf16>
    %V = "oneflow.variable"() {data_type = 9 : i32, device_name = ["@0:0"], device_tag = "cuda", hierarchy = [1], op_name = "unet.down_blocks.1.resnets.0.norm2.bias", output_lbns = ["unet.down_blocks.1.resnets.0.norm2.bias/out"], parallel = #sbp.parallel<[] -> [[#sbp.B]]>, scope_symbol_id = 855 : i64, shape = [640 : si64]} : () -> tensor<640xf16>
    %V = "oneflow.variable"() {data_type = 9 : i32, device_name = ["@0:0"], device_tag = "cuda", hierarchy = [1], op_name = "variable_402", output_lbns = ["variable_402/out"], parallel = #sbp.parallel<[] -> [[#sbp.B]]>, scope_symbol_id = 867 : i64, shape = [640 : si64, 3 : si64, 3 : si64, 640 : si64]} : () -> tensor<640x3x3x640xf16>
    %V = "oneflow.variable"() {data_type = 9 : i32, device_name = ["@0:0"], device_tag = "cuda", hierarchy = [1], op_name = "unet.down_blocks.1.resnets.0.conv2.bias", output_lbns = ["unet.down_blocks.1.resnets.0.conv2.bias/out"], parallel = #sbp.parallel<[] -> [[#sbp.B]]>, scope_symbol_id = 871 : i64, shape = [640 : si64]} : () -> tensor<640xf16>
    %V = "oneflow.variable"() {data_type = 9 : i32, device_name = ["@0:0"], device_tag = "cuda", hierarchy = [1], op_name = "variable_401", output_lbns = ["variable_401/out"], parallel = #sbp.parallel<[] -> [[#sbp.B]]>, scope_symbol_id = 879 : i64, shape = [640 : si64, 1 : si64, 1 : si64, 320 : si64]} : () -> tensor<640x1x1x320xf16>
    %V = "oneflow.variable"() {data_type = 9 : i32, device_name = ["@0:0"], device_tag = "cuda", hierarchy = [1], op_name = "unet.down_blocks.1.resnets.0.conv_shortcut.bias", output_lbns = ["unet.down_blocks.1.resnets.0.conv_shortcut.bias/out"], parallel = #sbp.parallel<[] -> [[#sbp.B]]>, scope_symbol_id = 883 : i64, shape = [640 : si64]} : () -> tensor<640xf16>
    %V = "oneflow.variable"() {data_type = 9 : i32, device_name = ["@0:0"], device_tag = "cuda", hierarchy = [1], op_name = "unet.down_blocks.1.attentions.0.norm.weight", output_lbns = ["unet.down_blocks.1.attentions.0.norm.weight/out"], parallel = #sbp.parallel<[] -> [[#sbp.B]]>, scope_symbol_id = 898 : i64, shape = [640 : si64]} : () -> tensor<640xf16>
    %V = "oneflow.variable"() {data_type = 9 : i32, device_name = ["@0:0"], device_tag = "cuda", hierarchy = [1], op_name = "unet.down_blocks.1.attentions.0.norm.bias", output_lbns = ["unet.down_blocks.1.attentions.0.norm.bias/out"], parallel = #sbp.parallel<[] -> [[#sbp.B]]>, scope_symbol_id = 902 : i64, shape = [640 : si64]} : () -> tensor<640xf16>
    %V = "oneflow.variable"() {data_type = 9 : i32, device_name = ["@0:0"], device_tag = "cuda", hierarchy = [1], op_name = "variable_400", output_lbns = ["variable_400/out"], parallel = #sbp.parallel<[] -> [[#sbp.B]]>, scope_symbol_id = 910 : i64, shape = [640 : si64, 1 : si64, 1 : si64, 640 : si64]} : () -> tensor<640x1x1x640xf16>
    %V = "oneflow.variable"() {data_type = 9 : i32, device_name = ["@0:0"], device_tag = "cuda", hierarchy = [1], op_name = "unet.down_blocks.1.attentions.0.proj_in.bias", output_lbns = ["unet.down_blocks.1.attentions.0.proj_in.bias/out"], parallel = #sbp.parallel<[] -> [[#sbp.B]]>, scope_symbol_id = 914 : i64, shape = [640 : si64]} : () -> tensor<640xf16>
    %V = "oneflow.variable"() {data_type = 9 : i32, device_name = ["@0:0"], device_tag = "cuda", hierarchy = [1], op_name = "unet.down_blocks.1.attentions.0.transformer_blocks.0.norm1.weight", output_lbns = ["unet.down_blocks.1.attentions.0.transformer_blocks.0.norm1.weight/out"], parallel = #sbp.parallel<[] -> [[#sbp.B]]>, scope_symbol_id = 929 : i64, shape = [640 : si64]} : () -> tensor<640xf16>
    %V = "oneflow.variable"() {data_type = 9 : i32, device_name = ["@0:0"], device_tag = "cuda", hierarchy = [1], op_name = "unet.down_blocks.1.attentions.0.transformer_blocks.0.norm1.bias", output_lbns = ["unet.down_blocks.1.attentions.0.transformer_blocks.0.norm1.bias/out"], parallel = #sbp.parallel<[] -> [[#sbp.B]]>, scope_symbol_id = 933 : i64, shape = [640 : si64]} : () -> tensor<640xf16>
    %V = "oneflow.variable"() {data_type = 9 : i32, device_name = ["@0:0"], device_tag = "cuda", hierarchy = [1], op_name = "unet.down_blocks.1.attentions.0.transformer_blocks.0.attn1.to_q.weight", output_lbns = ["unet.down_blocks.1.attentions.0.transformer_blocks.0.attn1.to_q.weight/out"], parallel = #sbp.parallel<[] -> [[#sbp.B]]>, scope_symbol_id = 942 : i64, shape = [640 : si64, 640 : si64]} : () -> tensor<640x640xf16>
    %V = "oneflow.variable"() {data_type = 9 : i32, device_name = ["@0:0"], device_tag = "cuda", hierarchy = [1], op_name = "unet.down_blocks.1.attentions.0.transformer_blocks.0.attn1.to_k.weight", output_lbns = ["unet.down_blocks.1.attentions.0.transformer_blocks.0.attn1.to_k.weight/out"], parallel = #sbp.parallel<[] -> [[#sbp.B]]>, scope_symbol_id = 950 : i64, shape = [640 : si64, 640 : si64]} : () -> tensor<640x640xf16>
    %V = "oneflow.variable"() {data_type = 9 : i32, device_name = ["@0:0"], device_tag = "cuda", hierarchy = [1], op_name = "unet.down_blocks.1.attentions.0.transformer_blocks.0.attn1.to_v.weight", output_lbns = ["unet.down_blocks.1.attentions.0.transformer_blocks.0.attn1.to_v.weight/out"], parallel = #sbp.parallel<[] -> [[#sbp.B]]>, scope_symbol_id = 958 : i64, shape = [640 : si64, 640 : si64]} : () -> tensor<640x640xf16>
    %V = "oneflow.variable"() {data_type = 9 : i32, device_name = ["@0:0"], device_tag = "cuda", hierarchy = [1], op_name = "unet.down_blocks.1.attentions.0.transformer_blocks.0.attn1.to_out.0.weight", output_lbns = ["unet.down_blocks.1.attentions.0.transformer_blocks.0.attn1.to_out.0.weight/out"], parallel = #sbp.parallel<[] -> [[#sbp.B]]>, scope_symbol_id = 970 : i64, shape = [640 : si64, 640 : si64]} : () -> tensor<640x640xf16>
    %V = "oneflow.variable"() {data_type = 9 : i32, device_name = ["@0:0"], device_tag = "cuda", hierarchy = [1], op_name = "unet.down_blocks.1.attentions.0.transformer_blocks.0.attn1.to_out.0.bias", output_lbns = ["unet.down_blocks.1.attentions.0.transformer_blocks.0.attn1.to_out.0.bias/out"], parallel = #sbp.parallel<[] -> [[#sbp.B]]>, scope_symbol_id = 977 : i64, shape = [640 : si64]} : () -> tensor<640xf16>
    %V = "oneflow.variable"() {data_type = 9 : i32, device_name = ["@0:0"], device_tag = "cuda", hierarchy = [1], op_name = "unet.down_blocks.1.attentions.0.transformer_blocks.0.norm2.weight", output_lbns = ["unet.down_blocks.1.attentions.0.transformer_blocks.0.norm2.weight/out"], parallel = #sbp.parallel<[] -> [[#sbp.B]]>, scope_symbol_id = 989 : i64, shape = [640 : si64]} : () -> tensor<640xf16>
    %V = "oneflow.variable"() {data_type = 9 : i32, device_name = ["@0:0"], device_tag = "cuda", hierarchy = [1], op_name = "unet.down_blocks.1.attentions.0.transformer_blocks.0.norm2.bias", output_lbns = ["unet.down_blocks.1.attentions.0.transformer_blocks.0.norm2.bias/out"], parallel = #sbp.parallel<[] -> [[#sbp.B]]>, scope_symbol_id = 993 : i64, shape = [640 : si64]} : () -> tensor<640xf16>
    %V = "oneflow.variable"() {data_type = 9 : i32, device_name = ["@0:0"], device_tag = "cuda", hierarchy = [1], op_name = "unet.down_blocks.1.attentions.0.transformer_blocks.0.attn2.to_q.weight", output_lbns = ["unet.down_blocks.1.attentions.0.transformer_blocks.0.attn2.to_q.weight/out"], parallel = #sbp.parallel<[] -> [[#sbp.B]]>, scope_symbol_id = 1002 : i64, shape = [640 : si64, 640 : si64]} : () -> tensor<640x640xf16>
    %V = "oneflow.variable"() {data_type = 9 : i32, device_name = ["@0:0"], device_tag = "cuda", hierarchy = [1], op_name = "unet.down_blocks.1.attentions.0.transformer_blocks.0.attn2.to_k.weight", output_lbns = ["unet.down_blocks.1.attentions.0.transformer_blocks.0.attn2.to_k.weight/out"], parallel = #sbp.parallel<[] -> [[#sbp.B]]>, scope_symbol_id = 1010 : i64, shape = [640 : si64, 768 : si64]} : () -> tensor<640x768xf16>
    %V = "oneflow.variable"() {data_type = 9 : i32, device_name = ["@0:0"], device_tag = "cuda", hierarchy = [1], op_name = "unet.down_blocks.1.attentions.0.transformer_blocks.0.attn2.to_v.weight", output_lbns = ["unet.down_blocks.1.attentions.0.transformer_blocks.0.attn2.to_v.weight/out"], parallel = #sbp.parallel<[] -> [[#sbp.B]]>, scope_symbol_id = 1018 : i64, shape = [640 : si64, 768 : si64]} : () -> tensor<640x768xf16>
    %V = "oneflow.variable"() {data_type = 9 : i32, device_name = ["@0:0"], device_tag = "cuda", hierarchy = [1], op_name = "unet.down_blocks.1.attentions.0.transformer_blocks.0.attn2.to_out.0.weight", output_lbns = ["unet.down_blocks.1.attentions.0.transformer_blocks.0.attn2.to_out.0.weight/out"], parallel = #sbp.parallel<[] -> [[#sbp.B]]>, scope_symbol_id = 1030 : i64, shape = [640 : si64, 640 : si64]} : () -> tensor<640x640xf16>
    %V = "oneflow.variable"() {data_type = 9 : i32, device_name = ["@0:0"], device_tag = "cuda", hierarchy = [1], op_name = "unet.down_blocks.1.attentions.0.transformer_blocks.0.attn2.to_out.0.bias", output_lbns = ["unet.down_blocks.1.attentions.0.transformer_blocks.0.attn2.to_out.0.bias/out"], parallel = #sbp.parallel<[] -> [[#sbp.B]]>, scope_symbol_id = 1037 : i64, shape = [640 : si64]} : () -> tensor<640xf16>
    %V = "oneflow.variable"() {data_type = 9 : i32, device_name = ["@0:0"], device_tag = "cuda", hierarchy = [1], op_name = "unet.down_blocks.1.attentions.0.transformer_blocks.0.norm3.weight", output_lbns = ["unet.down_blocks.1.attentions.0.transformer_blocks.0.norm3.weight/out"], parallel = #sbp.parallel<[] -> [[#sbp.B]]>, scope_symbol_id = 1049 : i64, shape = [640 : si64]} : () -> tensor<640xf16>
    %V = "oneflow.variable"() {data_type = 9 : i32, device_name = ["@0:0"], device_tag = "cuda", hierarchy = [1], op_name = "unet.down_blocks.1.attentions.0.transformer_blocks.0.norm3.bias", output_lbns = ["unet.down_blocks.1.attentions.0.transformer_blocks.0.norm3.bias/out"], parallel = #sbp.parallel<[] -> [[#sbp.B]]>, scope_symbol_id = 1053 : i64, shape = [640 : si64]} : () -> tensor<640xf16>
    %V = "oneflow.variable"() {data_type = 9 : i32, device_name = ["@0:0"], device_tag = "cuda", hierarchy = [1], op_name = "unet.down_blocks.1.attentions.0.transformer_blocks.0.ff.net.0.proj.weight", output_lbns = ["unet.down_blocks.1.attentions.0.transformer_blocks.0.ff.net.0.proj.weight/out"], parallel = #sbp.parallel<[] -> [[#sbp.B]]>, scope_symbol_id = 1064 : i64, shape = [5120 : si64, 640 : si64]} : () -> tensor<5120x640xf16>
    %V = "oneflow.variable"() {data_type = 9 : i32, device_name = ["@0:0"], device_tag = "cuda", hierarchy = [1], op_name = "unet.down_blocks.1.attentions.0.transformer_blocks.0.ff.net.0.proj.bias", output_lbns = ["unet.down_blocks.1.attentions.0.transformer_blocks.0.ff.net.0.proj.bias/out"], parallel = #sbp.parallel<[] -> [[#sbp.B]]>, scope_symbol_id = 1071 : i64, shape = [5120 : si64]} : () -> tensor<5120xf16>
    %V = "oneflow.variable"() {data_type = 9 : i32, device_name = ["@0:0"], device_tag = "cuda", hierarchy = [1], op_name = "unet.down_blocks.1.attentions.0.transformer_blocks.0.ff.net.2.weight", output_lbns = ["unet.down_blocks.1.attentions.0.transformer_blocks.0.ff.net.2.weight/out"], parallel = #sbp.parallel<[] -> [[#sbp.B]]>, scope_symbol_id = 1092 : i64, shape = [640 : si64, 2560 : si64]} : () -> tensor<640x2560xf16>
    %V = "oneflow.variable"() {data_type = 9 : i32, device_name = ["@0:0"], device_tag = "cuda", hierarchy = [1], op_name = "unet.down_blocks.1.attentions.0.transformer_blocks.0.ff.net.2.bias", output_lbns = ["unet.down_blocks.1.attentions.0.transformer_blocks.0.ff.net.2.bias/out"], parallel = #sbp.parallel<[] -> [[#sbp.B]]>, scope_symbol_id = 1099 : i64, shape = [640 : si64]} : () -> tensor<640xf16>
    %V = "oneflow.variable"() {data_type = 9 : i32, device_name = ["@0:0"], device_tag = "cuda", hierarchy = [1], op_name = "variable_399", output_lbns = ["variable_399/out"], parallel = #sbp.parallel<[] -> [[#sbp.B]]>, scope_symbol_id = 1116 : i64, shape = [640 : si64, 1 : si64, 1 : si64, 640 : si64]} : () -> tensor<640x1x1x640xf16>
    %V = "oneflow.variable"() {data_type = 9 : i32, device_name = ["@0:0"], device_tag = "cuda", hierarchy = [1], op_name = "unet.down_blocks.1.attentions.0.proj_out.bias", output_lbns = ["unet.down_blocks.1.attentions.0.proj_out.bias/out"], parallel = #sbp.parallel<[] -> [[#sbp.B]]>, scope_symbol_id = 1120 : i64, shape = [640 : si64]} : () -> tensor<640xf16>
    %V = "oneflow.variable"() {data_type = 9 : i32, device_name = ["@0:0"], device_tag = "cuda", hierarchy = [1], op_name = "unet.down_blocks.1.resnets.1.norm1.weight", output_lbns = ["unet.down_blocks.1.resnets.1.norm1.weight/out"], parallel = #sbp.parallel<[] -> [[#sbp.B]]>, scope_symbol_id = 1132 : i64, shape = [640 : si64]} : () -> tensor<640xf16>
    %V = "oneflow.variable"() {data_type = 9 : i32, device_name = ["@0:0"], device_tag = "cuda", hierarchy = [1], op_name = "unet.down_blocks.1.resnets.1.norm1.bias", output_lbns = ["unet.down_blocks.1.resnets.1.norm1.bias/out"], parallel = #sbp.parallel<[] -> [[#sbp.B]]>, scope_symbol_id = 1136 : i64, shape = [640 : si64]} : () -> tensor<640xf16>
    %V = "oneflow.variable"() {data_type = 9 : i32, device_name = ["@0:0"], device_tag = "cuda", hierarchy = [1], op_name = "variable_398", output_lbns = ["variable_398/out"], parallel = #sbp.parallel<[] -> [[#sbp.B]]>, scope_symbol_id = 1148 : i64, shape = [640 : si64, 3 : si64, 3 : si64, 640 : si64]} : () -> tensor<640x3x3x640xf16>
    %V = "oneflow.variable"() {data_type = 9 : i32, device_name = ["@0:0"], device_tag = "cuda", hierarchy = [1], op_name = "unet.down_blocks.1.resnets.1.conv1.bias", output_lbns = ["unet.down_blocks.1.resnets.1.conv1.bias/out"], parallel = #sbp.parallel<[] -> [[#sbp.B]]>, scope_symbol_id = 1152 : i64, shape = [640 : si64]} : () -> tensor<640xf16>
    %V = "oneflow.variable"() {data_type = 9 : i32, device_name = ["@0:0"], device_tag = "cuda", hierarchy = [1], op_name = "unet.down_blocks.1.resnets.1.time_emb_proj.weight", output_lbns = ["unet.down_blocks.1.resnets.1.time_emb_proj.weight/out"], parallel = #sbp.parallel<[] -> [[#sbp.B]]>, scope_symbol_id = 1163 : i64, shape = [640 : si64, 1280 : si64]} : () -> tensor<640x1280xf16>
    %V = "oneflow.variable"() {data_type = 9 : i32, device_name = ["@0:0"], device_tag = "cuda", hierarchy = [1], op_name = "unet.down_blocks.1.resnets.1.time_emb_proj.bias", output_lbns = ["unet.down_blocks.1.resnets.1.time_emb_proj.bias/out"], parallel = #sbp.parallel<[] -> [[#sbp.B]]>, scope_symbol_id = 1170 : i64, shape = [640 : si64]} : () -> tensor<640xf16>
    %V = "oneflow.variable"() {data_type = 9 : i32, device_name = ["@0:0"], device_tag = "cuda", hierarchy = [1], op_name = "unet.down_blocks.1.resnets.1.norm2.weight", output_lbns = ["unet.down_blocks.1.resnets.1.norm2.weight/out"], parallel = #sbp.parallel<[] -> [[#sbp.B]]>, scope_symbol_id = 1187 : i64, shape = [640 : si64]} : () -> tensor<640xf16>
    %V = "oneflow.variable"() {data_type = 9 : i32, device_name = ["@0:0"], device_tag = "cuda", hierarchy = [1], op_name = "unet.down_blocks.1.resnets.1.norm2.bias", output_lbns = ["unet.down_blocks.1.resnets.1.norm2.bias/out"], parallel = #sbp.parallel<[] -> [[#sbp.B]]>, scope_symbol_id = 1191 : i64, shape = [640 : si64]} : () -> tensor<640xf16>
    %V = "oneflow.variable"() {data_type = 9 : i32, device_name = ["@0:0"], device_tag = "cuda", hierarchy = [1], op_name = "variable_397", output_lbns = ["variable_397/out"], parallel = #sbp.parallel<[] -> [[#sbp.B]]>, scope_symbol_id = 1203 : i64, shape = [640 : si64, 3 : si64, 3 : si64, 640 : si64]} : () -> tensor<640x3x3x640xf16>
    %V = "oneflow.variable"() {data_type = 9 : i32, device_name = ["@0:0"], device_tag = "cuda", hierarchy = [1], op_name = "unet.down_blocks.1.resnets.1.conv2.bias", output_lbns = ["unet.down_blocks.1.resnets.1.conv2.bias/out"], parallel = #sbp.parallel<[] -> [[#sbp.B]]>, scope_symbol_id = 1207 : i64, shape = [640 : si64]} : () -> tensor<640xf16>
    %V = "oneflow.variable"() {data_type = 9 : i32, device_name = ["@0:0"], device_tag = "cuda", hierarchy = [1], op_name = "unet.down_blocks.1.attentions.1.norm.weight", output_lbns = ["unet.down_blocks.1.attentions.1.norm.weight/out"], parallel = #sbp.parallel<[] -> [[#sbp.B]]>, scope_symbol_id = 1222 : i64, shape = [640 : si64]} : () -> tensor<640xf16>
    %V = "oneflow.variable"() {data_type = 9 : i32, device_name = ["@0:0"], device_tag = "cuda", hierarchy = [1], op_name = "unet.down_blocks.1.attentions.1.norm.bias", output_lbns = ["unet.down_blocks.1.attentions.1.norm.bias/out"], parallel = #sbp.parallel<[] -> [[#sbp.B]]>, scope_symbol_id = 1226 : i64, shape = [640 : si64]} : () -> tensor<640xf16>
    %V = "oneflow.variable"() {data_type = 9 : i32, device_name = ["@0:0"], device_tag = "cuda", hierarchy = [1], op_name = "variable_396", output_lbns = ["variable_396/out"], parallel = #sbp.parallel<[] -> [[#sbp.B]]>, scope_symbol_id = 1234 : i64, shape = [640 : si64, 1 : si64, 1 : si64, 640 : si64]} : () -> tensor<640x1x1x640xf16>
    %V = "oneflow.variable"() {data_type = 9 : i32, device_name = ["@0:0"], device_tag = "cuda", hierarchy = [1], op_name = "unet.down_blocks.1.attentions.1.proj_in.bias", output_lbns = ["unet.down_blocks.1.attentions.1.proj_in.bias/out"], parallel = #sbp.parallel<[] -> [[#sbp.B]]>, scope_symbol_id = 1238 : i64, shape = [640 : si64]} : () -> tensor<640xf16>
    %V = "oneflow.variable"() {data_type = 9 : i32, device_name = ["@0:0"], device_tag = "cuda", hierarchy = [1], op_name = "unet.down_blocks.1.attentions.1.transformer_blocks.0.norm1.weight", output_lbns = ["unet.down_blocks.1.attentions.1.transformer_blocks.0.norm1.weight/out"], parallel = #sbp.parallel<[] -> [[#sbp.B]]>, scope_symbol_id = 1253 : i64, shape = [640 : si64]} : () -> tensor<640xf16>
    %V = "oneflow.variable"() {data_type = 9 : i32, device_name = ["@0:0"], device_tag = "cuda", hierarchy = [1], op_name = "unet.down_blocks.1.attentions.1.transformer_blocks.0.norm1.bias", output_lbns = ["unet.down_blocks.1.attentions.1.transformer_blocks.0.norm1.bias/out"], parallel = #sbp.parallel<[] -> [[#sbp.B]]>, scope_symbol_id = 1257 : i64, shape = [640 : si64]} : () -> tensor<640xf16>
    %V = "oneflow.variable"() {data_type = 9 : i32, device_name = ["@0:0"], device_tag = "cuda", hierarchy = [1], op_name = "unet.down_blocks.1.attentions.1.transformer_blocks.0.attn1.to_q.weight", output_lbns = ["unet.down_blocks.1.attentions.1.transformer_blocks.0.attn1.to_q.weight/out"], parallel = #sbp.parallel<[] -> [[#sbp.B]]>, scope_symbol_id = 1266 : i64, shape = [640 : si64, 640 : si64]} : () -> tensor<640x640xf16>
    %V = "oneflow.variable"() {data_type = 9 : i32, device_name = ["@0:0"], device_tag = "cuda", hierarchy = [1], op_name = "unet.down_blocks.1.attentions.1.transformer_blocks.0.attn1.to_k.weight", output_lbns = ["unet.down_blocks.1.attentions.1.transformer_blocks.0.attn1.to_k.weight/out"], parallel = #sbp.parallel<[] -> [[#sbp.B]]>, scope_symbol_id = 1274 : i64, shape = [640 : si64, 640 : si64]} : () -> tensor<640x640xf16>
    %V = "oneflow.variable"() {data_type = 9 : i32, device_name = ["@0:0"], device_tag = "cuda", hierarchy = [1], op_name = "unet.down_blocks.1.attentions.1.transformer_blocks.0.attn1.to_v.weight", output_lbns = ["unet.down_blocks.1.attentions.1.transformer_blocks.0.attn1.to_v.weight/out"], parallel = #sbp.parallel<[] -> [[#sbp.B]]>, scope_symbol_id = 1282 : i64, shape = [640 : si64, 640 : si64]} : () -> tensor<640x640xf16>
    %V = "oneflow.variable"() {data_type = 9 : i32, device_name = ["@0:0"], device_tag = "cuda", hierarchy = [1], op_name = "unet.down_blocks.1.attentions.1.transformer_blocks.0.attn1.to_out.0.weight", output_lbns = ["unet.down_blocks.1.attentions.1.transformer_blocks.0.attn1.to_out.0.weight/out"], parallel = #sbp.parallel<[] -> [[#sbp.B]]>, scope_symbol_id = 1294 : i64, shape = [640 : si64, 640 : si64]} : () -> tensor<640x640xf16>
    %V = "oneflow.variable"() {data_type = 9 : i32, device_name = ["@0:0"], device_tag = "cuda", hierarchy = [1], op_name = "unet.down_blocks.1.attentions.1.transformer_blocks.0.attn1.to_out.0.bias", output_lbns = ["unet.down_blocks.1.attentions.1.transformer_blocks.0.attn1.to_out.0.bias/out"], parallel = #sbp.parallel<[] -> [[#sbp.B]]>, scope_symbol_id = 1301 : i64, shape = [640 : si64]} : () -> tensor<640xf16>
    %V = "oneflow.variable"() {data_type = 9 : i32, device_name = ["@0:0"], device_tag = "cuda", hierarchy = [1], op_name = "unet.down_blocks.1.attentions.1.transformer_blocks.0.norm2.weight", output_lbns = ["unet.down_blocks.1.attentions.1.transformer_blocks.0.norm2.weight/out"], parallel = #sbp.parallel<[] -> [[#sbp.B]]>, scope_symbol_id = 1313 : i64, shape = [640 : si64]} : () -> tensor<640xf16>
    %V = "oneflow.variable"() {data_type = 9 : i32, device_name = ["@0:0"], device_tag = "cuda", hierarchy = [1], op_name = "unet.down_blocks.1.attentions.1.transformer_blocks.0.norm2.bias", output_lbns = ["unet.down_blocks.1.attentions.1.transformer_blocks.0.norm2.bias/out"], parallel = #sbp.parallel<[] -> [[#sbp.B]]>, scope_symbol_id = 1317 : i64, shape = [640 : si64]} : () -> tensor<640xf16>
    %V = "oneflow.variable"() {data_type = 9 : i32, device_name = ["@0:0"], device_tag = "cuda", hierarchy = [1], op_name = "unet.down_blocks.1.attentions.1.transformer_blocks.0.attn2.to_q.weight", output_lbns = ["unet.down_blocks.1.attentions.1.transformer_blocks.0.attn2.to_q.weight/out"], parallel = #sbp.parallel<[] -> [[#sbp.B]]>, scope_symbol_id = 1326 : i64, shape = [640 : si64, 640 : si64]} : () -> tensor<640x640xf16>
    %V = "oneflow.variable"() {data_type = 9 : i32, device_name = ["@0:0"], device_tag = "cuda", hierarchy = [1], op_name = "unet.down_blocks.1.attentions.1.transformer_blocks.0.attn2.to_k.weight", output_lbns = ["unet.down_blocks.1.attentions.1.transformer_blocks.0.attn2.to_k.weight/out"], parallel = #sbp.parallel<[] -> [[#sbp.B]]>, scope_symbol_id = 1334 : i64, shape = [640 : si64, 768 : si64]} : () -> tensor<640x768xf16>
    %V = "oneflow.variable"() {data_type = 9 : i32, device_name = ["@0:0"], device_tag = "cuda", hierarchy = [1], op_name = "unet.down_blocks.1.attentions.1.transformer_blocks.0.attn2.to_v.weight", output_lbns = ["unet.down_blocks.1.attentions.1.transformer_blocks.0.attn2.to_v.weight/out"], parallel = #sbp.parallel<[] -> [[#sbp.B]]>, scope_symbol_id = 1342 : i64, shape = [640 : si64, 768 : si64]} : () -> tensor<640x768xf16>
    %V = "oneflow.variable"() {data_type = 9 : i32, device_name = ["@0:0"], device_tag = "cuda", hierarchy = [1], op_name = "unet.down_blocks.1.attentions.1.transformer_blocks.0.attn2.to_out.0.weight", output_lbns = ["unet.down_blocks.1.attentions.1.transformer_blocks.0.attn2.to_out.0.weight/out"], parallel = #sbp.parallel<[] -> [[#sbp.B]]>, scope_symbol_id = 1354 : i64, shape = [640 : si64, 640 : si64]} : () -> tensor<640x640xf16>
    %V = "oneflow.variable"() {data_type = 9 : i32, device_name = ["@0:0"], device_tag = "cuda", hierarchy = [1], op_name = "unet.down_blocks.1.attentions.1.transformer_blocks.0.attn2.to_out.0.bias", output_lbns = ["unet.down_blocks.1.attentions.1.transformer_blocks.0.attn2.to_out.0.bias/out"], parallel = #sbp.parallel<[] -> [[#sbp.B]]>, scope_symbol_id = 1361 : i64, shape = [640 : si64]} : () -> tensor<640xf16>
    %V = "oneflow.variable"() {data_type = 9 : i32, device_name = ["@0:0"], device_tag = "cuda", hierarchy = [1], op_name = "unet.down_blocks.1.attentions.1.transformer_blocks.0.norm3.weight", output_lbns = ["unet.down_blocks.1.attentions.1.transformer_blocks.0.norm3.weight/out"], parallel = #sbp.parallel<[] -> [[#sbp.B]]>, scope_symbol_id = 1373 : i64, shape = [640 : si64]} : () -> tensor<640xf16>
    %V = "oneflow.variable"() {data_type = 9 : i32, device_name = ["@0:0"], device_tag = "cuda", hierarchy = [1], op_name = "unet.down_blocks.1.attentions.1.transformer_blocks.0.norm3.bias", output_lbns = ["unet.down_blocks.1.attentions.1.transformer_blocks.0.norm3.bias/out"], parallel = #sbp.parallel<[] -> [[#sbp.B]]>, scope_symbol_id = 1377 : i64, shape = [640 : si64]} : () -> tensor<640xf16>
    %V = "oneflow.variable"() {data_type = 9 : i32, device_name = ["@0:0"], device_tag = "cuda", hierarchy = [1], op_name = "unet.down_blocks.1.attentions.1.transformer_blocks.0.ff.net.0.proj.weight", output_lbns = ["unet.down_blocks.1.attentions.1.transformer_blocks.0.ff.net.0.proj.weight/out"], parallel = #sbp.parallel<[] -> [[#sbp.B]]>, scope_symbol_id = 1388 : i64, shape = [5120 : si64, 640 : si64]} : () -> tensor<5120x640xf16>
    %V = "oneflow.variable"() {data_type = 9 : i32, device_name = ["@0:0"], device_tag = "cuda", hierarchy = [1], op_name = "unet.down_blocks.1.attentions.1.transformer_blocks.0.ff.net.0.proj.bias", output_lbns = ["unet.down_blocks.1.attentions.1.transformer_blocks.0.ff.net.0.proj.bias/out"], parallel = #sbp.parallel<[] -> [[#sbp.B]]>, scope_symbol_id = 1395 : i64, shape = [5120 : si64]} : () -> tensor<5120xf16>
    %V = "oneflow.variable"() {data_type = 9 : i32, device_name = ["@0:0"], device_tag = "cuda", hierarchy = [1], op_name = "unet.down_blocks.1.attentions.1.transformer_blocks.0.ff.net.2.weight", output_lbns = ["unet.down_blocks.1.attentions.1.transformer_blocks.0.ff.net.2.weight/out"], parallel = #sbp.parallel<[] -> [[#sbp.B]]>, scope_symbol_id = 1416 : i64, shape = [640 : si64, 2560 : si64]} : () -> tensor<640x2560xf16>
    %V = "oneflow.variable"() {data_type = 9 : i32, device_name = ["@0:0"], device_tag = "cuda", hierarchy = [1], op_name = "unet.down_blocks.1.attentions.1.transformer_blocks.0.ff.net.2.bias", output_lbns = ["unet.down_blocks.1.attentions.1.transformer_blocks.0.ff.net.2.bias/out"], parallel = #sbp.parallel<[] -> [[#sbp.B]]>, scope_symbol_id = 1423 : i64, shape = [640 : si64]} : () -> tensor<640xf16>
    %V = "oneflow.variable"() {data_type = 9 : i32, device_name = ["@0:0"], device_tag = "cuda", hierarchy = [1], op_name = "variable_395", output_lbns = ["variable_395/out"], parallel = #sbp.parallel<[] -> [[#sbp.B]]>, scope_symbol_id = 1440 : i64, shape = [640 : si64, 1 : si64, 1 : si64, 640 : si64]} : () -> tensor<640x1x1x640xf16>
    %V = "oneflow.variable"() {data_type = 9 : i32, device_name = ["@0:0"], device_tag = "cuda", hierarchy = [1], op_name = "unet.down_blocks.1.attentions.1.proj_out.bias", output_lbns = ["unet.down_blocks.1.attentions.1.proj_out.bias/out"], parallel = #sbp.parallel<[] -> [[#sbp.B]]>, scope_symbol_id = 1444 : i64, shape = [640 : si64]} : () -> tensor<640xf16>
    %V = "oneflow.variable"() {data_type = 9 : i32, device_name = ["@0:0"], device_tag = "cuda", hierarchy = [1], op_name = "variable_394", output_lbns = ["variable_394/out"], parallel = #sbp.parallel<[] -> [[#sbp.B]]>, scope_symbol_id = 1456 : i64, shape = [640 : si64, 3 : si64, 3 : si64, 640 : si64]} : () -> tensor<640x3x3x640xf16>
    %V = "oneflow.variable"() {data_type = 9 : i32, device_name = ["@0:0"], device_tag = "cuda", hierarchy = [1], op_name = "unet.down_blocks.1.downsamplers.0.conv.bias", output_lbns = ["unet.down_blocks.1.downsamplers.0.conv.bias/out"], parallel = #sbp.parallel<[] -> [[#sbp.B]]>, scope_symbol_id = 1460 : i64, shape = [640 : si64]} : () -> tensor<640xf16>
    %V = "oneflow.variable"() {data_type = 9 : i32, device_name = ["@0:0"], device_tag = "cuda", hierarchy = [1], op_name = "unet.down_blocks.2.resnets.0.norm1.weight", output_lbns = ["unet.down_blocks.2.resnets.0.norm1.weight/out"], parallel = #sbp.parallel<[] -> [[#sbp.B]]>, scope_symbol_id = 1470 : i64, shape = [640 : si64]} : () -> tensor<640xf16>
    %V = "oneflow.variable"() {data_type = 9 : i32, device_name = ["@0:0"], device_tag = "cuda", hierarchy = [1], op_name = "unet.down_blocks.2.resnets.0.norm1.bias", output_lbns = ["unet.down_blocks.2.resnets.0.norm1.bias/out"], parallel = #sbp.parallel<[] -> [[#sbp.B]]>, scope_symbol_id = 1474 : i64, shape = [640 : si64]} : () -> tensor<640xf16>
    %V = "oneflow.variable"() {data_type = 9 : i32, device_name = ["@0:0"], device_tag = "cuda", hierarchy = [1], op_name = "variable_393", output_lbns = ["variable_393/out"], parallel = #sbp.parallel<[] -> [[#sbp.B]]>, scope_symbol_id = 1486 : i64, shape = [1280 : si64, 3 : si64, 3 : si64, 640 : si64]} : () -> tensor<1280x3x3x640xf16>
    %V = "oneflow.variable"() {data_type = 9 : i32, device_name = ["@0:0"], device_tag = "cuda", hierarchy = [1], op_name = "unet.down_blocks.2.resnets.0.conv1.bias", output_lbns = ["unet.down_blocks.2.resnets.0.conv1.bias/out"], parallel = #sbp.parallel<[] -> [[#sbp.B]]>, scope_symbol_id = 1490 : i64, shape = [1280 : si64]} : () -> tensor<1280xf16>
    %V = "oneflow.variable"() {data_type = 9 : i32, device_name = ["@0:0"], device_tag = "cuda", hierarchy = [1], op_name = "unet.down_blocks.2.resnets.0.time_emb_proj.weight", output_lbns = ["unet.down_blocks.2.resnets.0.time_emb_proj.weight/out"], parallel = #sbp.parallel<[] -> [[#sbp.B]]>, scope_symbol_id = 1501 : i64, shape = [1280 : si64, 1280 : si64]} : () -> tensor<1280x1280xf16>
    %V = "oneflow.variable"() {data_type = 9 : i32, device_name = ["@0:0"], device_tag = "cuda", hierarchy = [1], op_name = "unet.down_blocks.2.resnets.0.time_emb_proj.bias", output_lbns = ["unet.down_blocks.2.resnets.0.time_emb_proj.bias/out"], parallel = #sbp.parallel<[] -> [[#sbp.B]]>, scope_symbol_id = 1508 : i64, shape = [1280 : si64]} : () -> tensor<1280xf16>
    %V = "oneflow.variable"() {data_type = 9 : i32, device_name = ["@0:0"], device_tag = "cuda", hierarchy = [1], op_name = "unet.down_blocks.2.resnets.0.norm2.weight", output_lbns = ["unet.down_blocks.2.resnets.0.norm2.weight/out"], parallel = #sbp.parallel<[] -> [[#sbp.B]]>, scope_symbol_id = 1525 : i64, shape = [1280 : si64]} : () -> tensor<1280xf16>
    %V = "oneflow.variable"() {data_type = 9 : i32, device_name = ["@0:0"], device_tag = "cuda", hierarchy = [1], op_name = "unet.down_blocks.2.resnets.0.norm2.bias", output_lbns = ["unet.down_blocks.2.resnets.0.norm2.bias/out"], parallel = #sbp.parallel<[] -> [[#sbp.B]]>, scope_symbol_id = 1529 : i64, shape = [1280 : si64]} : () -> tensor<1280xf16>
    %V = "oneflow.variable"() {data_type = 9 : i32, device_name = ["@0:0"], device_tag = "cuda", hierarchy = [1], op_name = "variable_392", output_lbns = ["variable_392/out"], parallel = #sbp.parallel<[] -> [[#sbp.B]]>, scope_symbol_id = 1541 : i64, shape = [1280 : si64, 3 : si64, 3 : si64, 1280 : si64]} : () -> tensor<1280x3x3x1280xf16>
    %V = "oneflow.variable"() {data_type = 9 : i32, device_name = ["@0:0"], device_tag = "cuda", hierarchy = [1], op_name = "unet.down_blocks.2.resnets.0.conv2.bias", output_lbns = ["unet.down_blocks.2.resnets.0.conv2.bias/out"], parallel = #sbp.parallel<[] -> [[#sbp.B]]>, scope_symbol_id = 1545 : i64, shape = [1280 : si64]} : () -> tensor<1280xf16>
    %V = "oneflow.variable"() {data_type = 9 : i32, device_name = ["@0:0"], device_tag = "cuda", hierarchy = [1], op_name = "variable_391", output_lbns = ["variable_391/out"], parallel = #sbp.parallel<[] -> [[#sbp.B]]>, scope_symbol_id = 1553 : i64, shape = [1280 : si64, 1 : si64, 1 : si64, 640 : si64]} : () -> tensor<1280x1x1x640xf16>
    %V = "oneflow.variable"() {data_type = 9 : i32, device_name = ["@0:0"], device_tag = "cuda", hierarchy = [1], op_name = "unet.down_blocks.2.resnets.0.conv_shortcut.bias", output_lbns = ["unet.down_blocks.2.resnets.0.conv_shortcut.bias/out"], parallel = #sbp.parallel<[] -> [[#sbp.B]]>, scope_symbol_id = 1557 : i64, shape = [1280 : si64]} : () -> tensor<1280xf16>
    %V = "oneflow.variable"() {data_type = 9 : i32, device_name = ["@0:0"], device_tag = "cuda", hierarchy = [1], op_name = "unet.down_blocks.2.attentions.0.norm.weight", output_lbns = ["unet.down_blocks.2.attentions.0.norm.weight/out"], parallel = #sbp.parallel<[] -> [[#sbp.B]]>, scope_symbol_id = 1572 : i64, shape = [1280 : si64]} : () -> tensor<1280xf16>
    %V = "oneflow.variable"() {data_type = 9 : i32, device_name = ["@0:0"], device_tag = "cuda", hierarchy = [1], op_name = "unet.down_blocks.2.attentions.0.norm.bias", output_lbns = ["unet.down_blocks.2.attentions.0.norm.bias/out"], parallel = #sbp.parallel<[] -> [[#sbp.B]]>, scope_symbol_id = 1576 : i64, shape = [1280 : si64]} : () -> tensor<1280xf16>
    %V = "oneflow.variable"() {data_type = 9 : i32, device_name = ["@0:0"], device_tag = "cuda", hierarchy = [1], op_name = "variable_390", output_lbns = ["variable_390/out"], parallel = #sbp.parallel<[] -> [[#sbp.B]]>, scope_symbol_id = 1584 : i64, shape = [1280 : si64, 1 : si64, 1 : si64, 1280 : si64]} : () -> tensor<1280x1x1x1280xf16>
    %V = "oneflow.variable"() {data_type = 9 : i32, device_name = ["@0:0"], device_tag = "cuda", hierarchy = [1], op_name = "unet.down_blocks.2.attentions.0.proj_in.bias", output_lbns = ["unet.down_blocks.2.attentions.0.proj_in.bias/out"], parallel = #sbp.parallel<[] -> [[#sbp.B]]>, scope_symbol_id = 1588 : i64, shape = [1280 : si64]} : () -> tensor<1280xf16>
    %V = "oneflow.variable"() {data_type = 9 : i32, device_name = ["@0:0"], device_tag = "cuda", hierarchy = [1], op_name = "unet.down_blocks.2.attentions.0.transformer_blocks.0.norm1.weight", output_lbns = ["unet.down_blocks.2.attentions.0.transformer_blocks.0.norm1.weight/out"], parallel = #sbp.parallel<[] -> [[#sbp.B]]>, scope_symbol_id = 1603 : i64, shape = [1280 : si64]} : () -> tensor<1280xf16>
    %V = "oneflow.variable"() {data_type = 9 : i32, device_name = ["@0:0"], device_tag = "cuda", hierarchy = [1], op_name = "unet.down_blocks.2.attentions.0.transformer_blocks.0.norm1.bias", output_lbns = ["unet.down_blocks.2.attentions.0.transformer_blocks.0.norm1.bias/out"], parallel = #sbp.parallel<[] -> [[#sbp.B]]>, scope_symbol_id = 1607 : i64, shape = [1280 : si64]} : () -> tensor<1280xf16>
    %V = "oneflow.variable"() {data_type = 9 : i32, device_name = ["@0:0"], device_tag = "cuda", hierarchy = [1], op_name = "unet.down_blocks.2.attentions.0.transformer_blocks.0.attn1.to_q.weight", output_lbns = ["unet.down_blocks.2.attentions.0.transformer_blocks.0.attn1.to_q.weight/out"], parallel = #sbp.parallel<[] -> [[#sbp.B]]>, scope_symbol_id = 1616 : i64, shape = [1280 : si64, 1280 : si64]} : () -> tensor<1280x1280xf16>
    %V = "oneflow.variable"() {data_type = 9 : i32, device_name = ["@0:0"], device_tag = "cuda", hierarchy = [1], op_name = "unet.down_blocks.2.attentions.0.transformer_blocks.0.attn1.to_k.weight", output_lbns = ["unet.down_blocks.2.attentions.0.transformer_blocks.0.attn1.to_k.weight/out"], parallel = #sbp.parallel<[] -> [[#sbp.B]]>, scope_symbol_id = 1624 : i64, shape = [1280 : si64, 1280 : si64]} : () -> tensor<1280x1280xf16>
    %V = "oneflow.variable"() {data_type = 9 : i32, device_name = ["@0:0"], device_tag = "cuda", hierarchy = [1], op_name = "unet.down_blocks.2.attentions.0.transformer_blocks.0.attn1.to_v.weight", output_lbns = ["unet.down_blocks.2.attentions.0.transformer_blocks.0.attn1.to_v.weight/out"], parallel = #sbp.parallel<[] -> [[#sbp.B]]>, scope_symbol_id = 1632 : i64, shape = [1280 : si64, 1280 : si64]} : () -> tensor<1280x1280xf16>
    %V = "oneflow.variable"() {data_type = 9 : i32, device_name = ["@0:0"], device_tag = "cuda", hierarchy = [1], op_name = "unet.down_blocks.2.attentions.0.transformer_blocks.0.attn1.to_out.0.weight", output_lbns = ["unet.down_blocks.2.attentions.0.transformer_blocks.0.attn1.to_out.0.weight/out"], parallel = #sbp.parallel<[] -> [[#sbp.B]]>, scope_symbol_id = 1644 : i64, shape = [1280 : si64, 1280 : si64]} : () -> tensor<1280x1280xf16>
    %V = "oneflow.variable"() {data_type = 9 : i32, device_name = ["@0:0"], device_tag = "cuda", hierarchy = [1], op_name = "unet.down_blocks.2.attentions.0.transformer_blocks.0.attn1.to_out.0.bias", output_lbns = ["unet.down_blocks.2.attentions.0.transformer_blocks.0.attn1.to_out.0.bias/out"], parallel = #sbp.parallel<[] -> [[#sbp.B]]>, scope_symbol_id = 1651 : i64, shape = [1280 : si64]} : () -> tensor<1280xf16>
    %V = "oneflow.variable"() {data_type = 9 : i32, device_name = ["@0:0"], device_tag = "cuda", hierarchy = [1], op_name = "unet.down_blocks.2.attentions.0.transformer_blocks.0.norm2.weight", output_lbns = ["unet.down_blocks.2.attentions.0.transformer_blocks.0.norm2.weight/out"], parallel = #sbp.parallel<[] -> [[#sbp.B]]>, scope_symbol_id = 1663 : i64, shape = [1280 : si64]} : () -> tensor<1280xf16>
    %V = "oneflow.variable"() {data_type = 9 : i32, device_name = ["@0:0"], device_tag = "cuda", hierarchy = [1], op_name = "unet.down_blocks.2.attentions.0.transformer_blocks.0.norm2.bias", output_lbns = ["unet.down_blocks.2.attentions.0.transformer_blocks.0.norm2.bias/out"], parallel = #sbp.parallel<[] -> [[#sbp.B]]>, scope_symbol_id = 1667 : i64, shape = [1280 : si64]} : () -> tensor<1280xf16>
    %V = "oneflow.variable"() {data_type = 9 : i32, device_name = ["@0:0"], device_tag = "cuda", hierarchy = [1], op_name = "unet.down_blocks.2.attentions.0.transformer_blocks.0.attn2.to_q.weight", output_lbns = ["unet.down_blocks.2.attentions.0.transformer_blocks.0.attn2.to_q.weight/out"], parallel = #sbp.parallel<[] -> [[#sbp.B]]>, scope_symbol_id = 1676 : i64, shape = [1280 : si64, 1280 : si64]} : () -> tensor<1280x1280xf16>
    %V = "oneflow.variable"() {data_type = 9 : i32, device_name = ["@0:0"], device_tag = "cuda", hierarchy = [1], op_name = "unet.down_blocks.2.attentions.0.transformer_blocks.0.attn2.to_k.weight", output_lbns = ["unet.down_blocks.2.attentions.0.transformer_blocks.0.attn2.to_k.weight/out"], parallel = #sbp.parallel<[] -> [[#sbp.B]]>, scope_symbol_id = 1684 : i64, shape = [1280 : si64, 768 : si64]} : () -> tensor<1280x768xf16>
    %V = "oneflow.variable"() {data_type = 9 : i32, device_name = ["@0:0"], device_tag = "cuda", hierarchy = [1], op_name = "unet.down_blocks.2.attentions.0.transformer_blocks.0.attn2.to_v.weight", output_lbns = ["unet.down_blocks.2.attentions.0.transformer_blocks.0.attn2.to_v.weight/out"], parallel = #sbp.parallel<[] -> [[#sbp.B]]>, scope_symbol_id = 1692 : i64, shape = [1280 : si64, 768 : si64]} : () -> tensor<1280x768xf16>
    %V = "oneflow.variable"() {data_type = 9 : i32, device_name = ["@0:0"], device_tag = "cuda", hierarchy = [1], op_name = "unet.down_blocks.2.attentions.0.transformer_blocks.0.attn2.to_out.0.weight", output_lbns = ["unet.down_blocks.2.attentions.0.transformer_blocks.0.attn2.to_out.0.weight/out"], parallel = #sbp.parallel<[] -> [[#sbp.B]]>, scope_symbol_id = 1704 : i64, shape = [1280 : si64, 1280 : si64]} : () -> tensor<1280x1280xf16>
    %V = "oneflow.variable"() {data_type = 9 : i32, device_name = ["@0:0"], device_tag = "cuda", hierarchy = [1], op_name = "unet.down_blocks.2.attentions.0.transformer_blocks.0.attn2.to_out.0.bias", output_lbns = ["unet.down_blocks.2.attentions.0.transformer_blocks.0.attn2.to_out.0.bias/out"], parallel = #sbp.parallel<[] -> [[#sbp.B]]>, scope_symbol_id = 1711 : i64, shape = [1280 : si64]} : () -> tensor<1280xf16>
    %V = "oneflow.variable"() {data_type = 9 : i32, device_name = ["@0:0"], device_tag = "cuda", hierarchy = [1], op_name = "unet.down_blocks.2.attentions.0.transformer_blocks.0.norm3.weight", output_lbns = ["unet.down_blocks.2.attentions.0.transformer_blocks.0.norm3.weight/out"], parallel = #sbp.parallel<[] -> [[#sbp.B]]>, scope_symbol_id = 1723 : i64, shape = [1280 : si64]} : () -> tensor<1280xf16>
    %V = "oneflow.variable"() {data_type = 9 : i32, device_name = ["@0:0"], device_tag = "cuda", hierarchy = [1], op_name = "unet.down_blocks.2.attentions.0.transformer_blocks.0.norm3.bias", output_lbns = ["unet.down_blocks.2.attentions.0.transformer_blocks.0.norm3.bias/out"], parallel = #sbp.parallel<[] -> [[#sbp.B]]>, scope_symbol_id = 1727 : i64, shape = [1280 : si64]} : () -> tensor<1280xf16>
    %V = "oneflow.variable"() {data_type = 9 : i32, device_name = ["@0:0"], device_tag = "cuda", hierarchy = [1], op_name = "unet.down_blocks.2.attentions.0.transformer_blocks.0.ff.net.0.proj.weight", output_lbns = ["unet.down_blocks.2.attentions.0.transformer_blocks.0.ff.net.0.proj.weight/out"], parallel = #sbp.parallel<[] -> [[#sbp.B]]>, scope_symbol_id = 1738 : i64, shape = [10240 : si64, 1280 : si64]} : () -> tensor<10240x1280xf16>
    %V = "oneflow.variable"() {data_type = 9 : i32, device_name = ["@0:0"], device_tag = "cuda", hierarchy = [1], op_name = "unet.down_blocks.2.attentions.0.transformer_blocks.0.ff.net.0.proj.bias", output_lbns = ["unet.down_blocks.2.attentions.0.transformer_blocks.0.ff.net.0.proj.bias/out"], parallel = #sbp.parallel<[] -> [[#sbp.B]]>, scope_symbol_id = 1745 : i64, shape = [10240 : si64]} : () -> tensor<10240xf16>
    %V = "oneflow.variable"() {data_type = 9 : i32, device_name = ["@0:0"], device_tag = "cuda", hierarchy = [1], op_name = "unet.down_blocks.2.attentions.0.transformer_blocks.0.ff.net.2.weight", output_lbns = ["unet.down_blocks.2.attentions.0.transformer_blocks.0.ff.net.2.weight/out"], parallel = #sbp.parallel<[] -> [[#sbp.B]]>, scope_symbol_id = 1766 : i64, shape = [1280 : si64, 5120 : si64]} : () -> tensor<1280x5120xf16>
    %V = "oneflow.variable"() {data_type = 9 : i32, device_name = ["@0:0"], device_tag = "cuda", hierarchy = [1], op_name = "unet.down_blocks.2.attentions.0.transformer_blocks.0.ff.net.2.bias", output_lbns = ["unet.down_blocks.2.attentions.0.transformer_blocks.0.ff.net.2.bias/out"], parallel = #sbp.parallel<[] -> [[#sbp.B]]>, scope_symbol_id = 1773 : i64, shape = [1280 : si64]} : () -> tensor<1280xf16>
    %V = "oneflow.variable"() {data_type = 9 : i32, device_name = ["@0:0"], device_tag = "cuda", hierarchy = [1], op_name = "variable_389", output_lbns = ["variable_389/out"], parallel = #sbp.parallel<[] -> [[#sbp.B]]>, scope_symbol_id = 1790 : i64, shape = [1280 : si64, 1 : si64, 1 : si64, 1280 : si64]} : () -> tensor<1280x1x1x1280xf16>
    %V = "oneflow.variable"() {data_type = 9 : i32, device_name = ["@0:0"], device_tag = "cuda", hierarchy = [1], op_name = "unet.down_blocks.2.attentions.0.proj_out.bias", output_lbns = ["unet.down_blocks.2.attentions.0.proj_out.bias/out"], parallel = #sbp.parallel<[] -> [[#sbp.B]]>, scope_symbol_id = 1794 : i64, shape = [1280 : si64]} : () -> tensor<1280xf16>
    %V = "oneflow.variable"() {data_type = 9 : i32, device_name = ["@0:0"], device_tag = "cuda", hierarchy = [1], op_name = "unet.down_blocks.2.resnets.1.norm1.weight", output_lbns = ["unet.down_blocks.2.resnets.1.norm1.weight/out"], parallel = #sbp.parallel<[] -> [[#sbp.B]]>, scope_symbol_id = 1806 : i64, shape = [1280 : si64]} : () -> tensor<1280xf16>
    %V = "oneflow.variable"() {data_type = 9 : i32, device_name = ["@0:0"], device_tag = "cuda", hierarchy = [1], op_name = "unet.down_blocks.2.resnets.1.norm1.bias", output_lbns = ["unet.down_blocks.2.resnets.1.norm1.bias/out"], parallel = #sbp.parallel<[] -> [[#sbp.B]]>, scope_symbol_id = 1810 : i64, shape = [1280 : si64]} : () -> tensor<1280xf16>
    %V = "oneflow.variable"() {data_type = 9 : i32, device_name = ["@0:0"], device_tag = "cuda", hierarchy = [1], op_name = "variable_388", output_lbns = ["variable_388/out"], parallel = #sbp.parallel<[] -> [[#sbp.B]]>, scope_symbol_id = 1822 : i64, shape = [1280 : si64, 3 : si64, 3 : si64, 1280 : si64]} : () -> tensor<1280x3x3x1280xf16>
    %V = "oneflow.variable"() {data_type = 9 : i32, device_name = ["@0:0"], device_tag = "cuda", hierarchy = [1], op_name = "unet.down_blocks.2.resnets.1.conv1.bias", output_lbns = ["unet.down_blocks.2.resnets.1.conv1.bias/out"], parallel = #sbp.parallel<[] -> [[#sbp.B]]>, scope_symbol_id = 1826 : i64, shape = [1280 : si64]} : () -> tensor<1280xf16>
    %V = "oneflow.variable"() {data_type = 9 : i32, device_name = ["@0:0"], device_tag = "cuda", hierarchy = [1], op_name = "unet.down_blocks.2.resnets.1.time_emb_proj.weight", output_lbns = ["unet.down_blocks.2.resnets.1.time_emb_proj.weight/out"], parallel = #sbp.parallel<[] -> [[#sbp.B]]>, scope_symbol_id = 1837 : i64, shape = [1280 : si64, 1280 : si64]} : () -> tensor<1280x1280xf16>
    %V = "oneflow.variable"() {data_type = 9 : i32, device_name = ["@0:0"], device_tag = "cuda", hierarchy = [1], op_name = "unet.down_blocks.2.resnets.1.time_emb_proj.bias", output_lbns = ["unet.down_blocks.2.resnets.1.time_emb_proj.bias/out"], parallel = #sbp.parallel<[] -> [[#sbp.B]]>, scope_symbol_id = 1844 : i64, shape = [1280 : si64]} : () -> tensor<1280xf16>
    %V = "oneflow.variable"() {data_type = 9 : i32, device_name = ["@0:0"], device_tag = "cuda", hierarchy = [1], op_name = "unet.down_blocks.2.resnets.1.norm2.weight", output_lbns = ["unet.down_blocks.2.resnets.1.norm2.weight/out"], parallel = #sbp.parallel<[] -> [[#sbp.B]]>, scope_symbol_id = 1861 : i64, shape = [1280 : si64]} : () -> tensor<1280xf16>
    %V = "oneflow.variable"() {data_type = 9 : i32, device_name = ["@0:0"], device_tag = "cuda", hierarchy = [1], op_name = "unet.down_blocks.2.resnets.1.norm2.bias", output_lbns = ["unet.down_blocks.2.resnets.1.norm2.bias/out"], parallel = #sbp.parallel<[] -> [[#sbp.B]]>, scope_symbol_id = 1865 : i64, shape = [1280 : si64]} : () -> tensor<1280xf16>
    %V = "oneflow.variable"() {data_type = 9 : i32, device_name = ["@0:0"], device_tag = "cuda", hierarchy = [1], op_name = "variable_387", output_lbns = ["variable_387/out"], parallel = #sbp.parallel<[] -> [[#sbp.B]]>, scope_symbol_id = 1877 : i64, shape = [1280 : si64, 3 : si64, 3 : si64, 1280 : si64]} : () -> tensor<1280x3x3x1280xf16>
    %V = "oneflow.variable"() {data_type = 9 : i32, device_name = ["@0:0"], device_tag = "cuda", hierarchy = [1], op_name = "unet.down_blocks.2.resnets.1.conv2.bias", output_lbns = ["unet.down_blocks.2.resnets.1.conv2.bias/out"], parallel = #sbp.parallel<[] -> [[#sbp.B]]>, scope_symbol_id = 1881 : i64, shape = [1280 : si64]} : () -> tensor<1280xf16>
    %V = "oneflow.variable"() {data_type = 9 : i32, device_name = ["@0:0"], device_tag = "cuda", hierarchy = [1], op_name = "unet.down_blocks.2.attentions.1.norm.weight", output_lbns = ["unet.down_blocks.2.attentions.1.norm.weight/out"], parallel = #sbp.parallel<[] -> [[#sbp.B]]>, scope_symbol_id = 1896 : i64, shape = [1280 : si64]} : () -> tensor<1280xf16>
    %V = "oneflow.variable"() {data_type = 9 : i32, device_name = ["@0:0"], device_tag = "cuda", hierarchy = [1], op_name = "unet.down_blocks.2.attentions.1.norm.bias", output_lbns = ["unet.down_blocks.2.attentions.1.norm.bias/out"], parallel = #sbp.parallel<[] -> [[#sbp.B]]>, scope_symbol_id = 1900 : i64, shape = [1280 : si64]} : () -> tensor<1280xf16>
    %V = "oneflow.variable"() {data_type = 9 : i32, device_name = ["@0:0"], device_tag = "cuda", hierarchy = [1], op_name = "variable_386", output_lbns = ["variable_386/out"], parallel = #sbp.parallel<[] -> [[#sbp.B]]>, scope_symbol_id = 1908 : i64, shape = [1280 : si64, 1 : si64, 1 : si64, 1280 : si64]} : () -> tensor<1280x1x1x1280xf16>
    %V = "oneflow.variable"() {data_type = 9 : i32, device_name = ["@0:0"], device_tag = "cuda", hierarchy = [1], op_name = "unet.down_blocks.2.attentions.1.proj_in.bias", output_lbns = ["unet.down_blocks.2.attentions.1.proj_in.bias/out"], parallel = #sbp.parallel<[] -> [[#sbp.B]]>, scope_symbol_id = 1912 : i64, shape = [1280 : si64]} : () -> tensor<1280xf16>
    %V = "oneflow.variable"() {data_type = 9 : i32, device_name = ["@0:0"], device_tag = "cuda", hierarchy = [1], op_name = "unet.down_blocks.2.attentions.1.transformer_blocks.0.norm1.weight", output_lbns = ["unet.down_blocks.2.attentions.1.transformer_blocks.0.norm1.weight/out"], parallel = #sbp.parallel<[] -> [[#sbp.B]]>, scope_symbol_id = 1927 : i64, shape = [1280 : si64]} : () -> tensor<1280xf16>
    %V = "oneflow.variable"() {data_type = 9 : i32, device_name = ["@0:0"], device_tag = "cuda", hierarchy = [1], op_name = "unet.down_blocks.2.attentions.1.transformer_blocks.0.norm1.bias", output_lbns = ["unet.down_blocks.2.attentions.1.transformer_blocks.0.norm1.bias/out"], parallel = #sbp.parallel<[] -> [[#sbp.B]]>, scope_symbol_id = 1931 : i64, shape = [1280 : si64]} : () -> tensor<1280xf16>
    %V = "oneflow.variable"() {data_type = 9 : i32, device_name = ["@0:0"], device_tag = "cuda", hierarchy = [1], op_name = "unet.down_blocks.2.attentions.1.transformer_blocks.0.attn1.to_q.weight", output_lbns = ["unet.down_blocks.2.attentions.1.transformer_blocks.0.attn1.to_q.weight/out"], parallel = #sbp.parallel<[] -> [[#sbp.B]]>, scope_symbol_id = 1940 : i64, shape = [1280 : si64, 1280 : si64]} : () -> tensor<1280x1280xf16>
    %V = "oneflow.variable"() {data_type = 9 : i32, device_name = ["@0:0"], device_tag = "cuda", hierarchy = [1], op_name = "unet.down_blocks.2.attentions.1.transformer_blocks.0.attn1.to_k.weight", output_lbns = ["unet.down_blocks.2.attentions.1.transformer_blocks.0.attn1.to_k.weight/out"], parallel = #sbp.parallel<[] -> [[#sbp.B]]>, scope_symbol_id = 1948 : i64, shape = [1280 : si64, 1280 : si64]} : () -> tensor<1280x1280xf16>
    %V = "oneflow.variable"() {data_type = 9 : i32, device_name = ["@0:0"], device_tag = "cuda", hierarchy = [1], op_name = "unet.down_blocks.2.attentions.1.transformer_blocks.0.attn1.to_v.weight", output_lbns = ["unet.down_blocks.2.attentions.1.transformer_blocks.0.attn1.to_v.weight/out"], parallel = #sbp.parallel<[] -> [[#sbp.B]]>, scope_symbol_id = 1956 : i64, shape = [1280 : si64, 1280 : si64]} : () -> tensor<1280x1280xf16>
    %V = "oneflow.variable"() {data_type = 9 : i32, device_name = ["@0:0"], device_tag = "cuda", hierarchy = [1], op_name = "unet.down_blocks.2.attentions.1.transformer_blocks.0.attn1.to_out.0.weight", output_lbns = ["unet.down_blocks.2.attentions.1.transformer_blocks.0.attn1.to_out.0.weight/out"], parallel = #sbp.parallel<[] -> [[#sbp.B]]>, scope_symbol_id = 1968 : i64, shape = [1280 : si64, 1280 : si64]} : () -> tensor<1280x1280xf16>
    %V = "oneflow.variable"() {data_type = 9 : i32, device_name = ["@0:0"], device_tag = "cuda", hierarchy = [1], op_name = "unet.down_blocks.2.attentions.1.transformer_blocks.0.attn1.to_out.0.bias", output_lbns = ["unet.down_blocks.2.attentions.1.transformer_blocks.0.attn1.to_out.0.bias/out"], parallel = #sbp.parallel<[] -> [[#sbp.B]]>, scope_symbol_id = 1975 : i64, shape = [1280 : si64]} : () -> tensor<1280xf16>
    %V = "oneflow.variable"() {data_type = 9 : i32, device_name = ["@0:0"], device_tag = "cuda", hierarchy = [1], op_name = "unet.down_blocks.2.attentions.1.transformer_blocks.0.norm2.weight", output_lbns = ["unet.down_blocks.2.attentions.1.transformer_blocks.0.norm2.weight/out"], parallel = #sbp.parallel<[] -> [[#sbp.B]]>, scope_symbol_id = 1987 : i64, shape = [1280 : si64]} : () -> tensor<1280xf16>
    %V = "oneflow.variable"() {data_type = 9 : i32, device_name = ["@0:0"], device_tag = "cuda", hierarchy = [1], op_name = "unet.down_blocks.2.attentions.1.transformer_blocks.0.norm2.bias", output_lbns = ["unet.down_blocks.2.attentions.1.transformer_blocks.0.norm2.bias/out"], parallel = #sbp.parallel<[] -> [[#sbp.B]]>, scope_symbol_id = 1991 : i64, shape = [1280 : si64]} : () -> tensor<1280xf16>
    %V = "oneflow.variable"() {data_type = 9 : i32, device_name = ["@0:0"], device_tag = "cuda", hierarchy = [1], op_name = "unet.down_blocks.2.attentions.1.transformer_blocks.0.attn2.to_q.weight", output_lbns = ["unet.down_blocks.2.attentions.1.transformer_blocks.0.attn2.to_q.weight/out"], parallel = #sbp.parallel<[] -> [[#sbp.B]]>, scope_symbol_id = 2000 : i64, shape = [1280 : si64, 1280 : si64]} : () -> tensor<1280x1280xf16>
    %V = "oneflow.variable"() {data_type = 9 : i32, device_name = ["@0:0"], device_tag = "cuda", hierarchy = [1], op_name = "unet.down_blocks.2.attentions.1.transformer_blocks.0.attn2.to_k.weight", output_lbns = ["unet.down_blocks.2.attentions.1.transformer_blocks.0.attn2.to_k.weight/out"], parallel = #sbp.parallel<[] -> [[#sbp.B]]>, scope_symbol_id = 2008 : i64, shape = [1280 : si64, 768 : si64]} : () -> tensor<1280x768xf16>
    %V = "oneflow.variable"() {data_type = 9 : i32, device_name = ["@0:0"], device_tag = "cuda", hierarchy = [1], op_name = "unet.down_blocks.2.attentions.1.transformer_blocks.0.attn2.to_v.weight", output_lbns = ["unet.down_blocks.2.attentions.1.transformer_blocks.0.attn2.to_v.weight/out"], parallel = #sbp.parallel<[] -> [[#sbp.B]]>, scope_symbol_id = 2016 : i64, shape = [1280 : si64, 768 : si64]} : () -> tensor<1280x768xf16>
    %V = "oneflow.variable"() {data_type = 9 : i32, device_name = ["@0:0"], device_tag = "cuda", hierarchy = [1], op_name = "unet.down_blocks.2.attentions.1.transformer_blocks.0.attn2.to_out.0.weight", output_lbns = ["unet.down_blocks.2.attentions.1.transformer_blocks.0.attn2.to_out.0.weight/out"], parallel = #sbp.parallel<[] -> [[#sbp.B]]>, scope_symbol_id = 2028 : i64, shape = [1280 : si64, 1280 : si64]} : () -> tensor<1280x1280xf16>
    %V = "oneflow.variable"() {data_type = 9 : i32, device_name = ["@0:0"], device_tag = "cuda", hierarchy = [1], op_name = "unet.down_blocks.2.attentions.1.transformer_blocks.0.attn2.to_out.0.bias", output_lbns = ["unet.down_blocks.2.attentions.1.transformer_blocks.0.attn2.to_out.0.bias/out"], parallel = #sbp.parallel<[] -> [[#sbp.B]]>, scope_symbol_id = 2035 : i64, shape = [1280 : si64]} : () -> tensor<1280xf16>
    %V = "oneflow.variable"() {data_type = 9 : i32, device_name = ["@0:0"], device_tag = "cuda", hierarchy = [1], op_name = "unet.down_blocks.2.attentions.1.transformer_blocks.0.norm3.weight", output_lbns = ["unet.down_blocks.2.attentions.1.transformer_blocks.0.norm3.weight/out"], parallel = #sbp.parallel<[] -> [[#sbp.B]]>, scope_symbol_id = 2047 : i64, shape = [1280 : si64]} : () -> tensor<1280xf16>
    %V = "oneflow.variable"() {data_type = 9 : i32, device_name = ["@0:0"], device_tag = "cuda", hierarchy = [1], op_name = "unet.down_blocks.2.attentions.1.transformer_blocks.0.norm3.bias", output_lbns = ["unet.down_blocks.2.attentions.1.transformer_blocks.0.norm3.bias/out"], parallel = #sbp.parallel<[] -> [[#sbp.B]]>, scope_symbol_id = 2051 : i64, shape = [1280 : si64]} : () -> tensor<1280xf16>
    %V = "oneflow.variable"() {data_type = 9 : i32, device_name = ["@0:0"], device_tag = "cuda", hierarchy = [1], op_name = "unet.down_blocks.2.attentions.1.transformer_blocks.0.ff.net.0.proj.weight", output_lbns = ["unet.down_blocks.2.attentions.1.transformer_blocks.0.ff.net.0.proj.weight/out"], parallel = #sbp.parallel<[] -> [[#sbp.B]]>, scope_symbol_id = 2062 : i64, shape = [10240 : si64, 1280 : si64]} : () -> tensor<10240x1280xf16>
    %V = "oneflow.variable"() {data_type = 9 : i32, device_name = ["@0:0"], device_tag = "cuda", hierarchy = [1], op_name = "unet.down_blocks.2.attentions.1.transformer_blocks.0.ff.net.0.proj.bias", output_lbns = ["unet.down_blocks.2.attentions.1.transformer_blocks.0.ff.net.0.proj.bias/out"], parallel = #sbp.parallel<[] -> [[#sbp.B]]>, scope_symbol_id = 2069 : i64, shape = [10240 : si64]} : () -> tensor<10240xf16>
    %V = "oneflow.variable"() {data_type = 9 : i32, device_name = ["@0:0"], device_tag = "cuda", hierarchy = [1], op_name = "unet.down_blocks.2.attentions.1.transformer_blocks.0.ff.net.2.weight", output_lbns = ["unet.down_blocks.2.attentions.1.transformer_blocks.0.ff.net.2.weight/out"], parallel = #sbp.parallel<[] -> [[#sbp.B]]>, scope_symbol_id = 2090 : i64, shape = [1280 : si64, 5120 : si64]} : () -> tensor<1280x5120xf16>
    %V = "oneflow.variable"() {data_type = 9 : i32, device_name = ["@0:0"], device_tag = "cuda", hierarchy = [1], op_name = "unet.down_blocks.2.attentions.1.transformer_blocks.0.ff.net.2.bias", output_lbns = ["unet.down_blocks.2.attentions.1.transformer_blocks.0.ff.net.2.bias/out"], parallel = #sbp.parallel<[] -> [[#sbp.B]]>, scope_symbol_id = 2097 : i64, shape = [1280 : si64]} : () -> tensor<1280xf16>
    %V = "oneflow.variable"() {data_type = 9 : i32, device_name = ["@0:0"], device_tag = "cuda", hierarchy = [1], op_name = "variable_385", output_lbns = ["variable_385/out"], parallel = #sbp.parallel<[] -> [[#sbp.B]]>, scope_symbol_id = 2114 : i64, shape = [1280 : si64, 1 : si64, 1 : si64, 1280 : si64]} : () -> tensor<1280x1x1x1280xf16>
    %V = "oneflow.variable"() {data_type = 9 : i32, device_name = ["@0:0"], device_tag = "cuda", hierarchy = [1], op_name = "unet.down_blocks.2.attentions.1.proj_out.bias", output_lbns = ["unet.down_blocks.2.attentions.1.proj_out.bias/out"], parallel = #sbp.parallel<[] -> [[#sbp.B]]>, scope_symbol_id = 2118 : i64, shape = [1280 : si64]} : () -> tensor<1280xf16>
    %V = "oneflow.variable"() {data_type = 9 : i32, device_name = ["@0:0"], device_tag = "cuda", hierarchy = [1], op_name = "variable_384", output_lbns = ["variable_384/out"], parallel = #sbp.parallel<[] -> [[#sbp.B]]>, scope_symbol_id = 2130 : i64, shape = [1280 : si64, 3 : si64, 3 : si64, 1280 : si64]} : () -> tensor<1280x3x3x1280xf16>
    %V = "oneflow.variable"() {data_type = 9 : i32, device_name = ["@0:0"], device_tag = "cuda", hierarchy = [1], op_name = "unet.down_blocks.2.downsamplers.0.conv.bias", output_lbns = ["unet.down_blocks.2.downsamplers.0.conv.bias/out"], parallel = #sbp.parallel<[] -> [[#sbp.B]]>, scope_symbol_id = 2134 : i64, shape = [1280 : si64]} : () -> tensor<1280xf16>
    %V = "oneflow.variable"() {data_type = 9 : i32, device_name = ["@0:0"], device_tag = "cuda", hierarchy = [1], op_name = "unet.down_blocks.3.resnets.0.norm1.weight", output_lbns = ["unet.down_blocks.3.resnets.0.norm1.weight/out"], parallel = #sbp.parallel<[] -> [[#sbp.B]]>, scope_symbol_id = 2144 : i64, shape = [1280 : si64]} : () -> tensor<1280xf16>
    %V = "oneflow.variable"() {data_type = 9 : i32, device_name = ["@0:0"], device_tag = "cuda", hierarchy = [1], op_name = "unet.down_blocks.3.resnets.0.norm1.bias", output_lbns = ["unet.down_blocks.3.resnets.0.norm1.bias/out"], parallel = #sbp.parallel<[] -> [[#sbp.B]]>, scope_symbol_id = 2148 : i64, shape = [1280 : si64]} : () -> tensor<1280xf16>
    %V = "oneflow.variable"() {data_type = 9 : i32, device_name = ["@0:0"], device_tag = "cuda", hierarchy = [1], op_name = "variable_383", output_lbns = ["variable_383/out"], parallel = #sbp.parallel<[] -> [[#sbp.B]]>, scope_symbol_id = 2160 : i64, shape = [1280 : si64, 3 : si64, 3 : si64, 1280 : si64]} : () -> tensor<1280x3x3x1280xf16>
    %V = "oneflow.variable"() {data_type = 9 : i32, device_name = ["@0:0"], device_tag = "cuda", hierarchy = [1], op_name = "unet.down_blocks.3.resnets.0.conv1.bias", output_lbns = ["unet.down_blocks.3.resnets.0.conv1.bias/out"], parallel = #sbp.parallel<[] -> [[#sbp.B]]>, scope_symbol_id = 2164 : i64, shape = [1280 : si64]} : () -> tensor<1280xf16>
    %V = "oneflow.variable"() {data_type = 9 : i32, device_name = ["@0:0"], device_tag = "cuda", hierarchy = [1], op_name = "unet.down_blocks.3.resnets.0.time_emb_proj.weight", output_lbns = ["unet.down_blocks.3.resnets.0.time_emb_proj.weight/out"], parallel = #sbp.parallel<[] -> [[#sbp.B]]>, scope_symbol_id = 2175 : i64, shape = [1280 : si64, 1280 : si64]} : () -> tensor<1280x1280xf16>
    %V = "oneflow.variable"() {data_type = 9 : i32, device_name = ["@0:0"], device_tag = "cuda", hierarchy = [1], op_name = "unet.down_blocks.3.resnets.0.time_emb_proj.bias", output_lbns = ["unet.down_blocks.3.resnets.0.time_emb_proj.bias/out"], parallel = #sbp.parallel<[] -> [[#sbp.B]]>, scope_symbol_id = 2182 : i64, shape = [1280 : si64]} : () -> tensor<1280xf16>
    %V = "oneflow.variable"() {data_type = 9 : i32, device_name = ["@0:0"], device_tag = "cuda", hierarchy = [1], op_name = "unet.down_blocks.3.resnets.0.norm2.weight", output_lbns = ["unet.down_blocks.3.resnets.0.norm2.weight/out"], parallel = #sbp.parallel<[] -> [[#sbp.B]]>, scope_symbol_id = 2199 : i64, shape = [1280 : si64]} : () -> tensor<1280xf16>
    %V = "oneflow.variable"() {data_type = 9 : i32, device_name = ["@0:0"], device_tag = "cuda", hierarchy = [1], op_name = "unet.down_blocks.3.resnets.0.norm2.bias", output_lbns = ["unet.down_blocks.3.resnets.0.norm2.bias/out"], parallel = #sbp.parallel<[] -> [[#sbp.B]]>, scope_symbol_id = 2203 : i64, shape = [1280 : si64]} : () -> tensor<1280xf16>
    %V = "oneflow.variable"() {data_type = 9 : i32, device_name = ["@0:0"], device_tag = "cuda", hierarchy = [1], op_name = "variable_382", output_lbns = ["variable_382/out"], parallel = #sbp.parallel<[] -> [[#sbp.B]]>, scope_symbol_id = 2215 : i64, shape = [1280 : si64, 3 : si64, 3 : si64, 1280 : si64]} : () -> tensor<1280x3x3x1280xf16>
    %V = "oneflow.variable"() {data_type = 9 : i32, device_name = ["@0:0"], device_tag = "cuda", hierarchy = [1], op_name = "unet.down_blocks.3.resnets.0.conv2.bias", output_lbns = ["unet.down_blocks.3.resnets.0.conv2.bias/out"], parallel = #sbp.parallel<[] -> [[#sbp.B]]>, scope_symbol_id = 2219 : i64, shape = [1280 : si64]} : () -> tensor<1280xf16>
    %V = "oneflow.variable"() {data_type = 9 : i32, device_name = ["@0:0"], device_tag = "cuda", hierarchy = [1], op_name = "unet.down_blocks.3.resnets.1.norm1.weight", output_lbns = ["unet.down_blocks.3.resnets.1.norm1.weight/out"], parallel = #sbp.parallel<[] -> [[#sbp.B]]>, scope_symbol_id = 2234 : i64, shape = [1280 : si64]} : () -> tensor<1280xf16>
    %V = "oneflow.variable"() {data_type = 9 : i32, device_name = ["@0:0"], device_tag = "cuda", hierarchy = [1], op_name = "unet.down_blocks.3.resnets.1.norm1.bias", output_lbns = ["unet.down_blocks.3.resnets.1.norm1.bias/out"], parallel = #sbp.parallel<[] -> [[#sbp.B]]>, scope_symbol_id = 2238 : i64, shape = [1280 : si64]} : () -> tensor<1280xf16>
    %V = "oneflow.variable"() {data_type = 9 : i32, device_name = ["@0:0"], device_tag = "cuda", hierarchy = [1], op_name = "variable_381", output_lbns = ["variable_381/out"], parallel = #sbp.parallel<[] -> [[#sbp.B]]>, scope_symbol_id = 2250 : i64, shape = [1280 : si64, 3 : si64, 3 : si64, 1280 : si64]} : () -> tensor<1280x3x3x1280xf16>
    %V = "oneflow.variable"() {data_type = 9 : i32, device_name = ["@0:0"], device_tag = "cuda", hierarchy = [1], op_name = "unet.down_blocks.3.resnets.1.conv1.bias", output_lbns = ["unet.down_blocks.3.resnets.1.conv1.bias/out"], parallel = #sbp.parallel<[] -> [[#sbp.B]]>, scope_symbol_id = 2254 : i64, shape = [1280 : si64]} : () -> tensor<1280xf16>
    %V = "oneflow.variable"() {data_type = 9 : i32, device_name = ["@0:0"], device_tag = "cuda", hierarchy = [1], op_name = "unet.down_blocks.3.resnets.1.time_emb_proj.weight", output_lbns = ["unet.down_blocks.3.resnets.1.time_emb_proj.weight/out"], parallel = #sbp.parallel<[] -> [[#sbp.B]]>, scope_symbol_id = 2265 : i64, shape = [1280 : si64, 1280 : si64]} : () -> tensor<1280x1280xf16>
    %V = "oneflow.variable"() {data_type = 9 : i32, device_name = ["@0:0"], device_tag = "cuda", hierarchy = [1], op_name = "unet.down_blocks.3.resnets.1.time_emb_proj.bias", output_lbns = ["unet.down_blocks.3.resnets.1.time_emb_proj.bias/out"], parallel = #sbp.parallel<[] -> [[#sbp.B]]>, scope_symbol_id = 2272 : i64, shape = [1280 : si64]} : () -> tensor<1280xf16>
    %V = "oneflow.variable"() {data_type = 9 : i32, device_name = ["@0:0"], device_tag = "cuda", hierarchy = [1], op_name = "unet.down_blocks.3.resnets.1.norm2.weight", output_lbns = ["unet.down_blocks.3.resnets.1.norm2.weight/out"], parallel = #sbp.parallel<[] -> [[#sbp.B]]>, scope_symbol_id = 2289 : i64, shape = [1280 : si64]} : () -> tensor<1280xf16>
    %V = "oneflow.variable"() {data_type = 9 : i32, device_name = ["@0:0"], device_tag = "cuda", hierarchy = [1], op_name = "unet.down_blocks.3.resnets.1.norm2.bias", output_lbns = ["unet.down_blocks.3.resnets.1.norm2.bias/out"], parallel = #sbp.parallel<[] -> [[#sbp.B]]>, scope_symbol_id = 2293 : i64, shape = [1280 : si64]} : () -> tensor<1280xf16>
    %V = "oneflow.variable"() {data_type = 9 : i32, device_name = ["@0:0"], device_tag = "cuda", hierarchy = [1], op_name = "variable_380", output_lbns = ["variable_380/out"], parallel = #sbp.parallel<[] -> [[#sbp.B]]>, scope_symbol_id = 2305 : i64, shape = [1280 : si64, 3 : si64, 3 : si64, 1280 : si64]} : () -> tensor<1280x3x3x1280xf16>
    %V = "oneflow.variable"() {data_type = 9 : i32, device_name = ["@0:0"], device_tag = "cuda", hierarchy = [1], op_name = "unet.down_blocks.3.resnets.1.conv2.bias", output_lbns = ["unet.down_blocks.3.resnets.1.conv2.bias/out"], parallel = #sbp.parallel<[] -> [[#sbp.B]]>, scope_symbol_id = 2309 : i64, shape = [1280 : si64]} : () -> tensor<1280xf16>
    %V = "oneflow.variable"() {data_type = 9 : i32, device_name = ["@0:0"], device_tag = "cuda", hierarchy = [1], op_name = "unet.mid_block.resnets.0.norm1.weight", output_lbns = ["unet.mid_block.resnets.0.norm1.weight/out"], parallel = #sbp.parallel<[] -> [[#sbp.B]]>, scope_symbol_id = 2325 : i64, shape = [1280 : si64]} : () -> tensor<1280xf16>
    %V = "oneflow.variable"() {data_type = 9 : i32, device_name = ["@0:0"], device_tag = "cuda", hierarchy = [1], op_name = "unet.mid_block.resnets.0.norm1.bias", output_lbns = ["unet.mid_block.resnets.0.norm1.bias/out"], parallel = #sbp.parallel<[] -> [[#sbp.B]]>, scope_symbol_id = 2329 : i64, shape = [1280 : si64]} : () -> tensor<1280xf16>
    %V = "oneflow.variable"() {data_type = 9 : i32, device_name = ["@0:0"], device_tag = "cuda", hierarchy = [1], op_name = "variable_379", output_lbns = ["variable_379/out"], parallel = #sbp.parallel<[] -> [[#sbp.B]]>, scope_symbol_id = 2341 : i64, shape = [1280 : si64, 3 : si64, 3 : si64, 1280 : si64]} : () -> tensor<1280x3x3x1280xf16>
    %V = "oneflow.variable"() {data_type = 9 : i32, device_name = ["@0:0"], device_tag = "cuda", hierarchy = [1], op_name = "unet.mid_block.resnets.0.conv1.bias", output_lbns = ["unet.mid_block.resnets.0.conv1.bias/out"], parallel = #sbp.parallel<[] -> [[#sbp.B]]>, scope_symbol_id = 2345 : i64, shape = [1280 : si64]} : () -> tensor<1280xf16>
    %V = "oneflow.variable"() {data_type = 9 : i32, device_name = ["@0:0"], device_tag = "cuda", hierarchy = [1], op_name = "unet.mid_block.resnets.0.time_emb_proj.weight", output_lbns = ["unet.mid_block.resnets.0.time_emb_proj.weight/out"], parallel = #sbp.parallel<[] -> [[#sbp.B]]>, scope_symbol_id = 2356 : i64, shape = [1280 : si64, 1280 : si64]} : () -> tensor<1280x1280xf16>
    %V = "oneflow.variable"() {data_type = 9 : i32, device_name = ["@0:0"], device_tag = "cuda", hierarchy = [1], op_name = "unet.mid_block.resnets.0.time_emb_proj.bias", output_lbns = ["unet.mid_block.resnets.0.time_emb_proj.bias/out"], parallel = #sbp.parallel<[] -> [[#sbp.B]]>, scope_symbol_id = 2363 : i64, shape = [1280 : si64]} : () -> tensor<1280xf16>
    %V = "oneflow.variable"() {data_type = 9 : i32, device_name = ["@0:0"], device_tag = "cuda", hierarchy = [1], op_name = "unet.mid_block.resnets.0.norm2.weight", output_lbns = ["unet.mid_block.resnets.0.norm2.weight/out"], parallel = #sbp.parallel<[] -> [[#sbp.B]]>, scope_symbol_id = 2380 : i64, shape = [1280 : si64]} : () -> tensor<1280xf16>
    %V = "oneflow.variable"() {data_type = 9 : i32, device_name = ["@0:0"], device_tag = "cuda", hierarchy = [1], op_name = "unet.mid_block.resnets.0.norm2.bias", output_lbns = ["unet.mid_block.resnets.0.norm2.bias/out"], parallel = #sbp.parallel<[] -> [[#sbp.B]]>, scope_symbol_id = 2384 : i64, shape = [1280 : si64]} : () -> tensor<1280xf16>
    %V = "oneflow.variable"() {data_type = 9 : i32, device_name = ["@0:0"], device_tag = "cuda", hierarchy = [1], op_name = "variable_378", output_lbns = ["variable_378/out"], parallel = #sbp.parallel<[] -> [[#sbp.B]]>, scope_symbol_id = 2396 : i64, shape = [1280 : si64, 3 : si64, 3 : si64, 1280 : si64]} : () -> tensor<1280x3x3x1280xf16>
    %V = "oneflow.variable"() {data_type = 9 : i32, device_name = ["@0:0"], device_tag = "cuda", hierarchy = [1], op_name = "unet.mid_block.resnets.0.conv2.bias", output_lbns = ["unet.mid_block.resnets.0.conv2.bias/out"], parallel = #sbp.parallel<[] -> [[#sbp.B]]>, scope_symbol_id = 2400 : i64, shape = [1280 : si64]} : () -> tensor<1280xf16>
    %V = "oneflow.variable"() {data_type = 9 : i32, device_name = ["@0:0"], device_tag = "cuda", hierarchy = [1], op_name = "unet.mid_block.attentions.0.norm.weight", output_lbns = ["unet.mid_block.attentions.0.norm.weight/out"], parallel = #sbp.parallel<[] -> [[#sbp.B]]>, scope_symbol_id = 2415 : i64, shape = [1280 : si64]} : () -> tensor<1280xf16>
    %V = "oneflow.variable"() {data_type = 9 : i32, device_name = ["@0:0"], device_tag = "cuda", hierarchy = [1], op_name = "unet.mid_block.attentions.0.norm.bias", output_lbns = ["unet.mid_block.attentions.0.norm.bias/out"], parallel = #sbp.parallel<[] -> [[#sbp.B]]>, scope_symbol_id = 2419 : i64, shape = [1280 : si64]} : () -> tensor<1280xf16>
    %V = "oneflow.variable"() {data_type = 9 : i32, device_name = ["@0:0"], device_tag = "cuda", hierarchy = [1], op_name = "variable_377", output_lbns = ["variable_377/out"], parallel = #sbp.parallel<[] -> [[#sbp.B]]>, scope_symbol_id = 2427 : i64, shape = [1280 : si64, 1 : si64, 1 : si64, 1280 : si64]} : () -> tensor<1280x1x1x1280xf16>
    %V = "oneflow.variable"() {data_type = 9 : i32, device_name = ["@0:0"], device_tag = "cuda", hierarchy = [1], op_name = "unet.mid_block.attentions.0.proj_in.bias", output_lbns = ["unet.mid_block.attentions.0.proj_in.bias/out"], parallel = #sbp.parallel<[] -> [[#sbp.B]]>, scope_symbol_id = 2431 : i64, shape = [1280 : si64]} : () -> tensor<1280xf16>
    %V = "oneflow.variable"() {data_type = 9 : i32, device_name = ["@0:0"], device_tag = "cuda", hierarchy = [1], op_name = "unet.mid_block.attentions.0.transformer_blocks.0.norm1.weight", output_lbns = ["unet.mid_block.attentions.0.transformer_blocks.0.norm1.weight/out"], parallel = #sbp.parallel<[] -> [[#sbp.B]]>, scope_symbol_id = 2446 : i64, shape = [1280 : si64]} : () -> tensor<1280xf16>
    %V = "oneflow.variable"() {data_type = 9 : i32, device_name = ["@0:0"], device_tag = "cuda", hierarchy = [1], op_name = "unet.mid_block.attentions.0.transformer_blocks.0.norm1.bias", output_lbns = ["unet.mid_block.attentions.0.transformer_blocks.0.norm1.bias/out"], parallel = #sbp.parallel<[] -> [[#sbp.B]]>, scope_symbol_id = 2450 : i64, shape = [1280 : si64]} : () -> tensor<1280xf16>
    %V = "oneflow.variable"() {data_type = 9 : i32, device_name = ["@0:0"], device_tag = "cuda", hierarchy = [1], op_name = "unet.mid_block.attentions.0.transformer_blocks.0.attn1.to_q.weight", output_lbns = ["unet.mid_block.attentions.0.transformer_blocks.0.attn1.to_q.weight/out"], parallel = #sbp.parallel<[] -> [[#sbp.B]]>, scope_symbol_id = 2459 : i64, shape = [1280 : si64, 1280 : si64]} : () -> tensor<1280x1280xf16>
    %V = "oneflow.variable"() {data_type = 9 : i32, device_name = ["@0:0"], device_tag = "cuda", hierarchy = [1], op_name = "unet.mid_block.attentions.0.transformer_blocks.0.attn1.to_k.weight", output_lbns = ["unet.mid_block.attentions.0.transformer_blocks.0.attn1.to_k.weight/out"], parallel = #sbp.parallel<[] -> [[#sbp.B]]>, scope_symbol_id = 2467 : i64, shape = [1280 : si64, 1280 : si64]} : () -> tensor<1280x1280xf16>
    %V = "oneflow.variable"() {data_type = 9 : i32, device_name = ["@0:0"], device_tag = "cuda", hierarchy = [1], op_name = "unet.mid_block.attentions.0.transformer_blocks.0.attn1.to_v.weight", output_lbns = ["unet.mid_block.attentions.0.transformer_blocks.0.attn1.to_v.weight/out"], parallel = #sbp.parallel<[] -> [[#sbp.B]]>, scope_symbol_id = 2475 : i64, shape = [1280 : si64, 1280 : si64]} : () -> tensor<1280x1280xf16>
    %V = "oneflow.variable"() {data_type = 9 : i32, device_name = ["@0:0"], device_tag = "cuda", hierarchy = [1], op_name = "unet.mid_block.attentions.0.transformer_blocks.0.attn1.to_out.0.weight", output_lbns = ["unet.mid_block.attentions.0.transformer_blocks.0.attn1.to_out.0.weight/out"], parallel = #sbp.parallel<[] -> [[#sbp.B]]>, scope_symbol_id = 2487 : i64, shape = [1280 : si64, 1280 : si64]} : () -> tensor<1280x1280xf16>
    %V = "oneflow.variable"() {data_type = 9 : i32, device_name = ["@0:0"], device_tag = "cuda", hierarchy = [1], op_name = "unet.mid_block.attentions.0.transformer_blocks.0.attn1.to_out.0.bias", output_lbns = ["unet.mid_block.attentions.0.transformer_blocks.0.attn1.to_out.0.bias/out"], parallel = #sbp.parallel<[] -> [[#sbp.B]]>, scope_symbol_id = 2494 : i64, shape = [1280 : si64]} : () -> tensor<1280xf16>
    %V = "oneflow.variable"() {data_type = 9 : i32, device_name = ["@0:0"], device_tag = "cuda", hierarchy = [1], op_name = "unet.mid_block.attentions.0.transformer_blocks.0.norm2.weight", output_lbns = ["unet.mid_block.attentions.0.transformer_blocks.0.norm2.weight/out"], parallel = #sbp.parallel<[] -> [[#sbp.B]]>, scope_symbol_id = 2506 : i64, shape = [1280 : si64]} : () -> tensor<1280xf16>
    %V = "oneflow.variable"() {data_type = 9 : i32, device_name = ["@0:0"], device_tag = "cuda", hierarchy = [1], op_name = "unet.mid_block.attentions.0.transformer_blocks.0.norm2.bias", output_lbns = ["unet.mid_block.attentions.0.transformer_blocks.0.norm2.bias/out"], parallel = #sbp.parallel<[] -> [[#sbp.B]]>, scope_symbol_id = 2510 : i64, shape = [1280 : si64]} : () -> tensor<1280xf16>
    %V = "oneflow.variable"() {data_type = 9 : i32, device_name = ["@0:0"], device_tag = "cuda", hierarchy = [1], op_name = "unet.mid_block.attentions.0.transformer_blocks.0.attn2.to_q.weight", output_lbns = ["unet.mid_block.attentions.0.transformer_blocks.0.attn2.to_q.weight/out"], parallel = #sbp.parallel<[] -> [[#sbp.B]]>, scope_symbol_id = 2519 : i64, shape = [1280 : si64, 1280 : si64]} : () -> tensor<1280x1280xf16>
    %V = "oneflow.variable"() {data_type = 9 : i32, device_name = ["@0:0"], device_tag = "cuda", hierarchy = [1], op_name = "unet.mid_block.attentions.0.transformer_blocks.0.attn2.to_k.weight", output_lbns = ["unet.mid_block.attentions.0.transformer_blocks.0.attn2.to_k.weight/out"], parallel = #sbp.parallel<[] -> [[#sbp.B]]>, scope_symbol_id = 2527 : i64, shape = [1280 : si64, 768 : si64]} : () -> tensor<1280x768xf16>
    %V = "oneflow.variable"() {data_type = 9 : i32, device_name = ["@0:0"], device_tag = "cuda", hierarchy = [1], op_name = "unet.mid_block.attentions.0.transformer_blocks.0.attn2.to_v.weight", output_lbns = ["unet.mid_block.attentions.0.transformer_blocks.0.attn2.to_v.weight/out"], parallel = #sbp.parallel<[] -> [[#sbp.B]]>, scope_symbol_id = 2535 : i64, shape = [1280 : si64, 768 : si64]} : () -> tensor<1280x768xf16>
    %V = "oneflow.variable"() {data_type = 9 : i32, device_name = ["@0:0"], device_tag = "cuda", hierarchy = [1], op_name = "unet.mid_block.attentions.0.transformer_blocks.0.attn2.to_out.0.weight", output_lbns = ["unet.mid_block.attentions.0.transformer_blocks.0.attn2.to_out.0.weight/out"], parallel = #sbp.parallel<[] -> [[#sbp.B]]>, scope_symbol_id = 2547 : i64, shape = [1280 : si64, 1280 : si64]} : () -> tensor<1280x1280xf16>
    %V = "oneflow.variable"() {data_type = 9 : i32, device_name = ["@0:0"], device_tag = "cuda", hierarchy = [1], op_name = "unet.mid_block.attentions.0.transformer_blocks.0.attn2.to_out.0.bias", output_lbns = ["unet.mid_block.attentions.0.transformer_blocks.0.attn2.to_out.0.bias/out"], parallel = #sbp.parallel<[] -> [[#sbp.B]]>, scope_symbol_id = 2554 : i64, shape = [1280 : si64]} : () -> tensor<1280xf16>
    %V = "oneflow.variable"() {data_type = 9 : i32, device_name = ["@0:0"], device_tag = "cuda", hierarchy = [1], op_name = "unet.mid_block.attentions.0.transformer_blocks.0.norm3.weight", output_lbns = ["unet.mid_block.attentions.0.transformer_blocks.0.norm3.weight/out"], parallel = #sbp.parallel<[] -> [[#sbp.B]]>, scope_symbol_id = 2566 : i64, shape = [1280 : si64]} : () -> tensor<1280xf16>
    %V = "oneflow.variable"() {data_type = 9 : i32, device_name = ["@0:0"], device_tag = "cuda", hierarchy = [1], op_name = "unet.mid_block.attentions.0.transformer_blocks.0.norm3.bias", output_lbns = ["unet.mid_block.attentions.0.transformer_blocks.0.norm3.bias/out"], parallel = #sbp.parallel<[] -> [[#sbp.B]]>, scope_symbol_id = 2570 : i64, shape = [1280 : si64]} : () -> tensor<1280xf16>
    %V = "oneflow.variable"() {data_type = 9 : i32, device_name = ["@0:0"], device_tag = "cuda", hierarchy = [1], op_name = "unet.mid_block.attentions.0.transformer_blocks.0.ff.net.0.proj.weight", output_lbns = ["unet.mid_block.attentions.0.transformer_blocks.0.ff.net.0.proj.weight/out"], parallel = #sbp.parallel<[] -> [[#sbp.B]]>, scope_symbol_id = 2581 : i64, shape = [10240 : si64, 1280 : si64]} : () -> tensor<10240x1280xf16>
    %V = "oneflow.variable"() {data_type = 9 : i32, device_name = ["@0:0"], device_tag = "cuda", hierarchy = [1], op_name = "unet.mid_block.attentions.0.transformer_blocks.0.ff.net.0.proj.bias", output_lbns = ["unet.mid_block.attentions.0.transformer_blocks.0.ff.net.0.proj.bias/out"], parallel = #sbp.parallel<[] -> [[#sbp.B]]>, scope_symbol_id = 2588 : i64, shape = [10240 : si64]} : () -> tensor<10240xf16>
    %V = "oneflow.variable"() {data_type = 9 : i32, device_name = ["@0:0"], device_tag = "cuda", hierarchy = [1], op_name = "unet.mid_block.attentions.0.transformer_blocks.0.ff.net.2.weight", output_lbns = ["unet.mid_block.attentions.0.transformer_blocks.0.ff.net.2.weight/out"], parallel = #sbp.parallel<[] -> [[#sbp.B]]>, scope_symbol_id = 2609 : i64, shape = [1280 : si64, 5120 : si64]} : () -> tensor<1280x5120xf16>
    %V = "oneflow.variable"() {data_type = 9 : i32, device_name = ["@0:0"], device_tag = "cuda", hierarchy = [1], op_name = "unet.mid_block.attentions.0.transformer_blocks.0.ff.net.2.bias", output_lbns = ["unet.mid_block.attentions.0.transformer_blocks.0.ff.net.2.bias/out"], parallel = #sbp.parallel<[] -> [[#sbp.B]]>, scope_symbol_id = 2616 : i64, shape = [1280 : si64]} : () -> tensor<1280xf16>
    %V = "oneflow.variable"() {data_type = 9 : i32, device_name = ["@0:0"], device_tag = "cuda", hierarchy = [1], op_name = "variable_376", output_lbns = ["variable_376/out"], parallel = #sbp.parallel<[] -> [[#sbp.B]]>, scope_symbol_id = 2633 : i64, shape = [1280 : si64, 1 : si64, 1 : si64, 1280 : si64]} : () -> tensor<1280x1x1x1280xf16>
    %V = "oneflow.variable"() {data_type = 9 : i32, device_name = ["@0:0"], device_tag = "cuda", hierarchy = [1], op_name = "unet.mid_block.attentions.0.proj_out.bias", output_lbns = ["unet.mid_block.attentions.0.proj_out.bias/out"], parallel = #sbp.parallel<[] -> [[#sbp.B]]>, scope_symbol_id = 2637 : i64, shape = [1280 : si64]} : () -> tensor<1280xf16>
    %V = "oneflow.variable"() {data_type = 9 : i32, device_name = ["@0:0"], device_tag = "cuda", hierarchy = [1], op_name = "unet.mid_block.resnets.1.norm1.weight", output_lbns = ["unet.mid_block.resnets.1.norm1.weight/out"], parallel = #sbp.parallel<[] -> [[#sbp.B]]>, scope_symbol_id = 2649 : i64, shape = [1280 : si64]} : () -> tensor<1280xf16>
    %V = "oneflow.variable"() {data_type = 9 : i32, device_name = ["@0:0"], device_tag = "cuda", hierarchy = [1], op_name = "unet.mid_block.resnets.1.norm1.bias", output_lbns = ["unet.mid_block.resnets.1.norm1.bias/out"], parallel = #sbp.parallel<[] -> [[#sbp.B]]>, scope_symbol_id = 2653 : i64, shape = [1280 : si64]} : () -> tensor<1280xf16>
    %V = "oneflow.variable"() {data_type = 9 : i32, device_name = ["@0:0"], device_tag = "cuda", hierarchy = [1], op_name = "variable_375", output_lbns = ["variable_375/out"], parallel = #sbp.parallel<[] -> [[#sbp.B]]>, scope_symbol_id = 2665 : i64, shape = [1280 : si64, 3 : si64, 3 : si64, 1280 : si64]} : () -> tensor<1280x3x3x1280xf16>
    %V = "oneflow.variable"() {data_type = 9 : i32, device_name = ["@0:0"], device_tag = "cuda", hierarchy = [1], op_name = "unet.mid_block.resnets.1.conv1.bias", output_lbns = ["unet.mid_block.resnets.1.conv1.bias/out"], parallel = #sbp.parallel<[] -> [[#sbp.B]]>, scope_symbol_id = 2669 : i64, shape = [1280 : si64]} : () -> tensor<1280xf16>
    %V = "oneflow.variable"() {data_type = 9 : i32, device_name = ["@0:0"], device_tag = "cuda", hierarchy = [1], op_name = "unet.mid_block.resnets.1.time_emb_proj.weight", output_lbns = ["unet.mid_block.resnets.1.time_emb_proj.weight/out"], parallel = #sbp.parallel<[] -> [[#sbp.B]]>, scope_symbol_id = 2680 : i64, shape = [1280 : si64, 1280 : si64]} : () -> tensor<1280x1280xf16>
    %V = "oneflow.variable"() {data_type = 9 : i32, device_name = ["@0:0"], device_tag = "cuda", hierarchy = [1], op_name = "unet.mid_block.resnets.1.time_emb_proj.bias", output_lbns = ["unet.mid_block.resnets.1.time_emb_proj.bias/out"], parallel = #sbp.parallel<[] -> [[#sbp.B]]>, scope_symbol_id = 2687 : i64, shape = [1280 : si64]} : () -> tensor<1280xf16>
    %V = "oneflow.variable"() {data_type = 9 : i32, device_name = ["@0:0"], device_tag = "cuda", hierarchy = [1], op_name = "unet.mid_block.resnets.1.norm2.weight", output_lbns = ["unet.mid_block.resnets.1.norm2.weight/out"], parallel = #sbp.parallel<[] -> [[#sbp.B]]>, scope_symbol_id = 2704 : i64, shape = [1280 : si64]} : () -> tensor<1280xf16>
    %V = "oneflow.variable"() {data_type = 9 : i32, device_name = ["@0:0"], device_tag = "cuda", hierarchy = [1], op_name = "unet.mid_block.resnets.1.norm2.bias", output_lbns = ["unet.mid_block.resnets.1.norm2.bias/out"], parallel = #sbp.parallel<[] -> [[#sbp.B]]>, scope_symbol_id = 2708 : i64, shape = [1280 : si64]} : () -> tensor<1280xf16>
    %V = "oneflow.variable"() {data_type = 9 : i32, device_name = ["@0:0"], device_tag = "cuda", hierarchy = [1], op_name = "variable_374", output_lbns = ["variable_374/out"], parallel = #sbp.parallel<[] -> [[#sbp.B]]>, scope_symbol_id = 2720 : i64, shape = [1280 : si64, 3 : si64, 3 : si64, 1280 : si64]} : () -> tensor<1280x3x3x1280xf16>
    %V = "oneflow.variable"() {data_type = 9 : i32, device_name = ["@0:0"], device_tag = "cuda", hierarchy = [1], op_name = "unet.mid_block.resnets.1.conv2.bias", output_lbns = ["unet.mid_block.resnets.1.conv2.bias/out"], parallel = #sbp.parallel<[] -> [[#sbp.B]]>, scope_symbol_id = 2724 : i64, shape = [1280 : si64]} : () -> tensor<1280xf16>
    %V = "oneflow.variable"() {data_type = 9 : i32, device_name = ["@0:0"], device_tag = "cuda", hierarchy = [1], op_name = "unet.up_blocks.0.resnets.0.norm1.weight", output_lbns = ["unet.up_blocks.0.resnets.0.norm1.weight/out"], parallel = #sbp.parallel<[] -> [[#sbp.B]]>, scope_symbol_id = 2743 : i64, shape = [2560 : si64]} : () -> tensor<2560xf16>
    %V = "oneflow.variable"() {data_type = 9 : i32, device_name = ["@0:0"], device_tag = "cuda", hierarchy = [1], op_name = "unet.up_blocks.0.resnets.0.norm1.bias", output_lbns = ["unet.up_blocks.0.resnets.0.norm1.bias/out"], parallel = #sbp.parallel<[] -> [[#sbp.B]]>, scope_symbol_id = 2747 : i64, shape = [2560 : si64]} : () -> tensor<2560xf16>
    %V = "oneflow.variable"() {data_type = 9 : i32, device_name = ["@0:0"], device_tag = "cuda", hierarchy = [1], op_name = "variable_373", output_lbns = ["variable_373/out"], parallel = #sbp.parallel<[] -> [[#sbp.B]]>, scope_symbol_id = 2759 : i64, shape = [1280 : si64, 3 : si64, 3 : si64, 2560 : si64]} : () -> tensor<1280x3x3x2560xf16>
    %V = "oneflow.variable"() {data_type = 9 : i32, device_name = ["@0:0"], device_tag = "cuda", hierarchy = [1], op_name = "unet.up_blocks.0.resnets.0.conv1.bias", output_lbns = ["unet.up_blocks.0.resnets.0.conv1.bias/out"], parallel = #sbp.parallel<[] -> [[#sbp.B]]>, scope_symbol_id = 2763 : i64, shape = [1280 : si64]} : () -> tensor<1280xf16>
    %V = "oneflow.variable"() {data_type = 9 : i32, device_name = ["@0:0"], device_tag = "cuda", hierarchy = [1], op_name = "unet.up_blocks.0.resnets.0.time_emb_proj.weight", output_lbns = ["unet.up_blocks.0.resnets.0.time_emb_proj.weight/out"], parallel = #sbp.parallel<[] -> [[#sbp.B]]>, scope_symbol_id = 2774 : i64, shape = [1280 : si64, 1280 : si64]} : () -> tensor<1280x1280xf16>
    %V = "oneflow.variable"() {data_type = 9 : i32, device_name = ["@0:0"], device_tag = "cuda", hierarchy = [1], op_name = "unet.up_blocks.0.resnets.0.time_emb_proj.bias", output_lbns = ["unet.up_blocks.0.resnets.0.time_emb_proj.bias/out"], parallel = #sbp.parallel<[] -> [[#sbp.B]]>, scope_symbol_id = 2781 : i64, shape = [1280 : si64]} : () -> tensor<1280xf16>
    %V = "oneflow.variable"() {data_type = 9 : i32, device_name = ["@0:0"], device_tag = "cuda", hierarchy = [1], op_name = "unet.up_blocks.0.resnets.0.norm2.weight", output_lbns = ["unet.up_blocks.0.resnets.0.norm2.weight/out"], parallel = #sbp.parallel<[] -> [[#sbp.B]]>, scope_symbol_id = 2798 : i64, shape = [1280 : si64]} : () -> tensor<1280xf16>
    %V = "oneflow.variable"() {data_type = 9 : i32, device_name = ["@0:0"], device_tag = "cuda", hierarchy = [1], op_name = "unet.up_blocks.0.resnets.0.norm2.bias", output_lbns = ["unet.up_blocks.0.resnets.0.norm2.bias/out"], parallel = #sbp.parallel<[] -> [[#sbp.B]]>, scope_symbol_id = 2802 : i64, shape = [1280 : si64]} : () -> tensor<1280xf16>
    %V = "oneflow.variable"() {data_type = 9 : i32, device_name = ["@0:0"], device_tag = "cuda", hierarchy = [1], op_name = "variable_372", output_lbns = ["variable_372/out"], parallel = #sbp.parallel<[] -> [[#sbp.B]]>, scope_symbol_id = 2814 : i64, shape = [1280 : si64, 3 : si64, 3 : si64, 1280 : si64]} : () -> tensor<1280x3x3x1280xf16>
    %V = "oneflow.variable"() {data_type = 9 : i32, device_name = ["@0:0"], device_tag = "cuda", hierarchy = [1], op_name = "unet.up_blocks.0.resnets.0.conv2.bias", output_lbns = ["unet.up_blocks.0.resnets.0.conv2.bias/out"], parallel = #sbp.parallel<[] -> [[#sbp.B]]>, scope_symbol_id = 2818 : i64, shape = [1280 : si64]} : () -> tensor<1280xf16>
    %V = "oneflow.variable"() {data_type = 9 : i32, device_name = ["@0:0"], device_tag = "cuda", hierarchy = [1], op_name = "variable_371", output_lbns = ["variable_371/out"], parallel = #sbp.parallel<[] -> [[#sbp.B]]>, scope_symbol_id = 2826 : i64, shape = [1280 : si64, 1 : si64, 1 : si64, 2560 : si64]} : () -> tensor<1280x1x1x2560xf16>
    %V = "oneflow.variable"() {data_type = 9 : i32, device_name = ["@0:0"], device_tag = "cuda", hierarchy = [1], op_name = "unet.up_blocks.0.resnets.0.conv_shortcut.bias", output_lbns = ["unet.up_blocks.0.resnets.0.conv_shortcut.bias/out"], parallel = #sbp.parallel<[] -> [[#sbp.B]]>, scope_symbol_id = 2830 : i64, shape = [1280 : si64]} : () -> tensor<1280xf16>
    %V = "oneflow.variable"() {data_type = 9 : i32, device_name = ["@0:0"], device_tag = "cuda", hierarchy = [1], op_name = "unet.up_blocks.0.resnets.1.norm1.weight", output_lbns = ["unet.up_blocks.0.resnets.1.norm1.weight/out"], parallel = #sbp.parallel<[] -> [[#sbp.B]]>, scope_symbol_id = 2848 : i64, shape = [2560 : si64]} : () -> tensor<2560xf16>
    %V = "oneflow.variable"() {data_type = 9 : i32, device_name = ["@0:0"], device_tag = "cuda", hierarchy = [1], op_name = "unet.up_blocks.0.resnets.1.norm1.bias", output_lbns = ["unet.up_blocks.0.resnets.1.norm1.bias/out"], parallel = #sbp.parallel<[] -> [[#sbp.B]]>, scope_symbol_id = 2852 : i64, shape = [2560 : si64]} : () -> tensor<2560xf16>
    %V = "oneflow.variable"() {data_type = 9 : i32, device_name = ["@0:0"], device_tag = "cuda", hierarchy = [1], op_name = "variable_370", output_lbns = ["variable_370/out"], parallel = #sbp.parallel<[] -> [[#sbp.B]]>, scope_symbol_id = 2864 : i64, shape = [1280 : si64, 3 : si64, 3 : si64, 2560 : si64]} : () -> tensor<1280x3x3x2560xf16>
    %V = "oneflow.variable"() {data_type = 9 : i32, device_name = ["@0:0"], device_tag = "cuda", hierarchy = [1], op_name = "unet.up_blocks.0.resnets.1.conv1.bias", output_lbns = ["unet.up_blocks.0.resnets.1.conv1.bias/out"], parallel = #sbp.parallel<[] -> [[#sbp.B]]>, scope_symbol_id = 2868 : i64, shape = [1280 : si64]} : () -> tensor<1280xf16>
    %V = "oneflow.variable"() {data_type = 9 : i32, device_name = ["@0:0"], device_tag = "cuda", hierarchy = [1], op_name = "unet.up_blocks.0.resnets.1.time_emb_proj.weight", output_lbns = ["unet.up_blocks.0.resnets.1.time_emb_proj.weight/out"], parallel = #sbp.parallel<[] -> [[#sbp.B]]>, scope_symbol_id = 2879 : i64, shape = [1280 : si64, 1280 : si64]} : () -> tensor<1280x1280xf16>
    %V = "oneflow.variable"() {data_type = 9 : i32, device_name = ["@0:0"], device_tag = "cuda", hierarchy = [1], op_name = "unet.up_blocks.0.resnets.1.time_emb_proj.bias", output_lbns = ["unet.up_blocks.0.resnets.1.time_emb_proj.bias/out"], parallel = #sbp.parallel<[] -> [[#sbp.B]]>, scope_symbol_id = 2886 : i64, shape = [1280 : si64]} : () -> tensor<1280xf16>
    %V = "oneflow.variable"() {data_type = 9 : i32, device_name = ["@0:0"], device_tag = "cuda", hierarchy = [1], op_name = "unet.up_blocks.0.resnets.1.norm2.weight", output_lbns = ["unet.up_blocks.0.resnets.1.norm2.weight/out"], parallel = #sbp.parallel<[] -> [[#sbp.B]]>, scope_symbol_id = 2903 : i64, shape = [1280 : si64]} : () -> tensor<1280xf16>
    %V = "oneflow.variable"() {data_type = 9 : i32, device_name = ["@0:0"], device_tag = "cuda", hierarchy = [1], op_name = "unet.up_blocks.0.resnets.1.norm2.bias", output_lbns = ["unet.up_blocks.0.resnets.1.norm2.bias/out"], parallel = #sbp.parallel<[] -> [[#sbp.B]]>, scope_symbol_id = 2907 : i64, shape = [1280 : si64]} : () -> tensor<1280xf16>
    %V = "oneflow.variable"() {data_type = 9 : i32, device_name = ["@0:0"], device_tag = "cuda", hierarchy = [1], op_name = "variable_369", output_lbns = ["variable_369/out"], parallel = #sbp.parallel<[] -> [[#sbp.B]]>, scope_symbol_id = 2919 : i64, shape = [1280 : si64, 3 : si64, 3 : si64, 1280 : si64]} : () -> tensor<1280x3x3x1280xf16>
    %V = "oneflow.variable"() {data_type = 9 : i32, device_name = ["@0:0"], device_tag = "cuda", hierarchy = [1], op_name = "unet.up_blocks.0.resnets.1.conv2.bias", output_lbns = ["unet.up_blocks.0.resnets.1.conv2.bias/out"], parallel = #sbp.parallel<[] -> [[#sbp.B]]>, scope_symbol_id = 2923 : i64, shape = [1280 : si64]} : () -> tensor<1280xf16>
    %V = "oneflow.variable"() {data_type = 9 : i32, device_name = ["@0:0"], device_tag = "cuda", hierarchy = [1], op_name = "variable_368", output_lbns = ["variable_368/out"], parallel = #sbp.parallel<[] -> [[#sbp.B]]>, scope_symbol_id = 2931 : i64, shape = [1280 : si64, 1 : si64, 1 : si64, 2560 : si64]} : () -> tensor<1280x1x1x2560xf16>
    %V = "oneflow.variable"() {data_type = 9 : i32, device_name = ["@0:0"], device_tag = "cuda", hierarchy = [1], op_name = "unet.up_blocks.0.resnets.1.conv_shortcut.bias", output_lbns = ["unet.up_blocks.0.resnets.1.conv_shortcut.bias/out"], parallel = #sbp.parallel<[] -> [[#sbp.B]]>, scope_symbol_id = 2935 : i64, shape = [1280 : si64]} : () -> tensor<1280xf16>
    %V = "oneflow.variable"() {data_type = 9 : i32, device_name = ["@0:0"], device_tag = "cuda", hierarchy = [1], op_name = "unet.up_blocks.0.resnets.2.norm1.weight", output_lbns = ["unet.up_blocks.0.resnets.2.norm1.weight/out"], parallel = #sbp.parallel<[] -> [[#sbp.B]]>, scope_symbol_id = 2953 : i64, shape = [2560 : si64]} : () -> tensor<2560xf16>
    %V = "oneflow.variable"() {data_type = 9 : i32, device_name = ["@0:0"], device_tag = "cuda", hierarchy = [1], op_name = "unet.up_blocks.0.resnets.2.norm1.bias", output_lbns = ["unet.up_blocks.0.resnets.2.norm1.bias/out"], parallel = #sbp.parallel<[] -> [[#sbp.B]]>, scope_symbol_id = 2957 : i64, shape = [2560 : si64]} : () -> tensor<2560xf16>
    %V = "oneflow.variable"() {data_type = 9 : i32, device_name = ["@0:0"], device_tag = "cuda", hierarchy = [1], op_name = "variable_367", output_lbns = ["variable_367/out"], parallel = #sbp.parallel<[] -> [[#sbp.B]]>, scope_symbol_id = 2969 : i64, shape = [1280 : si64, 3 : si64, 3 : si64, 2560 : si64]} : () -> tensor<1280x3x3x2560xf16>
    %V = "oneflow.variable"() {data_type = 9 : i32, device_name = ["@0:0"], device_tag = "cuda", hierarchy = [1], op_name = "unet.up_blocks.0.resnets.2.conv1.bias", output_lbns = ["unet.up_blocks.0.resnets.2.conv1.bias/out"], parallel = #sbp.parallel<[] -> [[#sbp.B]]>, scope_symbol_id = 2973 : i64, shape = [1280 : si64]} : () -> tensor<1280xf16>
    %V = "oneflow.variable"() {data_type = 9 : i32, device_name = ["@0:0"], device_tag = "cuda", hierarchy = [1], op_name = "unet.up_blocks.0.resnets.2.time_emb_proj.weight", output_lbns = ["unet.up_blocks.0.resnets.2.time_emb_proj.weight/out"], parallel = #sbp.parallel<[] -> [[#sbp.B]]>, scope_symbol_id = 2984 : i64, shape = [1280 : si64, 1280 : si64]} : () -> tensor<1280x1280xf16>
    %V = "oneflow.variable"() {data_type = 9 : i32, device_name = ["@0:0"], device_tag = "cuda", hierarchy = [1], op_name = "unet.up_blocks.0.resnets.2.time_emb_proj.bias", output_lbns = ["unet.up_blocks.0.resnets.2.time_emb_proj.bias/out"], parallel = #sbp.parallel<[] -> [[#sbp.B]]>, scope_symbol_id = 2991 : i64, shape = [1280 : si64]} : () -> tensor<1280xf16>
    %V = "oneflow.variable"() {data_type = 9 : i32, device_name = ["@0:0"], device_tag = "cuda", hierarchy = [1], op_name = "unet.up_blocks.0.resnets.2.norm2.weight", output_lbns = ["unet.up_blocks.0.resnets.2.norm2.weight/out"], parallel = #sbp.parallel<[] -> [[#sbp.B]]>, scope_symbol_id = 3008 : i64, shape = [1280 : si64]} : () -> tensor<1280xf16>
    %V = "oneflow.variable"() {data_type = 9 : i32, device_name = ["@0:0"], device_tag = "cuda", hierarchy = [1], op_name = "unet.up_blocks.0.resnets.2.norm2.bias", output_lbns = ["unet.up_blocks.0.resnets.2.norm2.bias/out"], parallel = #sbp.parallel<[] -> [[#sbp.B]]>, scope_symbol_id = 3012 : i64, shape = [1280 : si64]} : () -> tensor<1280xf16>
    %V = "oneflow.variable"() {data_type = 9 : i32, device_name = ["@0:0"], device_tag = "cuda", hierarchy = [1], op_name = "variable_366", output_lbns = ["variable_366/out"], parallel = #sbp.parallel<[] -> [[#sbp.B]]>, scope_symbol_id = 3024 : i64, shape = [1280 : si64, 3 : si64, 3 : si64, 1280 : si64]} : () -> tensor<1280x3x3x1280xf16>
    %V = "oneflow.variable"() {data_type = 9 : i32, device_name = ["@0:0"], device_tag = "cuda", hierarchy = [1], op_name = "unet.up_blocks.0.resnets.2.conv2.bias", output_lbns = ["unet.up_blocks.0.resnets.2.conv2.bias/out"], parallel = #sbp.parallel<[] -> [[#sbp.B]]>, scope_symbol_id = 3028 : i64, shape = [1280 : si64]} : () -> tensor<1280xf16>
    %V = "oneflow.variable"() {data_type = 9 : i32, device_name = ["@0:0"], device_tag = "cuda", hierarchy = [1], op_name = "variable_365", output_lbns = ["variable_365/out"], parallel = #sbp.parallel<[] -> [[#sbp.B]]>, scope_symbol_id = 3036 : i64, shape = [1280 : si64, 1 : si64, 1 : si64, 2560 : si64]} : () -> tensor<1280x1x1x2560xf16>
    %V = "oneflow.variable"() {data_type = 9 : i32, device_name = ["@0:0"], device_tag = "cuda", hierarchy = [1], op_name = "unet.up_blocks.0.resnets.2.conv_shortcut.bias", output_lbns = ["unet.up_blocks.0.resnets.2.conv_shortcut.bias/out"], parallel = #sbp.parallel<[] -> [[#sbp.B]]>, scope_symbol_id = 3040 : i64, shape = [1280 : si64]} : () -> tensor<1280xf16>
    %V = "oneflow.variable"() {data_type = 9 : i32, device_name = ["@0:0"], device_tag = "cuda", hierarchy = [1], op_name = "variable_364", output_lbns = ["variable_364/out"], parallel = #sbp.parallel<[] -> [[#sbp.B]]>, scope_symbol_id = 3058 : i64, shape = [1280 : si64, 3 : si64, 3 : si64, 1280 : si64]} : () -> tensor<1280x3x3x1280xf16>
    %V = "oneflow.variable"() {data_type = 9 : i32, device_name = ["@0:0"], device_tag = "cuda", hierarchy = [1], op_name = "unet.up_blocks.0.upsamplers.0.conv.bias", output_lbns = ["unet.up_blocks.0.upsamplers.0.conv.bias/out"], parallel = #sbp.parallel<[] -> [[#sbp.B]]>, scope_symbol_id = 3062 : i64, shape = [1280 : si64]} : () -> tensor<1280xf16>
    %V = "oneflow.variable"() {data_type = 9 : i32, device_name = ["@0:0"], device_tag = "cuda", hierarchy = [1], op_name = "unet.up_blocks.1.resnets.0.norm1.weight", output_lbns = ["unet.up_blocks.1.resnets.0.norm1.weight/out"], parallel = #sbp.parallel<[] -> [[#sbp.B]]>, scope_symbol_id = 3075 : i64, shape = [2560 : si64]} : () -> tensor<2560xf16>
    %V = "oneflow.variable"() {data_type = 9 : i32, device_name = ["@0:0"], device_tag = "cuda", hierarchy = [1], op_name = "unet.up_blocks.1.resnets.0.norm1.bias", output_lbns = ["unet.up_blocks.1.resnets.0.norm1.bias/out"], parallel = #sbp.parallel<[] -> [[#sbp.B]]>, scope_symbol_id = 3079 : i64, shape = [2560 : si64]} : () -> tensor<2560xf16>
    %V = "oneflow.variable"() {data_type = 9 : i32, device_name = ["@0:0"], device_tag = "cuda", hierarchy = [1], op_name = "variable_363", output_lbns = ["variable_363/out"], parallel = #sbp.parallel<[] -> [[#sbp.B]]>, scope_symbol_id = 3091 : i64, shape = [1280 : si64, 3 : si64, 3 : si64, 2560 : si64]} : () -> tensor<1280x3x3x2560xf16>
    %V = "oneflow.variable"() {data_type = 9 : i32, device_name = ["@0:0"], device_tag = "cuda", hierarchy = [1], op_name = "unet.up_blocks.1.resnets.0.conv1.bias", output_lbns = ["unet.up_blocks.1.resnets.0.conv1.bias/out"], parallel = #sbp.parallel<[] -> [[#sbp.B]]>, scope_symbol_id = 3095 : i64, shape = [1280 : si64]} : () -> tensor<1280xf16>
    %V = "oneflow.variable"() {data_type = 9 : i32, device_name = ["@0:0"], device_tag = "cuda", hierarchy = [1], op_name = "unet.up_blocks.1.resnets.0.time_emb_proj.weight", output_lbns = ["unet.up_blocks.1.resnets.0.time_emb_proj.weight/out"], parallel = #sbp.parallel<[] -> [[#sbp.B]]>, scope_symbol_id = 3106 : i64, shape = [1280 : si64, 1280 : si64]} : () -> tensor<1280x1280xf16>
    %V = "oneflow.variable"() {data_type = 9 : i32, device_name = ["@0:0"], device_tag = "cuda", hierarchy = [1], op_name = "unet.up_blocks.1.resnets.0.time_emb_proj.bias", output_lbns = ["unet.up_blocks.1.resnets.0.time_emb_proj.bias/out"], parallel = #sbp.parallel<[] -> [[#sbp.B]]>, scope_symbol_id = 3113 : i64, shape = [1280 : si64]} : () -> tensor<1280xf16>
    %V = "oneflow.variable"() {data_type = 9 : i32, device_name = ["@0:0"], device_tag = "cuda", hierarchy = [1], op_name = "unet.up_blocks.1.resnets.0.norm2.weight", output_lbns = ["unet.up_blocks.1.resnets.0.norm2.weight/out"], parallel = #sbp.parallel<[] -> [[#sbp.B]]>, scope_symbol_id = 3130 : i64, shape = [1280 : si64]} : () -> tensor<1280xf16>
    %V = "oneflow.variable"() {data_type = 9 : i32, device_name = ["@0:0"], device_tag = "cuda", hierarchy = [1], op_name = "unet.up_blocks.1.resnets.0.norm2.bias", output_lbns = ["unet.up_blocks.1.resnets.0.norm2.bias/out"], parallel = #sbp.parallel<[] -> [[#sbp.B]]>, scope_symbol_id = 3134 : i64, shape = [1280 : si64]} : () -> tensor<1280xf16>
    %V = "oneflow.variable"() {data_type = 9 : i32, device_name = ["@0:0"], device_tag = "cuda", hierarchy = [1], op_name = "variable_362", output_lbns = ["variable_362/out"], parallel = #sbp.parallel<[] -> [[#sbp.B]]>, scope_symbol_id = 3146 : i64, shape = [1280 : si64, 3 : si64, 3 : si64, 1280 : si64]} : () -> tensor<1280x3x3x1280xf16>
    %V = "oneflow.variable"() {data_type = 9 : i32, device_name = ["@0:0"], device_tag = "cuda", hierarchy = [1], op_name = "unet.up_blocks.1.resnets.0.conv2.bias", output_lbns = ["unet.up_blocks.1.resnets.0.conv2.bias/out"], parallel = #sbp.parallel<[] -> [[#sbp.B]]>, scope_symbol_id = 3150 : i64, shape = [1280 : si64]} : () -> tensor<1280xf16>
    %V = "oneflow.variable"() {data_type = 9 : i32, device_name = ["@0:0"], device_tag = "cuda", hierarchy = [1], op_name = "variable_361", output_lbns = ["variable_361/out"], parallel = #sbp.parallel<[] -> [[#sbp.B]]>, scope_symbol_id = 3158 : i64, shape = [1280 : si64, 1 : si64, 1 : si64, 2560 : si64]} : () -> tensor<1280x1x1x2560xf16>
    %V = "oneflow.variable"() {data_type = 9 : i32, device_name = ["@0:0"], device_tag = "cuda", hierarchy = [1], op_name = "unet.up_blocks.1.resnets.0.conv_shortcut.bias", output_lbns = ["unet.up_blocks.1.resnets.0.conv_shortcut.bias/out"], parallel = #sbp.parallel<[] -> [[#sbp.B]]>, scope_symbol_id = 3162 : i64, shape = [1280 : si64]} : () -> tensor<1280xf16>
    %V = "oneflow.variable"() {data_type = 9 : i32, device_name = ["@0:0"], device_tag = "cuda", hierarchy = [1], op_name = "unet.up_blocks.1.attentions.0.norm.weight", output_lbns = ["unet.up_blocks.1.attentions.0.norm.weight/out"], parallel = #sbp.parallel<[] -> [[#sbp.B]]>, scope_symbol_id = 3177 : i64, shape = [1280 : si64]} : () -> tensor<1280xf16>
    %V = "oneflow.variable"() {data_type = 9 : i32, device_name = ["@0:0"], device_tag = "cuda", hierarchy = [1], op_name = "unet.up_blocks.1.attentions.0.norm.bias", output_lbns = ["unet.up_blocks.1.attentions.0.norm.bias/out"], parallel = #sbp.parallel<[] -> [[#sbp.B]]>, scope_symbol_id = 3181 : i64, shape = [1280 : si64]} : () -> tensor<1280xf16>
    %V = "oneflow.variable"() {data_type = 9 : i32, device_name = ["@0:0"], device_tag = "cuda", hierarchy = [1], op_name = "variable_360", output_lbns = ["variable_360/out"], parallel = #sbp.parallel<[] -> [[#sbp.B]]>, scope_symbol_id = 3189 : i64, shape = [1280 : si64, 1 : si64, 1 : si64, 1280 : si64]} : () -> tensor<1280x1x1x1280xf16>
    %V = "oneflow.variable"() {data_type = 9 : i32, device_name = ["@0:0"], device_tag = "cuda", hierarchy = [1], op_name = "unet.up_blocks.1.attentions.0.proj_in.bias", output_lbns = ["unet.up_blocks.1.attentions.0.proj_in.bias/out"], parallel = #sbp.parallel<[] -> [[#sbp.B]]>, scope_symbol_id = 3193 : i64, shape = [1280 : si64]} : () -> tensor<1280xf16>
    %V = "oneflow.variable"() {data_type = 9 : i32, device_name = ["@0:0"], device_tag = "cuda", hierarchy = [1], op_name = "unet.up_blocks.1.attentions.0.transformer_blocks.0.norm1.weight", output_lbns = ["unet.up_blocks.1.attentions.0.transformer_blocks.0.norm1.weight/out"], parallel = #sbp.parallel<[] -> [[#sbp.B]]>, scope_symbol_id = 3208 : i64, shape = [1280 : si64]} : () -> tensor<1280xf16>
    %V = "oneflow.variable"() {data_type = 9 : i32, device_name = ["@0:0"], device_tag = "cuda", hierarchy = [1], op_name = "unet.up_blocks.1.attentions.0.transformer_blocks.0.norm1.bias", output_lbns = ["unet.up_blocks.1.attentions.0.transformer_blocks.0.norm1.bias/out"], parallel = #sbp.parallel<[] -> [[#sbp.B]]>, scope_symbol_id = 3212 : i64, shape = [1280 : si64]} : () -> tensor<1280xf16>
    %V = "oneflow.variable"() {data_type = 9 : i32, device_name = ["@0:0"], device_tag = "cuda", hierarchy = [1], op_name = "unet.up_blocks.1.attentions.0.transformer_blocks.0.attn1.to_q.weight", output_lbns = ["unet.up_blocks.1.attentions.0.transformer_blocks.0.attn1.to_q.weight/out"], parallel = #sbp.parallel<[] -> [[#sbp.B]]>, scope_symbol_id = 3221 : i64, shape = [1280 : si64, 1280 : si64]} : () -> tensor<1280x1280xf16>
    %V = "oneflow.variable"() {data_type = 9 : i32, device_name = ["@0:0"], device_tag = "cuda", hierarchy = [1], op_name = "unet.up_blocks.1.attentions.0.transformer_blocks.0.attn1.to_k.weight", output_lbns = ["unet.up_blocks.1.attentions.0.transformer_blocks.0.attn1.to_k.weight/out"], parallel = #sbp.parallel<[] -> [[#sbp.B]]>, scope_symbol_id = 3229 : i64, shape = [1280 : si64, 1280 : si64]} : () -> tensor<1280x1280xf16>
    %V = "oneflow.variable"() {data_type = 9 : i32, device_name = ["@0:0"], device_tag = "cuda", hierarchy = [1], op_name = "unet.up_blocks.1.attentions.0.transformer_blocks.0.attn1.to_v.weight", output_lbns = ["unet.up_blocks.1.attentions.0.transformer_blocks.0.attn1.to_v.weight/out"], parallel = #sbp.parallel<[] -> [[#sbp.B]]>, scope_symbol_id = 3237 : i64, shape = [1280 : si64, 1280 : si64]} : () -> tensor<1280x1280xf16>
    %V = "oneflow.variable"() {data_type = 9 : i32, device_name = ["@0:0"], device_tag = "cuda", hierarchy = [1], op_name = "unet.up_blocks.1.attentions.0.transformer_blocks.0.attn1.to_out.0.weight", output_lbns = ["unet.up_blocks.1.attentions.0.transformer_blocks.0.attn1.to_out.0.weight/out"], parallel = #sbp.parallel<[] -> [[#sbp.B]]>, scope_symbol_id = 3249 : i64, shape = [1280 : si64, 1280 : si64]} : () -> tensor<1280x1280xf16>
    %V = "oneflow.variable"() {data_type = 9 : i32, device_name = ["@0:0"], device_tag = "cuda", hierarchy = [1], op_name = "unet.up_blocks.1.attentions.0.transformer_blocks.0.attn1.to_out.0.bias", output_lbns = ["unet.up_blocks.1.attentions.0.transformer_blocks.0.attn1.to_out.0.bias/out"], parallel = #sbp.parallel<[] -> [[#sbp.B]]>, scope_symbol_id = 3256 : i64, shape = [1280 : si64]} : () -> tensor<1280xf16>
    %V = "oneflow.variable"() {data_type = 9 : i32, device_name = ["@0:0"], device_tag = "cuda", hierarchy = [1], op_name = "unet.up_blocks.1.attentions.0.transformer_blocks.0.norm2.weight", output_lbns = ["unet.up_blocks.1.attentions.0.transformer_blocks.0.norm2.weight/out"], parallel = #sbp.parallel<[] -> [[#sbp.B]]>, scope_symbol_id = 3268 : i64, shape = [1280 : si64]} : () -> tensor<1280xf16>
    %V = "oneflow.variable"() {data_type = 9 : i32, device_name = ["@0:0"], device_tag = "cuda", hierarchy = [1], op_name = "unet.up_blocks.1.attentions.0.transformer_blocks.0.norm2.bias", output_lbns = ["unet.up_blocks.1.attentions.0.transformer_blocks.0.norm2.bias/out"], parallel = #sbp.parallel<[] -> [[#sbp.B]]>, scope_symbol_id = 3272 : i64, shape = [1280 : si64]} : () -> tensor<1280xf16>
    %V = "oneflow.variable"() {data_type = 9 : i32, device_name = ["@0:0"], device_tag = "cuda", hierarchy = [1], op_name = "unet.up_blocks.1.attentions.0.transformer_blocks.0.attn2.to_q.weight", output_lbns = ["unet.up_blocks.1.attentions.0.transformer_blocks.0.attn2.to_q.weight/out"], parallel = #sbp.parallel<[] -> [[#sbp.B]]>, scope_symbol_id = 3281 : i64, shape = [1280 : si64, 1280 : si64]} : () -> tensor<1280x1280xf16>
    %V = "oneflow.variable"() {data_type = 9 : i32, device_name = ["@0:0"], device_tag = "cuda", hierarchy = [1], op_name = "unet.up_blocks.1.attentions.0.transformer_blocks.0.attn2.to_k.weight", output_lbns = ["unet.up_blocks.1.attentions.0.transformer_blocks.0.attn2.to_k.weight/out"], parallel = #sbp.parallel<[] -> [[#sbp.B]]>, scope_symbol_id = 3289 : i64, shape = [1280 : si64, 768 : si64]} : () -> tensor<1280x768xf16>
    %V = "oneflow.variable"() {data_type = 9 : i32, device_name = ["@0:0"], device_tag = "cuda", hierarchy = [1], op_name = "unet.up_blocks.1.attentions.0.transformer_blocks.0.attn2.to_v.weight", output_lbns = ["unet.up_blocks.1.attentions.0.transformer_blocks.0.attn2.to_v.weight/out"], parallel = #sbp.parallel<[] -> [[#sbp.B]]>, scope_symbol_id = 3297 : i64, shape = [1280 : si64, 768 : si64]} : () -> tensor<1280x768xf16>
    %V = "oneflow.variable"() {data_type = 9 : i32, device_name = ["@0:0"], device_tag = "cuda", hierarchy = [1], op_name = "unet.up_blocks.1.attentions.0.transformer_blocks.0.attn2.to_out.0.weight", output_lbns = ["unet.up_blocks.1.attentions.0.transformer_blocks.0.attn2.to_out.0.weight/out"], parallel = #sbp.parallel<[] -> [[#sbp.B]]>, scope_symbol_id = 3309 : i64, shape = [1280 : si64, 1280 : si64]} : () -> tensor<1280x1280xf16>
    %V = "oneflow.variable"() {data_type = 9 : i32, device_name = ["@0:0"], device_tag = "cuda", hierarchy = [1], op_name = "unet.up_blocks.1.attentions.0.transformer_blocks.0.attn2.to_out.0.bias", output_lbns = ["unet.up_blocks.1.attentions.0.transformer_blocks.0.attn2.to_out.0.bias/out"], parallel = #sbp.parallel<[] -> [[#sbp.B]]>, scope_symbol_id = 3316 : i64, shape = [1280 : si64]} : () -> tensor<1280xf16>
    %V = "oneflow.variable"() {data_type = 9 : i32, device_name = ["@0:0"], device_tag = "cuda", hierarchy = [1], op_name = "unet.up_blocks.1.attentions.0.transformer_blocks.0.norm3.weight", output_lbns = ["unet.up_blocks.1.attentions.0.transformer_blocks.0.norm3.weight/out"], parallel = #sbp.parallel<[] -> [[#sbp.B]]>, scope_symbol_id = 3328 : i64, shape = [1280 : si64]} : () -> tensor<1280xf16>
    %V = "oneflow.variable"() {data_type = 9 : i32, device_name = ["@0:0"], device_tag = "cuda", hierarchy = [1], op_name = "unet.up_blocks.1.attentions.0.transformer_blocks.0.norm3.bias", output_lbns = ["unet.up_blocks.1.attentions.0.transformer_blocks.0.norm3.bias/out"], parallel = #sbp.parallel<[] -> [[#sbp.B]]>, scope_symbol_id = 3332 : i64, shape = [1280 : si64]} : () -> tensor<1280xf16>
    %V = "oneflow.variable"() {data_type = 9 : i32, device_name = ["@0:0"], device_tag = "cuda", hierarchy = [1], op_name = "unet.up_blocks.1.attentions.0.transformer_blocks.0.ff.net.0.proj.weight", output_lbns = ["unet.up_blocks.1.attentions.0.transformer_blocks.0.ff.net.0.proj.weight/out"], parallel = #sbp.parallel<[] -> [[#sbp.B]]>, scope_symbol_id = 3343 : i64, shape = [10240 : si64, 1280 : si64]} : () -> tensor<10240x1280xf16>
    %V = "oneflow.variable"() {data_type = 9 : i32, device_name = ["@0:0"], device_tag = "cuda", hierarchy = [1], op_name = "unet.up_blocks.1.attentions.0.transformer_blocks.0.ff.net.0.proj.bias", output_lbns = ["unet.up_blocks.1.attentions.0.transformer_blocks.0.ff.net.0.proj.bias/out"], parallel = #sbp.parallel<[] -> [[#sbp.B]]>, scope_symbol_id = 3350 : i64, shape = [10240 : si64]} : () -> tensor<10240xf16>
    %V = "oneflow.variable"() {data_type = 9 : i32, device_name = ["@0:0"], device_tag = "cuda", hierarchy = [1], op_name = "unet.up_blocks.1.attentions.0.transformer_blocks.0.ff.net.2.weight", output_lbns = ["unet.up_blocks.1.attentions.0.transformer_blocks.0.ff.net.2.weight/out"], parallel = #sbp.parallel<[] -> [[#sbp.B]]>, scope_symbol_id = 3371 : i64, shape = [1280 : si64, 5120 : si64]} : () -> tensor<1280x5120xf16>
    %V = "oneflow.variable"() {data_type = 9 : i32, device_name = ["@0:0"], device_tag = "cuda", hierarchy = [1], op_name = "unet.up_blocks.1.attentions.0.transformer_blocks.0.ff.net.2.bias", output_lbns = ["unet.up_blocks.1.attentions.0.transformer_blocks.0.ff.net.2.bias/out"], parallel = #sbp.parallel<[] -> [[#sbp.B]]>, scope_symbol_id = 3378 : i64, shape = [1280 : si64]} : () -> tensor<1280xf16>
    %V = "oneflow.variable"() {data_type = 9 : i32, device_name = ["@0:0"], device_tag = "cuda", hierarchy = [1], op_name = "variable_359", output_lbns = ["variable_359/out"], parallel = #sbp.parallel<[] -> [[#sbp.B]]>, scope_symbol_id = 3395 : i64, shape = [1280 : si64, 1 : si64, 1 : si64, 1280 : si64]} : () -> tensor<1280x1x1x1280xf16>
    %V = "oneflow.variable"() {data_type = 9 : i32, device_name = ["@0:0"], device_tag = "cuda", hierarchy = [1], op_name = "unet.up_blocks.1.attentions.0.proj_out.bias", output_lbns = ["unet.up_blocks.1.attentions.0.proj_out.bias/out"], parallel = #sbp.parallel<[] -> [[#sbp.B]]>, scope_symbol_id = 3399 : i64, shape = [1280 : si64]} : () -> tensor<1280xf16>
    %V = "oneflow.variable"() {data_type = 9 : i32, device_name = ["@0:0"], device_tag = "cuda", hierarchy = [1], op_name = "unet.up_blocks.1.resnets.1.norm1.weight", output_lbns = ["unet.up_blocks.1.resnets.1.norm1.weight/out"], parallel = #sbp.parallel<[] -> [[#sbp.B]]>, scope_symbol_id = 3414 : i64, shape = [2560 : si64]} : () -> tensor<2560xf16>
    %V = "oneflow.variable"() {data_type = 9 : i32, device_name = ["@0:0"], device_tag = "cuda", hierarchy = [1], op_name = "unet.up_blocks.1.resnets.1.norm1.bias", output_lbns = ["unet.up_blocks.1.resnets.1.norm1.bias/out"], parallel = #sbp.parallel<[] -> [[#sbp.B]]>, scope_symbol_id = 3418 : i64, shape = [2560 : si64]} : () -> tensor<2560xf16>
    %V = "oneflow.variable"() {data_type = 9 : i32, device_name = ["@0:0"], device_tag = "cuda", hierarchy = [1], op_name = "variable_358", output_lbns = ["variable_358/out"], parallel = #sbp.parallel<[] -> [[#sbp.B]]>, scope_symbol_id = 3430 : i64, shape = [1280 : si64, 3 : si64, 3 : si64, 2560 : si64]} : () -> tensor<1280x3x3x2560xf16>
    %V = "oneflow.variable"() {data_type = 9 : i32, device_name = ["@0:0"], device_tag = "cuda", hierarchy = [1], op_name = "unet.up_blocks.1.resnets.1.conv1.bias", output_lbns = ["unet.up_blocks.1.resnets.1.conv1.bias/out"], parallel = #sbp.parallel<[] -> [[#sbp.B]]>, scope_symbol_id = 3434 : i64, shape = [1280 : si64]} : () -> tensor<1280xf16>
    %V = "oneflow.variable"() {data_type = 9 : i32, device_name = ["@0:0"], device_tag = "cuda", hierarchy = [1], op_name = "unet.up_blocks.1.resnets.1.time_emb_proj.weight", output_lbns = ["unet.up_blocks.1.resnets.1.time_emb_proj.weight/out"], parallel = #sbp.parallel<[] -> [[#sbp.B]]>, scope_symbol_id = 3445 : i64, shape = [1280 : si64, 1280 : si64]} : () -> tensor<1280x1280xf16>
    %V = "oneflow.variable"() {data_type = 9 : i32, device_name = ["@0:0"], device_tag = "cuda", hierarchy = [1], op_name = "unet.up_blocks.1.resnets.1.time_emb_proj.bias", output_lbns = ["unet.up_blocks.1.resnets.1.time_emb_proj.bias/out"], parallel = #sbp.parallel<[] -> [[#sbp.B]]>, scope_symbol_id = 3452 : i64, shape = [1280 : si64]} : () -> tensor<1280xf16>
    %V = "oneflow.variable"() {data_type = 9 : i32, device_name = ["@0:0"], device_tag = "cuda", hierarchy = [1], op_name = "unet.up_blocks.1.resnets.1.norm2.weight", output_lbns = ["unet.up_blocks.1.resnets.1.norm2.weight/out"], parallel = #sbp.parallel<[] -> [[#sbp.B]]>, scope_symbol_id = 3469 : i64, shape = [1280 : si64]} : () -> tensor<1280xf16>
    %V = "oneflow.variable"() {data_type = 9 : i32, device_name = ["@0:0"], device_tag = "cuda", hierarchy = [1], op_name = "unet.up_blocks.1.resnets.1.norm2.bias", output_lbns = ["unet.up_blocks.1.resnets.1.norm2.bias/out"], parallel = #sbp.parallel<[] -> [[#sbp.B]]>, scope_symbol_id = 3473 : i64, shape = [1280 : si64]} : () -> tensor<1280xf16>
    %V = "oneflow.variable"() {data_type = 9 : i32, device_name = ["@0:0"], device_tag = "cuda", hierarchy = [1], op_name = "variable_357", output_lbns = ["variable_357/out"], parallel = #sbp.parallel<[] -> [[#sbp.B]]>, scope_symbol_id = 3485 : i64, shape = [1280 : si64, 3 : si64, 3 : si64, 1280 : si64]} : () -> tensor<1280x3x3x1280xf16>
    %V = "oneflow.variable"() {data_type = 9 : i32, device_name = ["@0:0"], device_tag = "cuda", hierarchy = [1], op_name = "unet.up_blocks.1.resnets.1.conv2.bias", output_lbns = ["unet.up_blocks.1.resnets.1.conv2.bias/out"], parallel = #sbp.parallel<[] -> [[#sbp.B]]>, scope_symbol_id = 3489 : i64, shape = [1280 : si64]} : () -> tensor<1280xf16>
    %V = "oneflow.variable"() {data_type = 9 : i32, device_name = ["@0:0"], device_tag = "cuda", hierarchy = [1], op_name = "variable_356", output_lbns = ["variable_356/out"], parallel = #sbp.parallel<[] -> [[#sbp.B]]>, scope_symbol_id = 3497 : i64, shape = [1280 : si64, 1 : si64, 1 : si64, 2560 : si64]} : () -> tensor<1280x1x1x2560xf16>
    %V = "oneflow.variable"() {data_type = 9 : i32, device_name = ["@0:0"], device_tag = "cuda", hierarchy = [1], op_name = "unet.up_blocks.1.resnets.1.conv_shortcut.bias", output_lbns = ["unet.up_blocks.1.resnets.1.conv_shortcut.bias/out"], parallel = #sbp.parallel<[] -> [[#sbp.B]]>, scope_symbol_id = 3501 : i64, shape = [1280 : si64]} : () -> tensor<1280xf16>
    %V = "oneflow.variable"() {data_type = 9 : i32, device_name = ["@0:0"], device_tag = "cuda", hierarchy = [1], op_name = "unet.up_blocks.1.attentions.1.norm.weight", output_lbns = ["unet.up_blocks.1.attentions.1.norm.weight/out"], parallel = #sbp.parallel<[] -> [[#sbp.B]]>, scope_symbol_id = 3516 : i64, shape = [1280 : si64]} : () -> tensor<1280xf16>
    %V = "oneflow.variable"() {data_type = 9 : i32, device_name = ["@0:0"], device_tag = "cuda", hierarchy = [1], op_name = "unet.up_blocks.1.attentions.1.norm.bias", output_lbns = ["unet.up_blocks.1.attentions.1.norm.bias/out"], parallel = #sbp.parallel<[] -> [[#sbp.B]]>, scope_symbol_id = 3520 : i64, shape = [1280 : si64]} : () -> tensor<1280xf16>
    %V = "oneflow.variable"() {data_type = 9 : i32, device_name = ["@0:0"], device_tag = "cuda", hierarchy = [1], op_name = "variable_355", output_lbns = ["variable_355/out"], parallel = #sbp.parallel<[] -> [[#sbp.B]]>, scope_symbol_id = 3528 : i64, shape = [1280 : si64, 1 : si64, 1 : si64, 1280 : si64]} : () -> tensor<1280x1x1x1280xf16>
    %V = "oneflow.variable"() {data_type = 9 : i32, device_name = ["@0:0"], device_tag = "cuda", hierarchy = [1], op_name = "unet.up_blocks.1.attentions.1.proj_in.bias", output_lbns = ["unet.up_blocks.1.attentions.1.proj_in.bias/out"], parallel = #sbp.parallel<[] -> [[#sbp.B]]>, scope_symbol_id = 3532 : i64, shape = [1280 : si64]} : () -> tensor<1280xf16>
    %V = "oneflow.variable"() {data_type = 9 : i32, device_name = ["@0:0"], device_tag = "cuda", hierarchy = [1], op_name = "unet.up_blocks.1.attentions.1.transformer_blocks.0.norm1.weight", output_lbns = ["unet.up_blocks.1.attentions.1.transformer_blocks.0.norm1.weight/out"], parallel = #sbp.parallel<[] -> [[#sbp.B]]>, scope_symbol_id = 3547 : i64, shape = [1280 : si64]} : () -> tensor<1280xf16>
    %V = "oneflow.variable"() {data_type = 9 : i32, device_name = ["@0:0"], device_tag = "cuda", hierarchy = [1], op_name = "unet.up_blocks.1.attentions.1.transformer_blocks.0.norm1.bias", output_lbns = ["unet.up_blocks.1.attentions.1.transformer_blocks.0.norm1.bias/out"], parallel = #sbp.parallel<[] -> [[#sbp.B]]>, scope_symbol_id = 3551 : i64, shape = [1280 : si64]} : () -> tensor<1280xf16>
    %V = "oneflow.variable"() {data_type = 9 : i32, device_name = ["@0:0"], device_tag = "cuda", hierarchy = [1], op_name = "unet.up_blocks.1.attentions.1.transformer_blocks.0.attn1.to_q.weight", output_lbns = ["unet.up_blocks.1.attentions.1.transformer_blocks.0.attn1.to_q.weight/out"], parallel = #sbp.parallel<[] -> [[#sbp.B]]>, scope_symbol_id = 3560 : i64, shape = [1280 : si64, 1280 : si64]} : () -> tensor<1280x1280xf16>
    %V = "oneflow.variable"() {data_type = 9 : i32, device_name = ["@0:0"], device_tag = "cuda", hierarchy = [1], op_name = "unet.up_blocks.1.attentions.1.transformer_blocks.0.attn1.to_k.weight", output_lbns = ["unet.up_blocks.1.attentions.1.transformer_blocks.0.attn1.to_k.weight/out"], parallel = #sbp.parallel<[] -> [[#sbp.B]]>, scope_symbol_id = 3568 : i64, shape = [1280 : si64, 1280 : si64]} : () -> tensor<1280x1280xf16>
    %V = "oneflow.variable"() {data_type = 9 : i32, device_name = ["@0:0"], device_tag = "cuda", hierarchy = [1], op_name = "unet.up_blocks.1.attentions.1.transformer_blocks.0.attn1.to_v.weight", output_lbns = ["unet.up_blocks.1.attentions.1.transformer_blocks.0.attn1.to_v.weight/out"], parallel = #sbp.parallel<[] -> [[#sbp.B]]>, scope_symbol_id = 3576 : i64, shape = [1280 : si64, 1280 : si64]} : () -> tensor<1280x1280xf16>
…
    %V = "oneflow.add_n2"(%V, %V) {device_name = ["@0:0"], device_tag = "cuda", hierarchy = [1], op_name = "ONEFLOW_ERASE_MAGIC", op_type_name = "add_n", scope_symbol_id = 77777 : i64} : (tensor<2x1024x640xf16>, tensor<2x1024x640xf16>) -> tensor<2x1024x640xf16>
    %V, %V, %V = "oneflow.layer_norm"(%V, %V, %V) {begin_norm_axis = 2 : si64, begin_params_axis = 2 : si64, center = true, device_name = ["@0:0"], device_tag = "cuda", epsilon = 1.000000e-05 : f64, hierarchy = [1], op_name = "ONEFLOW_ERASE_MAGIC", operand_segment_sizes = dense<1> : vector<3xi32>, scale = true, scope_symbol_id = 77777 : i64} : (tensor<2x1024x640xf16>, tensor<640xf16>, tensor<640xf16>) -> (tensor<2x1024x640xf16>, tensor<2x1024xf32>, tensor<2x1024xf32>)
    %V = "oneflow.broadcast_matmul"(%V, %V) {alpha = 1.000000e+00 : f64, device_name = ["@0:0"], device_tag = "cuda", hierarchy = [1], op_name = "ONEFLOW_ERASE_MAGIC", scope_symbol_id = 77777 : i64, transpose_a = false, transpose_b = true} : (tensor<2x1024x640xf16>, tensor<640x640xf16>) -> tensor<2x1024x640xf16>
    %V = "oneflow.fused_multi_head_attention_inference"(%V, %V, %V) {causal = false, device_name = ["@0:0"], device_tag = "cuda", hierarchy = [1], key_hidden_slice_end = -1 : si64, key_hidden_slice_start = 0 : si64, num_heads = 8 : si64, op_name = "ONEFLOW_ERASE_MAGIC", query_hidden_slice_end = -1 : si64, query_hidden_slice_start = 0 : si64, scope_symbol_id = 77777 : i64, value_hidden_slice_end = -1 : si64, value_hidden_slice_start = 0 : si64} : (tensor<2x1024x640xf16>, tensor<2x77x640xf16>, tensor<2x77x640xf16>) -> tensor<2x1024x640xf16>
    %V = "oneflow.broadcast_matmul"(%V, %V) {alpha = 1.000000e+00 : f64, device_name = ["@0:0"], device_tag = "cuda", hierarchy = [1], op_name = "ONEFLOW_ERASE_MAGIC", scope_symbol_id = 77777 : i64, transpose_a = false, transpose_b = true} : (tensor<2x1024x640xf16>, tensor<640x640xf16>) -> tensor<2x1024x640xf16>
    %V = "oneflow.broadcast_add"(%V, %V) {device_name = ["@0:0"], device_tag = "cuda", hierarchy = [1], op_name = "ONEFLOW_ERASE_MAGIC", scope_symbol_id = 77777 : i64} : (tensor<2x1024x640xf16>, tensor<640xf16>) -> tensor<2x1024x640xf16>
    %V = "oneflow.add_n2"(%V, %V) {device_name = ["@0:0"], device_tag = "cuda", hierarchy = [1], op_name = "ONEFLOW_ERASE_MAGIC", op_type_name = "add_n", scope_symbol_id = 77777 : i64} : (tensor<2x1024x640xf16>, tensor<2x1024x640xf16>) -> tensor<2x1024x640xf16>
    %V, %V, %V = "oneflow.layer_norm"(%V, %V, %V) {begin_norm_axis = 2 : si64, begin_params_axis = 2 : si64, center = true, device_name = ["@0:0"], device_tag = "cuda", epsilon = 1.000000e-05 : f64, hierarchy = [1], op_name = "ONEFLOW_ERASE_MAGIC", operand_segment_sizes = dense<1> : vector<3xi32>, scale = true, scope_symbol_id = 77777 : i64} : (tensor<2x1024x640xf16>, tensor<640xf16>, tensor<640xf16>) -> (tensor<2x1024x640xf16>, tensor<2x1024xf32>, tensor<2x1024xf32>)
    %V = "oneflow.broadcast_matmul"(%V, %V) {alpha = 1.000000e+00 : f64, device_name = ["@0:0"], device_tag = "cuda", hierarchy = [1], op_name = "ONEFLOW_ERASE_MAGIC", scope_symbol_id = 77777 : i64, transpose_a = false, transpose_b = true} : (tensor<2x1024x640xf16>, tensor<5120x640xf16>) -> tensor<2x1024x5120xf16>
    %V = "oneflow.broadcast_add"(%V, %V) {device_name = ["@0:0"], device_tag = "cuda", hierarchy = [1], op_name = "ONEFLOW_ERASE_MAGIC", scope_symbol_id = 77777 : i64} : (tensor<2x1024x5120xf16>, tensor<5120xf16>) -> tensor<2x1024x5120xf16>
    %V = "oneflow.narrow"(%V) {device_name = ["@0:0"], device_tag = "cuda", dim = 2 : si64, hierarchy = [1], length = 2560 : si64, op_name = "ONEFLOW_ERASE_MAGIC", scope_symbol_id = 77777 : i64, start = 0 : si64} : (tensor<2x1024x5120xf16>) -> tensor<2x1024x2560xf16>
    %V = "oneflow.narrow"(%V) {device_name = ["@0:0"], device_tag = "cuda", dim = 2 : si64, hierarchy = [1], length = 2560 : si64, op_name = "ONEFLOW_ERASE_MAGIC", scope_symbol_id = 77777 : i64, start = 2560 : si64} : (tensor<2x1024x5120xf16>) -> tensor<2x1024x2560xf16>
    %V = "oneflow.gelu"(%V) {device_name = ["@0:0"], device_tag = "cuda", hierarchy = [1], op_name = "ONEFLOW_ERASE_MAGIC", scope_symbol_id = 77777 : i64} : (tensor<2x1024x2560xf16>) -> tensor<2x1024x2560xf16>
    %V = "oneflow.broadcast_mul"(%V, %V) {device_name = ["@0:0"], device_tag = "cuda", hierarchy = [1], op_name = "ONEFLOW_ERASE_MAGIC", scope_symbol_id = 77777 : i64} : (tensor<2x1024x2560xf16>, tensor<2x1024x2560xf16>) -> tensor<2x1024x2560xf16>
    %V = "oneflow.broadcast_matmul"(%V, %V) {alpha = 1.000000e+00 : f64, device_name = ["@0:0"], device_tag = "cuda", hierarchy = [1], op_name = "ONEFLOW_ERASE_MAGIC", scope_symbol_id = 77777 : i64, transpose_a = false, transpose_b = true} : (tensor<2x1024x2560xf16>, tensor<640x2560xf16>) -> tensor<2x1024x640xf16>
    %V = "oneflow.broadcast_add"(%V, %V) {device_name = ["@0:0"], device_tag = "cuda", hierarchy = [1], op_name = "ONEFLOW_ERASE_MAGIC", scope_symbol_id = 77777 : i64} : (tensor<2x1024x640xf16>, tensor<640xf16>) -> tensor<2x1024x640xf16>
    %V = "oneflow.add_n2"(%V, %V) {device_name = ["@0:0"], device_tag = "cuda", hierarchy = [1], op_name = "ONEFLOW_ERASE_MAGIC", op_type_name = "add_n", scope_symbol_id = 77777 : i64} : (tensor<2x1024x640xf16>, tensor<2x1024x640xf16>) -> tensor<2x1024x640xf16>
    %V = "oneflow.reshape"(%V) {device_name = ["@0:0"], device_tag = "cuda", hierarchy = [1], op_name = "ONEFLOW_ERASE_MAGIC", scope_symbol_id = 77777 : i64, shape = [2 : si64, 32 : si64, 32 : si64, 640 : si64]} : (tensor<2x1024x640xf16>) -> tensor<2x32x32x640xf16>
    %V = "oneflow.conv2d"(%V, %V, %V) {data_format = "channels_last", device_name = ["@0:0"], device_tag = "cuda", dilation_rate = [1 : si32, 1 : si32], filters = 640 : si32, groups = 1 : si32, hierarchy = [1], kernel_size = [1 : si32, 1 : si32], op_name = "ONEFLOW_ERASE_MAGIC", operand_segment_sizes = dense<[1, 1, 1, 0]> : vector<4xi32>, padding_before = [0 : si32, 0 : si32], scope_symbol_id = 77777 : i64, strides = [1 : si32, 1 : si32]} : (tensor<2x32x32x640xf16>, tensor<640x1x1x640xf16>, tensor<640xf16>) -> tensor<2x32x32x640xf16>
    %V = "oneflow.add_n2"(%V, %V) {device_name = ["@0:0"], device_tag = "cuda", hierarchy = [1], op_name = "ONEFLOW_ERASE_MAGIC", op_type_name = "add_n", scope_symbol_id = 77777 : i64} : (tensor<2x32x32x640xf16>, tensor<2x32x32x640xf16>) -> tensor<2x32x32x640xf16>
    %V = "oneflow.transpose"(%V) {device_name = ["@0:0"], device_tag = "cuda", hierarchy = [1], op_name = "ONEFLOW_ERASE_MAGIC", perm = [0 : si32, 3 : si32, 1 : si32, 2 : si32], scope_symbol_id = 77777 : i64} : (tensor<2x32x32x640xf16>) -> tensor<2x640x32x32xf16>
    %V = "oneflow.upsample_nearest_2d"(%V) {data_format = "channels_first", device_name = ["@0:0"], device_tag = "cuda", height_scale = 2.000000e+00 : f64, hierarchy = [1], op_name = "ONEFLOW_ERASE_MAGIC", output_size = [], scope_symbol_id = 77777 : i64, width_scale = 2.000000e+00 : f64} : (tensor<2x640x32x32xf16>) -> tensor<2x640x64x64xf16>
    %V = "oneflow.transpose"(%V) {device_name = ["@0:0"], device_tag = "cuda", hierarchy = [1], op_name = "ONEFLOW_ERASE_MAGIC", perm = [0 : si32, 2 : si32, 3 : si32, 1 : si32], scope_symbol_id = 77777 : i64} : (tensor<2x640x64x64xf16>) -> tensor<2x64x64x640xf16>
    %V = "oneflow.conv2d"(%V, %V, %V) {data_format = "channels_last", device_name = ["@0:0"], device_tag = "cuda", dilation_rate = [1 : si32, 1 : si32], filters = 640 : si32, groups = 1 : si32, hierarchy = [1], kernel_size = [3 : si32, 3 : si32], op_name = "ONEFLOW_ERASE_MAGIC", operand_segment_sizes = dense<[1, 1, 1, 0]> : vector<4xi32>, padding_before = [1 : si32, 1 : si32], scope_symbol_id = 77777 : i64, strides = [1 : si32, 1 : si32]} : (tensor<2x64x64x640xf16>, tensor<640x3x3x640xf16>, tensor<640xf16>) -> tensor<2x64x64x640xf16>
    %V = "oneflow.concat"(%V, %V) {axis = 3 : si64, device_name = ["@0:0"], device_tag = "cuda", hierarchy = [1], max_dim_size = 960 : si64, op_name = "ONEFLOW_ERASE_MAGIC", scope_symbol_id = 77777 : i64} : (tensor<2x64x64x640xf16>, tensor<2x64x64x320xf16>) -> tensor<2x64x64x960xf16>
    %V, %V, %V = "oneflow.group_norm"(%V, %V, %V) {activation = "silu", affine = true, data_format = "channels_last", device_name = ["@0:0"], device_tag = "cuda", epsilon = 1.000000e-05 : f64, hierarchy = [1], num_groups = 32 : si32, op_name = "ONEFLOW_ERASE_MAGIC", operand_segment_sizes = dense<1> : vector<3xi32>, scope_symbol_id = 77777 : i64} : (tensor<2x64x64x960xf16>, tensor<960xf16>, tensor<960xf16>) -> (tensor<2x64x64x960xf16>, tensor<2x32xf32>, tensor<2x32xf32>)
    %V = "oneflow.conv2d"(%V, %V, %V) {data_format = "channels_last", device_name = ["@0:0"], device_tag = "cuda", dilation_rate = [1 : si32, 1 : si32], filters = 320 : si32, groups = 1 : si32, hierarchy = [1], kernel_size = [1 : si32, 1 : si32], op_name = "ONEFLOW_ERASE_MAGIC", operand_segment_sizes = dense<[1, 1, 1, 0]> : vector<4xi32>, padding_before = [0 : si32, 0 : si32], scope_symbol_id = 77777 : i64, strides = [1 : si32, 1 : si32]} : (tensor<2x64x64x960xf16>, tensor<320x1x1x960xf16>, tensor<320xf16>) -> tensor<2x64x64x320xf16>
    %V = "oneflow.conv2d"(%V, %V, %V) {data_format = "channels_last", device_name = ["@0:0"], device_tag = "cuda", dilation_rate = [1 : si32, 1 : si32], filters = 320 : si32, groups = 1 : si32, hierarchy = [1], kernel_size = [3 : si32, 3 : si32], op_name = "ONEFLOW_ERASE_MAGIC", operand_segment_sizes = dense<[1, 1, 1, 0]> : vector<4xi32>, padding_before = [1 : si32, 1 : si32], scope_symbol_id = 77777 : i64, strides = [1 : si32, 1 : si32]} : (tensor<2x64x64x960xf16>, tensor<320x3x3x960xf16>, tensor<320xf16>) -> tensor<2x64x64x320xf16>
    %V = "oneflow.broadcast_add"(%V, %V) {device_name = ["@0:0"], device_tag = "cuda", hierarchy = [1], op_name = "ONEFLOW_ERASE_MAGIC", scope_symbol_id = 77777 : i64} : (tensor<2x64x64x320xf16>, tensor<2x1x1x320xf16>) -> tensor<2x64x64x320xf16>
    %V, %V, %V = "oneflow.group_norm"(%V, %V, %V) {activation = "silu", affine = true, data_format = "channels_last", device_name = ["@0:0"], device_tag = "cuda", epsilon = 1.000000e-05 : f64, hierarchy = [1], num_groups = 32 : si32, op_name = "ONEFLOW_ERASE_MAGIC", operand_segment_sizes = dense<1> : vector<3xi32>, scope_symbol_id = 77777 : i64} : (tensor<2x64x64x320xf16>, tensor<320xf16>, tensor<320xf16>) -> (tensor<2x64x64x320xf16>, tensor<2x32xf32>, tensor<2x32xf32>)
    %V = "oneflow.conv2d"(%V, %V, %V) {data_format = "channels_last", device_name = ["@0:0"], device_tag = "cuda", dilation_rate = [1 : si32, 1 : si32], filters = 320 : si32, groups = 1 : si32, hierarchy = [1], kernel_size = [3 : si32, 3 : si32], op_name = "ONEFLOW_ERASE_MAGIC", operand_segment_sizes = dense<[1, 1, 1, 0]> : vector<4xi32>, padding_before = [1 : si32, 1 : si32], scope_symbol_id = 77777 : i64, strides = [1 : si32, 1 : si32]} : (tensor<2x64x64x320xf16>, tensor<320x3x3x320xf16>, tensor<320xf16>) -> tensor<2x64x64x320xf16>
    %V = "oneflow.add_n2"(%V, %V) {device_name = ["@0:0"], device_tag = "cuda", hierarchy = [1], op_name = "ONEFLOW_ERASE_MAGIC", op_type_name = "add_n", scope_symbol_id = 77777 : i64} : (tensor<2x64x64x320xf16>, tensor<2x64x64x320xf16>) -> tensor<2x64x64x320xf16>
    %V = "oneflow.scalar_div"(%V) {device_name = ["@0:0"], device_tag = "cuda", float_operand = 1.000000e+00 : f64, has_float_operand = true, has_int_operand = false, hierarchy = [1], int_operand = 0 : si64, op_name = "ONEFLOW_ERASE_MAGIC", scope_symbol_id = 77777 : i64} : (tensor<2x64x64x320xf16>) -> tensor<2x64x64x320xf16>
    %V, %V, %V = "oneflow.group_norm"(%V, %V, %V) {activation = "none", affine = true, data_format = "channels_last", device_name = ["@0:0"], device_tag = "cuda", epsilon = 9.9999999999999995E-7 : f64, hierarchy = [1], num_groups = 32 : si32, op_name = "ONEFLOW_ERASE_MAGIC", operand_segment_sizes = dense<1> : vector<3xi32>, scope_symbol_id = 77777 : i64} : (tensor<2x64x64x320xf16>, tensor<320xf16>, tensor<320xf16>) -> (tensor<2x64x64x320xf16>, tensor<2x32xf32>, tensor<2x32xf32>)
    %V = "oneflow.conv2d"(%V, %V, %V) {data_format = "channels_last", device_name = ["@0:0"], device_tag = "cuda", dilation_rate = [1 : si32, 1 : si32], filters = 320 : si32, groups = 1 : si32, hierarchy = [1], kernel_size = [1 : si32, 1 : si32], op_name = "ONEFLOW_ERASE_MAGIC", operand_segment_sizes = dense<[1, 1, 1, 0]> : vector<4xi32>, padding_before = [0 : si32, 0 : si32], scope_symbol_id = 77777 : i64, strides = [1 : si32, 1 : si32]} : (tensor<2x64x64x320xf16>, tensor<320x1x1x320xf16>, tensor<320xf16>) -> tensor<2x64x64x320xf16>
    %V = "oneflow.reshape"(%V) {device_name = ["@0:0"], device_tag = "cuda", hierarchy = [1], op_name = "ONEFLOW_ERASE_MAGIC", scope_symbol_id = 77777 : i64, shape = [2 : si64, 4096 : si64, 320 : si64]} : (tensor<2x64x64x320xf16>) -> tensor<2x4096x320xf16>
    %V, %V, %V = "oneflow.layer_norm"(%V, %V, %V) {begin_norm_axis = 2 : si64, begin_params_axis = 2 : si64, center = true, device_name = ["@0:0"], device_tag = "cuda", epsilon = 1.000000e-05 : f64, hierarchy = [1], op_name = "ONEFLOW_ERASE_MAGIC", operand_segment_sizes = dense<1> : vector<3xi32>, scale = true, scope_symbol_id = 77777 : i64} : (tensor<2x4096x320xf16>, tensor<320xf16>, tensor<320xf16>) -> (tensor<2x4096x320xf16>, tensor<2x4096xf32>, tensor<2x4096xf32>)
    %V:3 = "oneflow.grouped_matmul_bias"(%V, %V, %V, %V, %V, %V) {device_name = ["@0:0"], device_tag = "cuda", hierarchy = [1], op_name = "ONEFLOW_ERASE_MAGIC", operand_segment_sizes = dense<[3, 3, 0]> : vector<3xi32>, scope_symbol_id = 77777 : i64} : (tensor<2x4096x320xf16>, tensor<2x4096x320xf16>, tensor<2x4096x320xf16>, tensor<320x320xf16>, tensor<320x320xf16>, tensor<320x320xf16>) -> (tensor<2x4096x320xf16>, tensor<2x4096x320xf16>, tensor<2x4096x320xf16>)
    %V = "oneflow.fused_multi_head_attention_inference"(%V, %V, %V) {causal = false, device_name = ["@0:0"], device_tag = "cuda", hierarchy = [1], key_hidden_slice_end = -1 : si64, key_hidden_slice_start = 0 : si64, num_heads = 8 : si64, op_name = "ONEFLOW_ERASE_MAGIC", query_hidden_slice_end = -1 : si64, query_hidden_slice_start = 0 : si64, scope_symbol_id = 77777 : i64, value_hidden_slice_end = -1 : si64, value_hidden_slice_start = 0 : si64} : (tensor<2x4096x320xf16>, tensor<2x4096x320xf16>, tensor<2x4096x320xf16>) -> tensor<2x4096x320xf16>
    %V = "oneflow.broadcast_matmul"(%V, %V) {alpha = 1.000000e+00 : f64, device_name = ["@0:0"], device_tag = "cuda", hierarchy = [1], op_name = "ONEFLOW_ERASE_MAGIC", scope_symbol_id = 77777 : i64, transpose_a = false, transpose_b = true} : (tensor<2x4096x320xf16>, tensor<320x320xf16>) -> tensor<2x4096x320xf16>
    %V = "oneflow.broadcast_add"(%V, %V) {device_name = ["@0:0"], device_tag = "cuda", hierarchy = [1], op_name = "ONEFLOW_ERASE_MAGIC", scope_symbol_id = 77777 : i64} : (tensor<2x4096x320xf16>, tensor<320xf16>) -> tensor<2x4096x320xf16>
    %V = "oneflow.add_n2"(%V, %V) {device_name = ["@0:0"], device_tag = "cuda", hierarchy = [1], op_name = "ONEFLOW_ERASE_MAGIC", op_type_name = "add_n", scope_symbol_id = 77777 : i64} : (tensor<2x4096x320xf16>, tensor<2x4096x320xf16>) -> tensor<2x4096x320xf16>
    %V, %V, %V = "oneflow.layer_norm"(%V, %V, %V) {begin_norm_axis = 2 : si64, begin_params_axis = 2 : si64, center = true, device_name = ["@0:0"], device_tag = "cuda", epsilon = 1.000000e-05 : f64, hierarchy = [1], op_name = "ONEFLOW_ERASE_MAGIC", operand_segment_sizes = dense<1> : vector<3xi32>, scale = true, scope_symbol_id = 77777 : i64} : (tensor<2x4096x320xf16>, tensor<320xf16>, tensor<320xf16>) -> (tensor<2x4096x320xf16>, tensor<2x4096xf32>, tensor<2x4096xf32>)
    %V = "oneflow.broadcast_matmul"(%V, %V) {alpha = 1.000000e+00 : f64, device_name = ["@0:0"], device_tag = "cuda", hierarchy = [1], op_name = "ONEFLOW_ERASE_MAGIC", scope_symbol_id = 77777 : i64, transpose_a = false, transpose_b = true} : (tensor<2x4096x320xf16>, tensor<320x320xf16>) -> tensor<2x4096x320xf16>
    %V = "oneflow.fused_multi_head_attention_inference"(%V, %V, %V) {causal = false, device_name = ["@0:0"], device_tag = "cuda", hierarchy = [1], key_hidden_slice_end = -1 : si64, key_hidden_slice_start = 0 : si64, num_heads = 8 : si64, op_name = "ONEFLOW_ERASE_MAGIC", query_hidden_slice_end = -1 : si64, query_hidden_slice_start = 0 : si64, scope_symbol_id = 77777 : i64, value_hidden_slice_end = -1 : si64, value_hidden_slice_start = 0 : si64} : (tensor<2x4096x320xf16>, tensor<2x77x320xf16>, tensor<2x77x320xf16>) -> tensor<2x4096x320xf16>
    %V = "oneflow.broadcast_matmul"(%V, %V) {alpha = 1.000000e+00 : f64, device_name = ["@0:0"], device_tag = "cuda", hierarchy = [1], op_name = "ONEFLOW_ERASE_MAGIC", scope_symbol_id = 77777 : i64, transpose_a = false, transpose_b = true} : (tensor<2x4096x320xf16>, tensor<320x320xf16>) -> tensor<2x4096x320xf16>
    %V = "oneflow.broadcast_add"(%V, %V) {device_name = ["@0:0"], device_tag = "cuda", hierarchy = [1], op_name = "ONEFLOW_ERASE_MAGIC", scope_symbol_id = 77777 : i64} : (tensor<2x4096x320xf16>, tensor<320xf16>) -> tensor<2x4096x320xf16>
    %V = "oneflow.add_n2"(%V, %V) {device_name = ["@0:0"], device_tag = "cuda", hierarchy = [1], op_name = "ONEFLOW_ERASE_MAGIC", op_type_name = "add_n", scope_symbol_id = 77777 : i64} : (tensor<2x4096x320xf16>, tensor<2x4096x320xf16>) -> tensor<2x4096x320xf16>
    %V, %V, %V = "oneflow.layer_norm"(%V, %V, %V) {begin_norm_axis = 2 : si64, begin_params_axis = 2 : si64, center = true, device_name = ["@0:0"], device_tag = "cuda", epsilon = 1.000000e-05 : f64, hierarchy = [1], op_name = "ONEFLOW_ERASE_MAGIC", operand_segment_sizes = dense<1> : vector<3xi32>, scale = true, scope_symbol_id = 77777 : i64} : (tensor<2x4096x320xf16>, tensor<320xf16>, tensor<320xf16>) -> (tensor<2x4096x320xf16>, tensor<2x4096xf32>, tensor<2x4096xf32>)
    %V = "oneflow.broadcast_matmul"(%V, %V) {alpha = 1.000000e+00 : f64, device_name = ["@0:0"], device_tag = "cuda", hierarchy = [1], op_name = "ONEFLOW_ERASE_MAGIC", scope_symbol_id = 77777 : i64, transpose_a = false, transpose_b = true} : (tensor<2x4096x320xf16>, tensor<2560x320xf16>) -> tensor<2x4096x2560xf16>
    %V = "oneflow.broadcast_add"(%V, %V) {device_name = ["@0:0"], device_tag = "cuda", hierarchy = [1], op_name = "ONEFLOW_ERASE_MAGIC", scope_symbol_id = 77777 : i64} : (tensor<2x4096x2560xf16>, tensor<2560xf16>) -> tensor<2x4096x2560xf16>
    %V = "oneflow.narrow"(%V) {device_name = ["@0:0"], device_tag = "cuda", dim = 2 : si64, hierarchy = [1], length = 1280 : si64, op_name = "ONEFLOW_ERASE_MAGIC", scope_symbol_id = 77777 : i64, start = 0 : si64} : (tensor<2x4096x2560xf16>) -> tensor<2x4096x1280xf16>
    %V = "oneflow.narrow"(%V) {device_name = ["@0:0"], device_tag = "cuda", dim = 2 : si64, hierarchy = [1], length = 1280 : si64, op_name = "ONEFLOW_ERASE_MAGIC", scope_symbol_id = 77777 : i64, start = 1280 : si64} : (tensor<2x4096x2560xf16>) -> tensor<2x4096x1280xf16>
    %V = "oneflow.gelu"(%V) {device_name = ["@0:0"], device_tag = "cuda", hierarchy = [1], op_name = "ONEFLOW_ERASE_MAGIC", scope_symbol_id = 77777 : i64} : (tensor<2x4096x1280xf16>) -> tensor<2x4096x1280xf16>
    %V = "oneflow.broadcast_mul"(%V, %V) {device_name = ["@0:0"], device_tag = "cuda", hierarchy = [1], op_name = "ONEFLOW_ERASE_MAGIC", scope_symbol_id = 77777 : i64} : (tensor<2x4096x1280xf16>, tensor<2x4096x1280xf16>) -> tensor<2x4096x1280xf16>
    %V = "oneflow.broadcast_matmul"(%V, %V) {alpha = 1.000000e+00 : f64, device_name = ["@0:0"], device_tag = "cuda", hierarchy = [1], op_name = "ONEFLOW_ERASE_MAGIC", scope_symbol_id = 77777 : i64, transpose_a = false, transpose_b = true} : (tensor<2x4096x1280xf16>, tensor<320x1280xf16>) -> tensor<2x4096x320xf16>
    %V = "oneflow.broadcast_add"(%V, %V) {device_name = ["@0:0"], device_tag = "cuda", hierarchy = [1], op_name = "ONEFLOW_ERASE_MAGIC", scope_symbol_id = 77777 : i64} : (tensor<2x4096x320xf16>, tensor<320xf16>) -> tensor<2x4096x320xf16>
    %V = "oneflow.add_n2"(%V, %V) {device_name = ["@0:0"], device_tag = "cuda", hierarchy = [1], op_name = "ONEFLOW_ERASE_MAGIC", op_type_name = "add_n", scope_symbol_id = 77777 : i64} : (tensor<2x4096x320xf16>, tensor<2x4096x320xf16>) -> tensor<2x4096x320xf16>
    %V = "oneflow.reshape"(%V) {device_name = ["@0:0"], device_tag = "cuda", hierarchy = [1], op_name = "ONEFLOW_ERASE_MAGIC", scope_symbol_id = 77777 : i64, shape = [2 : si64, 64 : si64, 64 : si64, 320 : si64]} : (tensor<2x4096x320xf16>) -> tensor<2x64x64x320xf16>
    %V = "oneflow.conv2d"(%V, %V, %V) {data_format = "channels_last", device_name = ["@0:0"], device_tag = "cuda", dilation_rate = [1 : si32, 1 : si32], filters = 320 : si32, groups = 1 : si32, hierarchy = [1], kernel_size = [1 : si32, 1 : si32], op_name = "ONEFLOW_ERASE_MAGIC", operand_segment_sizes = dense<[1, 1, 1, 0]> : vector<4xi32>, padding_before = [0 : si32, 0 : si32], scope_symbol_id = 77777 : i64, strides = [1 : si32, 1 : si32]} : (tensor<2x64x64x320xf16>, tensor<320x1x1x320xf16>, tensor<320xf16>) -> tensor<2x64x64x320xf16>
    %V = "oneflow.add_n2"(%V, %V) {device_name = ["@0:0"], device_tag = "cuda", hierarchy = [1], op_name = "ONEFLOW_ERASE_MAGIC", op_type_name = "add_n", scope_symbol_id = 77777 : i64} : (tensor<2x64x64x320xf16>, tensor<2x64x64x320xf16>) -> tensor<2x64x64x320xf16>
    %V = "oneflow.concat"(%V, %V) {axis = 3 : si64, device_name = ["@0:0"], device_tag = "cuda", hierarchy = [1], max_dim_size = 640 : si64, op_name = "ONEFLOW_ERASE_MAGIC", scope_symbol_id = 77777 : i64} : (tensor<2x64x64x320xf16>, tensor<2x64x64x320xf16>) -> tensor<2x64x64x640xf16>
    %V, %V, %V = "oneflow.group_norm"(%V, %V, %V) {activation = "silu", affine = true, data_format = "channels_last", device_name = ["@0:0"], device_tag = "cuda", epsilon = 1.000000e-05 : f64, hierarchy = [1], num_groups = 32 : si32, op_name = "ONEFLOW_ERASE_MAGIC", operand_segment_sizes = dense<1> : vector<3xi32>, scope_symbol_id = 77777 : i64} : (tensor<2x64x64x640xf16>, tensor<640xf16>, tensor<640xf16>) -> (tensor<2x64x64x640xf16>, tensor<2x32xf32>, tensor<2x32xf32>)
    %V = "oneflow.conv2d"(%V, %V, %V) {data_format = "channels_last", device_name = ["@0:0"], device_tag = "cuda", dilation_rate = [1 : si32, 1 : si32], filters = 320 : si32, groups = 1 : si32, hierarchy = [1], kernel_size = [1 : si32, 1 : si32], op_name = "ONEFLOW_ERASE_MAGIC", operand_segment_sizes = dense<[1, 1, 1, 0]> : vector<4xi32>, padding_before = [0 : si32, 0 : si32], scope_symbol_id = 77777 : i64, strides = [1 : si32, 1 : si32]} : (tensor<2x64x64x640xf16>, tensor<320x1x1x640xf16>, tensor<320xf16>) -> tensor<2x64x64x320xf16>
    %V = "oneflow.conv2d"(%V, %V, %V) {data_format = "channels_last", device_name = ["@0:0"], device_tag = "cuda", dilation_rate = [1 : si32, 1 : si32], filters = 320 : si32, groups = 1 : si32, hierarchy = [1], kernel_size = [3 : si32, 3 : si32], op_name = "ONEFLOW_ERASE_MAGIC", operand_segment_sizes = dense<[1, 1, 1, 0]> : vector<4xi32>, padding_before = [1 : si32, 1 : si32], scope_symbol_id = 77777 : i64, strides = [1 : si32, 1 : si32]} : (tensor<2x64x64x640xf16>, tensor<320x3x3x640xf16>, tensor<320xf16>) -> tensor<2x64x64x320xf16>
    %V = "oneflow.broadcast_add"(%V, %V) {device_name = ["@0:0"], device_tag = "cuda", hierarchy = [1], op_name = "ONEFLOW_ERASE_MAGIC", scope_symbol_id = 77777 : i64} : (tensor<2x64x64x320xf16>, tensor<2x1x1x320xf16>) -> tensor<2x64x64x320xf16>
    %V, %V, %V = "oneflow.group_norm"(%V, %V, %V) {activation = "silu", affine = true, data_format = "channels_last", device_name = ["@0:0"], device_tag = "cuda", epsilon = 1.000000e-05 : f64, hierarchy = [1], num_groups = 32 : si32, op_name = "ONEFLOW_ERASE_MAGIC", operand_segment_sizes = dense<1> : vector<3xi32>, scope_symbol_id = 77777 : i64} : (tensor<2x64x64x320xf16>, tensor<320xf16>, tensor<320xf16>) -> (tensor<2x64x64x320xf16>, tensor<2x32xf32>, tensor<2x32xf32>)
    %V = "oneflow.conv2d"(%V, %V, %V) {data_format = "channels_last", device_name = ["@0:0"], device_tag = "cuda", dilation_rate = [1 : si32, 1 : si32], filters = 320 : si32, groups = 1 : si32, hierarchy = [1], kernel_size = [3 : si32, 3 : si32], op_name = "ONEFLOW_ERASE_MAGIC", operand_segment_sizes = dense<[1, 1, 1, 0]> : vector<4xi32>, padding_before = [1 : si32, 1 : si32], scope_symbol_id = 77777 : i64, strides = [1 : si32, 1 : si32]} : (tensor<2x64x64x320xf16>, tensor<320x3x3x320xf16>, tensor<320xf16>) -> tensor<2x64x64x320xf16>
    %V = "oneflow.add_n2"(%V, %V) {device_name = ["@0:0"], device_tag = "cuda", hierarchy = [1], op_name = "ONEFLOW_ERASE_MAGIC", op_type_name = "add_n", scope_symbol_id = 77777 : i64} : (tensor<2x64x64x320xf16>, tensor<2x64x64x320xf16>) -> tensor<2x64x64x320xf16>
    %V = "oneflow.scalar_div"(%V) {device_name = ["@0:0"], device_tag = "cuda", float_operand = 1.000000e+00 : f64, has_float_operand = true, has_int_operand = false, hierarchy = [1], int_operand = 0 : si64, op_name = "ONEFLOW_ERASE_MAGIC", scope_symbol_id = 77777 : i64} : (tensor<2x64x64x320xf16>) -> tensor<2x64x64x320xf16>
    %V, %V, %V = "oneflow.group_norm"(%V, %V, %V) {activation = "none", affine = true, data_format = "channels_last", device_name = ["@0:0"], device_tag = "cuda", epsilon = 9.9999999999999995E-7 : f64, hierarchy = [1], num_groups = 32 : si32, op_name = "ONEFLOW_ERASE_MAGIC", operand_segment_sizes = dense<1> : vector<3xi32>, scope_symbol_id = 77777 : i64} : (tensor<2x64x64x320xf16>, tensor<320xf16>, tensor<320xf16>) -> (tensor<2x64x64x320xf16>, tensor<2x32xf32>, tensor<2x32xf32>)
    %V = "oneflow.conv2d"(%V, %V, %V) {data_format = "channels_last", device_name = ["@0:0"], device_tag = "cuda", dilation_rate = [1 : si32, 1 : si32], filters = 320 : si32, groups = 1 : si32, hierarchy = [1], kernel_size = [1 : si32, 1 : si32], op_name = "ONEFLOW_ERASE_MAGIC", operand_segment_sizes = dense<[1, 1, 1, 0]> : vector<4xi32>, padding_before = [0 : si32, 0 : si32], scope_symbol_id = 77777 : i64, strides = [1 : si32, 1 : si32]} : (tensor<2x64x64x320xf16>, tensor<320x1x1x320xf16>, tensor<320xf16>) -> tensor<2x64x64x320xf16>
    %V = "oneflow.reshape"(%V) {device_name = ["@0:0"], device_tag = "cuda", hierarchy = [1], op_name = "ONEFLOW_ERASE_MAGIC", scope_symbol_id = 77777 : i64, shape = [2 : si64, 4096 : si64, 320 : si64]} : (tensor<2x64x64x320xf16>) -> tensor<2x4096x320xf16>
    %V, %V, %V = "oneflow.layer_norm"(%V, %V, %V) {begin_norm_axis = 2 : si64, begin_params_axis = 2 : si64, center = true, device_name = ["@0:0"], device_tag = "cuda", epsilon = 1.000000e-05 : f64, hierarchy = [1], op_name = "ONEFLOW_ERASE_MAGIC", operand_segment_sizes = dense<1> : vector<3xi32>, scale = true, scope_symbol_id = 77777 : i64} : (tensor<2x4096x320xf16>, tensor<320xf16>, tensor<320xf16>) -> (tensor<2x4096x320xf16>, tensor<2x4096xf32>, tensor<2x4096xf32>)
    %V:3 = "oneflow.grouped_matmul_bias"(%V, %V, %V, %V, %V, %V) {device_name = ["@0:0"], device_tag = "cuda", hierarchy = [1], op_name = "ONEFLOW_ERASE_MAGIC", operand_segment_sizes = dense<[3, 3, 0]> : vector<3xi32>, scope_symbol_id = 77777 : i64} : (tensor<2x4096x320xf16>, tensor<2x4096x320xf16>, tensor<2x4096x320xf16>, tensor<320x320xf16>, tensor<320x320xf16>, tensor<320x320xf16>) -> (tensor<2x4096x320xf16>, tensor<2x4096x320xf16>, tensor<2x4096x320xf16>)
    %V = "oneflow.fused_multi_head_attention_inference"(%V, %V, %V) {causal = false, device_name = ["@0:0"], device_tag = "cuda", hierarchy = [1], key_hidden_slice_end = -1 : si64, key_hidden_slice_start = 0 : si64, num_heads = 8 : si64, op_name = "ONEFLOW_ERASE_MAGIC", query_hidden_slice_end = -1 : si64, query_hidden_slice_start = 0 : si64, scope_symbol_id = 77777 : i64, value_hidden_slice_end = -1 : si64, value_hidden_slice_start = 0 : si64} : (tensor<2x4096x320xf16>, tensor<2x4096x320xf16>, tensor<2x4096x320xf16>) -> tensor<2x4096x320xf16>
    %V = "oneflow.broadcast_matmul"(%V, %V) {alpha = 1.000000e+00 : f64, device_name = ["@0:0"], device_tag = "cuda", hierarchy = [1], op_name = "ONEFLOW_ERASE_MAGIC", scope_symbol_id = 77777 : i64, transpose_a = false, transpose_b = true} : (tensor<2x4096x320xf16>, tensor<320x320xf16>) -> tensor<2x4096x320xf16>
    %V = "oneflow.broadcast_add"(%V, %V) {device_name = ["@0:0"], device_tag = "cuda", hierarchy = [1], op_name = "ONEFLOW_ERASE_MAGIC", scope_symbol_id = 77777 : i64} : (tensor<2x4096x320xf16>, tensor<320xf16>) -> tensor<2x4096x320xf16>
    %V = "oneflow.add_n2"(%V, %V) {device_name = ["@0:0"], device_tag = "cuda", hierarchy = [1], op_name = "ONEFLOW_ERASE_MAGIC", op_type_name = "add_n", scope_symbol_id = 77777 : i64} : (tensor<2x4096x320xf16>, tensor<2x4096x320xf16>) -> tensor<2x4096x320xf16>
    %V, %V, %V = "oneflow.layer_norm"(%V, %V, %V) {begin_norm_axis = 2 : si64, begin_params_axis = 2 : si64, center = true, device_name = ["@0:0"], device_tag = "cuda", epsilon = 1.000000e-05 : f64, hierarchy = [1], op_name = "ONEFLOW_ERASE_MAGIC", operand_segment_sizes = dense<1> : vector<3xi32>, scale = true, scope_symbol_id = 77777 : i64} : (tensor<2x4096x320xf16>, tensor<320xf16>, tensor<320xf16>) -> (tensor<2x4096x320xf16>, tensor<2x4096xf32>, tensor<2x4096xf32>)
    %V = "oneflow.broadcast_matmul"(%V, %V) {alpha = 1.000000e+00 : f64, device_name = ["@0:0"], device_tag = "cuda", hierarchy = [1], op_name = "ONEFLOW_ERASE_MAGIC", scope_symbol_id = 77777 : i64, transpose_a = false, transpose_b = true} : (tensor<2x4096x320xf16>, tensor<320x320xf16>) -> tensor<2x4096x320xf16>
    %V = "oneflow.fused_multi_head_attention_inference"(%V, %V, %V) {causal = false, device_name = ["@0:0"], device_tag = "cuda", hierarchy = [1], key_hidden_slice_end = -1 : si64, key_hidden_slice_start = 0 : si64, num_heads = 8 : si64, op_name = "ONEFLOW_ERASE_MAGIC", query_hidden_slice_end = -1 : si64, query_hidden_slice_start = 0 : si64, scope_symbol_id = 77777 : i64, value_hidden_slice_end = -1 : si64, value_hidden_slice_start = 0 : si64} : (tensor<2x4096x320xf16>, tensor<2x77x320xf16>, tensor<2x77x320xf16>) -> tensor<2x4096x320xf16>
    %V = "oneflow.broadcast_matmul"(%V, %V) {alpha = 1.000000e+00 : f64, device_name = ["@0:0"], device_tag = "cuda", hierarchy = [1], op_name = "ONEFLOW_ERASE_MAGIC", scope_symbol_id = 77777 : i64, transpose_a = false, transpose_b = true} : (tensor<2x4096x320xf16>, tensor<320x320xf16>) -> tensor<2x4096x320xf16>
    %V = "oneflow.broadcast_add"(%V, %V) {device_name = ["@0:0"], device_tag = "cuda", hierarchy = [1], op_name = "ONEFLOW_ERASE_MAGIC", scope_symbol_id = 77777 : i64} : (tensor<2x4096x320xf16>, tensor<320xf16>) -> tensor<2x4096x320xf16>
    %V = "oneflow.add_n2"(%V, %V) {device_name = ["@0:0"], device_tag = "cuda", hierarchy = [1], op_name = "ONEFLOW_ERASE_MAGIC", op_type_name = "add_n", scope_symbol_id = 77777 : i64} : (tensor<2x4096x320xf16>, tensor<2x4096x320xf16>) -> tensor<2x4096x320xf16>
    %V, %V, %V = "oneflow.layer_norm"(%V, %V, %V) {begin_norm_axis = 2 : si64, begin_params_axis = 2 : si64, center = true, device_name = ["@0:0"], device_tag = "cuda", epsilon = 1.000000e-05 : f64, hierarchy = [1], op_name = "ONEFLOW_ERASE_MAGIC", operand_segment_sizes = dense<1> : vector<3xi32>, scale = true, scope_symbol_id = 77777 : i64} : (tensor<2x4096x320xf16>, tensor<320xf16>, tensor<320xf16>) -> (tensor<2x4096x320xf16>, tensor<2x4096xf32>, tensor<2x4096xf32>)
    %V = "oneflow.broadcast_matmul"(%V, %V) {alpha = 1.000000e+00 : f64, device_name = ["@0:0"], device_tag = "cuda", hierarchy = [1], op_name = "ONEFLOW_ERASE_MAGIC", scope_symbol_id = 77777 : i64, transpose_a = false, transpose_b = true} : (tensor<2x4096x320xf16>, tensor<2560x320xf16>) -> tensor<2x4096x2560xf16>
    %V = "oneflow.broadcast_add"(%V, %V) {device_name = ["@0:0"], device_tag = "cuda", hierarchy = [1], op_name = "ONEFLOW_ERASE_MAGIC", scope_symbol_id = 77777 : i64} : (tensor<2x4096x2560xf16>, tensor<2560xf16>) -> tensor<2x4096x2560xf16>
    %V = "oneflow.narrow"(%V) {device_name = ["@0:0"], device_tag = "cuda", dim = 2 : si64, hierarchy = [1], length = 1280 : si64, op_name = "ONEFLOW_ERASE_MAGIC", scope_symbol_id = 77777 : i64, start = 0 : si64} : (tensor<2x4096x2560xf16>) -> tensor<2x4096x1280xf16>
    %V = "oneflow.narrow"(%V) {device_name = ["@0:0"], device_tag = "cuda", dim = 2 : si64, hierarchy = [1], length = 1280 : si64, op_name = "ONEFLOW_ERASE_MAGIC", scope_symbol_id = 77777 : i64, start = 1280 : si64} : (tensor<2x4096x2560xf16>) -> tensor<2x4096x1280xf16>
    %V = "oneflow.gelu"(%V) {device_name = ["@0:0"], device_tag = "cuda", hierarchy = [1], op_name = "ONEFLOW_ERASE_MAGIC", scope_symbol_id = 77777 : i64} : (tensor<2x4096x1280xf16>) -> tensor<2x4096x1280xf16>
    %V = "oneflow.broadcast_mul"(%V, %V) {device_name = ["@0:0"], device_tag = "cuda", hierarchy = [1], op_name = "ONEFLOW_ERASE_MAGIC", scope_symbol_id = 77777 : i64} : (tensor<2x4096x1280xf16>, tensor<2x4096x1280xf16>) -> tensor<2x4096x1280xf16>
    %V = "oneflow.broadcast_matmul"(%V, %V) {alpha = 1.000000e+00 : f64, device_name = ["@0:0"], device_tag = "cuda", hierarchy = [1], op_name = "ONEFLOW_ERASE_MAGIC", scope_symbol_id = 77777 : i64, transpose_a = false, transpose_b = true} : (tensor<2x4096x1280xf16>, tensor<320x1280xf16>) -> tensor<2x4096x320xf16>
    %V = "oneflow.broadcast_add"(%V, %V) {device_name = ["@0:0"], device_tag = "cuda", hierarchy = [1], op_name = "ONEFLOW_ERASE_MAGIC", scope_symbol_id = 77777 : i64} : (tensor<2x4096x320xf16>, tensor<320xf16>) -> tensor<2x4096x320xf16>
    %V = "oneflow.add_n2"(%V, %V) {device_name = ["@0:0"], device_tag = "cuda", hierarchy = [1], op_name = "ONEFLOW_ERASE_MAGIC", op_type_name = "add_n", scope_symbol_id = 77777 : i64} : (tensor<2x4096x320xf16>, tensor<2x4096x320xf16>) -> tensor<2x4096x320xf16>
    %V = "oneflow.reshape"(%V) {device_name = ["@0:0"], device_tag = "cuda", hierarchy = [1], op_name = "ONEFLOW_ERASE_MAGIC", scope_symbol_id = 77777 : i64, shape = [2 : si64, 64 : si64, 64 : si64, 320 : si64]} : (tensor<2x4096x320xf16>) -> tensor<2x64x64x320xf16>
    %V = "oneflow.conv2d"(%V, %V, %V) {data_format = "channels_last", device_name = ["@0:0"], device_tag = "cuda", dilation_rate = [1 : si32, 1 : si32], filters = 320 : si32, groups = 1 : si32, hierarchy = [1], kernel_size = [1 : si32, 1 : si32], op_name = "ONEFLOW_ERASE_MAGIC", operand_segment_sizes = dense<[1, 1, 1, 0]> : vector<4xi32>, padding_before = [0 : si32, 0 : si32], scope_symbol_id = 77777 : i64, strides = [1 : si32, 1 : si32]} : (tensor<2x64x64x320xf16>, tensor<320x1x1x320xf16>, tensor<320xf16>) -> tensor<2x64x64x320xf16>
    %V = "oneflow.add_n2"(%V, %V) {device_name = ["@0:0"], device_tag = "cuda", hierarchy = [1], op_name = "ONEFLOW_ERASE_MAGIC", op_type_name = "add_n", scope_symbol_id = 77777 : i64} : (tensor<2x64x64x320xf16>, tensor<2x64x64x320xf16>) -> tensor<2x64x64x320xf16>
    %V = "oneflow.concat"(%V, %V) {axis = 3 : si64, device_name = ["@0:0"], device_tag = "cuda", hierarchy = [1], max_dim_size = 640 : si64, op_name = "ONEFLOW_ERASE_MAGIC", scope_symbol_id = 77777 : i64} : (tensor<2x64x64x320xf16>, tensor<2x64x64x320xf16>) -> tensor<2x64x64x640xf16>
    %V, %V, %V = "oneflow.group_norm"(%V, %V, %V) {activation = "silu", affine = true, data_format = "channels_last", device_name = ["@0:0"], device_tag = "cuda", epsilon = 1.000000e-05 : f64, hierarchy = [1], num_groups = 32 : si32, op_name = "ONEFLOW_ERASE_MAGIC", operand_segment_sizes = dense<1> : vector<3xi32>, scope_symbol_id = 77777 : i64} : (tensor<2x64x64x640xf16>, tensor<640xf16>, tensor<640xf16>) -> (tensor<2x64x64x640xf16>, tensor<2x32xf32>, tensor<2x32xf32>)
    %V = "oneflow.conv2d"(%V, %V, %V) {data_format = "channels_last", device_name = ["@0:0"], device_tag = "cuda", dilation_rate = [1 : si32, 1 : si32], filters = 320 : si32, groups = 1 : si32, hierarchy = [1], kernel_size = [1 : si32, 1 : si32], op_name = "ONEFLOW_ERASE_MAGIC", operand_segment_sizes = dense<[1, 1, 1, 0]> : vector<4xi32>, padding_before = [0 : si32, 0 : si32], scope_symbol_id = 77777 : i64, strides = [1 : si32, 1 : si32]} : (tensor<2x64x64x640xf16>, tensor<320x1x1x640xf16>, tensor<320xf16>) -> tensor<2x64x64x320xf16>
    %V = "oneflow.conv2d"(%V, %V, %V) {data_format = "channels_last", device_name = ["@0:0"], device_tag = "cuda", dilation_rate = [1 : si32, 1 : si32], filters = 320 : si32, groups = 1 : si32, hierarchy = [1], kernel_size = [3 : si32, 3 : si32], op_name = "ONEFLOW_ERASE_MAGIC", operand_segment_sizes = dense<[1, 1, 1, 0]> : vector<4xi32>, padding_before = [1 : si32, 1 : si32], scope_symbol_id = 77777 : i64, strides = [1 : si32, 1 : si32]} : (tensor<2x64x64x640xf16>, tensor<320x3x3x640xf16>, tensor<320xf16>) -> tensor<2x64x64x320xf16>
    %V = "oneflow.broadcast_add"(%V, %V) {device_name = ["@0:0"], device_tag = "cuda", hierarchy = [1], op_name = "ONEFLOW_ERASE_MAGIC", scope_symbol_id = 77777 : i64} : (tensor<2x64x64x320xf16>, tensor<2x1x1x320xf16>) -> tensor<2x64x64x320xf16>
    %V, %V, %V = "oneflow.group_norm"(%V, %V, %V) {activation = "silu", affine = true, data_format = "channels_last", device_name = ["@0:0"], device_tag = "cuda", epsilon = 1.000000e-05 : f64, hierarchy = [1], num_groups = 32 : si32, op_name = "ONEFLOW_ERASE_MAGIC", operand_segment_sizes = dense<1> : vector<3xi32>, scope_symbol_id = 77777 : i64} : (tensor<2x64x64x320xf16>, tensor<320xf16>, tensor<320xf16>) -> (tensor<2x64x64x320xf16>, tensor<2x32xf32>, tensor<2x32xf32>)
    %V = "oneflow.conv2d"(%V, %V, %V) {data_format = "channels_last", device_name = ["@0:0"], device_tag = "cuda", dilation_rate = [1 : si32, 1 : si32], filters = 320 : si32, groups = 1 : si32, hierarchy = [1], kernel_size = [3 : si32, 3 : si32], op_name = "ONEFLOW_ERASE_MAGIC", operand_segment_sizes = dense<[1, 1, 1, 0]> : vector<4xi32>, padding_before = [1 : si32, 1 : si32], scope_symbol_id = 77777 : i64, strides = [1 : si32, 1 : si32]} : (tensor<2x64x64x320xf16>, tensor<320x3x3x320xf16>, tensor<320xf16>) -> tensor<2x64x64x320xf16>
    %V = "oneflow.add_n2"(%V, %V) {device_name = ["@0:0"], device_tag = "cuda", hierarchy = [1], op_name = "ONEFLOW_ERASE_MAGIC", op_type_name = "add_n", scope_symbol_id = 77777 : i64} : (tensor<2x64x64x320xf16>, tensor<2x64x64x320xf16>) -> tensor<2x64x64x320xf16>
    %V = "oneflow.scalar_div"(%V) {device_name = ["@0:0"], device_tag = "cuda", float_operand = 1.000000e+00 : f64, has_float_operand = true, has_int_operand = false, hierarchy = [1], int_operand = 0 : si64, op_name = "ONEFLOW_ERASE_MAGIC", scope_symbol_id = 77777 : i64} : (tensor<2x64x64x320xf16>) -> tensor<2x64x64x320xf16>
    %V, %V, %V = "oneflow.group_norm"(%V, %V, %V) {activation = "none", affine = true, data_format = "channels_last", device_name = ["@0:0"], device_tag = "cuda", epsilon = 9.9999999999999995E-7 : f64, hierarchy = [1], num_groups = 32 : si32, op_name = "ONEFLOW_ERASE_MAGIC", operand_segment_sizes = dense<1> : vector<3xi32>, scope_symbol_id = 77777 : i64} : (tensor<2x64x64x320xf16>, tensor<320xf16>, tensor<320xf16>) -> (tensor<2x64x64x320xf16>, tensor<2x32xf32>, tensor<2x32xf32>)
    %V = "oneflow.conv2d"(%V, %V, %V) {data_format = "channels_last", device_name = ["@0:0"], device_tag = "cuda", dilation_rate = [1 : si32, 1 : si32], filters = 320 : si32, groups = 1 : si32, hierarchy = [1], kernel_size = [1 : si32, 1 : si32], op_name = "ONEFLOW_ERASE_MAGIC", operand_segment_sizes = dense<[1, 1, 1, 0]> : vector<4xi32>, padding_before = [0 : si32, 0 : si32], scope_symbol_id = 77777 : i64, strides = [1 : si32, 1 : si32]} : (tensor<2x64x64x320xf16>, tensor<320x1x1x320xf16>, tensor<320xf16>) -> tensor<2x64x64x320xf16>
    %V = "oneflow.reshape"(%V) {device_name = ["@0:0"], device_tag = "cuda", hierarchy = [1], op_name = "ONEFLOW_ERASE_MAGIC", scope_symbol_id = 77777 : i64, shape = [2 : si64, 4096 : si64, 320 : si64]} : (tensor<2x64x64x320xf16>) -> tensor<2x4096x320xf16>
    %V, %V, %V = "oneflow.layer_norm"(%V, %V, %V) {begin_norm_axis = 2 : si64, begin_params_axis = 2 : si64, center = true, device_name = ["@0:0"], device_tag = "cuda", epsilon = 1.000000e-05 : f64, hierarchy = [1], op_name = "ONEFLOW_ERASE_MAGIC", operand_segment_sizes = dense<1> : vector<3xi32>, scale = true, scope_symbol_id = 77777 : i64} : (tensor<2x4096x320xf16>, tensor<320xf16>, tensor<320xf16>) -> (tensor<2x4096x320xf16>, tensor<2x4096xf32>, tensor<2x4096xf32>)
    %V:3 = "oneflow.grouped_matmul_bias"(%V, %V, %V, %V, %V, %V) {device_name = ["@0:0"], device_tag = "cuda", hierarchy = [1], op_name = "ONEFLOW_ERASE_MAGIC", operand_segment_sizes = dense<[3, 3, 0]> : vector<3xi32>, scope_symbol_id = 77777 : i64} : (tensor<2x4096x320xf16>, tensor<2x4096x320xf16>, tensor<2x4096x320xf16>, tensor<320x320xf16>, tensor<320x320xf16>, tensor<320x320xf16>) -> (tensor<2x4096x320xf16>, tensor<2x4096x320xf16>, tensor<2x4096x320xf16>)
    %V = "oneflow.fused_multi_head_attention_inference"(%V, %V, %V) {causal = false, device_name = ["@0:0"], device_tag = "cuda", hierarchy = [1], key_hidden_slice_end = -1 : si64, key_hidden_slice_start = 0 : si64, num_heads = 8 : si64, op_name = "ONEFLOW_ERASE_MAGIC", query_hidden_slice_end = -1 : si64, query_hidden_slice_start = 0 : si64, scope_symbol_id = 77777 : i64, value_hidden_slice_end = -1 : si64, value_hidden_slice_start = 0 : si64} : (tensor<2x4096x320xf16>, tensor<2x4096x320xf16>, tensor<2x4096x320xf16>) -> tensor<2x4096x320xf16>
    %V = "oneflow.broadcast_matmul"(%V, %V) {alpha = 1.000000e+00 : f64, device_name = ["@0:0"], device_tag = "cuda", hierarchy = [1], op_name = "ONEFLOW_ERASE_MAGIC", scope_symbol_id = 77777 : i64, transpose_a = false, transpose_b = true} : (tensor<2x4096x320xf16>, tensor<320x320xf16>) -> tensor<2x4096x320xf16>
    %V = "oneflow.broadcast_add"(%V, %V) {device_name = ["@0:0"], device_tag = "cuda", hierarchy = [1], op_name = "ONEFLOW_ERASE_MAGIC", scope_symbol_id = 77777 : i64} : (tensor<2x4096x320xf16>, tensor<320xf16>) -> tensor<2x4096x320xf16>
    %V = "oneflow.add_n2"(%V, %V) {device_name = ["@0:0"], device_tag = "cuda", hierarchy = [1], op_name = "ONEFLOW_ERASE_MAGIC", op_type_name = "add_n", scope_symbol_id = 77777 : i64} : (tensor<2x4096x320xf16>, tensor<2x4096x320xf16>) -> tensor<2x4096x320xf16>
    %V, %V, %V = "oneflow.layer_norm"(%V, %V, %V) {begin_norm_axis = 2 : si64, begin_params_axis = 2 : si64, center = true, device_name = ["@0:0"], device_tag = "cuda", epsilon = 1.000000e-05 : f64, hierarchy = [1], op_name = "ONEFLOW_ERASE_MAGIC", operand_segment_sizes = dense<1> : vector<3xi32>, scale = true, scope_symbol_id = 77777 : i64} : (tensor<2x4096x320xf16>, tensor<320xf16>, tensor<320xf16>) -> (tensor<2x4096x320xf16>, tensor<2x4096xf32>, tensor<2x4096xf32>)
    %V = "oneflow.broadcast_matmul"(%V, %V) {alpha = 1.000000e+00 : f64, device_name = ["@0:0"], device_tag = "cuda", hierarchy = [1], op_name = "ONEFLOW_ERASE_MAGIC", scope_symbol_id = 77777 : i64, transpose_a = false, transpose_b = true} : (tensor<2x4096x320xf16>, tensor<320x320xf16>) -> tensor<2x4096x320xf16>
    %V = "oneflow.fused_multi_head_attention_inference"(%V, %V, %V) {causal = false, device_name = ["@0:0"], device_tag = "cuda", hierarchy = [1], key_hidden_slice_end = -1 : si64, key_hidden_slice_start = 0 : si64, num_heads = 8 : si64, op_name = "ONEFLOW_ERASE_MAGIC", query_hidden_slice_end = -1 : si64, query_hidden_slice_start = 0 : si64, scope_symbol_id = 77777 : i64, value_hidden_slice_end = -1 : si64, value_hidden_slice_start = 0 : si64} : (tensor<2x4096x320xf16>, tensor<2x77x320xf16>, tensor<2x77x320xf16>) -> tensor<2x4096x320xf16>
    %V = "oneflow.broadcast_matmul"(%V, %V) {alpha = 1.000000e+00 : f64, device_name = ["@0:0"], device_tag = "cuda", hierarchy = [1], op_name = "ONEFLOW_ERASE_MAGIC", scope_symbol_id = 77777 : i64, transpose_a = false, transpose_b = true} : (tensor<2x4096x320xf16>, tensor<320x320xf16>) -> tensor<2x4096x320xf16>
    %V = "oneflow.broadcast_add"(%V, %V) {device_name = ["@0:0"], device_tag = "cuda", hierarchy = [1], op_name = "ONEFLOW_ERASE_MAGIC", scope_symbol_id = 77777 : i64} : (tensor<2x4096x320xf16>, tensor<320xf16>) -> tensor<2x4096x320xf16>
    %V = "oneflow.add_n2"(%V, %V) {device_name = ["@0:0"], device_tag = "cuda", hierarchy = [1], op_name = "ONEFLOW_ERASE_MAGIC", op_type_name = "add_n", scope_symbol_id = 77777 : i64} : (tensor<2x4096x320xf16>, tensor<2x4096x320xf16>) -> tensor<2x4096x320xf16>
    %V, %V, %V = "oneflow.layer_norm"(%V, %V, %V) {begin_norm_axis = 2 : si64, begin_params_axis = 2 : si64, center = true, device_name = ["@0:0"], device_tag = "cuda", epsilon = 1.000000e-05 : f64, hierarchy = [1], op_name = "ONEFLOW_ERASE_MAGIC", operand_segment_sizes = dense<1> : vector<3xi32>, scale = true, scope_symbol_id = 77777 : i64} : (tensor<2x4096x320xf16>, tensor<320xf16>, tensor<320xf16>) -> (tensor<2x4096x320xf16>, tensor<2x4096xf32>, tensor<2x4096xf32>)
    %V = "oneflow.broadcast_matmul"(%V, %V) {alpha = 1.000000e+00 : f64, device_name = ["@0:0"], device_tag = "cuda", hierarchy = [1], op_name = "ONEFLOW_ERASE_MAGIC", scope_symbol_id = 77777 : i64, transpose_a = false, transpose_b = true} : (tensor<2x4096x320xf16>, tensor<2560x320xf16>) -> tensor<2x4096x2560xf16>
    %V = "oneflow.broadcast_add"(%V, %V) {device_name = ["@0:0"], device_tag = "cuda", hierarchy = [1], op_name = "ONEFLOW_ERASE_MAGIC", scope_symbol_id = 77777 : i64} : (tensor<2x4096x2560xf16>, tensor<2560xf16>) -> tensor<2x4096x2560xf16>
    %V = "oneflow.narrow"(%V) {device_name = ["@0:0"], device_tag = "cuda", dim = 2 : si64, hierarchy = [1], length = 1280 : si64, op_name = "ONEFLOW_ERASE_MAGIC", scope_symbol_id = 77777 : i64, start = 0 : si64} : (tensor<2x4096x2560xf16>) -> tensor<2x4096x1280xf16>
    %V = "oneflow.narrow"(%V) {device_name = ["@0:0"], device_tag = "cuda", dim = 2 : si64, hierarchy = [1], length = 1280 : si64, op_name = "ONEFLOW_ERASE_MAGIC", scope_symbol_id = 77777 : i64, start = 1280 : si64} : (tensor<2x4096x2560xf16>) -> tensor<2x4096x1280xf16>
    %V = "oneflow.gelu"(%V) {device_name = ["@0:0"], device_tag = "cuda", hierarchy = [1], op_name = "ONEFLOW_ERASE_MAGIC", scope_symbol_id = 77777 : i64} : (tensor<2x4096x1280xf16>) -> tensor<2x4096x1280xf16>
    %V = "oneflow.broadcast_mul"(%V, %V) {device_name = ["@0:0"], device_tag = "cuda", hierarchy = [1], op_name = "ONEFLOW_ERASE_MAGIC", scope_symbol_id = 77777 : i64} : (tensor<2x4096x1280xf16>, tensor<2x4096x1280xf16>) -> tensor<2x4096x1280xf16>
    %V = "oneflow.broadcast_matmul"(%V, %V) {alpha = 1.000000e+00 : f64, device_name = ["@0:0"], device_tag = "cuda", hierarchy = [1], op_name = "ONEFLOW_ERASE_MAGIC", scope_symbol_id = 77777 : i64, transpose_a = false, transpose_b = true} : (tensor<2x4096x1280xf16>, tensor<320x1280xf16>) -> tensor<2x4096x320xf16>
    %V = "oneflow.broadcast_add"(%V, %V) {device_name = ["@0:0"], device_tag = "cuda", hierarchy = [1], op_name = "ONEFLOW_ERASE_MAGIC", scope_symbol_id = 77777 : i64} : (tensor<2x4096x320xf16>, tensor<320xf16>) -> tensor<2x4096x320xf16>
    %V = "oneflow.add_n2"(%V, %V) {device_name = ["@0:0"], device_tag = "cuda", hierarchy = [1], op_name = "ONEFLOW_ERASE_MAGIC", op_type_name = "add_n", scope_symbol_id = 77777 : i64} : (tensor<2x4096x320xf16>, tensor<2x4096x320xf16>) -> tensor<2x4096x320xf16>
    %V = "oneflow.reshape"(%V) {device_name = ["@0:0"], device_tag = "cuda", hierarchy = [1], op_name = "ONEFLOW_ERASE_MAGIC", scope_symbol_id = 77777 : i64, shape = [2 : si64, 64 : si64, 64 : si64, 320 : si64]} : (tensor<2x4096x320xf16>) -> tensor<2x64x64x320xf16>
    %V = "oneflow.conv2d"(%V, %V, %V) {data_format = "channels_last", device_name = ["@0:0"], device_tag = "cuda", dilation_rate = [1 : si32, 1 : si32], filters = 320 : si32, groups = 1 : si32, hierarchy = [1], kernel_size = [1 : si32, 1 : si32], op_name = "ONEFLOW_ERASE_MAGIC", operand_segment_sizes = dense<[1, 1, 1, 0]> : vector<4xi32>, padding_before = [0 : si32, 0 : si32], scope_symbol_id = 77777 : i64, strides = [1 : si32, 1 : si32]} : (tensor<2x64x64x320xf16>, tensor<320x1x1x320xf16>, tensor<320xf16>) -> tensor<2x64x64x320xf16>
    %V = "oneflow.add_n2"(%V, %V) {device_name = ["@0:0"], device_tag = "cuda", hierarchy = [1], op_name = "ONEFLOW_ERASE_MAGIC", op_type_name = "add_n", scope_symbol_id = 77777 : i64} : (tensor<2x64x64x320xf16>, tensor<2x64x64x320xf16>) -> tensor<2x64x64x320xf16>
    %V = "oneflow.cast"(%V) {device_name = ["@0:0"], device_tag = "cuda", dtype = 2 : i32, hierarchy = [1], op_name = "ONEFLOW_ERASE_MAGIC", pin_memory = false, scope_symbol_id = 77777 : i64} : (tensor<2x64x64x320xf16>) -> tensor<2x64x64x320xf32>
    %V, %V, %V = "oneflow.group_norm"(%V, %V, %V) {activation = "none", affine = true, data_format = "channels_last", device_name = ["@0:0"], device_tag = "cuda", epsilon = 1.000000e-05 : f64, hierarchy = [1], num_groups = 32 : si32, op_name = "ONEFLOW_ERASE_MAGIC", operand_segment_sizes = dense<1> : vector<3xi32>, scope_symbol_id = 77777 : i64} : (tensor<2x64x64x320xf32>, tensor<320xf32>, tensor<320xf32>) -> (tensor<2x64x64x320xf32>, tensor<2x32xf32>, tensor<2x32xf32>)
    %V = "oneflow.cast"(%V) {device_name = ["@0:0"], device_tag = "cuda", dtype = 9 : i32, hierarchy = [1], op_name = "ONEFLOW_ERASE_MAGIC", pin_memory = false, scope_symbol_id = 77777 : i64} : (tensor<2x64x64x320xf32>) -> tensor<2x64x64x320xf16>
    %V = "oneflow.silu"(%V) {device_name = ["@0:0"], device_tag = "cuda", hierarchy = [1], op_name = "ONEFLOW_ERASE_MAGIC", scope_symbol_id = 77777 : i64} : (tensor<2x64x64x320xf16>) -> tensor<2x64x64x320xf16>
    %V = "oneflow.conv2d"(%V, %V, %V) {data_format = "channels_last", device_name = ["@0:0"], device_tag = "cuda", dilation_rate = [1 : si32, 1 : si32], filters = 4 : si32, groups = 1 : si32, hierarchy = [1], kernel_size = [3 : si32, 3 : si32], op_name = "ONEFLOW_ERASE_MAGIC", operand_segment_sizes = dense<[1, 1, 1, 0]> : vector<4xi32>, padding_before = [1 : si32, 1 : si32], scope_symbol_id = 77777 : i64, strides = [1 : si32, 1 : si32]} : (tensor<2x64x64x320xf16>, tensor<4x3x3x320xf16>, tensor<4xf16>) -> tensor<2x64x64x4xf16>
    %V = "oneflow.transpose"(%V) {device_name = ["@0:0"], device_tag = "cuda", hierarchy = [1], op_name = "ONEFLOW_ERASE_MAGIC", perm = [0 : si32, 3 : si32, 1 : si32, 2 : si32], scope_symbol_id = 77777 : i64} : (tensor<2x64x64x4xf16>) -> tensor<2x4x64x64xf16>
    %V = "oneflow.output"(%V) {data_type = 9 : i32, device_name = ["@0:0"], device_tag = "cuda", hierarchy = [1], is_dynamic = false, nd_sbp = ["B"], op_name = "_UNetGraph_0_output.0.0_2", output_lbns = ["_UNetGraph_0_output.0.0_2/out"], scope_symbol_id = 12 : i64, shape = [2 : si64, 4 : si64, 64 : si64, 64 : si64]} : (tensor<2x4x64x64xf16>) -> tensor<2x4x64x64xf16>
    oneflow.return %V : tensor<2x4x64x64xf16>
  }
}
