module {
  oneflow.job @UNetGraph_0(%arg0: tensor<2x4x64x64xf32>, %arg1: tensor<si64>, %arg2: tensor<2x77x768xf16>) -> tensor<2x4x64x64xf16> {
    %output = "oneflow.variable"() {data_type = 9 : i32, device_name = ["@0:0"], device_tag = "cuda", hierarchy = [1], op_name = "unet.time_embedding.linear_1.weight", output_lbns = ["unet.time_embedding.linear_1.weight/out"], parallel = #sbp.parallel<[] -> [[#sbp.B]]>, scope_symbol_id = 80 : i64, shape = [1280 : si64, 320 : si64]} : () -> tensor<1280x320xf16>
    %output_0 = "oneflow.variable"() {data_type = 9 : i32, device_name = ["@0:0"], device_tag = "cuda", hierarchy = [1], op_name = "unet.time_embedding.linear_1.bias", output_lbns = ["unet.time_embedding.linear_1.bias/out"], parallel = #sbp.parallel<[] -> [[#sbp.B]]>, scope_symbol_id = 90 : i64, shape = [1280 : si64]} : () -> tensor<1280xf16>
    %output_1 = "oneflow.variable"() {data_type = 9 : i32, device_name = ["@0:0"], device_tag = "cuda", hierarchy = [1], op_name = "unet.time_embedding.linear_2.weight", output_lbns = ["unet.time_embedding.linear_2.weight/out"], parallel = #sbp.parallel<[] -> [[#sbp.B]]>, scope_symbol_id = 102 : i64, shape = [1280 : si64, 1280 : si64]} : () -> tensor<1280x1280xf16>
    %output_2 = "oneflow.variable"() {data_type = 9 : i32, device_name = ["@0:0"], device_tag = "cuda", hierarchy = [1], op_name = "unet.time_embedding.linear_2.bias", output_lbns = ["unet.time_embedding.linear_2.bias/out"], parallel = #sbp.parallel<[] -> [[#sbp.B]]>, scope_symbol_id = 109 : i64, shape = [1280 : si64]} : () -> tensor<1280xf16>
    %output_3 = "oneflow.variable"() {data_type = 9 : i32, device_name = ["@0:0"], device_tag = "cuda", hierarchy = [1], op_name = "variable_413", output_lbns = ["variable_413/out"], parallel = #sbp.parallel<[] -> [[#sbp.B]]>, scope_symbol_id = 117 : i64, shape = [320 : si64, 3 : si64, 3 : si64, 4 : si64]} : () -> tensor<320x3x3x4xf16>
    %output_4 = "oneflow.variable"() {data_type = 9 : i32, device_name = ["@0:0"], device_tag = "cuda", hierarchy = [1], op_name = "unet.conv_in.bias", output_lbns = ["unet.conv_in.bias/out"], parallel = #sbp.parallel<[] -> [[#sbp.B]]>, scope_symbol_id = 121 : i64, shape = [320 : si64]} : () -> tensor<320xf16>
    %output_5 = "oneflow.variable"() {data_type = 9 : i32, device_name = ["@0:0"], device_tag = "cuda", hierarchy = [1], op_name = "unet.down_blocks.0.resnets.0.norm1.weight", output_lbns = ["unet.down_blocks.0.resnets.0.norm1.weight/out"], parallel = #sbp.parallel<[] -> [[#sbp.B]]>, scope_symbol_id = 134 : i64, shape = [320 : si64]} : () -> tensor<320xf16>
    %output_6 = "oneflow.variable"() {data_type = 9 : i32, device_name = ["@0:0"], device_tag = "cuda", hierarchy = [1], op_name = "unet.down_blocks.0.resnets.0.norm1.bias", output_lbns = ["unet.down_blocks.0.resnets.0.norm1.bias/out"], parallel = #sbp.parallel<[] -> [[#sbp.B]]>, scope_symbol_id = 138 : i64, shape = [320 : si64]} : () -> tensor<320xf16>
    %output_7 = "oneflow.variable"() {data_type = 9 : i32, device_name = ["@0:0"], device_tag = "cuda", hierarchy = [1], op_name = "variable_412", output_lbns = ["variable_412/out"], parallel = #sbp.parallel<[] -> [[#sbp.B]]>, scope_symbol_id = 150 : i64, shape = [320 : si64, 3 : si64, 3 : si64, 320 : si64]} : () -> tensor<320x3x3x320xf16>
    %output_8 = "oneflow.variable"() {data_type = 9 : i32, device_name = ["@0:0"], device_tag = "cuda", hierarchy = [1], op_name = "unet.down_blocks.0.resnets.0.conv1.bias", output_lbns = ["unet.down_blocks.0.resnets.0.conv1.bias/out"], parallel = #sbp.parallel<[] -> [[#sbp.B]]>, scope_symbol_id = 154 : i64, shape = [320 : si64]} : () -> tensor<320xf16>
    %output_9 = "oneflow.variable"() {data_type = 9 : i32, device_name = ["@0:0"], device_tag = "cuda", hierarchy = [1], op_name = "unet.down_blocks.0.resnets.0.time_emb_proj.weight", output_lbns = ["unet.down_blocks.0.resnets.0.time_emb_proj.weight/out"], parallel = #sbp.parallel<[] -> [[#sbp.B]]>, scope_symbol_id = 165 : i64, shape = [320 : si64, 1280 : si64]} : () -> tensor<320x1280xf16>
    %output_10 = "oneflow.variable"() {data_type = 9 : i32, device_name = ["@0:0"], device_tag = "cuda", hierarchy = [1], op_name = "unet.down_blocks.0.resnets.0.time_emb_proj.bias", output_lbns = ["unet.down_blocks.0.resnets.0.time_emb_proj.bias/out"], parallel = #sbp.parallel<[] -> [[#sbp.B]]>, scope_symbol_id = 172 : i64, shape = [320 : si64]} : () -> tensor<320xf16>
    %output_11 = "oneflow.variable"() {data_type = 9 : i32, device_name = ["@0:0"], device_tag = "cuda", hierarchy = [1], op_name = "unet.down_blocks.0.resnets.0.norm2.weight", output_lbns = ["unet.down_blocks.0.resnets.0.norm2.weight/out"], parallel = #sbp.parallel<[] -> [[#sbp.B]]>, scope_symbol_id = 189 : i64, shape = [320 : si64]} : () -> tensor<320xf16>
    %output_12 = "oneflow.variable"() {data_type = 9 : i32, device_name = ["@0:0"], device_tag = "cuda", hierarchy = [1], op_name = "unet.down_blocks.0.resnets.0.norm2.bias", output_lbns = ["unet.down_blocks.0.resnets.0.norm2.bias/out"], parallel = #sbp.parallel<[] -> [[#sbp.B]]>, scope_symbol_id = 193 : i64, shape = [320 : si64]} : () -> tensor<320xf16>
    %output_13 = "oneflow.variable"() {data_type = 9 : i32, device_name = ["@0:0"], device_tag = "cuda", hierarchy = [1], op_name = "variable_411", output_lbns = ["variable_411/out"], parallel = #sbp.parallel<[] -> [[#sbp.B]]>, scope_symbol_id = 205 : i64, shape = [320 : si64, 3 : si64, 3 : si64, 320 : si64]} : () -> tensor<320x3x3x320xf16>
    %output_14 = "oneflow.variable"() {data_type = 9 : i32, device_name = ["@0:0"], device_tag = "cuda", hierarchy = [1], op_name = "unet.down_blocks.0.resnets.0.conv2.bias", output_lbns = ["unet.down_blocks.0.resnets.0.conv2.bias/out"], parallel = #sbp.parallel<[] -> [[#sbp.B]]>, scope_symbol_id = 209 : i64, shape = [320 : si64]} : () -> tensor<320xf16>
    %output_15 = "oneflow.variable"() {data_type = 9 : i32, device_name = ["@0:0"], device_tag = "cuda", hierarchy = [1], op_name = "unet.down_blocks.0.attentions.0.norm.weight", output_lbns = ["unet.down_blocks.0.attentions.0.norm.weight/out"], parallel = #sbp.parallel<[] -> [[#sbp.B]]>, scope_symbol_id = 224 : i64, shape = [320 : si64]} : () -> tensor<320xf16>
    %output_16 = "oneflow.variable"() {data_type = 9 : i32, device_name = ["@0:0"], device_tag = "cuda", hierarchy = [1], op_name = "unet.down_blocks.0.attentions.0.norm.bias", output_lbns = ["unet.down_blocks.0.attentions.0.norm.bias/out"], parallel = #sbp.parallel<[] -> [[#sbp.B]]>, scope_symbol_id = 228 : i64, shape = [320 : si64]} : () -> tensor<320xf16>
    %output_17 = "oneflow.variable"() {data_type = 9 : i32, device_name = ["@0:0"], device_tag = "cuda", hierarchy = [1], op_name = "variable_410", output_lbns = ["variable_410/out"], parallel = #sbp.parallel<[] -> [[#sbp.B]]>, scope_symbol_id = 236 : i64, shape = [320 : si64, 1 : si64, 1 : si64, 320 : si64]} : () -> tensor<320x1x1x320xf16>
    %output_18 = "oneflow.variable"() {data_type = 9 : i32, device_name = ["@0:0"], device_tag = "cuda", hierarchy = [1], op_name = "unet.down_blocks.0.attentions.0.proj_in.bias", output_lbns = ["unet.down_blocks.0.attentions.0.proj_in.bias/out"], parallel = #sbp.parallel<[] -> [[#sbp.B]]>, scope_symbol_id = 240 : i64, shape = [320 : si64]} : () -> tensor<320xf16>
    %output_19 = "oneflow.variable"() {data_type = 9 : i32, device_name = ["@0:0"], device_tag = "cuda", hierarchy = [1], op_name = "unet.down_blocks.0.attentions.0.transformer_blocks.0.norm1.weight", output_lbns = ["unet.down_blocks.0.attentions.0.transformer_blocks.0.norm1.weight/out"], parallel = #sbp.parallel<[] -> [[#sbp.B]]>, scope_symbol_id = 255 : i64, shape = [320 : si64]} : () -> tensor<320xf16>
    %output_20 = "oneflow.variable"() {data_type = 9 : i32, device_name = ["@0:0"], device_tag = "cuda", hierarchy = [1], op_name = "unet.down_blocks.0.attentions.0.transformer_blocks.0.norm1.bias", output_lbns = ["unet.down_blocks.0.attentions.0.transformer_blocks.0.norm1.bias/out"], parallel = #sbp.parallel<[] -> [[#sbp.B]]>, scope_symbol_id = 259 : i64, shape = [320 : si64]} : () -> tensor<320xf16>
    %output_21 = "oneflow.variable"() {data_type = 9 : i32, device_name = ["@0:0"], device_tag = "cuda", hierarchy = [1], op_name = "unet.down_blocks.0.attentions.0.transformer_blocks.0.attn1.to_q.weight", output_lbns = ["unet.down_blocks.0.attentions.0.transformer_blocks.0.attn1.to_q.weight/out"], parallel = #sbp.parallel<[] -> [[#sbp.B]]>, scope_symbol_id = 268 : i64, shape = [320 : si64, 320 : si64]} : () -> tensor<320x320xf16>
    %output_22 = "oneflow.variable"() {data_type = 9 : i32, device_name = ["@0:0"], device_tag = "cuda", hierarchy = [1], op_name = "unet.down_blocks.0.attentions.0.transformer_blocks.0.attn1.to_k.weight", output_lbns = ["unet.down_blocks.0.attentions.0.transformer_blocks.0.attn1.to_k.weight/out"], parallel = #sbp.parallel<[] -> [[#sbp.B]]>, scope_symbol_id = 276 : i64, shape = [320 : si64, 320 : si64]} : () -> tensor<320x320xf16>
    %output_23 = "oneflow.variable"() {data_type = 9 : i32, device_name = ["@0:0"], device_tag = "cuda", hierarchy = [1], op_name = "unet.down_blocks.0.attentions.0.transformer_blocks.0.attn1.to_v.weight", output_lbns = ["unet.down_blocks.0.attentions.0.transformer_blocks.0.attn1.to_v.weight/out"], parallel = #sbp.parallel<[] -> [[#sbp.B]]>, scope_symbol_id = 284 : i64, shape = [320 : si64, 320 : si64]} : () -> tensor<320x320xf16>
    %output_24 = "oneflow.variable"() {data_type = 9 : i32, device_name = ["@0:0"], device_tag = "cuda", hierarchy = [1], op_name = "unet.down_blocks.0.attentions.0.transformer_blocks.0.attn1.to_out.0.weight", output_lbns = ["unet.down_blocks.0.attentions.0.transformer_blocks.0.attn1.to_out.0.weight/out"], parallel = #sbp.parallel<[] -> [[#sbp.B]]>, scope_symbol_id = 296 : i64, shape = [320 : si64, 320 : si64]} : () -> tensor<320x320xf16>
    %output_25 = "oneflow.variable"() {data_type = 9 : i32, device_name = ["@0:0"], device_tag = "cuda", hierarchy = [1], op_name = "unet.down_blocks.0.attentions.0.transformer_blocks.0.attn1.to_out.0.bias", output_lbns = ["unet.down_blocks.0.attentions.0.transformer_blocks.0.attn1.to_out.0.bias/out"], parallel = #sbp.parallel<[] -> [[#sbp.B]]>, scope_symbol_id = 303 : i64, shape = [320 : si64]} : () -> tensor<320xf16>
    %output_26 = "oneflow.variable"() {data_type = 9 : i32, device_name = ["@0:0"], device_tag = "cuda", hierarchy = [1], op_name = "unet.down_blocks.0.attentions.0.transformer_blocks.0.norm2.weight", output_lbns = ["unet.down_blocks.0.attentions.0.transformer_blocks.0.norm2.weight/out"], parallel = #sbp.parallel<[] -> [[#sbp.B]]>, scope_symbol_id = 315 : i64, shape = [320 : si64]} : () -> tensor<320xf16>
    %output_27 = "oneflow.variable"() {data_type = 9 : i32, device_name = ["@0:0"], device_tag = "cuda", hierarchy = [1], op_name = "unet.down_blocks.0.attentions.0.transformer_blocks.0.norm2.bias", output_lbns = ["unet.down_blocks.0.attentions.0.transformer_blocks.0.norm2.bias/out"], parallel = #sbp.parallel<[] -> [[#sbp.B]]>, scope_symbol_id = 319 : i64, shape = [320 : si64]} : () -> tensor<320xf16>
    %output_28 = "oneflow.variable"() {data_type = 9 : i32, device_name = ["@0:0"], device_tag = "cuda", hierarchy = [1], op_name = "unet.down_blocks.0.attentions.0.transformer_blocks.0.attn2.to_q.weight", output_lbns = ["unet.down_blocks.0.attentions.0.transformer_blocks.0.attn2.to_q.weight/out"], parallel = #sbp.parallel<[] -> [[#sbp.B]]>, scope_symbol_id = 328 : i64, shape = [320 : si64, 320 : si64]} : () -> tensor<320x320xf16>
    %output_29 = "oneflow.variable"() {data_type = 9 : i32, device_name = ["@0:0"], device_tag = "cuda", hierarchy = [1], op_name = "unet.down_blocks.0.attentions.0.transformer_blocks.0.attn2.to_k.weight", output_lbns = ["unet.down_blocks.0.attentions.0.transformer_blocks.0.attn2.to_k.weight/out"], parallel = #sbp.parallel<[] -> [[#sbp.B]]>, scope_symbol_id = 336 : i64, shape = [320 : si64, 768 : si64]} : () -> tensor<320x768xf16>
    %output_30 = "oneflow.variable"() {data_type = 9 : i32, device_name = ["@0:0"], device_tag = "cuda", hierarchy = [1], op_name = "unet.down_blocks.0.attentions.0.transformer_blocks.0.attn2.to_v.weight", output_lbns = ["unet.down_blocks.0.attentions.0.transformer_blocks.0.attn2.to_v.weight/out"], parallel = #sbp.parallel<[] -> [[#sbp.B]]>, scope_symbol_id = 344 : i64, shape = [320 : si64, 768 : si64]} : () -> tensor<320x768xf16>
    %output_31 = "oneflow.variable"() {data_type = 9 : i32, device_name = ["@0:0"], device_tag = "cuda", hierarchy = [1], op_name = "unet.down_blocks.0.attentions.0.transformer_blocks.0.attn2.to_out.0.weight", output_lbns = ["unet.down_blocks.0.attentions.0.transformer_blocks.0.attn2.to_out.0.weight/out"], parallel = #sbp.parallel<[] -> [[#sbp.B]]>, scope_symbol_id = 356 : i64, shape = [320 : si64, 320 : si64]} : () -> tensor<320x320xf16>
    %output_32 = "oneflow.variable"() {data_type = 9 : i32, device_name = ["@0:0"], device_tag = "cuda", hierarchy = [1], op_name = "unet.down_blocks.0.attentions.0.transformer_blocks.0.attn2.to_out.0.bias", output_lbns = ["unet.down_blocks.0.attentions.0.transformer_blocks.0.attn2.to_out.0.bias/out"], parallel = #sbp.parallel<[] -> [[#sbp.B]]>, scope_symbol_id = 363 : i64, shape = [320 : si64]} : () -> tensor<320xf16>
    %output_33 = "oneflow.variable"() {data_type = 9 : i32, device_name = ["@0:0"], device_tag = "cuda", hierarchy = [1], op_name = "unet.down_blocks.0.attentions.0.transformer_blocks.0.norm3.weight", output_lbns = ["unet.down_blocks.0.attentions.0.transformer_blocks.0.norm3.weight/out"], parallel = #sbp.parallel<[] -> [[#sbp.B]]>, scope_symbol_id = 375 : i64, shape = [320 : si64]} : () -> tensor<320xf16>
    %output_34 = "oneflow.variable"() {data_type = 9 : i32, device_name = ["@0:0"], device_tag = "cuda", hierarchy = [1], op_name = "unet.down_blocks.0.attentions.0.transformer_blocks.0.norm3.bias", output_lbns = ["unet.down_blocks.0.attentions.0.transformer_blocks.0.norm3.bias/out"], parallel = #sbp.parallel<[] -> [[#sbp.B]]>, scope_symbol_id = 379 : i64, shape = [320 : si64]} : () -> tensor<320xf16>
    %output_35 = "oneflow.variable"() {data_type = 9 : i32, device_name = ["@0:0"], device_tag = "cuda", hierarchy = [1], op_name = "unet.down_blocks.0.attentions.0.transformer_blocks.0.ff.net.0.proj.weight", output_lbns = ["unet.down_blocks.0.attentions.0.transformer_blocks.0.ff.net.0.proj.weight/out"], parallel = #sbp.parallel<[] -> [[#sbp.B]]>, scope_symbol_id = 390 : i64, shape = [2560 : si64, 320 : si64]} : () -> tensor<2560x320xf16>
    %output_36 = "oneflow.variable"() {data_type = 9 : i32, device_name = ["@0:0"], device_tag = "cuda", hierarchy = [1], op_name = "unet.down_blocks.0.attentions.0.transformer_blocks.0.ff.net.0.proj.bias", output_lbns = ["unet.down_blocks.0.attentions.0.transformer_blocks.0.ff.net.0.proj.bias/out"], parallel = #sbp.parallel<[] -> [[#sbp.B]]>, scope_symbol_id = 397 : i64, shape = [2560 : si64]} : () -> tensor<2560xf16>
    %output_37 = "oneflow.variable"() {data_type = 9 : i32, device_name = ["@0:0"], device_tag = "cuda", hierarchy = [1], op_name = "unet.down_blocks.0.attentions.0.transformer_blocks.0.ff.net.2.weight", output_lbns = ["unet.down_blocks.0.attentions.0.transformer_blocks.0.ff.net.2.weight/out"], parallel = #sbp.parallel<[] -> [[#sbp.B]]>, scope_symbol_id = 418 : i64, shape = [320 : si64, 1280 : si64]} : () -> tensor<320x1280xf16>
    %output_38 = "oneflow.variable"() {data_type = 9 : i32, device_name = ["@0:0"], device_tag = "cuda", hierarchy = [1], op_name = "unet.down_blocks.0.attentions.0.transformer_blocks.0.ff.net.2.bias", output_lbns = ["unet.down_blocks.0.attentions.0.transformer_blocks.0.ff.net.2.bias/out"], parallel = #sbp.parallel<[] -> [[#sbp.B]]>, scope_symbol_id = 425 : i64, shape = [320 : si64]} : () -> tensor<320xf16>
    %output_39 = "oneflow.variable"() {data_type = 9 : i32, device_name = ["@0:0"], device_tag = "cuda", hierarchy = [1], op_name = "variable_409", output_lbns = ["variable_409/out"], parallel = #sbp.parallel<[] -> [[#sbp.B]]>, scope_symbol_id = 442 : i64, shape = [320 : si64, 1 : si64, 1 : si64, 320 : si64]} : () -> tensor<320x1x1x320xf16>
    %output_40 = "oneflow.variable"() {data_type = 9 : i32, device_name = ["@0:0"], device_tag = "cuda", hierarchy = [1], op_name = "unet.down_blocks.0.attentions.0.proj_out.bias", output_lbns = ["unet.down_blocks.0.attentions.0.proj_out.bias/out"], parallel = #sbp.parallel<[] -> [[#sbp.B]]>, scope_symbol_id = 446 : i64, shape = [320 : si64]} : () -> tensor<320xf16>
    %output_41 = "oneflow.variable"() {data_type = 9 : i32, device_name = ["@0:0"], device_tag = "cuda", hierarchy = [1], op_name = "unet.down_blocks.0.resnets.1.norm1.weight", output_lbns = ["unet.down_blocks.0.resnets.1.norm1.weight/out"], parallel = #sbp.parallel<[] -> [[#sbp.B]]>, scope_symbol_id = 458 : i64, shape = [320 : si64]} : () -> tensor<320xf16>
    %output_42 = "oneflow.variable"() {data_type = 9 : i32, device_name = ["@0:0"], device_tag = "cuda", hierarchy = [1], op_name = "unet.down_blocks.0.resnets.1.norm1.bias", output_lbns = ["unet.down_blocks.0.resnets.1.norm1.bias/out"], parallel = #sbp.parallel<[] -> [[#sbp.B]]>, scope_symbol_id = 462 : i64, shape = [320 : si64]} : () -> tensor<320xf16>
    %output_43 = "oneflow.variable"() {data_type = 9 : i32, device_name = ["@0:0"], device_tag = "cuda", hierarchy = [1], op_name = "variable_408", output_lbns = ["variable_408/out"], parallel = #sbp.parallel<[] -> [[#sbp.B]]>, scope_symbol_id = 474 : i64, shape = [320 : si64, 3 : si64, 3 : si64, 320 : si64]} : () -> tensor<320x3x3x320xf16>
    %output_44 = "oneflow.variable"() {data_type = 9 : i32, device_name = ["@0:0"], device_tag = "cuda", hierarchy = [1], op_name = "unet.down_blocks.0.resnets.1.conv1.bias", output_lbns = ["unet.down_blocks.0.resnets.1.conv1.bias/out"], parallel = #sbp.parallel<[] -> [[#sbp.B]]>, scope_symbol_id = 478 : i64, shape = [320 : si64]} : () -> tensor<320xf16>
    %output_45 = "oneflow.variable"() {data_type = 9 : i32, device_name = ["@0:0"], device_tag = "cuda", hierarchy = [1], op_name = "unet.down_blocks.0.resnets.1.time_emb_proj.weight", output_lbns = ["unet.down_blocks.0.resnets.1.time_emb_proj.weight/out"], parallel = #sbp.parallel<[] -> [[#sbp.B]]>, scope_symbol_id = 489 : i64, shape = [320 : si64, 1280 : si64]} : () -> tensor<320x1280xf16>
    %output_46 = "oneflow.variable"() {data_type = 9 : i32, device_name = ["@0:0"], device_tag = "cuda", hierarchy = [1], op_name = "unet.down_blocks.0.resnets.1.time_emb_proj.bias", output_lbns = ["unet.down_blocks.0.resnets.1.time_emb_proj.bias/out"], parallel = #sbp.parallel<[] -> [[#sbp.B]]>, scope_symbol_id = 496 : i64, shape = [320 : si64]} : () -> tensor<320xf16>
    %output_47 = "oneflow.variable"() {data_type = 9 : i32, device_name = ["@0:0"], device_tag = "cuda", hierarchy = [1], op_name = "unet.down_blocks.0.resnets.1.norm2.weight", output_lbns = ["unet.down_blocks.0.resnets.1.norm2.weight/out"], parallel = #sbp.parallel<[] -> [[#sbp.B]]>, scope_symbol_id = 513 : i64, shape = [320 : si64]} : () -> tensor<320xf16>
    %output_48 = "oneflow.variable"() {data_type = 9 : i32, device_name = ["@0:0"], device_tag = "cuda", hierarchy = [1], op_name = "unet.down_blocks.0.resnets.1.norm2.bias", output_lbns = ["unet.down_blocks.0.resnets.1.norm2.bias/out"], parallel = #sbp.parallel<[] -> [[#sbp.B]]>, scope_symbol_id = 517 : i64, shape = [320 : si64]} : () -> tensor<320xf16>
    %output_49 = "oneflow.variable"() {data_type = 9 : i32, device_name = ["@0:0"], device_tag = "cuda", hierarchy = [1], op_name = "variable_407", output_lbns = ["variable_407/out"], parallel = #sbp.parallel<[] -> [[#sbp.B]]>, scope_symbol_id = 529 : i64, shape = [320 : si64, 3 : si64, 3 : si64, 320 : si64]} : () -> tensor<320x3x3x320xf16>
    %output_50 = "oneflow.variable"() {data_type = 9 : i32, device_name = ["@0:0"], device_tag = "cuda", hierarchy = [1], op_name = "unet.down_blocks.0.resnets.1.conv2.bias", output_lbns = ["unet.down_blocks.0.resnets.1.conv2.bias/out"], parallel = #sbp.parallel<[] -> [[#sbp.B]]>, scope_symbol_id = 533 : i64, shape = [320 : si64]} : () -> tensor<320xf16>
    %output_51 = "oneflow.variable"() {data_type = 9 : i32, device_name = ["@0:0"], device_tag = "cuda", hierarchy = [1], op_name = "unet.down_blocks.0.attentions.1.norm.weight", output_lbns = ["unet.down_blocks.0.attentions.1.norm.weight/out"], parallel = #sbp.parallel<[] -> [[#sbp.B]]>, scope_symbol_id = 548 : i64, shape = [320 : si64]} : () -> tensor<320xf16>
    %output_52 = "oneflow.variable"() {data_type = 9 : i32, device_name = ["@0:0"], device_tag = "cuda", hierarchy = [1], op_name = "unet.down_blocks.0.attentions.1.norm.bias", output_lbns = ["unet.down_blocks.0.attentions.1.norm.bias/out"], parallel = #sbp.parallel<[] -> [[#sbp.B]]>, scope_symbol_id = 552 : i64, shape = [320 : si64]} : () -> tensor<320xf16>
    %output_53 = "oneflow.variable"() {data_type = 9 : i32, device_name = ["@0:0"], device_tag = "cuda", hierarchy = [1], op_name = "variable_406", output_lbns = ["variable_406/out"], parallel = #sbp.parallel<[] -> [[#sbp.B]]>, scope_symbol_id = 560 : i64, shape = [320 : si64, 1 : si64, 1 : si64, 320 : si64]} : () -> tensor<320x1x1x320xf16>
    %output_54 = "oneflow.variable"() {data_type = 9 : i32, device_name = ["@0:0"], device_tag = "cuda", hierarchy = [1], op_name = "unet.down_blocks.0.attentions.1.proj_in.bias", output_lbns = ["unet.down_blocks.0.attentions.1.proj_in.bias/out"], parallel = #sbp.parallel<[] -> [[#sbp.B]]>, scope_symbol_id = 564 : i64, shape = [320 : si64]} : () -> tensor<320xf16>
    %output_55 = "oneflow.variable"() {data_type = 9 : i32, device_name = ["@0:0"], device_tag = "cuda", hierarchy = [1], op_name = "unet.down_blocks.0.attentions.1.transformer_blocks.0.norm1.weight", output_lbns = ["unet.down_blocks.0.attentions.1.transformer_blocks.0.norm1.weight/out"], parallel = #sbp.parallel<[] -> [[#sbp.B]]>, scope_symbol_id = 579 : i64, shape = [320 : si64]} : () -> tensor<320xf16>
    %output_56 = "oneflow.variable"() {data_type = 9 : i32, device_name = ["@0:0"], device_tag = "cuda", hierarchy = [1], op_name = "unet.down_blocks.0.attentions.1.transformer_blocks.0.norm1.bias", output_lbns = ["unet.down_blocks.0.attentions.1.transformer_blocks.0.norm1.bias/out"], parallel = #sbp.parallel<[] -> [[#sbp.B]]>, scope_symbol_id = 583 : i64, shape = [320 : si64]} : () -> tensor<320xf16>
    %output_57 = "oneflow.variable"() {data_type = 9 : i32, device_name = ["@0:0"], device_tag = "cuda", hierarchy = [1], op_name = "unet.down_blocks.0.attentions.1.transformer_blocks.0.attn1.to_q.weight", output_lbns = ["unet.down_blocks.0.attentions.1.transformer_blocks.0.attn1.to_q.weight/out"], parallel = #sbp.parallel<[] -> [[#sbp.B]]>, scope_symbol_id = 592 : i64, shape = [320 : si64, 320 : si64]} : () -> tensor<320x320xf16>
    %output_58 = "oneflow.variable"() {data_type = 9 : i32, device_name = ["@0:0"], device_tag = "cuda", hierarchy = [1], op_name = "unet.down_blocks.0.attentions.1.transformer_blocks.0.attn1.to_k.weight", output_lbns = ["unet.down_blocks.0.attentions.1.transformer_blocks.0.attn1.to_k.weight/out"], parallel = #sbp.parallel<[] -> [[#sbp.B]]>, scope_symbol_id = 600 : i64, shape = [320 : si64, 320 : si64]} : () -> tensor<320x320xf16>
    %output_59 = "oneflow.variable"() {data_type = 9 : i32, device_name = ["@0:0"], device_tag = "cuda", hierarchy = [1], op_name = "unet.down_blocks.0.attentions.1.transformer_blocks.0.attn1.to_v.weight", output_lbns = ["unet.down_blocks.0.attentions.1.transformer_blocks.0.attn1.to_v.weight/out"], parallel = #sbp.parallel<[] -> [[#sbp.B]]>, scope_symbol_id = 608 : i64, shape = [320 : si64, 320 : si64]} : () -> tensor<320x320xf16>
    %output_60 = "oneflow.variable"() {data_type = 9 : i32, device_name = ["@0:0"], device_tag = "cuda", hierarchy = [1], op_name = "unet.down_blocks.0.attentions.1.transformer_blocks.0.attn1.to_out.0.weight", output_lbns = ["unet.down_blocks.0.attentions.1.transformer_blocks.0.attn1.to_out.0.weight/out"], parallel = #sbp.parallel<[] -> [[#sbp.B]]>, scope_symbol_id = 620 : i64, shape = [320 : si64, 320 : si64]} : () -> tensor<320x320xf16>
    %output_61 = "oneflow.variable"() {data_type = 9 : i32, device_name = ["@0:0"], device_tag = "cuda", hierarchy = [1], op_name = "unet.down_blocks.0.attentions.1.transformer_blocks.0.attn1.to_out.0.bias", output_lbns = ["unet.down_blocks.0.attentions.1.transformer_blocks.0.attn1.to_out.0.bias/out"], parallel = #sbp.parallel<[] -> [[#sbp.B]]>, scope_symbol_id = 627 : i64, shape = [320 : si64]} : () -> tensor<320xf16>
    %output_62 = "oneflow.variable"() {data_type = 9 : i32, device_name = ["@0:0"], device_tag = "cuda", hierarchy = [1], op_name = "unet.down_blocks.0.attentions.1.transformer_blocks.0.norm2.weight", output_lbns = ["unet.down_blocks.0.attentions.1.transformer_blocks.0.norm2.weight/out"], parallel = #sbp.parallel<[] -> [[#sbp.B]]>, scope_symbol_id = 639 : i64, shape = [320 : si64]} : () -> tensor<320xf16>
    %output_63 = "oneflow.variable"() {data_type = 9 : i32, device_name = ["@0:0"], device_tag = "cuda", hierarchy = [1], op_name = "unet.down_blocks.0.attentions.1.transformer_blocks.0.norm2.bias", output_lbns = ["unet.down_blocks.0.attentions.1.transformer_blocks.0.norm2.bias/out"], parallel = #sbp.parallel<[] -> [[#sbp.B]]>, scope_symbol_id = 643 : i64, shape = [320 : si64]} : () -> tensor<320xf16>
    %output_64 = "oneflow.variable"() {data_type = 9 : i32, device_name = ["@0:0"], device_tag = "cuda", hierarchy = [1], op_name = "unet.down_blocks.0.attentions.1.transformer_blocks.0.attn2.to_q.weight", output_lbns = ["unet.down_blocks.0.attentions.1.transformer_blocks.0.attn2.to_q.weight/out"], parallel = #sbp.parallel<[] -> [[#sbp.B]]>, scope_symbol_id = 652 : i64, shape = [320 : si64, 320 : si64]} : () -> tensor<320x320xf16>
    %output_65 = "oneflow.variable"() {data_type = 9 : i32, device_name = ["@0:0"], device_tag = "cuda", hierarchy = [1], op_name = "unet.down_blocks.0.attentions.1.transformer_blocks.0.attn2.to_k.weight", output_lbns = ["unet.down_blocks.0.attentions.1.transformer_blocks.0.attn2.to_k.weight/out"], parallel = #sbp.parallel<[] -> [[#sbp.B]]>, scope_symbol_id = 660 : i64, shape = [320 : si64, 768 : si64]} : () -> tensor<320x768xf16>
    %output_66 = "oneflow.variable"() {data_type = 9 : i32, device_name = ["@0:0"], device_tag = "cuda", hierarchy = [1], op_name = "unet.down_blocks.0.attentions.1.transformer_blocks.0.attn2.to_v.weight", output_lbns = ["unet.down_blocks.0.attentions.1.transformer_blocks.0.attn2.to_v.weight/out"], parallel = #sbp.parallel<[] -> [[#sbp.B]]>, scope_symbol_id = 668 : i64, shape = [320 : si64, 768 : si64]} : () -> tensor<320x768xf16>
    %output_67 = "oneflow.variable"() {data_type = 9 : i32, device_name = ["@0:0"], device_tag = "cuda", hierarchy = [1], op_name = "unet.down_blocks.0.attentions.1.transformer_blocks.0.attn2.to_out.0.weight", output_lbns = ["unet.down_blocks.0.attentions.1.transformer_blocks.0.attn2.to_out.0.weight/out"], parallel = #sbp.parallel<[] -> [[#sbp.B]]>, scope_symbol_id = 680 : i64, shape = [320 : si64, 320 : si64]} : () -> tensor<320x320xf16>
    %output_68 = "oneflow.variable"() {data_type = 9 : i32, device_name = ["@0:0"], device_tag = "cuda", hierarchy = [1], op_name = "unet.down_blocks.0.attentions.1.transformer_blocks.0.attn2.to_out.0.bias", output_lbns = ["unet.down_blocks.0.attentions.1.transformer_blocks.0.attn2.to_out.0.bias/out"], parallel = #sbp.parallel<[] -> [[#sbp.B]]>, scope_symbol_id = 687 : i64, shape = [320 : si64]} : () -> tensor<320xf16>
    %output_69 = "oneflow.variable"() {data_type = 9 : i32, device_name = ["@0:0"], device_tag = "cuda", hierarchy = [1], op_name = "unet.down_blocks.0.attentions.1.transformer_blocks.0.norm3.weight", output_lbns = ["unet.down_blocks.0.attentions.1.transformer_blocks.0.norm3.weight/out"], parallel = #sbp.parallel<[] -> [[#sbp.B]]>, scope_symbol_id = 699 : i64, shape = [320 : si64]} : () -> tensor<320xf16>
    %output_70 = "oneflow.variable"() {data_type = 9 : i32, device_name = ["@0:0"], device_tag = "cuda", hierarchy = [1], op_name = "unet.down_blocks.0.attentions.1.transformer_blocks.0.norm3.bias", output_lbns = ["unet.down_blocks.0.attentions.1.transformer_blocks.0.norm3.bias/out"], parallel = #sbp.parallel<[] -> [[#sbp.B]]>, scope_symbol_id = 703 : i64, shape = [320 : si64]} : () -> tensor<320xf16>
    %output_71 = "oneflow.variable"() {data_type = 9 : i32, device_name = ["@0:0"], device_tag = "cuda", hierarchy = [1], op_name = "unet.down_blocks.0.attentions.1.transformer_blocks.0.ff.net.0.proj.weight", output_lbns = ["unet.down_blocks.0.attentions.1.transformer_blocks.0.ff.net.0.proj.weight/out"], parallel = #sbp.parallel<[] -> [[#sbp.B]]>, scope_symbol_id = 714 : i64, shape = [2560 : si64, 320 : si64]} : () -> tensor<2560x320xf16>
    %output_72 = "oneflow.variable"() {data_type = 9 : i32, device_name = ["@0:0"], device_tag = "cuda", hierarchy = [1], op_name = "unet.down_blocks.0.attentions.1.transformer_blocks.0.ff.net.0.proj.bias", output_lbns = ["unet.down_blocks.0.attentions.1.transformer_blocks.0.ff.net.0.proj.bias/out"], parallel = #sbp.parallel<[] -> [[#sbp.B]]>, scope_symbol_id = 721 : i64, shape = [2560 : si64]} : () -> tensor<2560xf16>
    %output_73 = "oneflow.variable"() {data_type = 9 : i32, device_name = ["@0:0"], device_tag = "cuda", hierarchy = [1], op_name = "unet.down_blocks.0.attentions.1.transformer_blocks.0.ff.net.2.weight", output_lbns = ["unet.down_blocks.0.attentions.1.transformer_blocks.0.ff.net.2.weight/out"], parallel = #sbp.parallel<[] -> [[#sbp.B]]>, scope_symbol_id = 742 : i64, shape = [320 : si64, 1280 : si64]} : () -> tensor<320x1280xf16>
    %output_74 = "oneflow.variable"() {data_type = 9 : i32, device_name = ["@0:0"], device_tag = "cuda", hierarchy = [1], op_name = "unet.down_blocks.0.attentions.1.transformer_blocks.0.ff.net.2.bias", output_lbns = ["unet.down_blocks.0.attentions.1.transformer_blocks.0.ff.net.2.bias/out"], parallel = #sbp.parallel<[] -> [[#sbp.B]]>, scope_symbol_id = 749 : i64, shape = [320 : si64]} : () -> tensor<320xf16>
    %output_75 = "oneflow.variable"() {data_type = 9 : i32, device_name = ["@0:0"], device_tag = "cuda", hierarchy = [1], op_name = "variable_405", output_lbns = ["variable_405/out"], parallel = #sbp.parallel<[] -> [[#sbp.B]]>, scope_symbol_id = 766 : i64, shape = [320 : si64, 1 : si64, 1 : si64, 320 : si64]} : () -> tensor<320x1x1x320xf16>
    %output_76 = "oneflow.variable"() {data_type = 9 : i32, device_name = ["@0:0"], device_tag = "cuda", hierarchy = [1], op_name = "unet.down_blocks.0.attentions.1.proj_out.bias", output_lbns = ["unet.down_blocks.0.attentions.1.proj_out.bias/out"], parallel = #sbp.parallel<[] -> [[#sbp.B]]>, scope_symbol_id = 770 : i64, shape = [320 : si64]} : () -> tensor<320xf16>
    %output_77 = "oneflow.variable"() {data_type = 9 : i32, device_name = ["@0:0"], device_tag = "cuda", hierarchy = [1], op_name = "variable_404", output_lbns = ["variable_404/out"], parallel = #sbp.parallel<[] -> [[#sbp.B]]>, scope_symbol_id = 782 : i64, shape = [320 : si64, 3 : si64, 3 : si64, 320 : si64]} : () -> tensor<320x3x3x320xf16>
    %output_78 = "oneflow.variable"() {data_type = 9 : i32, device_name = ["@0:0"], device_tag = "cuda", hierarchy = [1], op_name = "unet.down_blocks.0.downsamplers.0.conv.bias", output_lbns = ["unet.down_blocks.0.downsamplers.0.conv.bias/out"], parallel = #sbp.parallel<[] -> [[#sbp.B]]>, scope_symbol_id = 786 : i64, shape = [320 : si64]} : () -> tensor<320xf16>
    %output_79 = "oneflow.variable"() {data_type = 9 : i32, device_name = ["@0:0"], device_tag = "cuda", hierarchy = [1], op_name = "unet.down_blocks.1.resnets.0.norm1.weight", output_lbns = ["unet.down_blocks.1.resnets.0.norm1.weight/out"], parallel = #sbp.parallel<[] -> [[#sbp.B]]>, scope_symbol_id = 796 : i64, shape = [320 : si64]} : () -> tensor<320xf16>
    %output_80 = "oneflow.variable"() {data_type = 9 : i32, device_name = ["@0:0"], device_tag = "cuda", hierarchy = [1], op_name = "unet.down_blocks.1.resnets.0.norm1.bias", output_lbns = ["unet.down_blocks.1.resnets.0.norm1.bias/out"], parallel = #sbp.parallel<[] -> [[#sbp.B]]>, scope_symbol_id = 800 : i64, shape = [320 : si64]} : () -> tensor<320xf16>
    %output_81 = "oneflow.variable"() {data_type = 9 : i32, device_name = ["@0:0"], device_tag = "cuda", hierarchy = [1], op_name = "variable_403", output_lbns = ["variable_403/out"], parallel = #sbp.parallel<[] -> [[#sbp.B]]>, scope_symbol_id = 812 : i64, shape = [640 : si64, 3 : si64, 3 : si64, 320 : si64]} : () -> tensor<640x3x3x320xf16>
    %output_82 = "oneflow.variable"() {data_type = 9 : i32, device_name = ["@0:0"], device_tag = "cuda", hierarchy = [1], op_name = "unet.down_blocks.1.resnets.0.conv1.bias", output_lbns = ["unet.down_blocks.1.resnets.0.conv1.bias/out"], parallel = #sbp.parallel<[] -> [[#sbp.B]]>, scope_symbol_id = 816 : i64, shape = [640 : si64]} : () -> tensor<640xf16>
    %output_83 = "oneflow.variable"() {data_type = 9 : i32, device_name = ["@0:0"], device_tag = "cuda", hierarchy = [1], op_name = "unet.down_blocks.1.resnets.0.time_emb_proj.weight", output_lbns = ["unet.down_blocks.1.resnets.0.time_emb_proj.weight/out"], parallel = #sbp.parallel<[] -> [[#sbp.B]]>, scope_symbol_id = 827 : i64, shape = [640 : si64, 1280 : si64]} : () -> tensor<640x1280xf16>
    %output_84 = "oneflow.variable"() {data_type = 9 : i32, device_name = ["@0:0"], device_tag = "cuda", hierarchy = [1], op_name = "unet.down_blocks.1.resnets.0.time_emb_proj.bias", output_lbns = ["unet.down_blocks.1.resnets.0.time_emb_proj.bias/out"], parallel = #sbp.parallel<[] -> [[#sbp.B]]>, scope_symbol_id = 834 : i64, shape = [640 : si64]} : () -> tensor<640xf16>
    %output_85 = "oneflow.variable"() {data_type = 9 : i32, device_name = ["@0:0"], device_tag = "cuda", hierarchy = [1], op_name = "unet.down_blocks.1.resnets.0.norm2.weight", output_lbns = ["unet.down_blocks.1.resnets.0.norm2.weight/out"], parallel = #sbp.parallel<[] -> [[#sbp.B]]>, scope_symbol_id = 851 : i64, shape = [640 : si64]} : () -> tensor<640xf16>
    %output_86 = "oneflow.variable"() {data_type = 9 : i32, device_name = ["@0:0"], device_tag = "cuda", hierarchy = [1], op_name = "unet.down_blocks.1.resnets.0.norm2.bias", output_lbns = ["unet.down_blocks.1.resnets.0.norm2.bias/out"], parallel = #sbp.parallel<[] -> [[#sbp.B]]>, scope_symbol_id = 855 : i64, shape = [640 : si64]} : () -> tensor<640xf16>
    %output_87 = "oneflow.variable"() {data_type = 9 : i32, device_name = ["@0:0"], device_tag = "cuda", hierarchy = [1], op_name = "variable_402", output_lbns = ["variable_402/out"], parallel = #sbp.parallel<[] -> [[#sbp.B]]>, scope_symbol_id = 867 : i64, shape = [640 : si64, 3 : si64, 3 : si64, 640 : si64]} : () -> tensor<640x3x3x640xf16>
    %output_88 = "oneflow.variable"() {data_type = 9 : i32, device_name = ["@0:0"], device_tag = "cuda", hierarchy = [1], op_name = "unet.down_blocks.1.resnets.0.conv2.bias", output_lbns = ["unet.down_blocks.1.resnets.0.conv2.bias/out"], parallel = #sbp.parallel<[] -> [[#sbp.B]]>, scope_symbol_id = 871 : i64, shape = [640 : si64]} : () -> tensor<640xf16>
    %output_89 = "oneflow.variable"() {data_type = 9 : i32, device_name = ["@0:0"], device_tag = "cuda", hierarchy = [1], op_name = "variable_401", output_lbns = ["variable_401/out"], parallel = #sbp.parallel<[] -> [[#sbp.B]]>, scope_symbol_id = 879 : i64, shape = [640 : si64, 1 : si64, 1 : si64, 320 : si64]} : () -> tensor<640x1x1x320xf16>
    %output_90 = "oneflow.variable"() {data_type = 9 : i32, device_name = ["@0:0"], device_tag = "cuda", hierarchy = [1], op_name = "unet.down_blocks.1.resnets.0.conv_shortcut.bias", output_lbns = ["unet.down_blocks.1.resnets.0.conv_shortcut.bias/out"], parallel = #sbp.parallel<[] -> [[#sbp.B]]>, scope_symbol_id = 883 : i64, shape = [640 : si64]} : () -> tensor<640xf16>
    %output_91 = "oneflow.variable"() {data_type = 9 : i32, device_name = ["@0:0"], device_tag = "cuda", hierarchy = [1], op_name = "unet.down_blocks.1.attentions.0.norm.weight", output_lbns = ["unet.down_blocks.1.attentions.0.norm.weight/out"], parallel = #sbp.parallel<[] -> [[#sbp.B]]>, scope_symbol_id = 898 : i64, shape = [640 : si64]} : () -> tensor<640xf16>
    %output_92 = "oneflow.variable"() {data_type = 9 : i32, device_name = ["@0:0"], device_tag = "cuda", hierarchy = [1], op_name = "unet.down_blocks.1.attentions.0.norm.bias", output_lbns = ["unet.down_blocks.1.attentions.0.norm.bias/out"], parallel = #sbp.parallel<[] -> [[#sbp.B]]>, scope_symbol_id = 902 : i64, shape = [640 : si64]} : () -> tensor<640xf16>
    %output_93 = "oneflow.variable"() {data_type = 9 : i32, device_name = ["@0:0"], device_tag = "cuda", hierarchy = [1], op_name = "variable_400", output_lbns = ["variable_400/out"], parallel = #sbp.parallel<[] -> [[#sbp.B]]>, scope_symbol_id = 910 : i64, shape = [640 : si64, 1 : si64, 1 : si64, 640 : si64]} : () -> tensor<640x1x1x640xf16>
    %output_94 = "oneflow.variable"() {data_type = 9 : i32, device_name = ["@0:0"], device_tag = "cuda", hierarchy = [1], op_name = "unet.down_blocks.1.attentions.0.proj_in.bias", output_lbns = ["unet.down_blocks.1.attentions.0.proj_in.bias/out"], parallel = #sbp.parallel<[] -> [[#sbp.B]]>, scope_symbol_id = 914 : i64, shape = [640 : si64]} : () -> tensor<640xf16>
    %output_95 = "oneflow.variable"() {data_type = 9 : i32, device_name = ["@0:0"], device_tag = "cuda", hierarchy = [1], op_name = "unet.down_blocks.1.attentions.0.transformer_blocks.0.norm1.weight", output_lbns = ["unet.down_blocks.1.attentions.0.transformer_blocks.0.norm1.weight/out"], parallel = #sbp.parallel<[] -> [[#sbp.B]]>, scope_symbol_id = 929 : i64, shape = [640 : si64]} : () -> tensor<640xf16>
    %output_96 = "oneflow.variable"() {data_type = 9 : i32, device_name = ["@0:0"], device_tag = "cuda", hierarchy = [1], op_name = "unet.down_blocks.1.attentions.0.transformer_blocks.0.norm1.bias", output_lbns = ["unet.down_blocks.1.attentions.0.transformer_blocks.0.norm1.bias/out"], parallel = #sbp.parallel<[] -> [[#sbp.B]]>, scope_symbol_id = 933 : i64, shape = [640 : si64]} : () -> tensor<640xf16>
    %output_97 = "oneflow.variable"() {data_type = 9 : i32, device_name = ["@0:0"], device_tag = "cuda", hierarchy = [1], op_name = "unet.down_blocks.1.attentions.0.transformer_blocks.0.attn1.to_q.weight", output_lbns = ["unet.down_blocks.1.attentions.0.transformer_blocks.0.attn1.to_q.weight/out"], parallel = #sbp.parallel<[] -> [[#sbp.B]]>, scope_symbol_id = 942 : i64, shape = [640 : si64, 640 : si64]} : () -> tensor<640x640xf16>
    %output_98 = "oneflow.variable"() {data_type = 9 : i32, device_name = ["@0:0"], device_tag = "cuda", hierarchy = [1], op_name = "unet.down_blocks.1.attentions.0.transformer_blocks.0.attn1.to_k.weight", output_lbns = ["unet.down_blocks.1.attentions.0.transformer_blocks.0.attn1.to_k.weight/out"], parallel = #sbp.parallel<[] -> [[#sbp.B]]>, scope_symbol_id = 950 : i64, shape = [640 : si64, 640 : si64]} : () -> tensor<640x640xf16>
    %output_99 = "oneflow.variable"() {data_type = 9 : i32, device_name = ["@0:0"], device_tag = "cuda", hierarchy = [1], op_name = "unet.down_blocks.1.attentions.0.transformer_blocks.0.attn1.to_v.weight", output_lbns = ["unet.down_blocks.1.attentions.0.transformer_blocks.0.attn1.to_v.weight/out"], parallel = #sbp.parallel<[] -> [[#sbp.B]]>, scope_symbol_id = 958 : i64, shape = [640 : si64, 640 : si64]} : () -> tensor<640x640xf16>
    %output_100 = "oneflow.variable"() {data_type = 9 : i32, device_name = ["@0:0"], device_tag = "cuda", hierarchy = [1], op_name = "unet.down_blocks.1.attentions.0.transformer_blocks.0.attn1.to_out.0.weight", output_lbns = ["unet.down_blocks.1.attentions.0.transformer_blocks.0.attn1.to_out.0.weight/out"], parallel = #sbp.parallel<[] -> [[#sbp.B]]>, scope_symbol_id = 970 : i64, shape = [640 : si64, 640 : si64]} : () -> tensor<640x640xf16>
    %output_101 = "oneflow.variable"() {data_type = 9 : i32, device_name = ["@0:0"], device_tag = "cuda", hierarchy = [1], op_name = "unet.down_blocks.1.attentions.0.transformer_blocks.0.attn1.to_out.0.bias", output_lbns = ["unet.down_blocks.1.attentions.0.transformer_blocks.0.attn1.to_out.0.bias/out"], parallel = #sbp.parallel<[] -> [[#sbp.B]]>, scope_symbol_id = 977 : i64, shape = [640 : si64]} : () -> tensor<640xf16>
    %output_102 = "oneflow.variable"() {data_type = 9 : i32, device_name = ["@0:0"], device_tag = "cuda", hierarchy = [1], op_name = "unet.down_blocks.1.attentions.0.transformer_blocks.0.norm2.weight", output_lbns = ["unet.down_blocks.1.attentions.0.transformer_blocks.0.norm2.weight/out"], parallel = #sbp.parallel<[] -> [[#sbp.B]]>, scope_symbol_id = 989 : i64, shape = [640 : si64]} : () -> tensor<640xf16>
    %output_103 = "oneflow.variable"() {data_type = 9 : i32, device_name = ["@0:0"], device_tag = "cuda", hierarchy = [1], op_name = "unet.down_blocks.1.attentions.0.transformer_blocks.0.norm2.bias", output_lbns = ["unet.down_blocks.1.attentions.0.transformer_blocks.0.norm2.bias/out"], parallel = #sbp.parallel<[] -> [[#sbp.B]]>, scope_symbol_id = 993 : i64, shape = [640 : si64]} : () -> tensor<640xf16>
    %output_104 = "oneflow.variable"() {data_type = 9 : i32, device_name = ["@0:0"], device_tag = "cuda", hierarchy = [1], op_name = "unet.down_blocks.1.attentions.0.transformer_blocks.0.attn2.to_q.weight", output_lbns = ["unet.down_blocks.1.attentions.0.transformer_blocks.0.attn2.to_q.weight/out"], parallel = #sbp.parallel<[] -> [[#sbp.B]]>, scope_symbol_id = 1002 : i64, shape = [640 : si64, 640 : si64]} : () -> tensor<640x640xf16>
    %output_105 = "oneflow.variable"() {data_type = 9 : i32, device_name = ["@0:0"], device_tag = "cuda", hierarchy = [1], op_name = "unet.down_blocks.1.attentions.0.transformer_blocks.0.attn2.to_k.weight", output_lbns = ["unet.down_blocks.1.attentions.0.transformer_blocks.0.attn2.to_k.weight/out"], parallel = #sbp.parallel<[] -> [[#sbp.B]]>, scope_symbol_id = 1010 : i64, shape = [640 : si64, 768 : si64]} : () -> tensor<640x768xf16>
    %output_106 = "oneflow.variable"() {data_type = 9 : i32, device_name = ["@0:0"], device_tag = "cuda", hierarchy = [1], op_name = "unet.down_blocks.1.attentions.0.transformer_blocks.0.attn2.to_v.weight", output_lbns = ["unet.down_blocks.1.attentions.0.transformer_blocks.0.attn2.to_v.weight/out"], parallel = #sbp.parallel<[] -> [[#sbp.B]]>, scope_symbol_id = 1018 : i64, shape = [640 : si64, 768 : si64]} : () -> tensor<640x768xf16>
    %output_107 = "oneflow.variable"() {data_type = 9 : i32, device_name = ["@0:0"], device_tag = "cuda", hierarchy = [1], op_name = "unet.down_blocks.1.attentions.0.transformer_blocks.0.attn2.to_out.0.weight", output_lbns = ["unet.down_blocks.1.attentions.0.transformer_blocks.0.attn2.to_out.0.weight/out"], parallel = #sbp.parallel<[] -> [[#sbp.B]]>, scope_symbol_id = 1030 : i64, shape = [640 : si64, 640 : si64]} : () -> tensor<640x640xf16>
    %output_108 = "oneflow.variable"() {data_type = 9 : i32, device_name = ["@0:0"], device_tag = "cuda", hierarchy = [1], op_name = "unet.down_blocks.1.attentions.0.transformer_blocks.0.attn2.to_out.0.bias", output_lbns = ["unet.down_blocks.1.attentions.0.transformer_blocks.0.attn2.to_out.0.bias/out"], parallel = #sbp.parallel<[] -> [[#sbp.B]]>, scope_symbol_id = 1037 : i64, shape = [640 : si64]} : () -> tensor<640xf16>
    %output_109 = "oneflow.variable"() {data_type = 9 : i32, device_name = ["@0:0"], device_tag = "cuda", hierarchy = [1], op_name = "unet.down_blocks.1.attentions.0.transformer_blocks.0.norm3.weight", output_lbns = ["unet.down_blocks.1.attentions.0.transformer_blocks.0.norm3.weight/out"], parallel = #sbp.parallel<[] -> [[#sbp.B]]>, scope_symbol_id = 1049 : i64, shape = [640 : si64]} : () -> tensor<640xf16>
    %output_110 = "oneflow.variable"() {data_type = 9 : i32, device_name = ["@0:0"], device_tag = "cuda", hierarchy = [1], op_name = "unet.down_blocks.1.attentions.0.transformer_blocks.0.norm3.bias", output_lbns = ["unet.down_blocks.1.attentions.0.transformer_blocks.0.norm3.bias/out"], parallel = #sbp.parallel<[] -> [[#sbp.B]]>, scope_symbol_id = 1053 : i64, shape = [640 : si64]} : () -> tensor<640xf16>
    %output_111 = "oneflow.variable"() {data_type = 9 : i32, device_name = ["@0:0"], device_tag = "cuda", hierarchy = [1], op_name = "unet.down_blocks.1.attentions.0.transformer_blocks.0.ff.net.0.proj.weight", output_lbns = ["unet.down_blocks.1.attentions.0.transformer_blocks.0.ff.net.0.proj.weight/out"], parallel = #sbp.parallel<[] -> [[#sbp.B]]>, scope_symbol_id = 1064 : i64, shape = [5120 : si64, 640 : si64]} : () -> tensor<5120x640xf16>
    %output_112 = "oneflow.variable"() {data_type = 9 : i32, device_name = ["@0:0"], device_tag = "cuda", hierarchy = [1], op_name = "unet.down_blocks.1.attentions.0.transformer_blocks.0.ff.net.0.proj.bias", output_lbns = ["unet.down_blocks.1.attentions.0.transformer_blocks.0.ff.net.0.proj.bias/out"], parallel = #sbp.parallel<[] -> [[#sbp.B]]>, scope_symbol_id = 1071 : i64, shape = [5120 : si64]} : () -> tensor<5120xf16>
    %output_113 = "oneflow.variable"() {data_type = 9 : i32, device_name = ["@0:0"], device_tag = "cuda", hierarchy = [1], op_name = "unet.down_blocks.1.attentions.0.transformer_blocks.0.ff.net.2.weight", output_lbns = ["unet.down_blocks.1.attentions.0.transformer_blocks.0.ff.net.2.weight/out"], parallel = #sbp.parallel<[] -> [[#sbp.B]]>, scope_symbol_id = 1092 : i64, shape = [640 : si64, 2560 : si64]} : () -> tensor<640x2560xf16>
    %output_114 = "oneflow.variable"() {data_type = 9 : i32, device_name = ["@0:0"], device_tag = "cuda", hierarchy = [1], op_name = "unet.down_blocks.1.attentions.0.transformer_blocks.0.ff.net.2.bias", output_lbns = ["unet.down_blocks.1.attentions.0.transformer_blocks.0.ff.net.2.bias/out"], parallel = #sbp.parallel<[] -> [[#sbp.B]]>, scope_symbol_id = 1099 : i64, shape = [640 : si64]} : () -> tensor<640xf16>
    %output_115 = "oneflow.variable"() {data_type = 9 : i32, device_name = ["@0:0"], device_tag = "cuda", hierarchy = [1], op_name = "variable_399", output_lbns = ["variable_399/out"], parallel = #sbp.parallel<[] -> [[#sbp.B]]>, scope_symbol_id = 1116 : i64, shape = [640 : si64, 1 : si64, 1 : si64, 640 : si64]} : () -> tensor<640x1x1x640xf16>
    %output_116 = "oneflow.variable"() {data_type = 9 : i32, device_name = ["@0:0"], device_tag = "cuda", hierarchy = [1], op_name = "unet.down_blocks.1.attentions.0.proj_out.bias", output_lbns = ["unet.down_blocks.1.attentions.0.proj_out.bias/out"], parallel = #sbp.parallel<[] -> [[#sbp.B]]>, scope_symbol_id = 1120 : i64, shape = [640 : si64]} : () -> tensor<640xf16>
    %output_117 = "oneflow.variable"() {data_type = 9 : i32, device_name = ["@0:0"], device_tag = "cuda", hierarchy = [1], op_name = "unet.down_blocks.1.resnets.1.norm1.weight", output_lbns = ["unet.down_blocks.1.resnets.1.norm1.weight/out"], parallel = #sbp.parallel<[] -> [[#sbp.B]]>, scope_symbol_id = 1132 : i64, shape = [640 : si64]} : () -> tensor<640xf16>
    %output_118 = "oneflow.variable"() {data_type = 9 : i32, device_name = ["@0:0"], device_tag = "cuda", hierarchy = [1], op_name = "unet.down_blocks.1.resnets.1.norm1.bias", output_lbns = ["unet.down_blocks.1.resnets.1.norm1.bias/out"], parallel = #sbp.parallel<[] -> [[#sbp.B]]>, scope_symbol_id = 1136 : i64, shape = [640 : si64]} : () -> tensor<640xf16>
    %output_119 = "oneflow.variable"() {data_type = 9 : i32, device_name = ["@0:0"], device_tag = "cuda", hierarchy = [1], op_name = "variable_398", output_lbns = ["variable_398/out"], parallel = #sbp.parallel<[] -> [[#sbp.B]]>, scope_symbol_id = 1148 : i64, shape = [640 : si64, 3 : si64, 3 : si64, 640 : si64]} : () -> tensor<640x3x3x640xf16>
    %output_120 = "oneflow.variable"() {data_type = 9 : i32, device_name = ["@0:0"], device_tag = "cuda", hierarchy = [1], op_name = "unet.down_blocks.1.resnets.1.conv1.bias", output_lbns = ["unet.down_blocks.1.resnets.1.conv1.bias/out"], parallel = #sbp.parallel<[] -> [[#sbp.B]]>, scope_symbol_id = 1152 : i64, shape = [640 : si64]} : () -> tensor<640xf16>
    %output_121 = "oneflow.variable"() {data_type = 9 : i32, device_name = ["@0:0"], device_tag = "cuda", hierarchy = [1], op_name = "unet.down_blocks.1.resnets.1.time_emb_proj.weight", output_lbns = ["unet.down_blocks.1.resnets.1.time_emb_proj.weight/out"], parallel = #sbp.parallel<[] -> [[#sbp.B]]>, scope_symbol_id = 1163 : i64, shape = [640 : si64, 1280 : si64]} : () -> tensor<640x1280xf16>
    %output_122 = "oneflow.variable"() {data_type = 9 : i32, device_name = ["@0:0"], device_tag = "cuda", hierarchy = [1], op_name = "unet.down_blocks.1.resnets.1.time_emb_proj.bias", output_lbns = ["unet.down_blocks.1.resnets.1.time_emb_proj.bias/out"], parallel = #sbp.parallel<[] -> [[#sbp.B]]>, scope_symbol_id = 1170 : i64, shape = [640 : si64]} : () -> tensor<640xf16>
    %output_123 = "oneflow.variable"() {data_type = 9 : i32, device_name = ["@0:0"], device_tag = "cuda", hierarchy = [1], op_name = "unet.down_blocks.1.resnets.1.norm2.weight", output_lbns = ["unet.down_blocks.1.resnets.1.norm2.weight/out"], parallel = #sbp.parallel<[] -> [[#sbp.B]]>, scope_symbol_id = 1187 : i64, shape = [640 : si64]} : () -> tensor<640xf16>
    %output_124 = "oneflow.variable"() {data_type = 9 : i32, device_name = ["@0:0"], device_tag = "cuda", hierarchy = [1], op_name = "unet.down_blocks.1.resnets.1.norm2.bias", output_lbns = ["unet.down_blocks.1.resnets.1.norm2.bias/out"], parallel = #sbp.parallel<[] -> [[#sbp.B]]>, scope_symbol_id = 1191 : i64, shape = [640 : si64]} : () -> tensor<640xf16>
    %output_125 = "oneflow.variable"() {data_type = 9 : i32, device_name = ["@0:0"], device_tag = "cuda", hierarchy = [1], op_name = "variable_397", output_lbns = ["variable_397/out"], parallel = #sbp.parallel<[] -> [[#sbp.B]]>, scope_symbol_id = 1203 : i64, shape = [640 : si64, 3 : si64, 3 : si64, 640 : si64]} : () -> tensor<640x3x3x640xf16>
    %output_126 = "oneflow.variable"() {data_type = 9 : i32, device_name = ["@0:0"], device_tag = "cuda", hierarchy = [1], op_name = "unet.down_blocks.1.resnets.1.conv2.bias", output_lbns = ["unet.down_blocks.1.resnets.1.conv2.bias/out"], parallel = #sbp.parallel<[] -> [[#sbp.B]]>, scope_symbol_id = 1207 : i64, shape = [640 : si64]} : () -> tensor<640xf16>
    %output_127 = "oneflow.variable"() {data_type = 9 : i32, device_name = ["@0:0"], device_tag = "cuda", hierarchy = [1], op_name = "unet.down_blocks.1.attentions.1.norm.weight", output_lbns = ["unet.down_blocks.1.attentions.1.norm.weight/out"], parallel = #sbp.parallel<[] -> [[#sbp.B]]>, scope_symbol_id = 1222 : i64, shape = [640 : si64]} : () -> tensor<640xf16>
    %output_128 = "oneflow.variable"() {data_type = 9 : i32, device_name = ["@0:0"], device_tag = "cuda", hierarchy = [1], op_name = "unet.down_blocks.1.attentions.1.norm.bias", output_lbns = ["unet.down_blocks.1.attentions.1.norm.bias/out"], parallel = #sbp.parallel<[] -> [[#sbp.B]]>, scope_symbol_id = 1226 : i64, shape = [640 : si64]} : () -> tensor<640xf16>
    %output_129 = "oneflow.variable"() {data_type = 9 : i32, device_name = ["@0:0"], device_tag = "cuda", hierarchy = [1], op_name = "variable_396", output_lbns = ["variable_396/out"], parallel = #sbp.parallel<[] -> [[#sbp.B]]>, scope_symbol_id = 1234 : i64, shape = [640 : si64, 1 : si64, 1 : si64, 640 : si64]} : () -> tensor<640x1x1x640xf16>
    %output_130 = "oneflow.variable"() {data_type = 9 : i32, device_name = ["@0:0"], device_tag = "cuda", hierarchy = [1], op_name = "unet.down_blocks.1.attentions.1.proj_in.bias", output_lbns = ["unet.down_blocks.1.attentions.1.proj_in.bias/out"], parallel = #sbp.parallel<[] -> [[#sbp.B]]>, scope_symbol_id = 1238 : i64, shape = [640 : si64]} : () -> tensor<640xf16>
    %output_131 = "oneflow.variable"() {data_type = 9 : i32, device_name = ["@0:0"], device_tag = "cuda", hierarchy = [1], op_name = "unet.down_blocks.1.attentions.1.transformer_blocks.0.norm1.weight", output_lbns = ["unet.down_blocks.1.attentions.1.transformer_blocks.0.norm1.weight/out"], parallel = #sbp.parallel<[] -> [[#sbp.B]]>, scope_symbol_id = 1253 : i64, shape = [640 : si64]} : () -> tensor<640xf16>
    %output_132 = "oneflow.variable"() {data_type = 9 : i32, device_name = ["@0:0"], device_tag = "cuda", hierarchy = [1], op_name = "unet.down_blocks.1.attentions.1.transformer_blocks.0.norm1.bias", output_lbns = ["unet.down_blocks.1.attentions.1.transformer_blocks.0.norm1.bias/out"], parallel = #sbp.parallel<[] -> [[#sbp.B]]>, scope_symbol_id = 1257 : i64, shape = [640 : si64]} : () -> tensor<640xf16>
    %output_133 = "oneflow.variable"() {data_type = 9 : i32, device_name = ["@0:0"], device_tag = "cuda", hierarchy = [1], op_name = "unet.down_blocks.1.attentions.1.transformer_blocks.0.attn1.to_q.weight", output_lbns = ["unet.down_blocks.1.attentions.1.transformer_blocks.0.attn1.to_q.weight/out"], parallel = #sbp.parallel<[] -> [[#sbp.B]]>, scope_symbol_id = 1266 : i64, shape = [640 : si64, 640 : si64]} : () -> tensor<640x640xf16>
    %output_134 = "oneflow.variable"() {data_type = 9 : i32, device_name = ["@0:0"], device_tag = "cuda", hierarchy = [1], op_name = "unet.down_blocks.1.attentions.1.transformer_blocks.0.attn1.to_k.weight", output_lbns = ["unet.down_blocks.1.attentions.1.transformer_blocks.0.attn1.to_k.weight/out"], parallel = #sbp.parallel<[] -> [[#sbp.B]]>, scope_symbol_id = 1274 : i64, shape = [640 : si64, 640 : si64]} : () -> tensor<640x640xf16>
    %output_135 = "oneflow.variable"() {data_type = 9 : i32, device_name = ["@0:0"], device_tag = "cuda", hierarchy = [1], op_name = "unet.down_blocks.1.attentions.1.transformer_blocks.0.attn1.to_v.weight", output_lbns = ["unet.down_blocks.1.attentions.1.transformer_blocks.0.attn1.to_v.weight/out"], parallel = #sbp.parallel<[] -> [[#sbp.B]]>, scope_symbol_id = 1282 : i64, shape = [640 : si64, 640 : si64]} : () -> tensor<640x640xf16>
    %output_136 = "oneflow.variable"() {data_type = 9 : i32, device_name = ["@0:0"], device_tag = "cuda", hierarchy = [1], op_name = "unet.down_blocks.1.attentions.1.transformer_blocks.0.attn1.to_out.0.weight", output_lbns = ["unet.down_blocks.1.attentions.1.transformer_blocks.0.attn1.to_out.0.weight/out"], parallel = #sbp.parallel<[] -> [[#sbp.B]]>, scope_symbol_id = 1294 : i64, shape = [640 : si64, 640 : si64]} : () -> tensor<640x640xf16>
    %output_137 = "oneflow.variable"() {data_type = 9 : i32, device_name = ["@0:0"], device_tag = "cuda", hierarchy = [1], op_name = "unet.down_blocks.1.attentions.1.transformer_blocks.0.attn1.to_out.0.bias", output_lbns = ["unet.down_blocks.1.attentions.1.transformer_blocks.0.attn1.to_out.0.bias/out"], parallel = #sbp.parallel<[] -> [[#sbp.B]]>, scope_symbol_id = 1301 : i64, shape = [640 : si64]} : () -> tensor<640xf16>
    %output_138 = "oneflow.variable"() {data_type = 9 : i32, device_name = ["@0:0"], device_tag = "cuda", hierarchy = [1], op_name = "unet.down_blocks.1.attentions.1.transformer_blocks.0.norm2.weight", output_lbns = ["unet.down_blocks.1.attentions.1.transformer_blocks.0.norm2.weight/out"], parallel = #sbp.parallel<[] -> [[#sbp.B]]>, scope_symbol_id = 1313 : i64, shape = [640 : si64]} : () -> tensor<640xf16>
    %output_139 = "oneflow.variable"() {data_type = 9 : i32, device_name = ["@0:0"], device_tag = "cuda", hierarchy = [1], op_name = "unet.down_blocks.1.attentions.1.transformer_blocks.0.norm2.bias", output_lbns = ["unet.down_blocks.1.attentions.1.transformer_blocks.0.norm2.bias/out"], parallel = #sbp.parallel<[] -> [[#sbp.B]]>, scope_symbol_id = 1317 : i64, shape = [640 : si64]} : () -> tensor<640xf16>
    %output_140 = "oneflow.variable"() {data_type = 9 : i32, device_name = ["@0:0"], device_tag = "cuda", hierarchy = [1], op_name = "unet.down_blocks.1.attentions.1.transformer_blocks.0.attn2.to_q.weight", output_lbns = ["unet.down_blocks.1.attentions.1.transformer_blocks.0.attn2.to_q.weight/out"], parallel = #sbp.parallel<[] -> [[#sbp.B]]>, scope_symbol_id = 1326 : i64, shape = [640 : si64, 640 : si64]} : () -> tensor<640x640xf16>
    %output_141 = "oneflow.variable"() {data_type = 9 : i32, device_name = ["@0:0"], device_tag = "cuda", hierarchy = [1], op_name = "unet.down_blocks.1.attentions.1.transformer_blocks.0.attn2.to_k.weight", output_lbns = ["unet.down_blocks.1.attentions.1.transformer_blocks.0.attn2.to_k.weight/out"], parallel = #sbp.parallel<[] -> [[#sbp.B]]>, scope_symbol_id = 1334 : i64, shape = [640 : si64, 768 : si64]} : () -> tensor<640x768xf16>
    %output_142 = "oneflow.variable"() {data_type = 9 : i32, device_name = ["@0:0"], device_tag = "cuda", hierarchy = [1], op_name = "unet.down_blocks.1.attentions.1.transformer_blocks.0.attn2.to_v.weight", output_lbns = ["unet.down_blocks.1.attentions.1.transformer_blocks.0.attn2.to_v.weight/out"], parallel = #sbp.parallel<[] -> [[#sbp.B]]>, scope_symbol_id = 1342 : i64, shape = [640 : si64, 768 : si64]} : () -> tensor<640x768xf16>
    %output_143 = "oneflow.variable"() {data_type = 9 : i32, device_name = ["@0:0"], device_tag = "cuda", hierarchy = [1], op_name = "unet.down_blocks.1.attentions.1.transformer_blocks.0.attn2.to_out.0.weight", output_lbns = ["unet.down_blocks.1.attentions.1.transformer_blocks.0.attn2.to_out.0.weight/out"], parallel = #sbp.parallel<[] -> [[#sbp.B]]>, scope_symbol_id = 1354 : i64, shape = [640 : si64, 640 : si64]} : () -> tensor<640x640xf16>
    %output_144 = "oneflow.variable"() {data_type = 9 : i32, device_name = ["@0:0"], device_tag = "cuda", hierarchy = [1], op_name = "unet.down_blocks.1.attentions.1.transformer_blocks.0.attn2.to_out.0.bias", output_lbns = ["unet.down_blocks.1.attentions.1.transformer_blocks.0.attn2.to_out.0.bias/out"], parallel = #sbp.parallel<[] -> [[#sbp.B]]>, scope_symbol_id = 1361 : i64, shape = [640 : si64]} : () -> tensor<640xf16>
    %output_145 = "oneflow.variable"() {data_type = 9 : i32, device_name = ["@0:0"], device_tag = "cuda", hierarchy = [1], op_name = "unet.down_blocks.1.attentions.1.transformer_blocks.0.norm3.weight", output_lbns = ["unet.down_blocks.1.attentions.1.transformer_blocks.0.norm3.weight/out"], parallel = #sbp.parallel<[] -> [[#sbp.B]]>, scope_symbol_id = 1373 : i64, shape = [640 : si64]} : () -> tensor<640xf16>
    %output_146 = "oneflow.variable"() {data_type = 9 : i32, device_name = ["@0:0"], device_tag = "cuda", hierarchy = [1], op_name = "unet.down_blocks.1.attentions.1.transformer_blocks.0.norm3.bias", output_lbns = ["unet.down_blocks.1.attentions.1.transformer_blocks.0.norm3.bias/out"], parallel = #sbp.parallel<[] -> [[#sbp.B]]>, scope_symbol_id = 1377 : i64, shape = [640 : si64]} : () -> tensor<640xf16>
    %output_147 = "oneflow.variable"() {data_type = 9 : i32, device_name = ["@0:0"], device_tag = "cuda", hierarchy = [1], op_name = "unet.down_blocks.1.attentions.1.transformer_blocks.0.ff.net.0.proj.weight", output_lbns = ["unet.down_blocks.1.attentions.1.transformer_blocks.0.ff.net.0.proj.weight/out"], parallel = #sbp.parallel<[] -> [[#sbp.B]]>, scope_symbol_id = 1388 : i64, shape = [5120 : si64, 640 : si64]} : () -> tensor<5120x640xf16>
    %output_148 = "oneflow.variable"() {data_type = 9 : i32, device_name = ["@0:0"], device_tag = "cuda", hierarchy = [1], op_name = "unet.down_blocks.1.attentions.1.transformer_blocks.0.ff.net.0.proj.bias", output_lbns = ["unet.down_blocks.1.attentions.1.transformer_blocks.0.ff.net.0.proj.bias/out"], parallel = #sbp.parallel<[] -> [[#sbp.B]]>, scope_symbol_id = 1395 : i64, shape = [5120 : si64]} : () -> tensor<5120xf16>
    %output_149 = "oneflow.variable"() {data_type = 9 : i32, device_name = ["@0:0"], device_tag = "cuda", hierarchy = [1], op_name = "unet.down_blocks.1.attentions.1.transformer_blocks.0.ff.net.2.weight", output_lbns = ["unet.down_blocks.1.attentions.1.transformer_blocks.0.ff.net.2.weight/out"], parallel = #sbp.parallel<[] -> [[#sbp.B]]>, scope_symbol_id = 1416 : i64, shape = [640 : si64, 2560 : si64]} : () -> tensor<640x2560xf16>
    %output_150 = "oneflow.variable"() {data_type = 9 : i32, device_name = ["@0:0"], device_tag = "cuda", hierarchy = [1], op_name = "unet.down_blocks.1.attentions.1.transformer_blocks.0.ff.net.2.bias", output_lbns = ["unet.down_blocks.1.attentions.1.transformer_blocks.0.ff.net.2.bias/out"], parallel = #sbp.parallel<[] -> [[#sbp.B]]>, scope_symbol_id = 1423 : i64, shape = [640 : si64]} : () -> tensor<640xf16>
    %output_151 = "oneflow.variable"() {data_type = 9 : i32, device_name = ["@0:0"], device_tag = "cuda", hierarchy = [1], op_name = "variable_395", output_lbns = ["variable_395/out"], parallel = #sbp.parallel<[] -> [[#sbp.B]]>, scope_symbol_id = 1440 : i64, shape = [640 : si64, 1 : si64, 1 : si64, 640 : si64]} : () -> tensor<640x1x1x640xf16>
    %output_152 = "oneflow.variable"() {data_type = 9 : i32, device_name = ["@0:0"], device_tag = "cuda", hierarchy = [1], op_name = "unet.down_blocks.1.attentions.1.proj_out.bias", output_lbns = ["unet.down_blocks.1.attentions.1.proj_out.bias/out"], parallel = #sbp.parallel<[] -> [[#sbp.B]]>, scope_symbol_id = 1444 : i64, shape = [640 : si64]} : () -> tensor<640xf16>
    %output_153 = "oneflow.variable"() {data_type = 9 : i32, device_name = ["@0:0"], device_tag = "cuda", hierarchy = [1], op_name = "variable_394", output_lbns = ["variable_394/out"], parallel = #sbp.parallel<[] -> [[#sbp.B]]>, scope_symbol_id = 1456 : i64, shape = [640 : si64, 3 : si64, 3 : si64, 640 : si64]} : () -> tensor<640x3x3x640xf16>
    %output_154 = "oneflow.variable"() {data_type = 9 : i32, device_name = ["@0:0"], device_tag = "cuda", hierarchy = [1], op_name = "unet.down_blocks.1.downsamplers.0.conv.bias", output_lbns = ["unet.down_blocks.1.downsamplers.0.conv.bias/out"], parallel = #sbp.parallel<[] -> [[#sbp.B]]>, scope_symbol_id = 1460 : i64, shape = [640 : si64]} : () -> tensor<640xf16>
    %output_155 = "oneflow.variable"() {data_type = 9 : i32, device_name = ["@0:0"], device_tag = "cuda", hierarchy = [1], op_name = "unet.down_blocks.2.resnets.0.norm1.weight", output_lbns = ["unet.down_blocks.2.resnets.0.norm1.weight/out"], parallel = #sbp.parallel<[] -> [[#sbp.B]]>, scope_symbol_id = 1470 : i64, shape = [640 : si64]} : () -> tensor<640xf16>
    %output_156 = "oneflow.variable"() {data_type = 9 : i32, device_name = ["@0:0"], device_tag = "cuda", hierarchy = [1], op_name = "unet.down_blocks.2.resnets.0.norm1.bias", output_lbns = ["unet.down_blocks.2.resnets.0.norm1.bias/out"], parallel = #sbp.parallel<[] -> [[#sbp.B]]>, scope_symbol_id = 1474 : i64, shape = [640 : si64]} : () -> tensor<640xf16>
    %output_157 = "oneflow.variable"() {data_type = 9 : i32, device_name = ["@0:0"], device_tag = "cuda", hierarchy = [1], op_name = "variable_393", output_lbns = ["variable_393/out"], parallel = #sbp.parallel<[] -> [[#sbp.B]]>, scope_symbol_id = 1486 : i64, shape = [1280 : si64, 3 : si64, 3 : si64, 640 : si64]} : () -> tensor<1280x3x3x640xf16>
    %output_158 = "oneflow.variable"() {data_type = 9 : i32, device_name = ["@0:0"], device_tag = "cuda", hierarchy = [1], op_name = "unet.down_blocks.2.resnets.0.conv1.bias", output_lbns = ["unet.down_blocks.2.resnets.0.conv1.bias/out"], parallel = #sbp.parallel<[] -> [[#sbp.B]]>, scope_symbol_id = 1490 : i64, shape = [1280 : si64]} : () -> tensor<1280xf16>
    %output_159 = "oneflow.variable"() {data_type = 9 : i32, device_name = ["@0:0"], device_tag = "cuda", hierarchy = [1], op_name = "unet.down_blocks.2.resnets.0.time_emb_proj.weight", output_lbns = ["unet.down_blocks.2.resnets.0.time_emb_proj.weight/out"], parallel = #sbp.parallel<[] -> [[#sbp.B]]>, scope_symbol_id = 1501 : i64, shape = [1280 : si64, 1280 : si64]} : () -> tensor<1280x1280xf16>
    %output_160 = "oneflow.variable"() {data_type = 9 : i32, device_name = ["@0:0"], device_tag = "cuda", hierarchy = [1], op_name = "unet.down_blocks.2.resnets.0.time_emb_proj.bias", output_lbns = ["unet.down_blocks.2.resnets.0.time_emb_proj.bias/out"], parallel = #sbp.parallel<[] -> [[#sbp.B]]>, scope_symbol_id = 1508 : i64, shape = [1280 : si64]} : () -> tensor<1280xf16>
    %output_161 = "oneflow.variable"() {data_type = 9 : i32, device_name = ["@0:0"], device_tag = "cuda", hierarchy = [1], op_name = "unet.down_blocks.2.resnets.0.norm2.weight", output_lbns = ["unet.down_blocks.2.resnets.0.norm2.weight/out"], parallel = #sbp.parallel<[] -> [[#sbp.B]]>, scope_symbol_id = 1525 : i64, shape = [1280 : si64]} : () -> tensor<1280xf16>
    %output_162 = "oneflow.variable"() {data_type = 9 : i32, device_name = ["@0:0"], device_tag = "cuda", hierarchy = [1], op_name = "unet.down_blocks.2.resnets.0.norm2.bias", output_lbns = ["unet.down_blocks.2.resnets.0.norm2.bias/out"], parallel = #sbp.parallel<[] -> [[#sbp.B]]>, scope_symbol_id = 1529 : i64, shape = [1280 : si64]} : () -> tensor<1280xf16>
    %output_163 = "oneflow.variable"() {data_type = 9 : i32, device_name = ["@0:0"], device_tag = "cuda", hierarchy = [1], op_name = "variable_392", output_lbns = ["variable_392/out"], parallel = #sbp.parallel<[] -> [[#sbp.B]]>, scope_symbol_id = 1541 : i64, shape = [1280 : si64, 3 : si64, 3 : si64, 1280 : si64]} : () -> tensor<1280x3x3x1280xf16>
    %output_164 = "oneflow.variable"() {data_type = 9 : i32, device_name = ["@0:0"], device_tag = "cuda", hierarchy = [1], op_name = "unet.down_blocks.2.resnets.0.conv2.bias", output_lbns = ["unet.down_blocks.2.resnets.0.conv2.bias/out"], parallel = #sbp.parallel<[] -> [[#sbp.B]]>, scope_symbol_id = 1545 : i64, shape = [1280 : si64]} : () -> tensor<1280xf16>
    %output_165 = "oneflow.variable"() {data_type = 9 : i32, device_name = ["@0:0"], device_tag = "cuda", hierarchy = [1], op_name = "variable_391", output_lbns = ["variable_391/out"], parallel = #sbp.parallel<[] -> [[#sbp.B]]>, scope_symbol_id = 1553 : i64, shape = [1280 : si64, 1 : si64, 1 : si64, 640 : si64]} : () -> tensor<1280x1x1x640xf16>
    %output_166 = "oneflow.variable"() {data_type = 9 : i32, device_name = ["@0:0"], device_tag = "cuda", hierarchy = [1], op_name = "unet.down_blocks.2.resnets.0.conv_shortcut.bias", output_lbns = ["unet.down_blocks.2.resnets.0.conv_shortcut.bias/out"], parallel = #sbp.parallel<[] -> [[#sbp.B]]>, scope_symbol_id = 1557 : i64, shape = [1280 : si64]} : () -> tensor<1280xf16>
    %output_167 = "oneflow.variable"() {data_type = 9 : i32, device_name = ["@0:0"], device_tag = "cuda", hierarchy = [1], op_name = "unet.down_blocks.2.attentions.0.norm.weight", output_lbns = ["unet.down_blocks.2.attentions.0.norm.weight/out"], parallel = #sbp.parallel<[] -> [[#sbp.B]]>, scope_symbol_id = 1572 : i64, shape = [1280 : si64]} : () -> tensor<1280xf16>
    %output_168 = "oneflow.variable"() {data_type = 9 : i32, device_name = ["@0:0"], device_tag = "cuda", hierarchy = [1], op_name = "unet.down_blocks.2.attentions.0.norm.bias", output_lbns = ["unet.down_blocks.2.attentions.0.norm.bias/out"], parallel = #sbp.parallel<[] -> [[#sbp.B]]>, scope_symbol_id = 1576 : i64, shape = [1280 : si64]} : () -> tensor<1280xf16>
    %output_169 = "oneflow.variable"() {data_type = 9 : i32, device_name = ["@0:0"], device_tag = "cuda", hierarchy = [1], op_name = "variable_390", output_lbns = ["variable_390/out"], parallel = #sbp.parallel<[] -> [[#sbp.B]]>, scope_symbol_id = 1584 : i64, shape = [1280 : si64, 1 : si64, 1 : si64, 1280 : si64]} : () -> tensor<1280x1x1x1280xf16>
    %output_170 = "oneflow.variable"() {data_type = 9 : i32, device_name = ["@0:0"], device_tag = "cuda", hierarchy = [1], op_name = "unet.down_blocks.2.attentions.0.proj_in.bias", output_lbns = ["unet.down_blocks.2.attentions.0.proj_in.bias/out"], parallel = #sbp.parallel<[] -> [[#sbp.B]]>, scope_symbol_id = 1588 : i64, shape = [1280 : si64]} : () -> tensor<1280xf16>
    %output_171 = "oneflow.variable"() {data_type = 9 : i32, device_name = ["@0:0"], device_tag = "cuda", hierarchy = [1], op_name = "unet.down_blocks.2.attentions.0.transformer_blocks.0.norm1.weight", output_lbns = ["unet.down_blocks.2.attentions.0.transformer_blocks.0.norm1.weight/out"], parallel = #sbp.parallel<[] -> [[#sbp.B]]>, scope_symbol_id = 1603 : i64, shape = [1280 : si64]} : () -> tensor<1280xf16>
    %output_172 = "oneflow.variable"() {data_type = 9 : i32, device_name = ["@0:0"], device_tag = "cuda", hierarchy = [1], op_name = "unet.down_blocks.2.attentions.0.transformer_blocks.0.norm1.bias", output_lbns = ["unet.down_blocks.2.attentions.0.transformer_blocks.0.norm1.bias/out"], parallel = #sbp.parallel<[] -> [[#sbp.B]]>, scope_symbol_id = 1607 : i64, shape = [1280 : si64]} : () -> tensor<1280xf16>
    %output_173 = "oneflow.variable"() {data_type = 9 : i32, device_name = ["@0:0"], device_tag = "cuda", hierarchy = [1], op_name = "unet.down_blocks.2.attentions.0.transformer_blocks.0.attn1.to_q.weight", output_lbns = ["unet.down_blocks.2.attentions.0.transformer_blocks.0.attn1.to_q.weight/out"], parallel = #sbp.parallel<[] -> [[#sbp.B]]>, scope_symbol_id = 1616 : i64, shape = [1280 : si64, 1280 : si64]} : () -> tensor<1280x1280xf16>
    %output_174 = "oneflow.variable"() {data_type = 9 : i32, device_name = ["@0:0"], device_tag = "cuda", hierarchy = [1], op_name = "unet.down_blocks.2.attentions.0.transformer_blocks.0.attn1.to_k.weight", output_lbns = ["unet.down_blocks.2.attentions.0.transformer_blocks.0.attn1.to_k.weight/out"], parallel = #sbp.parallel<[] -> [[#sbp.B]]>, scope_symbol_id = 1624 : i64, shape = [1280 : si64, 1280 : si64]} : () -> tensor<1280x1280xf16>
    %output_175 = "oneflow.variable"() {data_type = 9 : i32, device_name = ["@0:0"], device_tag = "cuda", hierarchy = [1], op_name = "unet.down_blocks.2.attentions.0.transformer_blocks.0.attn1.to_v.weight", output_lbns = ["unet.down_blocks.2.attentions.0.transformer_blocks.0.attn1.to_v.weight/out"], parallel = #sbp.parallel<[] -> [[#sbp.B]]>, scope_symbol_id = 1632 : i64, shape = [1280 : si64, 1280 : si64]} : () -> tensor<1280x1280xf16>
    %output_176 = "oneflow.variable"() {data_type = 9 : i32, device_name = ["@0:0"], device_tag = "cuda", hierarchy = [1], op_name = "unet.down_blocks.2.attentions.0.transformer_blocks.0.attn1.to_out.0.weight", output_lbns = ["unet.down_blocks.2.attentions.0.transformer_blocks.0.attn1.to_out.0.weight/out"], parallel = #sbp.parallel<[] -> [[#sbp.B]]>, scope_symbol_id = 1644 : i64, shape = [1280 : si64, 1280 : si64]} : () -> tensor<1280x1280xf16>
    %output_177 = "oneflow.variable"() {data_type = 9 : i32, device_name = ["@0:0"], device_tag = "cuda", hierarchy = [1], op_name = "unet.down_blocks.2.attentions.0.transformer_blocks.0.attn1.to_out.0.bias", output_lbns = ["unet.down_blocks.2.attentions.0.transformer_blocks.0.attn1.to_out.0.bias/out"], parallel = #sbp.parallel<[] -> [[#sbp.B]]>, scope_symbol_id = 1651 : i64, shape = [1280 : si64]} : () -> tensor<1280xf16>
    %output_178 = "oneflow.variable"() {data_type = 9 : i32, device_name = ["@0:0"], device_tag = "cuda", hierarchy = [1], op_name = "unet.down_blocks.2.attentions.0.transformer_blocks.0.norm2.weight", output_lbns = ["unet.down_blocks.2.attentions.0.transformer_blocks.0.norm2.weight/out"], parallel = #sbp.parallel<[] -> [[#sbp.B]]>, scope_symbol_id = 1663 : i64, shape = [1280 : si64]} : () -> tensor<1280xf16>
    %output_179 = "oneflow.variable"() {data_type = 9 : i32, device_name = ["@0:0"], device_tag = "cuda", hierarchy = [1], op_name = "unet.down_blocks.2.attentions.0.transformer_blocks.0.norm2.bias", output_lbns = ["unet.down_blocks.2.attentions.0.transformer_blocks.0.norm2.bias/out"], parallel = #sbp.parallel<[] -> [[#sbp.B]]>, scope_symbol_id = 1667 : i64, shape = [1280 : si64]} : () -> tensor<1280xf16>
    %output_180 = "oneflow.variable"() {data_type = 9 : i32, device_name = ["@0:0"], device_tag = "cuda", hierarchy = [1], op_name = "unet.down_blocks.2.attentions.0.transformer_blocks.0.attn2.to_q.weight", output_lbns = ["unet.down_blocks.2.attentions.0.transformer_blocks.0.attn2.to_q.weight/out"], parallel = #sbp.parallel<[] -> [[#sbp.B]]>, scope_symbol_id = 1676 : i64, shape = [1280 : si64, 1280 : si64]} : () -> tensor<1280x1280xf16>
    %output_181 = "oneflow.variable"() {data_type = 9 : i32, device_name = ["@0:0"], device_tag = "cuda", hierarchy = [1], op_name = "unet.down_blocks.2.attentions.0.transformer_blocks.0.attn2.to_k.weight", output_lbns = ["unet.down_blocks.2.attentions.0.transformer_blocks.0.attn2.to_k.weight/out"], parallel = #sbp.parallel<[] -> [[#sbp.B]]>, scope_symbol_id = 1684 : i64, shape = [1280 : si64, 768 : si64]} : () -> tensor<1280x768xf16>
    %output_182 = "oneflow.variable"() {data_type = 9 : i32, device_name = ["@0:0"], device_tag = "cuda", hierarchy = [1], op_name = "unet.down_blocks.2.attentions.0.transformer_blocks.0.attn2.to_v.weight", output_lbns = ["unet.down_blocks.2.attentions.0.transformer_blocks.0.attn2.to_v.weight/out"], parallel = #sbp.parallel<[] -> [[#sbp.B]]>, scope_symbol_id = 1692 : i64, shape = [1280 : si64, 768 : si64]} : () -> tensor<1280x768xf16>
    %output_183 = "oneflow.variable"() {data_type = 9 : i32, device_name = ["@0:0"], device_tag = "cuda", hierarchy = [1], op_name = "unet.down_blocks.2.attentions.0.transformer_blocks.0.attn2.to_out.0.weight", output_lbns = ["unet.down_blocks.2.attentions.0.transformer_blocks.0.attn2.to_out.0.weight/out"], parallel = #sbp.parallel<[] -> [[#sbp.B]]>, scope_symbol_id = 1704 : i64, shape = [1280 : si64, 1280 : si64]} : () -> tensor<1280x1280xf16>
    %output_184 = "oneflow.variable"() {data_type = 9 : i32, device_name = ["@0:0"], device_tag = "cuda", hierarchy = [1], op_name = "unet.down_blocks.2.attentions.0.transformer_blocks.0.attn2.to_out.0.bias", output_lbns = ["unet.down_blocks.2.attentions.0.transformer_blocks.0.attn2.to_out.0.bias/out"], parallel = #sbp.parallel<[] -> [[#sbp.B]]>, scope_symbol_id = 1711 : i64, shape = [1280 : si64]} : () -> tensor<1280xf16>
    %output_185 = "oneflow.variable"() {data_type = 9 : i32, device_name = ["@0:0"], device_tag = "cuda", hierarchy = [1], op_name = "unet.down_blocks.2.attentions.0.transformer_blocks.0.norm3.weight", output_lbns = ["unet.down_blocks.2.attentions.0.transformer_blocks.0.norm3.weight/out"], parallel = #sbp.parallel<[] -> [[#sbp.B]]>, scope_symbol_id = 1723 : i64, shape = [1280 : si64]} : () -> tensor<1280xf16>
    %output_186 = "oneflow.variable"() {data_type = 9 : i32, device_name = ["@0:0"], device_tag = "cuda", hierarchy = [1], op_name = "unet.down_blocks.2.attentions.0.transformer_blocks.0.norm3.bias", output_lbns = ["unet.down_blocks.2.attentions.0.transformer_blocks.0.norm3.bias/out"], parallel = #sbp.parallel<[] -> [[#sbp.B]]>, scope_symbol_id = 1727 : i64, shape = [1280 : si64]} : () -> tensor<1280xf16>
    %output_187 = "oneflow.variable"() {data_type = 9 : i32, device_name = ["@0:0"], device_tag = "cuda", hierarchy = [1], op_name = "unet.down_blocks.2.attentions.0.transformer_blocks.0.ff.net.0.proj.weight", output_lbns = ["unet.down_blocks.2.attentions.0.transformer_blocks.0.ff.net.0.proj.weight/out"], parallel = #sbp.parallel<[] -> [[#sbp.B]]>, scope_symbol_id = 1738 : i64, shape = [10240 : si64, 1280 : si64]} : () -> tensor<10240x1280xf16>
    %output_188 = "oneflow.variable"() {data_type = 9 : i32, device_name = ["@0:0"], device_tag = "cuda", hierarchy = [1], op_name = "unet.down_blocks.2.attentions.0.transformer_blocks.0.ff.net.0.proj.bias", output_lbns = ["unet.down_blocks.2.attentions.0.transformer_blocks.0.ff.net.0.proj.bias/out"], parallel = #sbp.parallel<[] -> [[#sbp.B]]>, scope_symbol_id = 1745 : i64, shape = [10240 : si64]} : () -> tensor<10240xf16>
    %output_189 = "oneflow.variable"() {data_type = 9 : i32, device_name = ["@0:0"], device_tag = "cuda", hierarchy = [1], op_name = "unet.down_blocks.2.attentions.0.transformer_blocks.0.ff.net.2.weight", output_lbns = ["unet.down_blocks.2.attentions.0.transformer_blocks.0.ff.net.2.weight/out"], parallel = #sbp.parallel<[] -> [[#sbp.B]]>, scope_symbol_id = 1766 : i64, shape = [1280 : si64, 5120 : si64]} : () -> tensor<1280x5120xf16>
    %output_190 = "oneflow.variable"() {data_type = 9 : i32, device_name = ["@0:0"], device_tag = "cuda", hierarchy = [1], op_name = "unet.down_blocks.2.attentions.0.transformer_blocks.0.ff.net.2.bias", output_lbns = ["unet.down_blocks.2.attentions.0.transformer_blocks.0.ff.net.2.bias/out"], parallel = #sbp.parallel<[] -> [[#sbp.B]]>, scope_symbol_id = 1773 : i64, shape = [1280 : si64]} : () -> tensor<1280xf16>
    %output_191 = "oneflow.variable"() {data_type = 9 : i32, device_name = ["@0:0"], device_tag = "cuda", hierarchy = [1], op_name = "variable_389", output_lbns = ["variable_389/out"], parallel = #sbp.parallel<[] -> [[#sbp.B]]>, scope_symbol_id = 1790 : i64, shape = [1280 : si64, 1 : si64, 1 : si64, 1280 : si64]} : () -> tensor<1280x1x1x1280xf16>
    %output_192 = "oneflow.variable"() {data_type = 9 : i32, device_name = ["@0:0"], device_tag = "cuda", hierarchy = [1], op_name = "unet.down_blocks.2.attentions.0.proj_out.bias", output_lbns = ["unet.down_blocks.2.attentions.0.proj_out.bias/out"], parallel = #sbp.parallel<[] -> [[#sbp.B]]>, scope_symbol_id = 1794 : i64, shape = [1280 : si64]} : () -> tensor<1280xf16>
    %output_193 = "oneflow.variable"() {data_type = 9 : i32, device_name = ["@0:0"], device_tag = "cuda", hierarchy = [1], op_name = "unet.down_blocks.2.resnets.1.norm1.weight", output_lbns = ["unet.down_blocks.2.resnets.1.norm1.weight/out"], parallel = #sbp.parallel<[] -> [[#sbp.B]]>, scope_symbol_id = 1806 : i64, shape = [1280 : si64]} : () -> tensor<1280xf16>
    %output_194 = "oneflow.variable"() {data_type = 9 : i32, device_name = ["@0:0"], device_tag = "cuda", hierarchy = [1], op_name = "unet.down_blocks.2.resnets.1.norm1.bias", output_lbns = ["unet.down_blocks.2.resnets.1.norm1.bias/out"], parallel = #sbp.parallel<[] -> [[#sbp.B]]>, scope_symbol_id = 1810 : i64, shape = [1280 : si64]} : () -> tensor<1280xf16>
    %output_195 = "oneflow.variable"() {data_type = 9 : i32, device_name = ["@0:0"], device_tag = "cuda", hierarchy = [1], op_name = "variable_388", output_lbns = ["variable_388/out"], parallel = #sbp.parallel<[] -> [[#sbp.B]]>, scope_symbol_id = 1822 : i64, shape = [1280 : si64, 3 : si64, 3 : si64, 1280 : si64]} : () -> tensor<1280x3x3x1280xf16>
    %output_196 = "oneflow.variable"() {data_type = 9 : i32, device_name = ["@0:0"], device_tag = "cuda", hierarchy = [1], op_name = "unet.down_blocks.2.resnets.1.conv1.bias", output_lbns = ["unet.down_blocks.2.resnets.1.conv1.bias/out"], parallel = #sbp.parallel<[] -> [[#sbp.B]]>, scope_symbol_id = 1826 : i64, shape = [1280 : si64]} : () -> tensor<1280xf16>
    %output_197 = "oneflow.variable"() {data_type = 9 : i32, device_name = ["@0:0"], device_tag = "cuda", hierarchy = [1], op_name = "unet.down_blocks.2.resnets.1.time_emb_proj.weight", output_lbns = ["unet.down_blocks.2.resnets.1.time_emb_proj.weight/out"], parallel = #sbp.parallel<[] -> [[#sbp.B]]>, scope_symbol_id = 1837 : i64, shape = [1280 : si64, 1280 : si64]} : () -> tensor<1280x1280xf16>
    %output_198 = "oneflow.variable"() {data_type = 9 : i32, device_name = ["@0:0"], device_tag = "cuda", hierarchy = [1], op_name = "unet.down_blocks.2.resnets.1.time_emb_proj.bias", output_lbns = ["unet.down_blocks.2.resnets.1.time_emb_proj.bias/out"], parallel = #sbp.parallel<[] -> [[#sbp.B]]>, scope_symbol_id = 1844 : i64, shape = [1280 : si64]} : () -> tensor<1280xf16>
    %output_199 = "oneflow.variable"() {data_type = 9 : i32, device_name = ["@0:0"], device_tag = "cuda", hierarchy = [1], op_name = "unet.down_blocks.2.resnets.1.norm2.weight", output_lbns = ["unet.down_blocks.2.resnets.1.norm2.weight/out"], parallel = #sbp.parallel<[] -> [[#sbp.B]]>, scope_symbol_id = 1861 : i64, shape = [1280 : si64]} : () -> tensor<1280xf16>
    %output_200 = "oneflow.variable"() {data_type = 9 : i32, device_name = ["@0:0"], device_tag = "cuda", hierarchy = [1], op_name = "unet.down_blocks.2.resnets.1.norm2.bias", output_lbns = ["unet.down_blocks.2.resnets.1.norm2.bias/out"], parallel = #sbp.parallel<[] -> [[#sbp.B]]>, scope_symbol_id = 1865 : i64, shape = [1280 : si64]} : () -> tensor<1280xf16>
    %output_201 = "oneflow.variable"() {data_type = 9 : i32, device_name = ["@0:0"], device_tag = "cuda", hierarchy = [1], op_name = "variable_387", output_lbns = ["variable_387/out"], parallel = #sbp.parallel<[] -> [[#sbp.B]]>, scope_symbol_id = 1877 : i64, shape = [1280 : si64, 3 : si64, 3 : si64, 1280 : si64]} : () -> tensor<1280x3x3x1280xf16>
    %output_202 = "oneflow.variable"() {data_type = 9 : i32, device_name = ["@0:0"], device_tag = "cuda", hierarchy = [1], op_name = "unet.down_blocks.2.resnets.1.conv2.bias", output_lbns = ["unet.down_blocks.2.resnets.1.conv2.bias/out"], parallel = #sbp.parallel<[] -> [[#sbp.B]]>, scope_symbol_id = 1881 : i64, shape = [1280 : si64]} : () -> tensor<1280xf16>
    %output_203 = "oneflow.variable"() {data_type = 9 : i32, device_name = ["@0:0"], device_tag = "cuda", hierarchy = [1], op_name = "unet.down_blocks.2.attentions.1.norm.weight", output_lbns = ["unet.down_blocks.2.attentions.1.norm.weight/out"], parallel = #sbp.parallel<[] -> [[#sbp.B]]>, scope_symbol_id = 1896 : i64, shape = [1280 : si64]} : () -> tensor<1280xf16>
    %output_204 = "oneflow.variable"() {data_type = 9 : i32, device_name = ["@0:0"], device_tag = "cuda", hierarchy = [1], op_name = "unet.down_blocks.2.attentions.1.norm.bias", output_lbns = ["unet.down_blocks.2.attentions.1.norm.bias/out"], parallel = #sbp.parallel<[] -> [[#sbp.B]]>, scope_symbol_id = 1900 : i64, shape = [1280 : si64]} : () -> tensor<1280xf16>
    %output_205 = "oneflow.variable"() {data_type = 9 : i32, device_name = ["@0:0"], device_tag = "cuda", hierarchy = [1], op_name = "variable_386", output_lbns = ["variable_386/out"], parallel = #sbp.parallel<[] -> [[#sbp.B]]>, scope_symbol_id = 1908 : i64, shape = [1280 : si64, 1 : si64, 1 : si64, 1280 : si64]} : () -> tensor<1280x1x1x1280xf16>
    %output_206 = "oneflow.variable"() {data_type = 9 : i32, device_name = ["@0:0"], device_tag = "cuda", hierarchy = [1], op_name = "unet.down_blocks.2.attentions.1.proj_in.bias", output_lbns = ["unet.down_blocks.2.attentions.1.proj_in.bias/out"], parallel = #sbp.parallel<[] -> [[#sbp.B]]>, scope_symbol_id = 1912 : i64, shape = [1280 : si64]} : () -> tensor<1280xf16>
    %output_207 = "oneflow.variable"() {data_type = 9 : i32, device_name = ["@0:0"], device_tag = "cuda", hierarchy = [1], op_name = "unet.down_blocks.2.attentions.1.transformer_blocks.0.norm1.weight", output_lbns = ["unet.down_blocks.2.attentions.1.transformer_blocks.0.norm1.weight/out"], parallel = #sbp.parallel<[] -> [[#sbp.B]]>, scope_symbol_id = 1927 : i64, shape = [1280 : si64]} : () -> tensor<1280xf16>
    %output_208 = "oneflow.variable"() {data_type = 9 : i32, device_name = ["@0:0"], device_tag = "cuda", hierarchy = [1], op_name = "unet.down_blocks.2.attentions.1.transformer_blocks.0.norm1.bias", output_lbns = ["unet.down_blocks.2.attentions.1.transformer_blocks.0.norm1.bias/out"], parallel = #sbp.parallel<[] -> [[#sbp.B]]>, scope_symbol_id = 1931 : i64, shape = [1280 : si64]} : () -> tensor<1280xf16>
    %output_209 = "oneflow.variable"() {data_type = 9 : i32, device_name = ["@0:0"], device_tag = "cuda", hierarchy = [1], op_name = "unet.down_blocks.2.attentions.1.transformer_blocks.0.attn1.to_q.weight", output_lbns = ["unet.down_blocks.2.attentions.1.transformer_blocks.0.attn1.to_q.weight/out"], parallel = #sbp.parallel<[] -> [[#sbp.B]]>, scope_symbol_id = 1940 : i64, shape = [1280 : si64, 1280 : si64]} : () -> tensor<1280x1280xf16>
    %output_210 = "oneflow.variable"() {data_type = 9 : i32, device_name = ["@0:0"], device_tag = "cuda", hierarchy = [1], op_name = "unet.down_blocks.2.attentions.1.transformer_blocks.0.attn1.to_k.weight", output_lbns = ["unet.down_blocks.2.attentions.1.transformer_blocks.0.attn1.to_k.weight/out"], parallel = #sbp.parallel<[] -> [[#sbp.B]]>, scope_symbol_id = 1948 : i64, shape = [1280 : si64, 1280 : si64]} : () -> tensor<1280x1280xf16>
    %output_211 = "oneflow.variable"() {data_type = 9 : i32, device_name = ["@0:0"], device_tag = "cuda", hierarchy = [1], op_name = "unet.down_blocks.2.attentions.1.transformer_blocks.0.attn1.to_v.weight", output_lbns = ["unet.down_blocks.2.attentions.1.transformer_blocks.0.attn1.to_v.weight/out"], parallel = #sbp.parallel<[] -> [[#sbp.B]]>, scope_symbol_id = 1956 : i64, shape = [1280 : si64, 1280 : si64]} : () -> tensor<1280x1280xf16>
    %output_212 = "oneflow.variable"() {data_type = 9 : i32, device_name = ["@0:0"], device_tag = "cuda", hierarchy = [1], op_name = "unet.down_blocks.2.attentions.1.transformer_blocks.0.attn1.to_out.0.weight", output_lbns = ["unet.down_blocks.2.attentions.1.transformer_blocks.0.attn1.to_out.0.weight/out"], parallel = #sbp.parallel<[] -> [[#sbp.B]]>, scope_symbol_id = 1968 : i64, shape = [1280 : si64, 1280 : si64]} : () -> tensor<1280x1280xf16>
    %output_213 = "oneflow.variable"() {data_type = 9 : i32, device_name = ["@0:0"], device_tag = "cuda", hierarchy = [1], op_name = "unet.down_blocks.2.attentions.1.transformer_blocks.0.attn1.to_out.0.bias", output_lbns = ["unet.down_blocks.2.attentions.1.transformer_blocks.0.attn1.to_out.0.bias/out"], parallel = #sbp.parallel<[] -> [[#sbp.B]]>, scope_symbol_id = 1975 : i64, shape = [1280 : si64]} : () -> tensor<1280xf16>
    %output_214 = "oneflow.variable"() {data_type = 9 : i32, device_name = ["@0:0"], device_tag = "cuda", hierarchy = [1], op_name = "unet.down_blocks.2.attentions.1.transformer_blocks.0.norm2.weight", output_lbns = ["unet.down_blocks.2.attentions.1.transformer_blocks.0.norm2.weight/out"], parallel = #sbp.parallel<[] -> [[#sbp.B]]>, scope_symbol_id = 1987 : i64, shape = [1280 : si64]} : () -> tensor<1280xf16>
    %output_215 = "oneflow.variable"() {data_type = 9 : i32, device_name = ["@0:0"], device_tag = "cuda", hierarchy = [1], op_name = "unet.down_blocks.2.attentions.1.transformer_blocks.0.norm2.bias", output_lbns = ["unet.down_blocks.2.attentions.1.transformer_blocks.0.norm2.bias/out"], parallel = #sbp.parallel<[] -> [[#sbp.B]]>, scope_symbol_id = 1991 : i64, shape = [1280 : si64]} : () -> tensor<1280xf16>
    %output_216 = "oneflow.variable"() {data_type = 9 : i32, device_name = ["@0:0"], device_tag = "cuda", hierarchy = [1], op_name = "unet.down_blocks.2.attentions.1.transformer_blocks.0.attn2.to_q.weight", output_lbns = ["unet.down_blocks.2.attentions.1.transformer_blocks.0.attn2.to_q.weight/out"], parallel = #sbp.parallel<[] -> [[#sbp.B]]>, scope_symbol_id = 2000 : i64, shape = [1280 : si64, 1280 : si64]} : () -> tensor<1280x1280xf16>
    %output_217 = "oneflow.variable"() {data_type = 9 : i32, device_name = ["@0:0"], device_tag = "cuda", hierarchy = [1], op_name = "unet.down_blocks.2.attentions.1.transformer_blocks.0.attn2.to_k.weight", output_lbns = ["unet.down_blocks.2.attentions.1.transformer_blocks.0.attn2.to_k.weight/out"], parallel = #sbp.parallel<[] -> [[#sbp.B]]>, scope_symbol_id = 2008 : i64, shape = [1280 : si64, 768 : si64]} : () -> tensor<1280x768xf16>
    %output_218 = "oneflow.variable"() {data_type = 9 : i32, device_name = ["@0:0"], device_tag = "cuda", hierarchy = [1], op_name = "unet.down_blocks.2.attentions.1.transformer_blocks.0.attn2.to_v.weight", output_lbns = ["unet.down_blocks.2.attentions.1.transformer_blocks.0.attn2.to_v.weight/out"], parallel = #sbp.parallel<[] -> [[#sbp.B]]>, scope_symbol_id = 2016 : i64, shape = [1280 : si64, 768 : si64]} : () -> tensor<1280x768xf16>
    %output_219 = "oneflow.variable"() {data_type = 9 : i32, device_name = ["@0:0"], device_tag = "cuda", hierarchy = [1], op_name = "unet.down_blocks.2.attentions.1.transformer_blocks.0.attn2.to_out.0.weight", output_lbns = ["unet.down_blocks.2.attentions.1.transformer_blocks.0.attn2.to_out.0.weight/out"], parallel = #sbp.parallel<[] -> [[#sbp.B]]>, scope_symbol_id = 2028 : i64, shape = [1280 : si64, 1280 : si64]} : () -> tensor<1280x1280xf16>
    %output_220 = "oneflow.variable"() {data_type = 9 : i32, device_name = ["@0:0"], device_tag = "cuda", hierarchy = [1], op_name = "unet.down_blocks.2.attentions.1.transformer_blocks.0.attn2.to_out.0.bias", output_lbns = ["unet.down_blocks.2.attentions.1.transformer_blocks.0.attn2.to_out.0.bias/out"], parallel = #sbp.parallel<[] -> [[#sbp.B]]>, scope_symbol_id = 2035 : i64, shape = [1280 : si64]} : () -> tensor<1280xf16>
    %output_221 = "oneflow.variable"() {data_type = 9 : i32, device_name = ["@0:0"], device_tag = "cuda", hierarchy = [1], op_name = "unet.down_blocks.2.attentions.1.transformer_blocks.0.norm3.weight", output_lbns = ["unet.down_blocks.2.attentions.1.transformer_blocks.0.norm3.weight/out"], parallel = #sbp.parallel<[] -> [[#sbp.B]]>, scope_symbol_id = 2047 : i64, shape = [1280 : si64]} : () -> tensor<1280xf16>
    %output_222 = "oneflow.variable"() {data_type = 9 : i32, device_name = ["@0:0"], device_tag = "cuda", hierarchy = [1], op_name = "unet.down_blocks.2.attentions.1.transformer_blocks.0.norm3.bias", output_lbns = ["unet.down_blocks.2.attentions.1.transformer_blocks.0.norm3.bias/out"], parallel = #sbp.parallel<[] -> [[#sbp.B]]>, scope_symbol_id = 2051 : i64, shape = [1280 : si64]} : () -> tensor<1280xf16>
    %output_223 = "oneflow.variable"() {data_type = 9 : i32, device_name = ["@0:0"], device_tag = "cuda", hierarchy = [1], op_name = "unet.down_blocks.2.attentions.1.transformer_blocks.0.ff.net.0.proj.weight", output_lbns = ["unet.down_blocks.2.attentions.1.transformer_blocks.0.ff.net.0.proj.weight/out"], parallel = #sbp.parallel<[] -> [[#sbp.B]]>, scope_symbol_id = 2062 : i64, shape = [10240 : si64, 1280 : si64]} : () -> tensor<10240x1280xf16>
    %output_224 = "oneflow.variable"() {data_type = 9 : i32, device_name = ["@0:0"], device_tag = "cuda", hierarchy = [1], op_name = "unet.down_blocks.2.attentions.1.transformer_blocks.0.ff.net.0.proj.bias", output_lbns = ["unet.down_blocks.2.attentions.1.transformer_blocks.0.ff.net.0.proj.bias/out"], parallel = #sbp.parallel<[] -> [[#sbp.B]]>, scope_symbol_id = 2069 : i64, shape = [10240 : si64]} : () -> tensor<10240xf16>
    %output_225 = "oneflow.variable"() {data_type = 9 : i32, device_name = ["@0:0"], device_tag = "cuda", hierarchy = [1], op_name = "unet.down_blocks.2.attentions.1.transformer_blocks.0.ff.net.2.weight", output_lbns = ["unet.down_blocks.2.attentions.1.transformer_blocks.0.ff.net.2.weight/out"], parallel = #sbp.parallel<[] -> [[#sbp.B]]>, scope_symbol_id = 2090 : i64, shape = [1280 : si64, 5120 : si64]} : () -> tensor<1280x5120xf16>
    %output_226 = "oneflow.variable"() {data_type = 9 : i32, device_name = ["@0:0"], device_tag = "cuda", hierarchy = [1], op_name = "unet.down_blocks.2.attentions.1.transformer_blocks.0.ff.net.2.bias", output_lbns = ["unet.down_blocks.2.attentions.1.transformer_blocks.0.ff.net.2.bias/out"], parallel = #sbp.parallel<[] -> [[#sbp.B]]>, scope_symbol_id = 2097 : i64, shape = [1280 : si64]} : () -> tensor<1280xf16>
    %output_227 = "oneflow.variable"() {data_type = 9 : i32, device_name = ["@0:0"], device_tag = "cuda", hierarchy = [1], op_name = "variable_385", output_lbns = ["variable_385/out"], parallel = #sbp.parallel<[] -> [[#sbp.B]]>, scope_symbol_id = 2114 : i64, shape = [1280 : si64, 1 : si64, 1 : si64, 1280 : si64]} : () -> tensor<1280x1x1x1280xf16>
    %output_228 = "oneflow.variable"() {data_type = 9 : i32, device_name = ["@0:0"], device_tag = "cuda", hierarchy = [1], op_name = "unet.down_blocks.2.attentions.1.proj_out.bias", output_lbns = ["unet.down_blocks.2.attentions.1.proj_out.bias/out"], parallel = #sbp.parallel<[] -> [[#sbp.B]]>, scope_symbol_id = 2118 : i64, shape = [1280 : si64]} : () -> tensor<1280xf16>
    %output_229 = "oneflow.variable"() {data_type = 9 : i32, device_name = ["@0:0"], device_tag = "cuda", hierarchy = [1], op_name = "variable_384", output_lbns = ["variable_384/out"], parallel = #sbp.parallel<[] -> [[#sbp.B]]>, scope_symbol_id = 2130 : i64, shape = [1280 : si64, 3 : si64, 3 : si64, 1280 : si64]} : () -> tensor<1280x3x3x1280xf16>
    %output_230 = "oneflow.variable"() {data_type = 9 : i32, device_name = ["@0:0"], device_tag = "cuda", hierarchy = [1], op_name = "unet.down_blocks.2.downsamplers.0.conv.bias", output_lbns = ["unet.down_blocks.2.downsamplers.0.conv.bias/out"], parallel = #sbp.parallel<[] -> [[#sbp.B]]>, scope_symbol_id = 2134 : i64, shape = [1280 : si64]} : () -> tensor<1280xf16>
    %output_231 = "oneflow.variable"() {data_type = 9 : i32, device_name = ["@0:0"], device_tag = "cuda", hierarchy = [1], op_name = "unet.down_blocks.3.resnets.0.norm1.weight", output_lbns = ["unet.down_blocks.3.resnets.0.norm1.weight/out"], parallel = #sbp.parallel<[] -> [[#sbp.B]]>, scope_symbol_id = 2144 : i64, shape = [1280 : si64]} : () -> tensor<1280xf16>
    %output_232 = "oneflow.variable"() {data_type = 9 : i32, device_name = ["@0:0"], device_tag = "cuda", hierarchy = [1], op_name = "unet.down_blocks.3.resnets.0.norm1.bias", output_lbns = ["unet.down_blocks.3.resnets.0.norm1.bias/out"], parallel = #sbp.parallel<[] -> [[#sbp.B]]>, scope_symbol_id = 2148 : i64, shape = [1280 : si64]} : () -> tensor<1280xf16>
    %output_233 = "oneflow.variable"() {data_type = 9 : i32, device_name = ["@0:0"], device_tag = "cuda", hierarchy = [1], op_name = "variable_383", output_lbns = ["variable_383/out"], parallel = #sbp.parallel<[] -> [[#sbp.B]]>, scope_symbol_id = 2160 : i64, shape = [1280 : si64, 3 : si64, 3 : si64, 1280 : si64]} : () -> tensor<1280x3x3x1280xf16>
    %output_234 = "oneflow.variable"() {data_type = 9 : i32, device_name = ["@0:0"], device_tag = "cuda", hierarchy = [1], op_name = "unet.down_blocks.3.resnets.0.conv1.bias", output_lbns = ["unet.down_blocks.3.resnets.0.conv1.bias/out"], parallel = #sbp.parallel<[] -> [[#sbp.B]]>, scope_symbol_id = 2164 : i64, shape = [1280 : si64]} : () -> tensor<1280xf16>
    %output_235 = "oneflow.variable"() {data_type = 9 : i32, device_name = ["@0:0"], device_tag = "cuda", hierarchy = [1], op_name = "unet.down_blocks.3.resnets.0.time_emb_proj.weight", output_lbns = ["unet.down_blocks.3.resnets.0.time_emb_proj.weight/out"], parallel = #sbp.parallel<[] -> [[#sbp.B]]>, scope_symbol_id = 2175 : i64, shape = [1280 : si64, 1280 : si64]} : () -> tensor<1280x1280xf16>
    %output_236 = "oneflow.variable"() {data_type = 9 : i32, device_name = ["@0:0"], device_tag = "cuda", hierarchy = [1], op_name = "unet.down_blocks.3.resnets.0.time_emb_proj.bias", output_lbns = ["unet.down_blocks.3.resnets.0.time_emb_proj.bias/out"], parallel = #sbp.parallel<[] -> [[#sbp.B]]>, scope_symbol_id = 2182 : i64, shape = [1280 : si64]} : () -> tensor<1280xf16>
    %output_237 = "oneflow.variable"() {data_type = 9 : i32, device_name = ["@0:0"], device_tag = "cuda", hierarchy = [1], op_name = "unet.down_blocks.3.resnets.0.norm2.weight", output_lbns = ["unet.down_blocks.3.resnets.0.norm2.weight/out"], parallel = #sbp.parallel<[] -> [[#sbp.B]]>, scope_symbol_id = 2199 : i64, shape = [1280 : si64]} : () -> tensor<1280xf16>
    %output_238 = "oneflow.variable"() {data_type = 9 : i32, device_name = ["@0:0"], device_tag = "cuda", hierarchy = [1], op_name = "unet.down_blocks.3.resnets.0.norm2.bias", output_lbns = ["unet.down_blocks.3.resnets.0.norm2.bias/out"], parallel = #sbp.parallel<[] -> [[#sbp.B]]>, scope_symbol_id = 2203 : i64, shape = [1280 : si64]} : () -> tensor<1280xf16>
    %output_239 = "oneflow.variable"() {data_type = 9 : i32, device_name = ["@0:0"], device_tag = "cuda", hierarchy = [1], op_name = "variable_382", output_lbns = ["variable_382/out"], parallel = #sbp.parallel<[] -> [[#sbp.B]]>, scope_symbol_id = 2215 : i64, shape = [1280 : si64, 3 : si64, 3 : si64, 1280 : si64]} : () -> tensor<1280x3x3x1280xf16>
    %output_240 = "oneflow.variable"() {data_type = 9 : i32, device_name = ["@0:0"], device_tag = "cuda", hierarchy = [1], op_name = "unet.down_blocks.3.resnets.0.conv2.bias", output_lbns = ["unet.down_blocks.3.resnets.0.conv2.bias/out"], parallel = #sbp.parallel<[] -> [[#sbp.B]]>, scope_symbol_id = 2219 : i64, shape = [1280 : si64]} : () -> tensor<1280xf16>
    %output_241 = "oneflow.variable"() {data_type = 9 : i32, device_name = ["@0:0"], device_tag = "cuda", hierarchy = [1], op_name = "unet.down_blocks.3.resnets.1.norm1.weight", output_lbns = ["unet.down_blocks.3.resnets.1.norm1.weight/out"], parallel = #sbp.parallel<[] -> [[#sbp.B]]>, scope_symbol_id = 2234 : i64, shape = [1280 : si64]} : () -> tensor<1280xf16>
    %output_242 = "oneflow.variable"() {data_type = 9 : i32, device_name = ["@0:0"], device_tag = "cuda", hierarchy = [1], op_name = "unet.down_blocks.3.resnets.1.norm1.bias", output_lbns = ["unet.down_blocks.3.resnets.1.norm1.bias/out"], parallel = #sbp.parallel<[] -> [[#sbp.B]]>, scope_symbol_id = 2238 : i64, shape = [1280 : si64]} : () -> tensor<1280xf16>
    %output_243 = "oneflow.variable"() {data_type = 9 : i32, device_name = ["@0:0"], device_tag = "cuda", hierarchy = [1], op_name = "variable_381", output_lbns = ["variable_381/out"], parallel = #sbp.parallel<[] -> [[#sbp.B]]>, scope_symbol_id = 2250 : i64, shape = [1280 : si64, 3 : si64, 3 : si64, 1280 : si64]} : () -> tensor<1280x3x3x1280xf16>
    %output_244 = "oneflow.variable"() {data_type = 9 : i32, device_name = ["@0:0"], device_tag = "cuda", hierarchy = [1], op_name = "unet.down_blocks.3.resnets.1.conv1.bias", output_lbns = ["unet.down_blocks.3.resnets.1.conv1.bias/out"], parallel = #sbp.parallel<[] -> [[#sbp.B]]>, scope_symbol_id = 2254 : i64, shape = [1280 : si64]} : () -> tensor<1280xf16>
    %output_245 = "oneflow.variable"() {data_type = 9 : i32, device_name = ["@0:0"], device_tag = "cuda", hierarchy = [1], op_name = "unet.down_blocks.3.resnets.1.time_emb_proj.weight", output_lbns = ["unet.down_blocks.3.resnets.1.time_emb_proj.weight/out"], parallel = #sbp.parallel<[] -> [[#sbp.B]]>, scope_symbol_id = 2265 : i64, shape = [1280 : si64, 1280 : si64]} : () -> tensor<1280x1280xf16>
    %output_246 = "oneflow.variable"() {data_type = 9 : i32, device_name = ["@0:0"], device_tag = "cuda", hierarchy = [1], op_name = "unet.down_blocks.3.resnets.1.time_emb_proj.bias", output_lbns = ["unet.down_blocks.3.resnets.1.time_emb_proj.bias/out"], parallel = #sbp.parallel<[] -> [[#sbp.B]]>, scope_symbol_id = 2272 : i64, shape = [1280 : si64]} : () -> tensor<1280xf16>
    %output_247 = "oneflow.variable"() {data_type = 9 : i32, device_name = ["@0:0"], device_tag = "cuda", hierarchy = [1], op_name = "unet.down_blocks.3.resnets.1.norm2.weight", output_lbns = ["unet.down_blocks.3.resnets.1.norm2.weight/out"], parallel = #sbp.parallel<[] -> [[#sbp.B]]>, scope_symbol_id = 2289 : i64, shape = [1280 : si64]} : () -> tensor<1280xf16>
    %output_248 = "oneflow.variable"() {data_type = 9 : i32, device_name = ["@0:0"], device_tag = "cuda", hierarchy = [1], op_name = "unet.down_blocks.3.resnets.1.norm2.bias", output_lbns = ["unet.down_blocks.3.resnets.1.norm2.bias/out"], parallel = #sbp.parallel<[] -> [[#sbp.B]]>, scope_symbol_id = 2293 : i64, shape = [1280 : si64]} : () -> tensor<1280xf16>
    %output_249 = "oneflow.variable"() {data_type = 9 : i32, device_name = ["@0:0"], device_tag = "cuda", hierarchy = [1], op_name = "variable_380", output_lbns = ["variable_380/out"], parallel = #sbp.parallel<[] -> [[#sbp.B]]>, scope_symbol_id = 2305 : i64, shape = [1280 : si64, 3 : si64, 3 : si64, 1280 : si64]} : () -> tensor<1280x3x3x1280xf16>
    %output_250 = "oneflow.variable"() {data_type = 9 : i32, device_name = ["@0:0"], device_tag = "cuda", hierarchy = [1], op_name = "unet.down_blocks.3.resnets.1.conv2.bias", output_lbns = ["unet.down_blocks.3.resnets.1.conv2.bias/out"], parallel = #sbp.parallel<[] -> [[#sbp.B]]>, scope_symbol_id = 2309 : i64, shape = [1280 : si64]} : () -> tensor<1280xf16>
    %output_251 = "oneflow.variable"() {data_type = 9 : i32, device_name = ["@0:0"], device_tag = "cuda", hierarchy = [1], op_name = "unet.mid_block.resnets.0.norm1.weight", output_lbns = ["unet.mid_block.resnets.0.norm1.weight/out"], parallel = #sbp.parallel<[] -> [[#sbp.B]]>, scope_symbol_id = 2325 : i64, shape = [1280 : si64]} : () -> tensor<1280xf16>
    %output_252 = "oneflow.variable"() {data_type = 9 : i32, device_name = ["@0:0"], device_tag = "cuda", hierarchy = [1], op_name = "unet.mid_block.resnets.0.norm1.bias", output_lbns = ["unet.mid_block.resnets.0.norm1.bias/out"], parallel = #sbp.parallel<[] -> [[#sbp.B]]>, scope_symbol_id = 2329 : i64, shape = [1280 : si64]} : () -> tensor<1280xf16>
    %output_253 = "oneflow.variable"() {data_type = 9 : i32, device_name = ["@0:0"], device_tag = "cuda", hierarchy = [1], op_name = "variable_379", output_lbns = ["variable_379/out"], parallel = #sbp.parallel<[] -> [[#sbp.B]]>, scope_symbol_id = 2341 : i64, shape = [1280 : si64, 3 : si64, 3 : si64, 1280 : si64]} : () -> tensor<1280x3x3x1280xf16>
    %output_254 = "oneflow.variable"() {data_type = 9 : i32, device_name = ["@0:0"], device_tag = "cuda", hierarchy = [1], op_name = "unet.mid_block.resnets.0.conv1.bias", output_lbns = ["unet.mid_block.resnets.0.conv1.bias/out"], parallel = #sbp.parallel<[] -> [[#sbp.B]]>, scope_symbol_id = 2345 : i64, shape = [1280 : si64]} : () -> tensor<1280xf16>
    %output_255 = "oneflow.variable"() {data_type = 9 : i32, device_name = ["@0:0"], device_tag = "cuda", hierarchy = [1], op_name = "unet.mid_block.resnets.0.time_emb_proj.weight", output_lbns = ["unet.mid_block.resnets.0.time_emb_proj.weight/out"], parallel = #sbp.parallel<[] -> [[#sbp.B]]>, scope_symbol_id = 2356 : i64, shape = [1280 : si64, 1280 : si64]} : () -> tensor<1280x1280xf16>
    %output_256 = "oneflow.variable"() {data_type = 9 : i32, device_name = ["@0:0"], device_tag = "cuda", hierarchy = [1], op_name = "unet.mid_block.resnets.0.time_emb_proj.bias", output_lbns = ["unet.mid_block.resnets.0.time_emb_proj.bias/out"], parallel = #sbp.parallel<[] -> [[#sbp.B]]>, scope_symbol_id = 2363 : i64, shape = [1280 : si64]} : () -> tensor<1280xf16>
    %output_257 = "oneflow.variable"() {data_type = 9 : i32, device_name = ["@0:0"], device_tag = "cuda", hierarchy = [1], op_name = "unet.mid_block.resnets.0.norm2.weight", output_lbns = ["unet.mid_block.resnets.0.norm2.weight/out"], parallel = #sbp.parallel<[] -> [[#sbp.B]]>, scope_symbol_id = 2380 : i64, shape = [1280 : si64]} : () -> tensor<1280xf16>
    %output_258 = "oneflow.variable"() {data_type = 9 : i32, device_name = ["@0:0"], device_tag = "cuda", hierarchy = [1], op_name = "unet.mid_block.resnets.0.norm2.bias", output_lbns = ["unet.mid_block.resnets.0.norm2.bias/out"], parallel = #sbp.parallel<[] -> [[#sbp.B]]>, scope_symbol_id = 2384 : i64, shape = [1280 : si64]} : () -> tensor<1280xf16>
    %output_259 = "oneflow.variable"() {data_type = 9 : i32, device_name = ["@0:0"], device_tag = "cuda", hierarchy = [1], op_name = "variable_378", output_lbns = ["variable_378/out"], parallel = #sbp.parallel<[] -> [[#sbp.B]]>, scope_symbol_id = 2396 : i64, shape = [1280 : si64, 3 : si64, 3 : si64, 1280 : si64]} : () -> tensor<1280x3x3x1280xf16>
    %output_260 = "oneflow.variable"() {data_type = 9 : i32, device_name = ["@0:0"], device_tag = "cuda", hierarchy = [1], op_name = "unet.mid_block.resnets.0.conv2.bias", output_lbns = ["unet.mid_block.resnets.0.conv2.bias/out"], parallel = #sbp.parallel<[] -> [[#sbp.B]]>, scope_symbol_id = 2400 : i64, shape = [1280 : si64]} : () -> tensor<1280xf16>
    %output_261 = "oneflow.variable"() {data_type = 9 : i32, device_name = ["@0:0"], device_tag = "cuda", hierarchy = [1], op_name = "unet.mid_block.attentions.0.norm.weight", output_lbns = ["unet.mid_block.attentions.0.norm.weight/out"], parallel = #sbp.parallel<[] -> [[#sbp.B]]>, scope_symbol_id = 2415 : i64, shape = [1280 : si64]} : () -> tensor<1280xf16>
    %output_262 = "oneflow.variable"() {data_type = 9 : i32, device_name = ["@0:0"], device_tag = "cuda", hierarchy = [1], op_name = "unet.mid_block.attentions.0.norm.bias", output_lbns = ["unet.mid_block.attentions.0.norm.bias/out"], parallel = #sbp.parallel<[] -> [[#sbp.B]]>, scope_symbol_id = 2419 : i64, shape = [1280 : si64]} : () -> tensor<1280xf16>
    %output_263 = "oneflow.variable"() {data_type = 9 : i32, device_name = ["@0:0"], device_tag = "cuda", hierarchy = [1], op_name = "variable_377", output_lbns = ["variable_377/out"], parallel = #sbp.parallel<[] -> [[#sbp.B]]>, scope_symbol_id = 2427 : i64, shape = [1280 : si64, 1 : si64, 1 : si64, 1280 : si64]} : () -> tensor<1280x1x1x1280xf16>
    %output_264 = "oneflow.variable"() {data_type = 9 : i32, device_name = ["@0:0"], device_tag = "cuda", hierarchy = [1], op_name = "unet.mid_block.attentions.0.proj_in.bias", output_lbns = ["unet.mid_block.attentions.0.proj_in.bias/out"], parallel = #sbp.parallel<[] -> [[#sbp.B]]>, scope_symbol_id = 2431 : i64, shape = [1280 : si64]} : () -> tensor<1280xf16>
    %output_265 = "oneflow.variable"() {data_type = 9 : i32, device_name = ["@0:0"], device_tag = "cuda", hierarchy = [1], op_name = "unet.mid_block.attentions.0.transformer_blocks.0.norm1.weight", output_lbns = ["unet.mid_block.attentions.0.transformer_blocks.0.norm1.weight/out"], parallel = #sbp.parallel<[] -> [[#sbp.B]]>, scope_symbol_id = 2446 : i64, shape = [1280 : si64]} : () -> tensor<1280xf16>
    %output_266 = "oneflow.variable"() {data_type = 9 : i32, device_name = ["@0:0"], device_tag = "cuda", hierarchy = [1], op_name = "unet.mid_block.attentions.0.transformer_blocks.0.norm1.bias", output_lbns = ["unet.mid_block.attentions.0.transformer_blocks.0.norm1.bias/out"], parallel = #sbp.parallel<[] -> [[#sbp.B]]>, scope_symbol_id = 2450 : i64, shape = [1280 : si64]} : () -> tensor<1280xf16>
    %output_267 = "oneflow.variable"() {data_type = 9 : i32, device_name = ["@0:0"], device_tag = "cuda", hierarchy = [1], op_name = "unet.mid_block.attentions.0.transformer_blocks.0.attn1.to_q.weight", output_lbns = ["unet.mid_block.attentions.0.transformer_blocks.0.attn1.to_q.weight/out"], parallel = #sbp.parallel<[] -> [[#sbp.B]]>, scope_symbol_id = 2459 : i64, shape = [1280 : si64, 1280 : si64]} : () -> tensor<1280x1280xf16>
    %output_268 = "oneflow.variable"() {data_type = 9 : i32, device_name = ["@0:0"], device_tag = "cuda", hierarchy = [1], op_name = "unet.mid_block.attentions.0.transformer_blocks.0.attn1.to_k.weight", output_lbns = ["unet.mid_block.attentions.0.transformer_blocks.0.attn1.to_k.weight/out"], parallel = #sbp.parallel<[] -> [[#sbp.B]]>, scope_symbol_id = 2467 : i64, shape = [1280 : si64, 1280 : si64]} : () -> tensor<1280x1280xf16>
    %output_269 = "oneflow.variable"() {data_type = 9 : i32, device_name = ["@0:0"], device_tag = "cuda", hierarchy = [1], op_name = "unet.mid_block.attentions.0.transformer_blocks.0.attn1.to_v.weight", output_lbns = ["unet.mid_block.attentions.0.transformer_blocks.0.attn1.to_v.weight/out"], parallel = #sbp.parallel<[] -> [[#sbp.B]]>, scope_symbol_id = 2475 : i64, shape = [1280 : si64, 1280 : si64]} : () -> tensor<1280x1280xf16>
    %output_270 = "oneflow.variable"() {data_type = 9 : i32, device_name = ["@0:0"], device_tag = "cuda", hierarchy = [1], op_name = "unet.mid_block.attentions.0.transformer_blocks.0.attn1.to_out.0.weight", output_lbns = ["unet.mid_block.attentions.0.transformer_blocks.0.attn1.to_out.0.weight/out"], parallel = #sbp.parallel<[] -> [[#sbp.B]]>, scope_symbol_id = 2487 : i64, shape = [1280 : si64, 1280 : si64]} : () -> tensor<1280x1280xf16>
    %output_271 = "oneflow.variable"() {data_type = 9 : i32, device_name = ["@0:0"], device_tag = "cuda", hierarchy = [1], op_name = "unet.mid_block.attentions.0.transformer_blocks.0.attn1.to_out.0.bias", output_lbns = ["unet.mid_block.attentions.0.transformer_blocks.0.attn1.to_out.0.bias/out"], parallel = #sbp.parallel<[] -> [[#sbp.B]]>, scope_symbol_id = 2494 : i64, shape = [1280 : si64]} : () -> tensor<1280xf16>
    %output_272 = "oneflow.variable"() {data_type = 9 : i32, device_name = ["@0:0"], device_tag = "cuda", hierarchy = [1], op_name = "unet.mid_block.attentions.0.transformer_blocks.0.norm2.weight", output_lbns = ["unet.mid_block.attentions.0.transformer_blocks.0.norm2.weight/out"], parallel = #sbp.parallel<[] -> [[#sbp.B]]>, scope_symbol_id = 2506 : i64, shape = [1280 : si64]} : () -> tensor<1280xf16>
    %output_273 = "oneflow.variable"() {data_type = 9 : i32, device_name = ["@0:0"], device_tag = "cuda", hierarchy = [1], op_name = "unet.mid_block.attentions.0.transformer_blocks.0.norm2.bias", output_lbns = ["unet.mid_block.attentions.0.transformer_blocks.0.norm2.bias/out"], parallel = #sbp.parallel<[] -> [[#sbp.B]]>, scope_symbol_id = 2510 : i64, shape = [1280 : si64]} : () -> tensor<1280xf16>
    %output_274 = "oneflow.variable"() {data_type = 9 : i32, device_name = ["@0:0"], device_tag = "cuda", hierarchy = [1], op_name = "unet.mid_block.attentions.0.transformer_blocks.0.attn2.to_q.weight", output_lbns = ["unet.mid_block.attentions.0.transformer_blocks.0.attn2.to_q.weight/out"], parallel = #sbp.parallel<[] -> [[#sbp.B]]>, scope_symbol_id = 2519 : i64, shape = [1280 : si64, 1280 : si64]} : () -> tensor<1280x1280xf16>
    %output_275 = "oneflow.variable"() {data_type = 9 : i32, device_name = ["@0:0"], device_tag = "cuda", hierarchy = [1], op_name = "unet.mid_block.attentions.0.transformer_blocks.0.attn2.to_k.weight", output_lbns = ["unet.mid_block.attentions.0.transformer_blocks.0.attn2.to_k.weight/out"], parallel = #sbp.parallel<[] -> [[#sbp.B]]>, scope_symbol_id = 2527 : i64, shape = [1280 : si64, 768 : si64]} : () -> tensor<1280x768xf16>
    %output_276 = "oneflow.variable"() {data_type = 9 : i32, device_name = ["@0:0"], device_tag = "cuda", hierarchy = [1], op_name = "unet.mid_block.attentions.0.transformer_blocks.0.attn2.to_v.weight", output_lbns = ["unet.mid_block.attentions.0.transformer_blocks.0.attn2.to_v.weight/out"], parallel = #sbp.parallel<[] -> [[#sbp.B]]>, scope_symbol_id = 2535 : i64, shape = [1280 : si64, 768 : si64]} : () -> tensor<1280x768xf16>
    %output_277 = "oneflow.variable"() {data_type = 9 : i32, device_name = ["@0:0"], device_tag = "cuda", hierarchy = [1], op_name = "unet.mid_block.attentions.0.transformer_blocks.0.attn2.to_out.0.weight", output_lbns = ["unet.mid_block.attentions.0.transformer_blocks.0.attn2.to_out.0.weight/out"], parallel = #sbp.parallel<[] -> [[#sbp.B]]>, scope_symbol_id = 2547 : i64, shape = [1280 : si64, 1280 : si64]} : () -> tensor<1280x1280xf16>
    %output_278 = "oneflow.variable"() {data_type = 9 : i32, device_name = ["@0:0"], device_tag = "cuda", hierarchy = [1], op_name = "unet.mid_block.attentions.0.transformer_blocks.0.attn2.to_out.0.bias", output_lbns = ["unet.mid_block.attentions.0.transformer_blocks.0.attn2.to_out.0.bias/out"], parallel = #sbp.parallel<[] -> [[#sbp.B]]>, scope_symbol_id = 2554 : i64, shape = [1280 : si64]} : () -> tensor<1280xf16>
    %output_279 = "oneflow.variable"() {data_type = 9 : i32, device_name = ["@0:0"], device_tag = "cuda", hierarchy = [1], op_name = "unet.mid_block.attentions.0.transformer_blocks.0.norm3.weight", output_lbns = ["unet.mid_block.attentions.0.transformer_blocks.0.norm3.weight/out"], parallel = #sbp.parallel<[] -> [[#sbp.B]]>, scope_symbol_id = 2566 : i64, shape = [1280 : si64]} : () -> tensor<1280xf16>
    %output_280 = "oneflow.variable"() {data_type = 9 : i32, device_name = ["@0:0"], device_tag = "cuda", hierarchy = [1], op_name = "unet.mid_block.attentions.0.transformer_blocks.0.norm3.bias", output_lbns = ["unet.mid_block.attentions.0.transformer_blocks.0.norm3.bias/out"], parallel = #sbp.parallel<[] -> [[#sbp.B]]>, scope_symbol_id = 2570 : i64, shape = [1280 : si64]} : () -> tensor<1280xf16>
    %output_281 = "oneflow.variable"() {data_type = 9 : i32, device_name = ["@0:0"], device_tag = "cuda", hierarchy = [1], op_name = "unet.mid_block.attentions.0.transformer_blocks.0.ff.net.0.proj.weight", output_lbns = ["unet.mid_block.attentions.0.transformer_blocks.0.ff.net.0.proj.weight/out"], parallel = #sbp.parallel<[] -> [[#sbp.B]]>, scope_symbol_id = 2581 : i64, shape = [10240 : si64, 1280 : si64]} : () -> tensor<10240x1280xf16>
    %output_282 = "oneflow.variable"() {data_type = 9 : i32, device_name = ["@0:0"], device_tag = "cuda", hierarchy = [1], op_name = "unet.mid_block.attentions.0.transformer_blocks.0.ff.net.0.proj.bias", output_lbns = ["unet.mid_block.attentions.0.transformer_blocks.0.ff.net.0.proj.bias/out"], parallel = #sbp.parallel<[] -> [[#sbp.B]]>, scope_symbol_id = 2588 : i64, shape = [10240 : si64]} : () -> tensor<10240xf16>
    %output_283 = "oneflow.variable"() {data_type = 9 : i32, device_name = ["@0:0"], device_tag = "cuda", hierarchy = [1], op_name = "unet.mid_block.attentions.0.transformer_blocks.0.ff.net.2.weight", output_lbns = ["unet.mid_block.attentions.0.transformer_blocks.0.ff.net.2.weight/out"], parallel = #sbp.parallel<[] -> [[#sbp.B]]>, scope_symbol_id = 2609 : i64, shape = [1280 : si64, 5120 : si64]} : () -> tensor<1280x5120xf16>
    %output_284 = "oneflow.variable"() {data_type = 9 : i32, device_name = ["@0:0"], device_tag = "cuda", hierarchy = [1], op_name = "unet.mid_block.attentions.0.transformer_blocks.0.ff.net.2.bias", output_lbns = ["unet.mid_block.attentions.0.transformer_blocks.0.ff.net.2.bias/out"], parallel = #sbp.parallel<[] -> [[#sbp.B]]>, scope_symbol_id = 2616 : i64, shape = [1280 : si64]} : () -> tensor<1280xf16>
    %output_285 = "oneflow.variable"() {data_type = 9 : i32, device_name = ["@0:0"], device_tag = "cuda", hierarchy = [1], op_name = "variable_376", output_lbns = ["variable_376/out"], parallel = #sbp.parallel<[] -> [[#sbp.B]]>, scope_symbol_id = 2633 : i64, shape = [1280 : si64, 1 : si64, 1 : si64, 1280 : si64]} : () -> tensor<1280x1x1x1280xf16>
    %output_286 = "oneflow.variable"() {data_type = 9 : i32, device_name = ["@0:0"], device_tag = "cuda", hierarchy = [1], op_name = "unet.mid_block.attentions.0.proj_out.bias", output_lbns = ["unet.mid_block.attentions.0.proj_out.bias/out"], parallel = #sbp.parallel<[] -> [[#sbp.B]]>, scope_symbol_id = 2637 : i64, shape = [1280 : si64]} : () -> tensor<1280xf16>
    %output_287 = "oneflow.variable"() {data_type = 9 : i32, device_name = ["@0:0"], device_tag = "cuda", hierarchy = [1], op_name = "unet.mid_block.resnets.1.norm1.weight", output_lbns = ["unet.mid_block.resnets.1.norm1.weight/out"], parallel = #sbp.parallel<[] -> [[#sbp.B]]>, scope_symbol_id = 2649 : i64, shape = [1280 : si64]} : () -> tensor<1280xf16>
    %output_288 = "oneflow.variable"() {data_type = 9 : i32, device_name = ["@0:0"], device_tag = "cuda", hierarchy = [1], op_name = "unet.mid_block.resnets.1.norm1.bias", output_lbns = ["unet.mid_block.resnets.1.norm1.bias/out"], parallel = #sbp.parallel<[] -> [[#sbp.B]]>, scope_symbol_id = 2653 : i64, shape = [1280 : si64]} : () -> tensor<1280xf16>
    %output_289 = "oneflow.variable"() {data_type = 9 : i32, device_name = ["@0:0"], device_tag = "cuda", hierarchy = [1], op_name = "variable_375", output_lbns = ["variable_375/out"], parallel = #sbp.parallel<[] -> [[#sbp.B]]>, scope_symbol_id = 2665 : i64, shape = [1280 : si64, 3 : si64, 3 : si64, 1280 : si64]} : () -> tensor<1280x3x3x1280xf16>
    %output_290 = "oneflow.variable"() {data_type = 9 : i32, device_name = ["@0:0"], device_tag = "cuda", hierarchy = [1], op_name = "unet.mid_block.resnets.1.conv1.bias", output_lbns = ["unet.mid_block.resnets.1.conv1.bias/out"], parallel = #sbp.parallel<[] -> [[#sbp.B]]>, scope_symbol_id = 2669 : i64, shape = [1280 : si64]} : () -> tensor<1280xf16>
    %output_291 = "oneflow.variable"() {data_type = 9 : i32, device_name = ["@0:0"], device_tag = "cuda", hierarchy = [1], op_name = "unet.mid_block.resnets.1.time_emb_proj.weight", output_lbns = ["unet.mid_block.resnets.1.time_emb_proj.weight/out"], parallel = #sbp.parallel<[] -> [[#sbp.B]]>, scope_symbol_id = 2680 : i64, shape = [1280 : si64, 1280 : si64]} : () -> tensor<1280x1280xf16>
    %output_292 = "oneflow.variable"() {data_type = 9 : i32, device_name = ["@0:0"], device_tag = "cuda", hierarchy = [1], op_name = "unet.mid_block.resnets.1.time_emb_proj.bias", output_lbns = ["unet.mid_block.resnets.1.time_emb_proj.bias/out"], parallel = #sbp.parallel<[] -> [[#sbp.B]]>, scope_symbol_id = 2687 : i64, shape = [1280 : si64]} : () -> tensor<1280xf16>
    %output_293 = "oneflow.variable"() {data_type = 9 : i32, device_name = ["@0:0"], device_tag = "cuda", hierarchy = [1], op_name = "unet.mid_block.resnets.1.norm2.weight", output_lbns = ["unet.mid_block.resnets.1.norm2.weight/out"], parallel = #sbp.parallel<[] -> [[#sbp.B]]>, scope_symbol_id = 2704 : i64, shape = [1280 : si64]} : () -> tensor<1280xf16>
    %output_294 = "oneflow.variable"() {data_type = 9 : i32, device_name = ["@0:0"], device_tag = "cuda", hierarchy = [1], op_name = "unet.mid_block.resnets.1.norm2.bias", output_lbns = ["unet.mid_block.resnets.1.norm2.bias/out"], parallel = #sbp.parallel<[] -> [[#sbp.B]]>, scope_symbol_id = 2708 : i64, shape = [1280 : si64]} : () -> tensor<1280xf16>
    %output_295 = "oneflow.variable"() {data_type = 9 : i32, device_name = ["@0:0"], device_tag = "cuda", hierarchy = [1], op_name = "variable_374", output_lbns = ["variable_374/out"], parallel = #sbp.parallel<[] -> [[#sbp.B]]>, scope_symbol_id = 2720 : i64, shape = [1280 : si64, 3 : si64, 3 : si64, 1280 : si64]} : () -> tensor<1280x3x3x1280xf16>
    %output_296 = "oneflow.variable"() {data_type = 9 : i32, device_name = ["@0:0"], device_tag = "cuda", hierarchy = [1], op_name = "unet.mid_block.resnets.1.conv2.bias", output_lbns = ["unet.mid_block.resnets.1.conv2.bias/out"], parallel = #sbp.parallel<[] -> [[#sbp.B]]>, scope_symbol_id = 2724 : i64, shape = [1280 : si64]} : () -> tensor<1280xf16>
    %output_297 = "oneflow.variable"() {data_type = 9 : i32, device_name = ["@0:0"], device_tag = "cuda", hierarchy = [1], op_name = "unet.up_blocks.0.resnets.0.norm1.weight", output_lbns = ["unet.up_blocks.0.resnets.0.norm1.weight/out"], parallel = #sbp.parallel<[] -> [[#sbp.B]]>, scope_symbol_id = 2743 : i64, shape = [2560 : si64]} : () -> tensor<2560xf16>
    %output_298 = "oneflow.variable"() {data_type = 9 : i32, device_name = ["@0:0"], device_tag = "cuda", hierarchy = [1], op_name = "unet.up_blocks.0.resnets.0.norm1.bias", output_lbns = ["unet.up_blocks.0.resnets.0.norm1.bias/out"], parallel = #sbp.parallel<[] -> [[#sbp.B]]>, scope_symbol_id = 2747 : i64, shape = [2560 : si64]} : () -> tensor<2560xf16>
    %output_299 = "oneflow.variable"() {data_type = 9 : i32, device_name = ["@0:0"], device_tag = "cuda", hierarchy = [1], op_name = "variable_373", output_lbns = ["variable_373/out"], parallel = #sbp.parallel<[] -> [[#sbp.B]]>, scope_symbol_id = 2759 : i64, shape = [1280 : si64, 3 : si64, 3 : si64, 2560 : si64]} : () -> tensor<1280x3x3x2560xf16>
    %output_300 = "oneflow.variable"() {data_type = 9 : i32, device_name = ["@0:0"], device_tag = "cuda", hierarchy = [1], op_name = "unet.up_blocks.0.resnets.0.conv1.bias", output_lbns = ["unet.up_blocks.0.resnets.0.conv1.bias/out"], parallel = #sbp.parallel<[] -> [[#sbp.B]]>, scope_symbol_id = 2763 : i64, shape = [1280 : si64]} : () -> tensor<1280xf16>
    %output_301 = "oneflow.variable"() {data_type = 9 : i32, device_name = ["@0:0"], device_tag = "cuda", hierarchy = [1], op_name = "unet.up_blocks.0.resnets.0.time_emb_proj.weight", output_lbns = ["unet.up_blocks.0.resnets.0.time_emb_proj.weight/out"], parallel = #sbp.parallel<[] -> [[#sbp.B]]>, scope_symbol_id = 2774 : i64, shape = [1280 : si64, 1280 : si64]} : () -> tensor<1280x1280xf16>
    %output_302 = "oneflow.variable"() {data_type = 9 : i32, device_name = ["@0:0"], device_tag = "cuda", hierarchy = [1], op_name = "unet.up_blocks.0.resnets.0.time_emb_proj.bias", output_lbns = ["unet.up_blocks.0.resnets.0.time_emb_proj.bias/out"], parallel = #sbp.parallel<[] -> [[#sbp.B]]>, scope_symbol_id = 2781 : i64, shape = [1280 : si64]} : () -> tensor<1280xf16>
    %output_303 = "oneflow.variable"() {data_type = 9 : i32, device_name = ["@0:0"], device_tag = "cuda", hierarchy = [1], op_name = "unet.up_blocks.0.resnets.0.norm2.weight", output_lbns = ["unet.up_blocks.0.resnets.0.norm2.weight/out"], parallel = #sbp.parallel<[] -> [[#sbp.B]]>, scope_symbol_id = 2798 : i64, shape = [1280 : si64]} : () -> tensor<1280xf16>
    %output_304 = "oneflow.variable"() {data_type = 9 : i32, device_name = ["@0:0"], device_tag = "cuda", hierarchy = [1], op_name = "unet.up_blocks.0.resnets.0.norm2.bias", output_lbns = ["unet.up_blocks.0.resnets.0.norm2.bias/out"], parallel = #sbp.parallel<[] -> [[#sbp.B]]>, scope_symbol_id = 2802 : i64, shape = [1280 : si64]} : () -> tensor<1280xf16>
    %output_305 = "oneflow.variable"() {data_type = 9 : i32, device_name = ["@0:0"], device_tag = "cuda", hierarchy = [1], op_name = "variable_372", output_lbns = ["variable_372/out"], parallel = #sbp.parallel<[] -> [[#sbp.B]]>, scope_symbol_id = 2814 : i64, shape = [1280 : si64, 3 : si64, 3 : si64, 1280 : si64]} : () -> tensor<1280x3x3x1280xf16>
    %output_306 = "oneflow.variable"() {data_type = 9 : i32, device_name = ["@0:0"], device_tag = "cuda", hierarchy = [1], op_name = "unet.up_blocks.0.resnets.0.conv2.bias", output_lbns = ["unet.up_blocks.0.resnets.0.conv2.bias/out"], parallel = #sbp.parallel<[] -> [[#sbp.B]]>, scope_symbol_id = 2818 : i64, shape = [1280 : si64]} : () -> tensor<1280xf16>
    %output_307 = "oneflow.variable"() {data_type = 9 : i32, device_name = ["@0:0"], device_tag = "cuda", hierarchy = [1], op_name = "variable_371", output_lbns = ["variable_371/out"], parallel = #sbp.parallel<[] -> [[#sbp.B]]>, scope_symbol_id = 2826 : i64, shape = [1280 : si64, 1 : si64, 1 : si64, 2560 : si64]} : () -> tensor<1280x1x1x2560xf16>
    %output_308 = "oneflow.variable"() {data_type = 9 : i32, device_name = ["@0:0"], device_tag = "cuda", hierarchy = [1], op_name = "unet.up_blocks.0.resnets.0.conv_shortcut.bias", output_lbns = ["unet.up_blocks.0.resnets.0.conv_shortcut.bias/out"], parallel = #sbp.parallel<[] -> [[#sbp.B]]>, scope_symbol_id = 2830 : i64, shape = [1280 : si64]} : () -> tensor<1280xf16>
    %output_309 = "oneflow.variable"() {data_type = 9 : i32, device_name = ["@0:0"], device_tag = "cuda", hierarchy = [1], op_name = "unet.up_blocks.0.resnets.1.norm1.weight", output_lbns = ["unet.up_blocks.0.resnets.1.norm1.weight/out"], parallel = #sbp.parallel<[] -> [[#sbp.B]]>, scope_symbol_id = 2848 : i64, shape = [2560 : si64]} : () -> tensor<2560xf16>
    %output_310 = "oneflow.variable"() {data_type = 9 : i32, device_name = ["@0:0"], device_tag = "cuda", hierarchy = [1], op_name = "unet.up_blocks.0.resnets.1.norm1.bias", output_lbns = ["unet.up_blocks.0.resnets.1.norm1.bias/out"], parallel = #sbp.parallel<[] -> [[#sbp.B]]>, scope_symbol_id = 2852 : i64, shape = [2560 : si64]} : () -> tensor<2560xf16>
    %output_311 = "oneflow.variable"() {data_type = 9 : i32, device_name = ["@0:0"], device_tag = "cuda", hierarchy = [1], op_name = "variable_370", output_lbns = ["variable_370/out"], parallel = #sbp.parallel<[] -> [[#sbp.B]]>, scope_symbol_id = 2864 : i64, shape = [1280 : si64, 3 : si64, 3 : si64, 2560 : si64]} : () -> tensor<1280x3x3x2560xf16>
    %output_312 = "oneflow.variable"() {data_type = 9 : i32, device_name = ["@0:0"], device_tag = "cuda", hierarchy = [1], op_name = "unet.up_blocks.0.resnets.1.conv1.bias", output_lbns = ["unet.up_blocks.0.resnets.1.conv1.bias/out"], parallel = #sbp.parallel<[] -> [[#sbp.B]]>, scope_symbol_id = 2868 : i64, shape = [1280 : si64]} : () -> tensor<1280xf16>
    %output_313 = "oneflow.variable"() {data_type = 9 : i32, device_name = ["@0:0"], device_tag = "cuda", hierarchy = [1], op_name = "unet.up_blocks.0.resnets.1.time_emb_proj.weight", output_lbns = ["unet.up_blocks.0.resnets.1.time_emb_proj.weight/out"], parallel = #sbp.parallel<[] -> [[#sbp.B]]>, scope_symbol_id = 2879 : i64, shape = [1280 : si64, 1280 : si64]} : () -> tensor<1280x1280xf16>
    %output_314 = "oneflow.variable"() {data_type = 9 : i32, device_name = ["@0:0"], device_tag = "cuda", hierarchy = [1], op_name = "unet.up_blocks.0.resnets.1.time_emb_proj.bias", output_lbns = ["unet.up_blocks.0.resnets.1.time_emb_proj.bias/out"], parallel = #sbp.parallel<[] -> [[#sbp.B]]>, scope_symbol_id = 2886 : i64, shape = [1280 : si64]} : () -> tensor<1280xf16>
    %output_315 = "oneflow.variable"() {data_type = 9 : i32, device_name = ["@0:0"], device_tag = "cuda", hierarchy = [1], op_name = "unet.up_blocks.0.resnets.1.norm2.weight", output_lbns = ["unet.up_blocks.0.resnets.1.norm2.weight/out"], parallel = #sbp.parallel<[] -> [[#sbp.B]]>, scope_symbol_id = 2903 : i64, shape = [1280 : si64]} : () -> tensor<1280xf16>
    %output_316 = "oneflow.variable"() {data_type = 9 : i32, device_name = ["@0:0"], device_tag = "cuda", hierarchy = [1], op_name = "unet.up_blocks.0.resnets.1.norm2.bias", output_lbns = ["unet.up_blocks.0.resnets.1.norm2.bias/out"], parallel = #sbp.parallel<[] -> [[#sbp.B]]>, scope_symbol_id = 2907 : i64, shape = [1280 : si64]} : () -> tensor<1280xf16>
    %output_317 = "oneflow.variable"() {data_type = 9 : i32, device_name = ["@0:0"], device_tag = "cuda", hierarchy = [1], op_name = "variable_369", output_lbns = ["variable_369/out"], parallel = #sbp.parallel<[] -> [[#sbp.B]]>, scope_symbol_id = 2919 : i64, shape = [1280 : si64, 3 : si64, 3 : si64, 1280 : si64]} : () -> tensor<1280x3x3x1280xf16>
    %output_318 = "oneflow.variable"() {data_type = 9 : i32, device_name = ["@0:0"], device_tag = "cuda", hierarchy = [1], op_name = "unet.up_blocks.0.resnets.1.conv2.bias", output_lbns = ["unet.up_blocks.0.resnets.1.conv2.bias/out"], parallel = #sbp.parallel<[] -> [[#sbp.B]]>, scope_symbol_id = 2923 : i64, shape = [1280 : si64]} : () -> tensor<1280xf16>
    %output_319 = "oneflow.variable"() {data_type = 9 : i32, device_name = ["@0:0"], device_tag = "cuda", hierarchy = [1], op_name = "variable_368", output_lbns = ["variable_368/out"], parallel = #sbp.parallel<[] -> [[#sbp.B]]>, scope_symbol_id = 2931 : i64, shape = [1280 : si64, 1 : si64, 1 : si64, 2560 : si64]} : () -> tensor<1280x1x1x2560xf16>
    %output_320 = "oneflow.variable"() {data_type = 9 : i32, device_name = ["@0:0"], device_tag = "cuda", hierarchy = [1], op_name = "unet.up_blocks.0.resnets.1.conv_shortcut.bias", output_lbns = ["unet.up_blocks.0.resnets.1.conv_shortcut.bias/out"], parallel = #sbp.parallel<[] -> [[#sbp.B]]>, scope_symbol_id = 2935 : i64, shape = [1280 : si64]} : () -> tensor<1280xf16>
    %output_321 = "oneflow.variable"() {data_type = 9 : i32, device_name = ["@0:0"], device_tag = "cuda", hierarchy = [1], op_name = "unet.up_blocks.0.resnets.2.norm1.weight", output_lbns = ["unet.up_blocks.0.resnets.2.norm1.weight/out"], parallel = #sbp.parallel<[] -> [[#sbp.B]]>, scope_symbol_id = 2953 : i64, shape = [2560 : si64]} : () -> tensor<2560xf16>
    %output_322 = "oneflow.variable"() {data_type = 9 : i32, device_name = ["@0:0"], device_tag = "cuda", hierarchy = [1], op_name = "unet.up_blocks.0.resnets.2.norm1.bias", output_lbns = ["unet.up_blocks.0.resnets.2.norm1.bias/out"], parallel = #sbp.parallel<[] -> [[#sbp.B]]>, scope_symbol_id = 2957 : i64, shape = [2560 : si64]} : () -> tensor<2560xf16>
    %output_323 = "oneflow.variable"() {data_type = 9 : i32, device_name = ["@0:0"], device_tag = "cuda", hierarchy = [1], op_name = "variable_367", output_lbns = ["variable_367/out"], parallel = #sbp.parallel<[] -> [[#sbp.B]]>, scope_symbol_id = 2969 : i64, shape = [1280 : si64, 3 : si64, 3 : si64, 2560 : si64]} : () -> tensor<1280x3x3x2560xf16>
    %output_324 = "oneflow.variable"() {data_type = 9 : i32, device_name = ["@0:0"], device_tag = "cuda", hierarchy = [1], op_name = "unet.up_blocks.0.resnets.2.conv1.bias", output_lbns = ["unet.up_blocks.0.resnets.2.conv1.bias/out"], parallel = #sbp.parallel<[] -> [[#sbp.B]]>, scope_symbol_id = 2973 : i64, shape = [1280 : si64]} : () -> tensor<1280xf16>
    %output_325 = "oneflow.variable"() {data_type = 9 : i32, device_name = ["@0:0"], device_tag = "cuda", hierarchy = [1], op_name = "unet.up_blocks.0.resnets.2.time_emb_proj.weight", output_lbns = ["unet.up_blocks.0.resnets.2.time_emb_proj.weight/out"], parallel = #sbp.parallel<[] -> [[#sbp.B]]>, scope_symbol_id = 2984 : i64, shape = [1280 : si64, 1280 : si64]} : () -> tensor<1280x1280xf16>
    %output_326 = "oneflow.variable"() {data_type = 9 : i32, device_name = ["@0:0"], device_tag = "cuda", hierarchy = [1], op_name = "unet.up_blocks.0.resnets.2.time_emb_proj.bias", output_lbns = ["unet.up_blocks.0.resnets.2.time_emb_proj.bias/out"], parallel = #sbp.parallel<[] -> [[#sbp.B]]>, scope_symbol_id = 2991 : i64, shape = [1280 : si64]} : () -> tensor<1280xf16>
    %output_327 = "oneflow.variable"() {data_type = 9 : i32, device_name = ["@0:0"], device_tag = "cuda", hierarchy = [1], op_name = "unet.up_blocks.0.resnets.2.norm2.weight", output_lbns = ["unet.up_blocks.0.resnets.2.norm2.weight/out"], parallel = #sbp.parallel<[] -> [[#sbp.B]]>, scope_symbol_id = 3008 : i64, shape = [1280 : si64]} : () -> tensor<1280xf16>
    %output_328 = "oneflow.variable"() {data_type = 9 : i32, device_name = ["@0:0"], device_tag = "cuda", hierarchy = [1], op_name = "unet.up_blocks.0.resnets.2.norm2.bias", output_lbns = ["unet.up_blocks.0.resnets.2.norm2.bias/out"], parallel = #sbp.parallel<[] -> [[#sbp.B]]>, scope_symbol_id = 3012 : i64, shape = [1280 : si64]} : () -> tensor<1280xf16>
    %output_329 = "oneflow.variable"() {data_type = 9 : i32, device_name = ["@0:0"], device_tag = "cuda", hierarchy = [1], op_name = "variable_366", output_lbns = ["variable_366/out"], parallel = #sbp.parallel<[] -> [[#sbp.B]]>, scope_symbol_id = 3024 : i64, shape = [1280 : si64, 3 : si64, 3 : si64, 1280 : si64]} : () -> tensor<1280x3x3x1280xf16>
    %output_330 = "oneflow.variable"() {data_type = 9 : i32, device_name = ["@0:0"], device_tag = "cuda", hierarchy = [1], op_name = "unet.up_blocks.0.resnets.2.conv2.bias", output_lbns = ["unet.up_blocks.0.resnets.2.conv2.bias/out"], parallel = #sbp.parallel<[] -> [[#sbp.B]]>, scope_symbol_id = 3028 : i64, shape = [1280 : si64]} : () -> tensor<1280xf16>
    %output_331 = "oneflow.variable"() {data_type = 9 : i32, device_name = ["@0:0"], device_tag = "cuda", hierarchy = [1], op_name = "variable_365", output_lbns = ["variable_365/out"], parallel = #sbp.parallel<[] -> [[#sbp.B]]>, scope_symbol_id = 3036 : i64, shape = [1280 : si64, 1 : si64, 1 : si64, 2560 : si64]} : () -> tensor<1280x1x1x2560xf16>
    %output_332 = "oneflow.variable"() {data_type = 9 : i32, device_name = ["@0:0"], device_tag = "cuda", hierarchy = [1], op_name = "unet.up_blocks.0.resnets.2.conv_shortcut.bias", output_lbns = ["unet.up_blocks.0.resnets.2.conv_shortcut.bias/out"], parallel = #sbp.parallel<[] -> [[#sbp.B]]>, scope_symbol_id = 3040 : i64, shape = [1280 : si64]} : () -> tensor<1280xf16>
    %output_333 = "oneflow.variable"() {data_type = 9 : i32, device_name = ["@0:0"], device_tag = "cuda", hierarchy = [1], op_name = "variable_364", output_lbns = ["variable_364/out"], parallel = #sbp.parallel<[] -> [[#sbp.B]]>, scope_symbol_id = 3058 : i64, shape = [1280 : si64, 3 : si64, 3 : si64, 1280 : si64]} : () -> tensor<1280x3x3x1280xf16>
    %output_334 = "oneflow.variable"() {data_type = 9 : i32, device_name = ["@0:0"], device_tag = "cuda", hierarchy = [1], op_name = "unet.up_blocks.0.upsamplers.0.conv.bias", output_lbns = ["unet.up_blocks.0.upsamplers.0.conv.bias/out"], parallel = #sbp.parallel<[] -> [[#sbp.B]]>, scope_symbol_id = 3062 : i64, shape = [1280 : si64]} : () -> tensor<1280xf16>
    %output_335 = "oneflow.variable"() {data_type = 9 : i32, device_name = ["@0:0"], device_tag = "cuda", hierarchy = [1], op_name = "unet.up_blocks.1.resnets.0.norm1.weight", output_lbns = ["unet.up_blocks.1.resnets.0.norm1.weight/out"], parallel = #sbp.parallel<[] -> [[#sbp.B]]>, scope_symbol_id = 3075 : i64, shape = [2560 : si64]} : () -> tensor<2560xf16>
    %output_336 = "oneflow.variable"() {data_type = 9 : i32, device_name = ["@0:0"], device_tag = "cuda", hierarchy = [1], op_name = "unet.up_blocks.1.resnets.0.norm1.bias", output_lbns = ["unet.up_blocks.1.resnets.0.norm1.bias/out"], parallel = #sbp.parallel<[] -> [[#sbp.B]]>, scope_symbol_id = 3079 : i64, shape = [2560 : si64]} : () -> tensor<2560xf16>
    %output_337 = "oneflow.variable"() {data_type = 9 : i32, device_name = ["@0:0"], device_tag = "cuda", hierarchy = [1], op_name = "variable_363", output_lbns = ["variable_363/out"], parallel = #sbp.parallel<[] -> [[#sbp.B]]>, scope_symbol_id = 3091 : i64, shape = [1280 : si64, 3 : si64, 3 : si64, 2560 : si64]} : () -> tensor<1280x3x3x2560xf16>
    %output_338 = "oneflow.variable"() {data_type = 9 : i32, device_name = ["@0:0"], device_tag = "cuda", hierarchy = [1], op_name = "unet.up_blocks.1.resnets.0.conv1.bias", output_lbns = ["unet.up_blocks.1.resnets.0.conv1.bias/out"], parallel = #sbp.parallel<[] -> [[#sbp.B]]>, scope_symbol_id = 3095 : i64, shape = [1280 : si64]} : () -> tensor<1280xf16>
    %output_339 = "oneflow.variable"() {data_type = 9 : i32, device_name = ["@0:0"], device_tag = "cuda", hierarchy = [1], op_name = "unet.up_blocks.1.resnets.0.time_emb_proj.weight", output_lbns = ["unet.up_blocks.1.resnets.0.time_emb_proj.weight/out"], parallel = #sbp.parallel<[] -> [[#sbp.B]]>, scope_symbol_id = 3106 : i64, shape = [1280 : si64, 1280 : si64]} : () -> tensor<1280x1280xf16>
    %output_340 = "oneflow.variable"() {data_type = 9 : i32, device_name = ["@0:0"], device_tag = "cuda", hierarchy = [1], op_name = "unet.up_blocks.1.resnets.0.time_emb_proj.bias", output_lbns = ["unet.up_blocks.1.resnets.0.time_emb_proj.bias/out"], parallel = #sbp.parallel<[] -> [[#sbp.B]]>, scope_symbol_id = 3113 : i64, shape = [1280 : si64]} : () -> tensor<1280xf16>
    %output_341 = "oneflow.variable"() {data_type = 9 : i32, device_name = ["@0:0"], device_tag = "cuda", hierarchy = [1], op_name = "unet.up_blocks.1.resnets.0.norm2.weight", output_lbns = ["unet.up_blocks.1.resnets.0.norm2.weight/out"], parallel = #sbp.parallel<[] -> [[#sbp.B]]>, scope_symbol_id = 3130 : i64, shape = [1280 : si64]} : () -> tensor<1280xf16>
    %output_342 = "oneflow.variable"() {data_type = 9 : i32, device_name = ["@0:0"], device_tag = "cuda", hierarchy = [1], op_name = "unet.up_blocks.1.resnets.0.norm2.bias", output_lbns = ["unet.up_blocks.1.resnets.0.norm2.bias/out"], parallel = #sbp.parallel<[] -> [[#sbp.B]]>, scope_symbol_id = 3134 : i64, shape = [1280 : si64]} : () -> tensor<1280xf16>
    %output_343 = "oneflow.variable"() {data_type = 9 : i32, device_name = ["@0:0"], device_tag = "cuda", hierarchy = [1], op_name = "variable_362", output_lbns = ["variable_362/out"], parallel = #sbp.parallel<[] -> [[#sbp.B]]>, scope_symbol_id = 3146 : i64, shape = [1280 : si64, 3 : si64, 3 : si64, 1280 : si64]} : () -> tensor<1280x3x3x1280xf16>
    %output_344 = "oneflow.variable"() {data_type = 9 : i32, device_name = ["@0:0"], device_tag = "cuda", hierarchy = [1], op_name = "unet.up_blocks.1.resnets.0.conv2.bias", output_lbns = ["unet.up_blocks.1.resnets.0.conv2.bias/out"], parallel = #sbp.parallel<[] -> [[#sbp.B]]>, scope_symbol_id = 3150 : i64, shape = [1280 : si64]} : () -> tensor<1280xf16>
    %output_345 = "oneflow.variable"() {data_type = 9 : i32, device_name = ["@0:0"], device_tag = "cuda", hierarchy = [1], op_name = "variable_361", output_lbns = ["variable_361/out"], parallel = #sbp.parallel<[] -> [[#sbp.B]]>, scope_symbol_id = 3158 : i64, shape = [1280 : si64, 1 : si64, 1 : si64, 2560 : si64]} : () -> tensor<1280x1x1x2560xf16>
    %output_346 = "oneflow.variable"() {data_type = 9 : i32, device_name = ["@0:0"], device_tag = "cuda", hierarchy = [1], op_name = "unet.up_blocks.1.resnets.0.conv_shortcut.bias", output_lbns = ["unet.up_blocks.1.resnets.0.conv_shortcut.bias/out"], parallel = #sbp.parallel<[] -> [[#sbp.B]]>, scope_symbol_id = 3162 : i64, shape = [1280 : si64]} : () -> tensor<1280xf16>
    %output_347 = "oneflow.variable"() {data_type = 9 : i32, device_name = ["@0:0"], device_tag = "cuda", hierarchy = [1], op_name = "unet.up_blocks.1.attentions.0.norm.weight", output_lbns = ["unet.up_blocks.1.attentions.0.norm.weight/out"], parallel = #sbp.parallel<[] -> [[#sbp.B]]>, scope_symbol_id = 3177 : i64, shape = [1280 : si64]} : () -> tensor<1280xf16>
    %output_348 = "oneflow.variable"() {data_type = 9 : i32, device_name = ["@0:0"], device_tag = "cuda", hierarchy = [1], op_name = "unet.up_blocks.1.attentions.0.norm.bias", output_lbns = ["unet.up_blocks.1.attentions.0.norm.bias/out"], parallel = #sbp.parallel<[] -> [[#sbp.B]]>, scope_symbol_id = 3181 : i64, shape = [1280 : si64]} : () -> tensor<1280xf16>
    %output_349 = "oneflow.variable"() {data_type = 9 : i32, device_name = ["@0:0"], device_tag = "cuda", hierarchy = [1], op_name = "variable_360", output_lbns = ["variable_360/out"], parallel = #sbp.parallel<[] -> [[#sbp.B]]>, scope_symbol_id = 3189 : i64, shape = [1280 : si64, 1 : si64, 1 : si64, 1280 : si64]} : () -> tensor<1280x1x1x1280xf16>
    %output_350 = "oneflow.variable"() {data_type = 9 : i32, device_name = ["@0:0"], device_tag = "cuda", hierarchy = [1], op_name = "unet.up_blocks.1.attentions.0.proj_in.bias", output_lbns = ["unet.up_blocks.1.attentions.0.proj_in.bias/out"], parallel = #sbp.parallel<[] -> [[#sbp.B]]>, scope_symbol_id = 3193 : i64, shape = [1280 : si64]} : () -> tensor<1280xf16>
    %output_351 = "oneflow.variable"() {data_type = 9 : i32, device_name = ["@0:0"], device_tag = "cuda", hierarchy = [1], op_name = "unet.up_blocks.1.attentions.0.transformer_blocks.0.norm1.weight", output_lbns = ["unet.up_blocks.1.attentions.0.transformer_blocks.0.norm1.weight/out"], parallel = #sbp.parallel<[] -> [[#sbp.B]]>, scope_symbol_id = 3208 : i64, shape = [1280 : si64]} : () -> tensor<1280xf16>
    %output_352 = "oneflow.variable"() {data_type = 9 : i32, device_name = ["@0:0"], device_tag = "cuda", hierarchy = [1], op_name = "unet.up_blocks.1.attentions.0.transformer_blocks.0.norm1.bias", output_lbns = ["unet.up_blocks.1.attentions.0.transformer_blocks.0.norm1.bias/out"], parallel = #sbp.parallel<[] -> [[#sbp.B]]>, scope_symbol_id = 3212 : i64, shape = [1280 : si64]} : () -> tensor<1280xf16>
    %output_353 = "oneflow.variable"() {data_type = 9 : i32, device_name = ["@0:0"], device_tag = "cuda", hierarchy = [1], op_name = "unet.up_blocks.1.attentions.0.transformer_blocks.0.attn1.to_q.weight", output_lbns = ["unet.up_blocks.1.attentions.0.transformer_blocks.0.attn1.to_q.weight/out"], parallel = #sbp.parallel<[] -> [[#sbp.B]]>, scope_symbol_id = 3221 : i64, shape = [1280 : si64, 1280 : si64]} : () -> tensor<1280x1280xf16>
    %output_354 = "oneflow.variable"() {data_type = 9 : i32, device_name = ["@0:0"], device_tag = "cuda", hierarchy = [1], op_name = "unet.up_blocks.1.attentions.0.transformer_blocks.0.attn1.to_k.weight", output_lbns = ["unet.up_blocks.1.attentions.0.transformer_blocks.0.attn1.to_k.weight/out"], parallel = #sbp.parallel<[] -> [[#sbp.B]]>, scope_symbol_id = 3229 : i64, shape = [1280 : si64, 1280 : si64]} : () -> tensor<1280x1280xf16>
    %output_355 = "oneflow.variable"() {data_type = 9 : i32, device_name = ["@0:0"], device_tag = "cuda", hierarchy = [1], op_name = "unet.up_blocks.1.attentions.0.transformer_blocks.0.attn1.to_v.weight", output_lbns = ["unet.up_blocks.1.attentions.0.transformer_blocks.0.attn1.to_v.weight/out"], parallel = #sbp.parallel<[] -> [[#sbp.B]]>, scope_symbol_id = 3237 : i64, shape = [1280 : si64, 1280 : si64]} : () -> tensor<1280x1280xf16>
    %output_356 = "oneflow.variable"() {data_type = 9 : i32, device_name = ["@0:0"], device_tag = "cuda", hierarchy = [1], op_name = "unet.up_blocks.1.attentions.0.transformer_blocks.0.attn1.to_out.0.weight", output_lbns = ["unet.up_blocks.1.attentions.0.transformer_blocks.0.attn1.to_out.0.weight/out"], parallel = #sbp.parallel<[] -> [[#sbp.B]]>, scope_symbol_id = 3249 : i64, shape = [1280 : si64, 1280 : si64]} : () -> tensor<1280x1280xf16>
    %output_357 = "oneflow.variable"() {data_type = 9 : i32, device_name = ["@0:0"], device_tag = "cuda", hierarchy = [1], op_name = "unet.up_blocks.1.attentions.0.transformer_blocks.0.attn1.to_out.0.bias", output_lbns = ["unet.up_blocks.1.attentions.0.transformer_blocks.0.attn1.to_out.0.bias/out"], parallel = #sbp.parallel<[] -> [[#sbp.B]]>, scope_symbol_id = 3256 : i64, shape = [1280 : si64]} : () -> tensor<1280xf16>
    %output_358 = "oneflow.variable"() {data_type = 9 : i32, device_name = ["@0:0"], device_tag = "cuda", hierarchy = [1], op_name = "unet.up_blocks.1.attentions.0.transformer_blocks.0.norm2.weight", output_lbns = ["unet.up_blocks.1.attentions.0.transformer_blocks.0.norm2.weight/out"], parallel = #sbp.parallel<[] -> [[#sbp.B]]>, scope_symbol_id = 3268 : i64, shape = [1280 : si64]} : () -> tensor<1280xf16>
    %output_359 = "oneflow.variable"() {data_type = 9 : i32, device_name = ["@0:0"], device_tag = "cuda", hierarchy = [1], op_name = "unet.up_blocks.1.attentions.0.transformer_blocks.0.norm2.bias", output_lbns = ["unet.up_blocks.1.attentions.0.transformer_blocks.0.norm2.bias/out"], parallel = #sbp.parallel<[] -> [[#sbp.B]]>, scope_symbol_id = 3272 : i64, shape = [1280 : si64]} : () -> tensor<1280xf16>
    %output_360 = "oneflow.variable"() {data_type = 9 : i32, device_name = ["@0:0"], device_tag = "cuda", hierarchy = [1], op_name = "unet.up_blocks.1.attentions.0.transformer_blocks.0.attn2.to_q.weight", output_lbns = ["unet.up_blocks.1.attentions.0.transformer_blocks.0.attn2.to_q.weight/out"], parallel = #sbp.parallel<[] -> [[#sbp.B]]>, scope_symbol_id = 3281 : i64, shape = [1280 : si64, 1280 : si64]} : () -> tensor<1280x1280xf16>
    %output_361 = "oneflow.variable"() {data_type = 9 : i32, device_name = ["@0:0"], device_tag = "cuda", hierarchy = [1], op_name = "unet.up_blocks.1.attentions.0.transformer_blocks.0.attn2.to_k.weight", output_lbns = ["unet.up_blocks.1.attentions.0.transformer_blocks.0.attn2.to_k.weight/out"], parallel = #sbp.parallel<[] -> [[#sbp.B]]>, scope_symbol_id = 3289 : i64, shape = [1280 : si64, 768 : si64]} : () -> tensor<1280x768xf16>
    %output_362 = "oneflow.variable"() {data_type = 9 : i32, device_name = ["@0:0"], device_tag = "cuda", hierarchy = [1], op_name = "unet.up_blocks.1.attentions.0.transformer_blocks.0.attn2.to_v.weight", output_lbns = ["unet.up_blocks.1.attentions.0.transformer_blocks.0.attn2.to_v.weight/out"], parallel = #sbp.parallel<[] -> [[#sbp.B]]>, scope_symbol_id = 3297 : i64, shape = [1280 : si64, 768 : si64]} : () -> tensor<1280x768xf16>
    %output_363 = "oneflow.variable"() {data_type = 9 : i32, device_name = ["@0:0"], device_tag = "cuda", hierarchy = [1], op_name = "unet.up_blocks.1.attentions.0.transformer_blocks.0.attn2.to_out.0.weight", output_lbns = ["unet.up_blocks.1.attentions.0.transformer_blocks.0.attn2.to_out.0.weight/out"], parallel = #sbp.parallel<[] -> [[#sbp.B]]>, scope_symbol_id = 3309 : i64, shape = [1280 : si64, 1280 : si64]} : () -> tensor<1280x1280xf16>
    %output_364 = "oneflow.variable"() {data_type = 9 : i32, device_name = ["@0:0"], device_tag = "cuda", hierarchy = [1], op_name = "unet.up_blocks.1.attentions.0.transformer_blocks.0.attn2.to_out.0.bias", output_lbns = ["unet.up_blocks.1.attentions.0.transformer_blocks.0.attn2.to_out.0.bias/out"], parallel = #sbp.parallel<[] -> [[#sbp.B]]>, scope_symbol_id = 3316 : i64, shape = [1280 : si64]} : () -> tensor<1280xf16>
    %output_365 = "oneflow.variable"() {data_type = 9 : i32, device_name = ["@0:0"], device_tag = "cuda", hierarchy = [1], op_name = "unet.up_blocks.1.attentions.0.transformer_blocks.0.norm3.weight", output_lbns = ["unet.up_blocks.1.attentions.0.transformer_blocks.0.norm3.weight/out"], parallel = #sbp.parallel<[] -> [[#sbp.B]]>, scope_symbol_id = 3328 : i64, shape = [1280 : si64]} : () -> tensor<1280xf16>
    %output_366 = "oneflow.variable"() {data_type = 9 : i32, device_name = ["@0:0"], device_tag = "cuda", hierarchy = [1], op_name = "unet.up_blocks.1.attentions.0.transformer_blocks.0.norm3.bias", output_lbns = ["unet.up_blocks.1.attentions.0.transformer_blocks.0.norm3.bias/out"], parallel = #sbp.parallel<[] -> [[#sbp.B]]>, scope_symbol_id = 3332 : i64, shape = [1280 : si64]} : () -> tensor<1280xf16>
    %output_367 = "oneflow.variable"() {data_type = 9 : i32, device_name = ["@0:0"], device_tag = "cuda", hierarchy = [1], op_name = "unet.up_blocks.1.attentions.0.transformer_blocks.0.ff.net.0.proj.weight", output_lbns = ["unet.up_blocks.1.attentions.0.transformer_blocks.0.ff.net.0.proj.weight/out"], parallel = #sbp.parallel<[] -> [[#sbp.B]]>, scope_symbol_id = 3343 : i64, shape = [10240 : si64, 1280 : si64]} : () -> tensor<10240x1280xf16>
    %output_368 = "oneflow.variable"() {data_type = 9 : i32, device_name = ["@0:0"], device_tag = "cuda", hierarchy = [1], op_name = "unet.up_blocks.1.attentions.0.transformer_blocks.0.ff.net.0.proj.bias", output_lbns = ["unet.up_blocks.1.attentions.0.transformer_blocks.0.ff.net.0.proj.bias/out"], parallel = #sbp.parallel<[] -> [[#sbp.B]]>, scope_symbol_id = 3350 : i64, shape = [10240 : si64]} : () -> tensor<10240xf16>
    %output_369 = "oneflow.variable"() {data_type = 9 : i32, device_name = ["@0:0"], device_tag = "cuda", hierarchy = [1], op_name = "unet.up_blocks.1.attentions.0.transformer_blocks.0.ff.net.2.weight", output_lbns = ["unet.up_blocks.1.attentions.0.transformer_blocks.0.ff.net.2.weight/out"], parallel = #sbp.parallel<[] -> [[#sbp.B]]>, scope_symbol_id = 3371 : i64, shape = [1280 : si64, 5120 : si64]} : () -> tensor<1280x5120xf16>
    %output_370 = "oneflow.variable"() {data_type = 9 : i32, device_name = ["@0:0"], device_tag = "cuda", hierarchy = [1], op_name = "unet.up_blocks.1.attentions.0.transformer_blocks.0.ff.net.2.bias", output_lbns = ["unet.up_blocks.1.attentions.0.transformer_blocks.0.ff.net.2.bias/out"], parallel = #sbp.parallel<[] -> [[#sbp.B]]>, scope_symbol_id = 3378 : i64, shape = [1280 : si64]} : () -> tensor<1280xf16>
    %output_371 = "oneflow.variable"() {data_type = 9 : i32, device_name = ["@0:0"], device_tag = "cuda", hierarchy = [1], op_name = "variable_359", output_lbns = ["variable_359/out"], parallel = #sbp.parallel<[] -> [[#sbp.B]]>, scope_symbol_id = 3395 : i64, shape = [1280 : si64, 1 : si64, 1 : si64, 1280 : si64]} : () -> tensor<1280x1x1x1280xf16>
    %output_372 = "oneflow.variable"() {data_type = 9 : i32, device_name = ["@0:0"], device_tag = "cuda", hierarchy = [1], op_name = "unet.up_blocks.1.attentions.0.proj_out.bias", output_lbns = ["unet.up_blocks.1.attentions.0.proj_out.bias/out"], parallel = #sbp.parallel<[] -> [[#sbp.B]]>, scope_symbol_id = 3399 : i64, shape = [1280 : si64]} : () -> tensor<1280xf16>
    %output_373 = "oneflow.variable"() {data_type = 9 : i32, device_name = ["@0:0"], device_tag = "cuda", hierarchy = [1], op_name = "unet.up_blocks.1.resnets.1.norm1.weight", output_lbns = ["unet.up_blocks.1.resnets.1.norm1.weight/out"], parallel = #sbp.parallel<[] -> [[#sbp.B]]>, scope_symbol_id = 3414 : i64, shape = [2560 : si64]} : () -> tensor<2560xf16>
    %output_374 = "oneflow.variable"() {data_type = 9 : i32, device_name = ["@0:0"], device_tag = "cuda", hierarchy = [1], op_name = "unet.up_blocks.1.resnets.1.norm1.bias", output_lbns = ["unet.up_blocks.1.resnets.1.norm1.bias/out"], parallel = #sbp.parallel<[] -> [[#sbp.B]]>, scope_symbol_id = 3418 : i64, shape = [2560 : si64]} : () -> tensor<2560xf16>
    %output_375 = "oneflow.variable"() {data_type = 9 : i32, device_name = ["@0:0"], device_tag = "cuda", hierarchy = [1], op_name = "variable_358", output_lbns = ["variable_358/out"], parallel = #sbp.parallel<[] -> [[#sbp.B]]>, scope_symbol_id = 3430 : i64, shape = [1280 : si64, 3 : si64, 3 : si64, 2560 : si64]} : () -> tensor<1280x3x3x2560xf16>
    %output_376 = "oneflow.variable"() {data_type = 9 : i32, device_name = ["@0:0"], device_tag = "cuda", hierarchy = [1], op_name = "unet.up_blocks.1.resnets.1.conv1.bias", output_lbns = ["unet.up_blocks.1.resnets.1.conv1.bias/out"], parallel = #sbp.parallel<[] -> [[#sbp.B]]>, scope_symbol_id = 3434 : i64, shape = [1280 : si64]} : () -> tensor<1280xf16>
    %output_377 = "oneflow.variable"() {data_type = 9 : i32, device_name = ["@0:0"], device_tag = "cuda", hierarchy = [1], op_name = "unet.up_blocks.1.resnets.1.time_emb_proj.weight", output_lbns = ["unet.up_blocks.1.resnets.1.time_emb_proj.weight/out"], parallel = #sbp.parallel<[] -> [[#sbp.B]]>, scope_symbol_id = 3445 : i64, shape = [1280 : si64, 1280 : si64]} : () -> tensor<1280x1280xf16>
    %output_378 = "oneflow.variable"() {data_type = 9 : i32, device_name = ["@0:0"], device_tag = "cuda", hierarchy = [1], op_name = "unet.up_blocks.1.resnets.1.time_emb_proj.bias", output_lbns = ["unet.up_blocks.1.resnets.1.time_emb_proj.bias/out"], parallel = #sbp.parallel<[] -> [[#sbp.B]]>, scope_symbol_id = 3452 : i64, shape = [1280 : si64]} : () -> tensor<1280xf16>
    %output_379 = "oneflow.variable"() {data_type = 9 : i32, device_name = ["@0:0"], device_tag = "cuda", hierarchy = [1], op_name = "unet.up_blocks.1.resnets.1.norm2.weight", output_lbns = ["unet.up_blocks.1.resnets.1.norm2.weight/out"], parallel = #sbp.parallel<[] -> [[#sbp.B]]>, scope_symbol_id = 3469 : i64, shape = [1280 : si64]} : () -> tensor<1280xf16>
    %output_380 = "oneflow.variable"() {data_type = 9 : i32, device_name = ["@0:0"], device_tag = "cuda", hierarchy = [1], op_name = "unet.up_blocks.1.resnets.1.norm2.bias", output_lbns = ["unet.up_blocks.1.resnets.1.norm2.bias/out"], parallel = #sbp.parallel<[] -> [[#sbp.B]]>, scope_symbol_id = 3473 : i64, shape = [1280 : si64]} : () -> tensor<1280xf16>
    %output_381 = "oneflow.variable"() {data_type = 9 : i32, device_name = ["@0:0"], device_tag = "cuda", hierarchy = [1], op_name = "variable_357", output_lbns = ["variable_357/out"], parallel = #sbp.parallel<[] -> [[#sbp.B]]>, scope_symbol_id = 3485 : i64, shape = [1280 : si64, 3 : si64, 3 : si64, 1280 : si64]} : () -> tensor<1280x3x3x1280xf16>
    %output_382 = "oneflow.variable"() {data_type = 9 : i32, device_name = ["@0:0"], device_tag = "cuda", hierarchy = [1], op_name = "unet.up_blocks.1.resnets.1.conv2.bias", output_lbns = ["unet.up_blocks.1.resnets.1.conv2.bias/out"], parallel = #sbp.parallel<[] -> [[#sbp.B]]>, scope_symbol_id = 3489 : i64, shape = [1280 : si64]} : () -> tensor<1280xf16>
    %output_383 = "oneflow.variable"() {data_type = 9 : i32, device_name = ["@0:0"], device_tag = "cuda", hierarchy = [1], op_name = "variable_356", output_lbns = ["variable_356/out"], parallel = #sbp.parallel<[] -> [[#sbp.B]]>, scope_symbol_id = 3497 : i64, shape = [1280 : si64, 1 : si64, 1 : si64, 2560 : si64]} : () -> tensor<1280x1x1x2560xf16>
    %output_384 = "oneflow.variable"() {data_type = 9 : i32, device_name = ["@0:0"], device_tag = "cuda", hierarchy = [1], op_name = "unet.up_blocks.1.resnets.1.conv_shortcut.bias", output_lbns = ["unet.up_blocks.1.resnets.1.conv_shortcut.bias/out"], parallel = #sbp.parallel<[] -> [[#sbp.B]]>, scope_symbol_id = 3501 : i64, shape = [1280 : si64]} : () -> tensor<1280xf16>
…
    %538 = "oneflow.conv2d"(%537, %output_565, %output_566) {data_format = "channels_last", device_name = ["@0:0"], device_tag = "cuda", dilation_rate = [1 : si32, 1 : si32], filters = 640 : si32, groups = 1 : si32, hierarchy = [1], kernel_size = [3 : si32, 3 : si32], op_name = "unet.up_blocks.2.upsamplers.0.conv-conv2d-762", operand_segment_sizes = dense<[1, 1, 1, 0]> : vector<4xi32>, padding_before = [1 : si32, 1 : si32], scope_symbol_id = 5133 : i64, strides = [1 : si32, 1 : si32]} : (tensor<2x64x64x640xf16>, tensor<640x3x3x640xf16>, tensor<640xf16>) -> tensor<2x64x64x640xf16>
    %539 = "oneflow.concat"(%538, %154) {axis = 3 : si64, device_name = ["@0:0"], device_tag = "cuda", hierarchy = [1], max_dim_size = 960 : si64, op_name = "unet.up_blocks.3-concat-763", scope_symbol_id = 5137 : i64} : (tensor<2x64x64x640xf16>, tensor<2x64x64x320xf16>) -> tensor<2x64x64x960xf16>
    %y_955, %mean_956, %inv_variance_957 = "oneflow.group_norm"(%539, %output_568, %output_567) {activation = "silu", affine = true, data_format = "channels_last", device_name = ["@0:0"], device_tag = "cuda", epsilon = 1.000000e-05 : f64, hierarchy = [1], num_groups = 32 : si32, op_name = "unet.up_blocks.3.resnets.0.norm1-group_norm-764_with_activation", operand_segment_sizes = dense<1> : vector<3xi32>, scope_symbol_id = 5150 : i64} : (tensor<2x64x64x960xf16>, tensor<960xf16>, tensor<960xf16>) -> (tensor<2x64x64x960xf16>, tensor<2x32xf32>, tensor<2x32xf32>)
    %540 = "oneflow.conv2d"(%539, %output_577, %output_578) {data_format = "channels_last", device_name = ["@0:0"], device_tag = "cuda", dilation_rate = [1 : si32, 1 : si32], filters = 320 : si32, groups = 1 : si32, hierarchy = [1], kernel_size = [1 : si32, 1 : si32], op_name = "unet.up_blocks.3.resnets.0.conv_shortcut-conv2d-776", operand_segment_sizes = dense<[1, 1, 1, 0]> : vector<4xi32>, padding_before = [0 : si32, 0 : si32], scope_symbol_id = 5233 : i64, strides = [1 : si32, 1 : si32]} : (tensor<2x64x64x960xf16>, tensor<320x1x1x960xf16>, tensor<320xf16>) -> tensor<2x64x64x320xf16>
    %541 = "oneflow.conv2d"(%y_955, %output_569, %output_570) {data_format = "channels_last", device_name = ["@0:0"], device_tag = "cuda", dilation_rate = [1 : si32, 1 : si32], filters = 320 : si32, groups = 1 : si32, hierarchy = [1], kernel_size = [3 : si32, 3 : si32], op_name = "unet.up_blocks.3.resnets.0.conv1-conv2d-766", operand_segment_sizes = dense<[1, 1, 1, 0]> : vector<4xi32>, padding_before = [1 : si32, 1 : si32], scope_symbol_id = 5166 : i64, strides = [1 : si32, 1 : si32]} : (tensor<2x64x64x960xf16>, tensor<320x3x3x960xf16>, tensor<320xf16>) -> tensor<2x64x64x320xf16>
    %542 = "oneflow.broadcast_add"(%541, %86) {device_name = ["@0:0"], device_tag = "cuda", hierarchy = [1], op_name = "unet.up_blocks.3.resnets.0-broadcast_add-772", scope_symbol_id = 5187 : i64} : (tensor<2x64x64x320xf16>, tensor<2x1x1x320xf16>) -> tensor<2x64x64x320xf16>
    %y_958, %mean_959, %inv_variance_960 = "oneflow.group_norm"(%542, %output_574, %output_573) {activation = "silu", affine = true, data_format = "channels_last", device_name = ["@0:0"], device_tag = "cuda", epsilon = 1.000000e-05 : f64, hierarchy = [1], num_groups = 32 : si32, op_name = "unet.up_blocks.3.resnets.0.norm2-group_norm-773_with_activation", operand_segment_sizes = dense<1> : vector<3xi32>, scope_symbol_id = 5205 : i64} : (tensor<2x64x64x320xf16>, tensor<320xf16>, tensor<320xf16>) -> (tensor<2x64x64x320xf16>, tensor<2x32xf32>, tensor<2x32xf32>)
    %543 = "oneflow.conv2d"(%y_958, %output_575, %output_576) {data_format = "channels_last", device_name = ["@0:0"], device_tag = "cuda", dilation_rate = [1 : si32, 1 : si32], filters = 320 : si32, groups = 1 : si32, hierarchy = [1], kernel_size = [3 : si32, 3 : si32], op_name = "unet.up_blocks.3.resnets.0.conv2-conv2d-775", operand_segment_sizes = dense<[1, 1, 1, 0]> : vector<4xi32>, padding_before = [1 : si32, 1 : si32], scope_symbol_id = 5221 : i64, strides = [1 : si32, 1 : si32]} : (tensor<2x64x64x320xf16>, tensor<320x3x3x320xf16>, tensor<320xf16>) -> tensor<2x64x64x320xf16>
    %544 = "oneflow.add_n2"(%540, %543) {device_name = ["@0:0"], device_tag = "cuda", hierarchy = [1], op_name = "unet.up_blocks.3.resnets.0-add_n-777", op_type_name = "add_n", scope_symbol_id = 5187 : i64} : (tensor<2x64x64x320xf16>, tensor<2x64x64x320xf16>) -> tensor<2x64x64x320xf16>
    %545 = "oneflow.scalar_div"(%544) {device_name = ["@0:0"], device_tag = "cuda", float_operand = 1.000000e+00 : f64, has_float_operand = true, has_int_operand = false, hierarchy = [1], int_operand = 0 : si64, op_name = "unet.up_blocks.3.resnets.0-scalar_div-778", scope_symbol_id = 5187 : i64} : (tensor<2x64x64x320xf16>) -> tensor<2x64x64x320xf16>
    %y_961, %mean_962, %inv_variance_963 = "oneflow.group_norm"(%545, %output_580, %output_579) {activation = "none", affine = true, data_format = "channels_last", device_name = ["@0:0"], device_tag = "cuda", epsilon = 9.9999999999999995E-7 : f64, hierarchy = [1], num_groups = 32 : si32, op_name = "unet.up_blocks.3.attentions.0.norm-group_norm-779", operand_segment_sizes = dense<1> : vector<3xi32>, scope_symbol_id = 5252 : i64} : (tensor<2x64x64x320xf16>, tensor<320xf16>, tensor<320xf16>) -> (tensor<2x64x64x320xf16>, tensor<2x32xf32>, tensor<2x32xf32>)
    %546 = "oneflow.conv2d"(%y_961, %output_581, %output_582) {data_format = "channels_last", device_name = ["@0:0"], device_tag = "cuda", dilation_rate = [1 : si32, 1 : si32], filters = 320 : si32, groups = 1 : si32, hierarchy = [1], kernel_size = [1 : si32, 1 : si32], op_name = "unet.up_blocks.3.attentions.0.proj_in-conv2d-780", operand_segment_sizes = dense<[1, 1, 1, 0]> : vector<4xi32>, padding_before = [0 : si32, 0 : si32], scope_symbol_id = 5264 : i64, strides = [1 : si32, 1 : si32]} : (tensor<2x64x64x320xf16>, tensor<320x1x1x320xf16>, tensor<320xf16>) -> tensor<2x64x64x320xf16>
    %547 = "oneflow.reshape"(%546) {device_name = ["@0:0"], device_tag = "cuda", hierarchy = [1], op_name = "unet.up_blocks.3.attentions.0-reshape-782", scope_symbol_id = 5267 : i64, shape = [2 : si64, 4096 : si64, 320 : si64]} : (tensor<2x64x64x320xf16>) -> tensor<2x4096x320xf16>
    %y_964, %mean_965, %inv_variance_966 = "oneflow.layer_norm"(%547, %output_584, %output_583) {begin_norm_axis = 2 : si64, begin_params_axis = 2 : si64, center = true, device_name = ["@0:0"], device_tag = "cuda", epsilon = 1.000000e-05 : f64, hierarchy = [1], op_name = "unet.up_blocks.3.attentions.0.transformer_blocks.0.norm1-layer_norm-783", operand_segment_sizes = dense<1> : vector<3xi32>, scale = true, scope_symbol_id = 5283 : i64} : (tensor<2x4096x320xf16>, tensor<320xf16>, tensor<320xf16>) -> (tensor<2x4096x320xf16>, tensor<2x4096xf32>, tensor<2x4096xf32>)
    %548:3 = "oneflow.grouped_matmul_bias"(%y_964, %y_964, %y_964, %output_587, %output_586, %output_585) {device_name = ["@0:0"], device_tag = "cuda", hierarchy = [1], op_name = "grouped_matmul_unet.up_blocks.3.attentions.0.transformer_blocks.0.attn1.to_v-broadcast_matmul-786", operand_segment_sizes = dense<[3, 3, 0]> : vector<3xi32>, scope_symbol_id = 5308 : i64} : (tensor<2x4096x320xf16>, tensor<2x4096x320xf16>, tensor<2x4096x320xf16>, tensor<320x320xf16>, tensor<320x320xf16>, tensor<320x320xf16>) -> (tensor<2x4096x320xf16>, tensor<2x4096x320xf16>, tensor<2x4096x320xf16>)
    %549 = "oneflow.fused_multi_head_attention_inference"(%548#2, %548#1, %548#0) {causal = false, device_name = ["@0:0"], device_tag = "cuda", hierarchy = [1], key_hidden_slice_end = -1 : si64, key_hidden_slice_start = 0 : si64, num_heads = 8 : si64, op_name = "unet.up_blocks.3.attentions.0.transformer_blocks.0.attn1-fused_multi_head_attention_inference-787", query_hidden_slice_end = -1 : si64, query_hidden_slice_start = 0 : si64, scope_symbol_id = 5311 : i64, value_hidden_slice_end = -1 : si64, value_hidden_slice_start = 0 : si64} : (tensor<2x4096x320xf16>, tensor<2x4096x320xf16>, tensor<2x4096x320xf16>) -> tensor<2x4096x320xf16>
    %550 = "oneflow.broadcast_matmul"(%549, %output_588) {alpha = 1.000000e+00 : f64, device_name = ["@0:0"], device_tag = "cuda", hierarchy = [1], op_name = "unet.up_blocks.3.attentions.0.transformer_blocks.0.attn1.to_out.0-broadcast_matmul-788", scope_symbol_id = 5320 : i64, transpose_a = false, transpose_b = true} : (tensor<2x4096x320xf16>, tensor<320x320xf16>) -> tensor<2x4096x320xf16>
    %551 = "oneflow.broadcast_add"(%550, %output_589) {device_name = ["@0:0"], device_tag = "cuda", hierarchy = [1], op_name = "unet.up_blocks.3.attentions.0.transformer_blocks.0.attn1.to_out.0-broadcast_add-789", scope_symbol_id = 5320 : i64} : (tensor<2x4096x320xf16>, tensor<320xf16>) -> tensor<2x4096x320xf16>
    %552 = "oneflow.add_n2"(%551, %547) {device_name = ["@0:0"], device_tag = "cuda", hierarchy = [1], op_name = "unet.up_blocks.3.attentions.0.transformer_blocks.0-add_n-790", op_type_name = "add_n", scope_symbol_id = 5331 : i64} : (tensor<2x4096x320xf16>, tensor<2x4096x320xf16>) -> tensor<2x4096x320xf16>
    %y_967, %mean_968, %inv_variance_969 = "oneflow.layer_norm"(%552, %output_591, %output_590) {begin_norm_axis = 2 : si64, begin_params_axis = 2 : si64, center = true, device_name = ["@0:0"], device_tag = "cuda", epsilon = 1.000000e-05 : f64, hierarchy = [1], op_name = "unet.up_blocks.3.attentions.0.transformer_blocks.0.norm2-layer_norm-791", operand_segment_sizes = dense<1> : vector<3xi32>, scale = true, scope_symbol_id = 5343 : i64} : (tensor<2x4096x320xf16>, tensor<320xf16>, tensor<320xf16>) -> (tensor<2x4096x320xf16>, tensor<2x4096xf32>, tensor<2x4096xf32>)
    %553 = "oneflow.broadcast_matmul"(%y_967, %output_592) {alpha = 1.000000e+00 : f64, device_name = ["@0:0"], device_tag = "cuda", hierarchy = [1], op_name = "unet.up_blocks.3.attentions.0.transformer_blocks.0.attn2.to_q-broadcast_matmul-792", scope_symbol_id = 5352 : i64, transpose_a = false, transpose_b = true} : (tensor<2x4096x320xf16>, tensor<320x320xf16>) -> tensor<2x4096x320xf16>
    %554 = "oneflow.fused_multi_head_attention_inference"(%553, %6#1, %6#0) {causal = false, device_name = ["@0:0"], device_tag = "cuda", hierarchy = [1], key_hidden_slice_end = -1 : si64, key_hidden_slice_start = 0 : si64, num_heads = 8 : si64, op_name = "unet.up_blocks.3.attentions.0.transformer_blocks.0.attn2-fused_multi_head_attention_inference-795", query_hidden_slice_end = -1 : si64, query_hidden_slice_start = 0 : si64, scope_symbol_id = 5371 : i64, value_hidden_slice_end = -1 : si64, value_hidden_slice_start = 0 : si64} : (tensor<2x4096x320xf16>, tensor<2x77x320xf16>, tensor<2x77x320xf16>) -> tensor<2x4096x320xf16>
    %555 = "oneflow.broadcast_matmul"(%554, %output_595) {alpha = 1.000000e+00 : f64, device_name = ["@0:0"], device_tag = "cuda", hierarchy = [1], op_name = "unet.up_blocks.3.attentions.0.transformer_blocks.0.attn2.to_out.0-broadcast_matmul-796", scope_symbol_id = 5380 : i64, transpose_a = false, transpose_b = true} : (tensor<2x4096x320xf16>, tensor<320x320xf16>) -> tensor<2x4096x320xf16>
    %556 = "oneflow.broadcast_add"(%555, %output_596) {device_name = ["@0:0"], device_tag = "cuda", hierarchy = [1], op_name = "unet.up_blocks.3.attentions.0.transformer_blocks.0.attn2.to_out.0-broadcast_add-797", scope_symbol_id = 5380 : i64} : (tensor<2x4096x320xf16>, tensor<320xf16>) -> tensor<2x4096x320xf16>
    %557 = "oneflow.add_n2"(%556, %552) {device_name = ["@0:0"], device_tag = "cuda", hierarchy = [1], op_name = "unet.up_blocks.3.attentions.0.transformer_blocks.0-add_n-798", op_type_name = "add_n", scope_symbol_id = 5331 : i64} : (tensor<2x4096x320xf16>, tensor<2x4096x320xf16>) -> tensor<2x4096x320xf16>
    %y_970, %mean_971, %inv_variance_972 = "oneflow.layer_norm"(%557, %output_598, %output_597) {begin_norm_axis = 2 : si64, begin_params_axis = 2 : si64, center = true, device_name = ["@0:0"], device_tag = "cuda", epsilon = 1.000000e-05 : f64, hierarchy = [1], op_name = "unet.up_blocks.3.attentions.0.transformer_blocks.0.norm3-layer_norm-799", operand_segment_sizes = dense<1> : vector<3xi32>, scale = true, scope_symbol_id = 5403 : i64} : (tensor<2x4096x320xf16>, tensor<320xf16>, tensor<320xf16>) -> (tensor<2x4096x320xf16>, tensor<2x4096xf32>, tensor<2x4096xf32>)
    %558 = "oneflow.broadcast_matmul"(%y_970, %output_599) {alpha = 1.000000e+00 : f64, device_name = ["@0:0"], device_tag = "cuda", hierarchy = [1], op_name = "unet.up_blocks.3.attentions.0.transformer_blocks.0.ff.net.0.proj-broadcast_matmul-800", scope_symbol_id = 5414 : i64, transpose_a = false, transpose_b = true} : (tensor<2x4096x320xf16>, tensor<2560x320xf16>) -> tensor<2x4096x2560xf16>
    %559 = "oneflow.broadcast_add"(%558, %output_600) {device_name = ["@0:0"], device_tag = "cuda", hierarchy = [1], op_name = "unet.up_blocks.3.attentions.0.transformer_blocks.0.ff.net.0.proj-broadcast_add-801", scope_symbol_id = 5414 : i64} : (tensor<2x4096x2560xf16>, tensor<2560xf16>) -> tensor<2x4096x2560xf16>
    %560 = "oneflow.narrow"(%559) {device_name = ["@0:0"], device_tag = "cuda", dim = 2 : si64, hierarchy = [1], length = 1280 : si64, op_name = "unet.up_blocks.3.attentions.0.transformer_blocks.0.ff.net.0-narrow-802", scope_symbol_id = 5424 : i64, start = 0 : si64} : (tensor<2x4096x2560xf16>) -> tensor<2x4096x1280xf16>
    %561 = "oneflow.narrow"(%559) {device_name = ["@0:0"], device_tag = "cuda", dim = 2 : si64, hierarchy = [1], length = 1280 : si64, op_name = "unet.up_blocks.3.attentions.0.transformer_blocks.0.ff.net.0-narrow-803", scope_symbol_id = 5424 : i64, start = 1280 : si64} : (tensor<2x4096x2560xf16>) -> tensor<2x4096x1280xf16>
    %562 = "oneflow.gelu"(%561) {device_name = ["@0:0"], device_tag = "cuda", hierarchy = [1], op_name = "unet.up_blocks.3.attentions.0.transformer_blocks.0.ff.net.0-gelu-804", scope_symbol_id = 5424 : i64} : (tensor<2x4096x1280xf16>) -> tensor<2x4096x1280xf16>
    %563 = "oneflow.broadcast_mul"(%560, %562) {device_name = ["@0:0"], device_tag = "cuda", hierarchy = [1], op_name = "unet.up_blocks.3.attentions.0.transformer_blocks.0.ff.net.0-broadcast_mul-805", scope_symbol_id = 5424 : i64} : (tensor<2x4096x1280xf16>, tensor<2x4096x1280xf16>) -> tensor<2x4096x1280xf16>
    %564 = "oneflow.broadcast_matmul"(%563, %output_601) {alpha = 1.000000e+00 : f64, device_name = ["@0:0"], device_tag = "cuda", hierarchy = [1], op_name = "unet.up_blocks.3.attentions.0.transformer_blocks.0.ff.net.2-broadcast_matmul-806", scope_symbol_id = 5442 : i64, transpose_a = false, transpose_b = true} : (tensor<2x4096x1280xf16>, tensor<320x1280xf16>) -> tensor<2x4096x320xf16>
    %565 = "oneflow.broadcast_add"(%564, %output_602) {device_name = ["@0:0"], device_tag = "cuda", hierarchy = [1], op_name = "unet.up_blocks.3.attentions.0.transformer_blocks.0.ff.net.2-broadcast_add-807", scope_symbol_id = 5442 : i64} : (tensor<2x4096x320xf16>, tensor<320xf16>) -> tensor<2x4096x320xf16>
    %566 = "oneflow.add_n2"(%565, %557) {device_name = ["@0:0"], device_tag = "cuda", hierarchy = [1], op_name = "unet.up_blocks.3.attentions.0.transformer_blocks.0-add_n-808", op_type_name = "add_n", scope_symbol_id = 5331 : i64} : (tensor<2x4096x320xf16>, tensor<2x4096x320xf16>) -> tensor<2x4096x320xf16>
    %567 = "oneflow.reshape"(%566) {device_name = ["@0:0"], device_tag = "cuda", hierarchy = [1], op_name = "unet.up_blocks.3.attentions.0-reshape-809", scope_symbol_id = 5267 : i64, shape = [2 : si64, 64 : si64, 64 : si64, 320 : si64]} : (tensor<2x4096x320xf16>) -> tensor<2x64x64x320xf16>
    %568 = "oneflow.conv2d"(%567, %output_603, %output_604) {data_format = "channels_last", device_name = ["@0:0"], device_tag = "cuda", dilation_rate = [1 : si32, 1 : si32], filters = 320 : si32, groups = 1 : si32, hierarchy = [1], kernel_size = [1 : si32, 1 : si32], op_name = "unet.up_blocks.3.attentions.0.proj_out-conv2d-811", operand_segment_sizes = dense<[1, 1, 1, 0]> : vector<4xi32>, padding_before = [0 : si32, 0 : si32], scope_symbol_id = 5470 : i64, strides = [1 : si32, 1 : si32]} : (tensor<2x64x64x320xf16>, tensor<320x1x1x320xf16>, tensor<320xf16>) -> tensor<2x64x64x320xf16>
    %569 = "oneflow.add_n2"(%568, %545) {device_name = ["@0:0"], device_tag = "cuda", hierarchy = [1], op_name = "unet.up_blocks.3.attentions.0-add_n-812", op_type_name = "add_n", scope_symbol_id = 5267 : i64} : (tensor<2x64x64x320xf16>, tensor<2x64x64x320xf16>) -> tensor<2x64x64x320xf16>
    %570 = "oneflow.concat"(%569, %125) {axis = 3 : si64, device_name = ["@0:0"], device_tag = "cuda", hierarchy = [1], max_dim_size = 640 : si64, op_name = "unet.up_blocks.3-concat-813", scope_symbol_id = 5137 : i64} : (tensor<2x64x64x320xf16>, tensor<2x64x64x320xf16>) -> tensor<2x64x64x640xf16>
    %y_973, %mean_974, %inv_variance_975 = "oneflow.group_norm"(%570, %output_606, %output_605) {activation = "silu", affine = true, data_format = "channels_last", device_name = ["@0:0"], device_tag = "cuda", epsilon = 1.000000e-05 : f64, hierarchy = [1], num_groups = 32 : si32, op_name = "unet.up_blocks.3.resnets.1.norm1-group_norm-814_with_activation", operand_segment_sizes = dense<1> : vector<3xi32>, scope_symbol_id = 5489 : i64} : (tensor<2x64x64x640xf16>, tensor<640xf16>, tensor<640xf16>) -> (tensor<2x64x64x640xf16>, tensor<2x32xf32>, tensor<2x32xf32>)
    %571 = "oneflow.conv2d"(%570, %output_615, %output_616) {data_format = "channels_last", device_name = ["@0:0"], device_tag = "cuda", dilation_rate = [1 : si32, 1 : si32], filters = 320 : si32, groups = 1 : si32, hierarchy = [1], kernel_size = [1 : si32, 1 : si32], op_name = "unet.up_blocks.3.resnets.1.conv_shortcut-conv2d-826", operand_segment_sizes = dense<[1, 1, 1, 0]> : vector<4xi32>, padding_before = [0 : si32, 0 : si32], scope_symbol_id = 5572 : i64, strides = [1 : si32, 1 : si32]} : (tensor<2x64x64x640xf16>, tensor<320x1x1x640xf16>, tensor<320xf16>) -> tensor<2x64x64x320xf16>
    %572 = "oneflow.conv2d"(%y_973, %output_607, %output_608) {data_format = "channels_last", device_name = ["@0:0"], device_tag = "cuda", dilation_rate = [1 : si32, 1 : si32], filters = 320 : si32, groups = 1 : si32, hierarchy = [1], kernel_size = [3 : si32, 3 : si32], op_name = "unet.up_blocks.3.resnets.1.conv1-conv2d-816", operand_segment_sizes = dense<[1, 1, 1, 0]> : vector<4xi32>, padding_before = [1 : si32, 1 : si32], scope_symbol_id = 5505 : i64, strides = [1 : si32, 1 : si32]} : (tensor<2x64x64x640xf16>, tensor<320x3x3x640xf16>, tensor<320xf16>) -> tensor<2x64x64x320xf16>
    %573 = "oneflow.broadcast_add"(%572, %85) {device_name = ["@0:0"], device_tag = "cuda", hierarchy = [1], op_name = "unet.up_blocks.3.resnets.1-broadcast_add-822", scope_symbol_id = 5526 : i64} : (tensor<2x64x64x320xf16>, tensor<2x1x1x320xf16>) -> tensor<2x64x64x320xf16>
    %y_976, %mean_977, %inv_variance_978 = "oneflow.group_norm"(%573, %output_612, %output_611) {activation = "silu", affine = true, data_format = "channels_last", device_name = ["@0:0"], device_tag = "cuda", epsilon = 1.000000e-05 : f64, hierarchy = [1], num_groups = 32 : si32, op_name = "unet.up_blocks.3.resnets.1.norm2-group_norm-823_with_activation", operand_segment_sizes = dense<1> : vector<3xi32>, scope_symbol_id = 5544 : i64} : (tensor<2x64x64x320xf16>, tensor<320xf16>, tensor<320xf16>) -> (tensor<2x64x64x320xf16>, tensor<2x32xf32>, tensor<2x32xf32>)
    %574 = "oneflow.conv2d"(%y_976, %output_613, %output_614) {data_format = "channels_last", device_name = ["@0:0"], device_tag = "cuda", dilation_rate = [1 : si32, 1 : si32], filters = 320 : si32, groups = 1 : si32, hierarchy = [1], kernel_size = [3 : si32, 3 : si32], op_name = "unet.up_blocks.3.resnets.1.conv2-conv2d-825", operand_segment_sizes = dense<[1, 1, 1, 0]> : vector<4xi32>, padding_before = [1 : si32, 1 : si32], scope_symbol_id = 5560 : i64, strides = [1 : si32, 1 : si32]} : (tensor<2x64x64x320xf16>, tensor<320x3x3x320xf16>, tensor<320xf16>) -> tensor<2x64x64x320xf16>
    %575 = "oneflow.add_n2"(%571, %574) {device_name = ["@0:0"], device_tag = "cuda", hierarchy = [1], op_name = "unet.up_blocks.3.resnets.1-add_n-827", op_type_name = "add_n", scope_symbol_id = 5526 : i64} : (tensor<2x64x64x320xf16>, tensor<2x64x64x320xf16>) -> tensor<2x64x64x320xf16>
    %576 = "oneflow.scalar_div"(%575) {device_name = ["@0:0"], device_tag = "cuda", float_operand = 1.000000e+00 : f64, has_float_operand = true, has_int_operand = false, hierarchy = [1], int_operand = 0 : si64, op_name = "unet.up_blocks.3.resnets.1-scalar_div-828", scope_symbol_id = 5526 : i64} : (tensor<2x64x64x320xf16>) -> tensor<2x64x64x320xf16>
    %y_979, %mean_980, %inv_variance_981 = "oneflow.group_norm"(%576, %output_618, %output_617) {activation = "none", affine = true, data_format = "channels_last", device_name = ["@0:0"], device_tag = "cuda", epsilon = 9.9999999999999995E-7 : f64, hierarchy = [1], num_groups = 32 : si32, op_name = "unet.up_blocks.3.attentions.1.norm-group_norm-829", operand_segment_sizes = dense<1> : vector<3xi32>, scope_symbol_id = 5591 : i64} : (tensor<2x64x64x320xf16>, tensor<320xf16>, tensor<320xf16>) -> (tensor<2x64x64x320xf16>, tensor<2x32xf32>, tensor<2x32xf32>)
    %577 = "oneflow.conv2d"(%y_979, %output_619, %output_620) {data_format = "channels_last", device_name = ["@0:0"], device_tag = "cuda", dilation_rate = [1 : si32, 1 : si32], filters = 320 : si32, groups = 1 : si32, hierarchy = [1], kernel_size = [1 : si32, 1 : si32], op_name = "unet.up_blocks.3.attentions.1.proj_in-conv2d-830", operand_segment_sizes = dense<[1, 1, 1, 0]> : vector<4xi32>, padding_before = [0 : si32, 0 : si32], scope_symbol_id = 5603 : i64, strides = [1 : si32, 1 : si32]} : (tensor<2x64x64x320xf16>, tensor<320x1x1x320xf16>, tensor<320xf16>) -> tensor<2x64x64x320xf16>
    %578 = "oneflow.reshape"(%577) {device_name = ["@0:0"], device_tag = "cuda", hierarchy = [1], op_name = "unet.up_blocks.3.attentions.1-reshape-832", scope_symbol_id = 5606 : i64, shape = [2 : si64, 4096 : si64, 320 : si64]} : (tensor<2x64x64x320xf16>) -> tensor<2x4096x320xf16>
    %y_982, %mean_983, %inv_variance_984 = "oneflow.layer_norm"(%578, %output_622, %output_621) {begin_norm_axis = 2 : si64, begin_params_axis = 2 : si64, center = true, device_name = ["@0:0"], device_tag = "cuda", epsilon = 1.000000e-05 : f64, hierarchy = [1], op_name = "unet.up_blocks.3.attentions.1.transformer_blocks.0.norm1-layer_norm-833", operand_segment_sizes = dense<1> : vector<3xi32>, scale = true, scope_symbol_id = 5622 : i64} : (tensor<2x4096x320xf16>, tensor<320xf16>, tensor<320xf16>) -> (tensor<2x4096x320xf16>, tensor<2x4096xf32>, tensor<2x4096xf32>)
    %579:3 = "oneflow.grouped_matmul_bias"(%y_982, %y_982, %y_982, %output_625, %output_623, %output_624) {device_name = ["@0:0"], device_tag = "cuda", hierarchy = [1], op_name = "grouped_matmul_unet.up_blocks.3.attentions.1.transformer_blocks.0.attn1.to_v-broadcast_matmul-836", operand_segment_sizes = dense<[3, 3, 0]> : vector<3xi32>, scope_symbol_id = 5647 : i64} : (tensor<2x4096x320xf16>, tensor<2x4096x320xf16>, tensor<2x4096x320xf16>, tensor<320x320xf16>, tensor<320x320xf16>, tensor<320x320xf16>) -> (tensor<2x4096x320xf16>, tensor<2x4096x320xf16>, tensor<2x4096x320xf16>)
    %580 = "oneflow.fused_multi_head_attention_inference"(%579#1, %579#2, %579#0) {causal = false, device_name = ["@0:0"], device_tag = "cuda", hierarchy = [1], key_hidden_slice_end = -1 : si64, key_hidden_slice_start = 0 : si64, num_heads = 8 : si64, op_name = "unet.up_blocks.3.attentions.1.transformer_blocks.0.attn1-fused_multi_head_attention_inference-837", query_hidden_slice_end = -1 : si64, query_hidden_slice_start = 0 : si64, scope_symbol_id = 5650 : i64, value_hidden_slice_end = -1 : si64, value_hidden_slice_start = 0 : si64} : (tensor<2x4096x320xf16>, tensor<2x4096x320xf16>, tensor<2x4096x320xf16>) -> tensor<2x4096x320xf16>
    %581 = "oneflow.broadcast_matmul"(%580, %output_626) {alpha = 1.000000e+00 : f64, device_name = ["@0:0"], device_tag = "cuda", hierarchy = [1], op_name = "unet.up_blocks.3.attentions.1.transformer_blocks.0.attn1.to_out.0-broadcast_matmul-838", scope_symbol_id = 5659 : i64, transpose_a = false, transpose_b = true} : (tensor<2x4096x320xf16>, tensor<320x320xf16>) -> tensor<2x4096x320xf16>
    %582 = "oneflow.broadcast_add"(%581, %output_627) {device_name = ["@0:0"], device_tag = "cuda", hierarchy = [1], op_name = "unet.up_blocks.3.attentions.1.transformer_blocks.0.attn1.to_out.0-broadcast_add-839", scope_symbol_id = 5659 : i64} : (tensor<2x4096x320xf16>, tensor<320xf16>) -> tensor<2x4096x320xf16>
    %583 = "oneflow.add_n2"(%582, %578) {device_name = ["@0:0"], device_tag = "cuda", hierarchy = [1], op_name = "unet.up_blocks.3.attentions.1.transformer_blocks.0-add_n-840", op_type_name = "add_n", scope_symbol_id = 5670 : i64} : (tensor<2x4096x320xf16>, tensor<2x4096x320xf16>) -> tensor<2x4096x320xf16>
    %y_985, %mean_986, %inv_variance_987 = "oneflow.layer_norm"(%583, %output_629, %output_628) {begin_norm_axis = 2 : si64, begin_params_axis = 2 : si64, center = true, device_name = ["@0:0"], device_tag = "cuda", epsilon = 1.000000e-05 : f64, hierarchy = [1], op_name = "unet.up_blocks.3.attentions.1.transformer_blocks.0.norm2-layer_norm-841", operand_segment_sizes = dense<1> : vector<3xi32>, scale = true, scope_symbol_id = 5682 : i64} : (tensor<2x4096x320xf16>, tensor<320xf16>, tensor<320xf16>) -> (tensor<2x4096x320xf16>, tensor<2x4096xf32>, tensor<2x4096xf32>)
    %584 = "oneflow.broadcast_matmul"(%y_985, %output_630) {alpha = 1.000000e+00 : f64, device_name = ["@0:0"], device_tag = "cuda", hierarchy = [1], op_name = "unet.up_blocks.3.attentions.1.transformer_blocks.0.attn2.to_q-broadcast_matmul-842", scope_symbol_id = 5691 : i64, transpose_a = false, transpose_b = true} : (tensor<2x4096x320xf16>, tensor<320x320xf16>) -> tensor<2x4096x320xf16>
    %585 = "oneflow.fused_multi_head_attention_inference"(%584, %6#11, %6#30) {causal = false, device_name = ["@0:0"], device_tag = "cuda", hierarchy = [1], key_hidden_slice_end = -1 : si64, key_hidden_slice_start = 0 : si64, num_heads = 8 : si64, op_name = "unet.up_blocks.3.attentions.1.transformer_blocks.0.attn2-fused_multi_head_attention_inference-845", query_hidden_slice_end = -1 : si64, query_hidden_slice_start = 0 : si64, scope_symbol_id = 5710 : i64, value_hidden_slice_end = -1 : si64, value_hidden_slice_start = 0 : si64} : (tensor<2x4096x320xf16>, tensor<2x77x320xf16>, tensor<2x77x320xf16>) -> tensor<2x4096x320xf16>
    %586 = "oneflow.broadcast_matmul"(%585, %output_633) {alpha = 1.000000e+00 : f64, device_name = ["@0:0"], device_tag = "cuda", hierarchy = [1], op_name = "unet.up_blocks.3.attentions.1.transformer_blocks.0.attn2.to_out.0-broadcast_matmul-846", scope_symbol_id = 5719 : i64, transpose_a = false, transpose_b = true} : (tensor<2x4096x320xf16>, tensor<320x320xf16>) -> tensor<2x4096x320xf16>
    %587 = "oneflow.broadcast_add"(%586, %output_634) {device_name = ["@0:0"], device_tag = "cuda", hierarchy = [1], op_name = "unet.up_blocks.3.attentions.1.transformer_blocks.0.attn2.to_out.0-broadcast_add-847", scope_symbol_id = 5719 : i64} : (tensor<2x4096x320xf16>, tensor<320xf16>) -> tensor<2x4096x320xf16>
    %588 = "oneflow.add_n2"(%587, %583) {device_name = ["@0:0"], device_tag = "cuda", hierarchy = [1], op_name = "unet.up_blocks.3.attentions.1.transformer_blocks.0-add_n-848", op_type_name = "add_n", scope_symbol_id = 5670 : i64} : (tensor<2x4096x320xf16>, tensor<2x4096x320xf16>) -> tensor<2x4096x320xf16>
    %y_988, %mean_989, %inv_variance_990 = "oneflow.layer_norm"(%588, %output_636, %output_635) {begin_norm_axis = 2 : si64, begin_params_axis = 2 : si64, center = true, device_name = ["@0:0"], device_tag = "cuda", epsilon = 1.000000e-05 : f64, hierarchy = [1], op_name = "unet.up_blocks.3.attentions.1.transformer_blocks.0.norm3-layer_norm-849", operand_segment_sizes = dense<1> : vector<3xi32>, scale = true, scope_symbol_id = 5742 : i64} : (tensor<2x4096x320xf16>, tensor<320xf16>, tensor<320xf16>) -> (tensor<2x4096x320xf16>, tensor<2x4096xf32>, tensor<2x4096xf32>)
    %589 = "oneflow.broadcast_matmul"(%y_988, %output_637) {alpha = 1.000000e+00 : f64, device_name = ["@0:0"], device_tag = "cuda", hierarchy = [1], op_name = "unet.up_blocks.3.attentions.1.transformer_blocks.0.ff.net.0.proj-broadcast_matmul-850", scope_symbol_id = 5753 : i64, transpose_a = false, transpose_b = true} : (tensor<2x4096x320xf16>, tensor<2560x320xf16>) -> tensor<2x4096x2560xf16>
    %590 = "oneflow.broadcast_add"(%589, %output_638) {device_name = ["@0:0"], device_tag = "cuda", hierarchy = [1], op_name = "unet.up_blocks.3.attentions.1.transformer_blocks.0.ff.net.0.proj-broadcast_add-851", scope_symbol_id = 5753 : i64} : (tensor<2x4096x2560xf16>, tensor<2560xf16>) -> tensor<2x4096x2560xf16>
    %591 = "oneflow.narrow"(%590) {device_name = ["@0:0"], device_tag = "cuda", dim = 2 : si64, hierarchy = [1], length = 1280 : si64, op_name = "unet.up_blocks.3.attentions.1.transformer_blocks.0.ff.net.0-narrow-852", scope_symbol_id = 5763 : i64, start = 0 : si64} : (tensor<2x4096x2560xf16>) -> tensor<2x4096x1280xf16>
    %592 = "oneflow.narrow"(%590) {device_name = ["@0:0"], device_tag = "cuda", dim = 2 : si64, hierarchy = [1], length = 1280 : si64, op_name = "unet.up_blocks.3.attentions.1.transformer_blocks.0.ff.net.0-narrow-853", scope_symbol_id = 5763 : i64, start = 1280 : si64} : (tensor<2x4096x2560xf16>) -> tensor<2x4096x1280xf16>
    %593 = "oneflow.gelu"(%592) {device_name = ["@0:0"], device_tag = "cuda", hierarchy = [1], op_name = "unet.up_blocks.3.attentions.1.transformer_blocks.0.ff.net.0-gelu-854", scope_symbol_id = 5763 : i64} : (tensor<2x4096x1280xf16>) -> tensor<2x4096x1280xf16>
    %594 = "oneflow.broadcast_mul"(%591, %593) {device_name = ["@0:0"], device_tag = "cuda", hierarchy = [1], op_name = "unet.up_blocks.3.attentions.1.transformer_blocks.0.ff.net.0-broadcast_mul-855", scope_symbol_id = 5763 : i64} : (tensor<2x4096x1280xf16>, tensor<2x4096x1280xf16>) -> tensor<2x4096x1280xf16>
    %595 = "oneflow.broadcast_matmul"(%594, %output_639) {alpha = 1.000000e+00 : f64, device_name = ["@0:0"], device_tag = "cuda", hierarchy = [1], op_name = "unet.up_blocks.3.attentions.1.transformer_blocks.0.ff.net.2-broadcast_matmul-856", scope_symbol_id = 5781 : i64, transpose_a = false, transpose_b = true} : (tensor<2x4096x1280xf16>, tensor<320x1280xf16>) -> tensor<2x4096x320xf16>
    %596 = "oneflow.broadcast_add"(%595, %output_640) {device_name = ["@0:0"], device_tag = "cuda", hierarchy = [1], op_name = "unet.up_blocks.3.attentions.1.transformer_blocks.0.ff.net.2-broadcast_add-857", scope_symbol_id = 5781 : i64} : (tensor<2x4096x320xf16>, tensor<320xf16>) -> tensor<2x4096x320xf16>
    %597 = "oneflow.add_n2"(%596, %588) {device_name = ["@0:0"], device_tag = "cuda", hierarchy = [1], op_name = "unet.up_blocks.3.attentions.1.transformer_blocks.0-add_n-858", op_type_name = "add_n", scope_symbol_id = 5670 : i64} : (tensor<2x4096x320xf16>, tensor<2x4096x320xf16>) -> tensor<2x4096x320xf16>
    %598 = "oneflow.reshape"(%597) {device_name = ["@0:0"], device_tag = "cuda", hierarchy = [1], op_name = "unet.up_blocks.3.attentions.1-reshape-859", scope_symbol_id = 5606 : i64, shape = [2 : si64, 64 : si64, 64 : si64, 320 : si64]} : (tensor<2x4096x320xf16>) -> tensor<2x64x64x320xf16>
    %599 = "oneflow.conv2d"(%598, %output_641, %output_642) {data_format = "channels_last", device_name = ["@0:0"], device_tag = "cuda", dilation_rate = [1 : si32, 1 : si32], filters = 320 : si32, groups = 1 : si32, hierarchy = [1], kernel_size = [1 : si32, 1 : si32], op_name = "unet.up_blocks.3.attentions.1.proj_out-conv2d-861", operand_segment_sizes = dense<[1, 1, 1, 0]> : vector<4xi32>, padding_before = [0 : si32, 0 : si32], scope_symbol_id = 5809 : i64, strides = [1 : si32, 1 : si32]} : (tensor<2x64x64x320xf16>, tensor<320x1x1x320xf16>, tensor<320xf16>) -> tensor<2x64x64x320xf16>
    %600 = "oneflow.add_n2"(%599, %576) {device_name = ["@0:0"], device_tag = "cuda", hierarchy = [1], op_name = "unet.up_blocks.3.attentions.1-add_n-862", op_type_name = "add_n", scope_symbol_id = 5606 : i64} : (tensor<2x64x64x320xf16>, tensor<2x64x64x320xf16>) -> tensor<2x64x64x320xf16>
    %601 = "oneflow.concat"(%600, %11) {axis = 3 : si64, device_name = ["@0:0"], device_tag = "cuda", hierarchy = [1], max_dim_size = 640 : si64, op_name = "unet.up_blocks.3-concat-863", scope_symbol_id = 5137 : i64} : (tensor<2x64x64x320xf16>, tensor<2x64x64x320xf16>) -> tensor<2x64x64x640xf16>
    %y_991, %mean_992, %inv_variance_993 = "oneflow.group_norm"(%601, %output_644, %output_643) {activation = "silu", affine = true, data_format = "channels_last", device_name = ["@0:0"], device_tag = "cuda", epsilon = 1.000000e-05 : f64, hierarchy = [1], num_groups = 32 : si32, op_name = "unet.up_blocks.3.resnets.2.norm1-group_norm-864_with_activation", operand_segment_sizes = dense<1> : vector<3xi32>, scope_symbol_id = 5828 : i64} : (tensor<2x64x64x640xf16>, tensor<640xf16>, tensor<640xf16>) -> (tensor<2x64x64x640xf16>, tensor<2x32xf32>, tensor<2x32xf32>)
    %602 = "oneflow.conv2d"(%601, %output_653, %output_654) {data_format = "channels_last", device_name = ["@0:0"], device_tag = "cuda", dilation_rate = [1 : si32, 1 : si32], filters = 320 : si32, groups = 1 : si32, hierarchy = [1], kernel_size = [1 : si32, 1 : si32], op_name = "unet.up_blocks.3.resnets.2.conv_shortcut-conv2d-876", operand_segment_sizes = dense<[1, 1, 1, 0]> : vector<4xi32>, padding_before = [0 : si32, 0 : si32], scope_symbol_id = 5911 : i64, strides = [1 : si32, 1 : si32]} : (tensor<2x64x64x640xf16>, tensor<320x1x1x640xf16>, tensor<320xf16>) -> tensor<2x64x64x320xf16>
    %603 = "oneflow.conv2d"(%y_991, %output_645, %output_646) {data_format = "channels_last", device_name = ["@0:0"], device_tag = "cuda", dilation_rate = [1 : si32, 1 : si32], filters = 320 : si32, groups = 1 : si32, hierarchy = [1], kernel_size = [3 : si32, 3 : si32], op_name = "unet.up_blocks.3.resnets.2.conv1-conv2d-866", operand_segment_sizes = dense<[1, 1, 1, 0]> : vector<4xi32>, padding_before = [1 : si32, 1 : si32], scope_symbol_id = 5844 : i64, strides = [1 : si32, 1 : si32]} : (tensor<2x64x64x640xf16>, tensor<320x3x3x640xf16>, tensor<320xf16>) -> tensor<2x64x64x320xf16>
    %604 = "oneflow.broadcast_add"(%603, %81) {device_name = ["@0:0"], device_tag = "cuda", hierarchy = [1], op_name = "unet.up_blocks.3.resnets.2-broadcast_add-872", scope_symbol_id = 5865 : i64} : (tensor<2x64x64x320xf16>, tensor<2x1x1x320xf16>) -> tensor<2x64x64x320xf16>
    %y_994, %mean_995, %inv_variance_996 = "oneflow.group_norm"(%604, %output_650, %output_649) {activation = "silu", affine = true, data_format = "channels_last", device_name = ["@0:0"], device_tag = "cuda", epsilon = 1.000000e-05 : f64, hierarchy = [1], num_groups = 32 : si32, op_name = "unet.up_blocks.3.resnets.2.norm2-group_norm-873_with_activation", operand_segment_sizes = dense<1> : vector<3xi32>, scope_symbol_id = 5883 : i64} : (tensor<2x64x64x320xf16>, tensor<320xf16>, tensor<320xf16>) -> (tensor<2x64x64x320xf16>, tensor<2x32xf32>, tensor<2x32xf32>)
    %605 = "oneflow.conv2d"(%y_994, %output_651, %output_652) {data_format = "channels_last", device_name = ["@0:0"], device_tag = "cuda", dilation_rate = [1 : si32, 1 : si32], filters = 320 : si32, groups = 1 : si32, hierarchy = [1], kernel_size = [3 : si32, 3 : si32], op_name = "unet.up_blocks.3.resnets.2.conv2-conv2d-875", operand_segment_sizes = dense<[1, 1, 1, 0]> : vector<4xi32>, padding_before = [1 : si32, 1 : si32], scope_symbol_id = 5899 : i64, strides = [1 : si32, 1 : si32]} : (tensor<2x64x64x320xf16>, tensor<320x3x3x320xf16>, tensor<320xf16>) -> tensor<2x64x64x320xf16>
    %606 = "oneflow.add_n2"(%602, %605) {device_name = ["@0:0"], device_tag = "cuda", hierarchy = [1], op_name = "unet.up_blocks.3.resnets.2-add_n-877", op_type_name = "add_n", scope_symbol_id = 5865 : i64} : (tensor<2x64x64x320xf16>, tensor<2x64x64x320xf16>) -> tensor<2x64x64x320xf16>
    %607 = "oneflow.scalar_div"(%606) {device_name = ["@0:0"], device_tag = "cuda", float_operand = 1.000000e+00 : f64, has_float_operand = true, has_int_operand = false, hierarchy = [1], int_operand = 0 : si64, op_name = "unet.up_blocks.3.resnets.2-scalar_div-878", scope_symbol_id = 5865 : i64} : (tensor<2x64x64x320xf16>) -> tensor<2x64x64x320xf16>
    %y_997, %mean_998, %inv_variance_999 = "oneflow.group_norm"(%607, %output_656, %output_655) {activation = "none", affine = true, data_format = "channels_last", device_name = ["@0:0"], device_tag = "cuda", epsilon = 9.9999999999999995E-7 : f64, hierarchy = [1], num_groups = 32 : si32, op_name = "unet.up_blocks.3.attentions.2.norm-group_norm-879", operand_segment_sizes = dense<1> : vector<3xi32>, scope_symbol_id = 5930 : i64} : (tensor<2x64x64x320xf16>, tensor<320xf16>, tensor<320xf16>) -> (tensor<2x64x64x320xf16>, tensor<2x32xf32>, tensor<2x32xf32>)
    %608 = "oneflow.conv2d"(%y_997, %output_657, %output_658) {data_format = "channels_last", device_name = ["@0:0"], device_tag = "cuda", dilation_rate = [1 : si32, 1 : si32], filters = 320 : si32, groups = 1 : si32, hierarchy = [1], kernel_size = [1 : si32, 1 : si32], op_name = "unet.up_blocks.3.attentions.2.proj_in-conv2d-880", operand_segment_sizes = dense<[1, 1, 1, 0]> : vector<4xi32>, padding_before = [0 : si32, 0 : si32], scope_symbol_id = 5942 : i64, strides = [1 : si32, 1 : si32]} : (tensor<2x64x64x320xf16>, tensor<320x1x1x320xf16>, tensor<320xf16>) -> tensor<2x64x64x320xf16>
    %609 = "oneflow.reshape"(%608) {device_name = ["@0:0"], device_tag = "cuda", hierarchy = [1], op_name = "unet.up_blocks.3.attentions.2-reshape-882", scope_symbol_id = 5945 : i64, shape = [2 : si64, 4096 : si64, 320 : si64]} : (tensor<2x64x64x320xf16>) -> tensor<2x4096x320xf16>
    %y_1000, %mean_1001, %inv_variance_1002 = "oneflow.layer_norm"(%609, %output_660, %output_659) {begin_norm_axis = 2 : si64, begin_params_axis = 2 : si64, center = true, device_name = ["@0:0"], device_tag = "cuda", epsilon = 1.000000e-05 : f64, hierarchy = [1], op_name = "unet.up_blocks.3.attentions.2.transformer_blocks.0.norm1-layer_norm-883", operand_segment_sizes = dense<1> : vector<3xi32>, scale = true, scope_symbol_id = 5961 : i64} : (tensor<2x4096x320xf16>, tensor<320xf16>, tensor<320xf16>) -> (tensor<2x4096x320xf16>, tensor<2x4096xf32>, tensor<2x4096xf32>)
    %610:3 = "oneflow.grouped_matmul_bias"(%y_1000, %y_1000, %y_1000, %output_663, %output_662, %output_661) {device_name = ["@0:0"], device_tag = "cuda", hierarchy = [1], op_name = "grouped_matmul_unet.up_blocks.3.attentions.2.transformer_blocks.0.attn1.to_v-broadcast_matmul-886", operand_segment_sizes = dense<[3, 3, 0]> : vector<3xi32>, scope_symbol_id = 5986 : i64} : (tensor<2x4096x320xf16>, tensor<2x4096x320xf16>, tensor<2x4096x320xf16>, tensor<320x320xf16>, tensor<320x320xf16>, tensor<320x320xf16>) -> (tensor<2x4096x320xf16>, tensor<2x4096x320xf16>, tensor<2x4096x320xf16>)
    %611 = "oneflow.fused_multi_head_attention_inference"(%610#2, %610#1, %610#0) {causal = false, device_name = ["@0:0"], device_tag = "cuda", hierarchy = [1], key_hidden_slice_end = -1 : si64, key_hidden_slice_start = 0 : si64, num_heads = 8 : si64, op_name = "unet.up_blocks.3.attentions.2.transformer_blocks.0.attn1-fused_multi_head_attention_inference-887", query_hidden_slice_end = -1 : si64, query_hidden_slice_start = 0 : si64, scope_symbol_id = 5989 : i64, value_hidden_slice_end = -1 : si64, value_hidden_slice_start = 0 : si64} : (tensor<2x4096x320xf16>, tensor<2x4096x320xf16>, tensor<2x4096x320xf16>) -> tensor<2x4096x320xf16>
    %612 = "oneflow.broadcast_matmul"(%611, %output_664) {alpha = 1.000000e+00 : f64, device_name = ["@0:0"], device_tag = "cuda", hierarchy = [1], op_name = "unet.up_blocks.3.attentions.2.transformer_blocks.0.attn1.to_out.0-broadcast_matmul-888", scope_symbol_id = 5998 : i64, transpose_a = false, transpose_b = true} : (tensor<2x4096x320xf16>, tensor<320x320xf16>) -> tensor<2x4096x320xf16>
    %613 = "oneflow.broadcast_add"(%612, %output_665) {device_name = ["@0:0"], device_tag = "cuda", hierarchy = [1], op_name = "unet.up_blocks.3.attentions.2.transformer_blocks.0.attn1.to_out.0-broadcast_add-889", scope_symbol_id = 5998 : i64} : (tensor<2x4096x320xf16>, tensor<320xf16>) -> tensor<2x4096x320xf16>
    %614 = "oneflow.add_n2"(%613, %609) {device_name = ["@0:0"], device_tag = "cuda", hierarchy = [1], op_name = "unet.up_blocks.3.attentions.2.transformer_blocks.0-add_n-890", op_type_name = "add_n", scope_symbol_id = 6009 : i64} : (tensor<2x4096x320xf16>, tensor<2x4096x320xf16>) -> tensor<2x4096x320xf16>
    %y_1003, %mean_1004, %inv_variance_1005 = "oneflow.layer_norm"(%614, %output_667, %output_666) {begin_norm_axis = 2 : si64, begin_params_axis = 2 : si64, center = true, device_name = ["@0:0"], device_tag = "cuda", epsilon = 1.000000e-05 : f64, hierarchy = [1], op_name = "unet.up_blocks.3.attentions.2.transformer_blocks.0.norm2-layer_norm-891", operand_segment_sizes = dense<1> : vector<3xi32>, scale = true, scope_symbol_id = 6021 : i64} : (tensor<2x4096x320xf16>, tensor<320xf16>, tensor<320xf16>) -> (tensor<2x4096x320xf16>, tensor<2x4096xf32>, tensor<2x4096xf32>)
    %615 = "oneflow.broadcast_matmul"(%y_1003, %output_668) {alpha = 1.000000e+00 : f64, device_name = ["@0:0"], device_tag = "cuda", hierarchy = [1], op_name = "unet.up_blocks.3.attentions.2.transformer_blocks.0.attn2.to_q-broadcast_matmul-892", scope_symbol_id = 6030 : i64, transpose_a = false, transpose_b = true} : (tensor<2x4096x320xf16>, tensor<320x320xf16>) -> tensor<2x4096x320xf16>
    %616 = "oneflow.fused_multi_head_attention_inference"(%615, %6#31, %6#17) {causal = false, device_name = ["@0:0"], device_tag = "cuda", hierarchy = [1], key_hidden_slice_end = -1 : si64, key_hidden_slice_start = 0 : si64, num_heads = 8 : si64, op_name = "unet.up_blocks.3.attentions.2.transformer_blocks.0.attn2-fused_multi_head_attention_inference-895", query_hidden_slice_end = -1 : si64, query_hidden_slice_start = 0 : si64, scope_symbol_id = 6049 : i64, value_hidden_slice_end = -1 : si64, value_hidden_slice_start = 0 : si64} : (tensor<2x4096x320xf16>, tensor<2x77x320xf16>, tensor<2x77x320xf16>) -> tensor<2x4096x320xf16>
    %617 = "oneflow.broadcast_matmul"(%616, %output_671) {alpha = 1.000000e+00 : f64, device_name = ["@0:0"], device_tag = "cuda", hierarchy = [1], op_name = "unet.up_blocks.3.attentions.2.transformer_blocks.0.attn2.to_out.0-broadcast_matmul-896", scope_symbol_id = 6058 : i64, transpose_a = false, transpose_b = true} : (tensor<2x4096x320xf16>, tensor<320x320xf16>) -> tensor<2x4096x320xf16>
    %618 = "oneflow.broadcast_add"(%617, %output_672) {device_name = ["@0:0"], device_tag = "cuda", hierarchy = [1], op_name = "unet.up_blocks.3.attentions.2.transformer_blocks.0.attn2.to_out.0-broadcast_add-897", scope_symbol_id = 6058 : i64} : (tensor<2x4096x320xf16>, tensor<320xf16>) -> tensor<2x4096x320xf16>
    %619 = "oneflow.add_n2"(%618, %614) {device_name = ["@0:0"], device_tag = "cuda", hierarchy = [1], op_name = "unet.up_blocks.3.attentions.2.transformer_blocks.0-add_n-898", op_type_name = "add_n", scope_symbol_id = 6009 : i64} : (tensor<2x4096x320xf16>, tensor<2x4096x320xf16>) -> tensor<2x4096x320xf16>
    %y_1006, %mean_1007, %inv_variance_1008 = "oneflow.layer_norm"(%619, %output_674, %output_673) {begin_norm_axis = 2 : si64, begin_params_axis = 2 : si64, center = true, device_name = ["@0:0"], device_tag = "cuda", epsilon = 1.000000e-05 : f64, hierarchy = [1], op_name = "unet.up_blocks.3.attentions.2.transformer_blocks.0.norm3-layer_norm-899", operand_segment_sizes = dense<1> : vector<3xi32>, scale = true, scope_symbol_id = 6081 : i64} : (tensor<2x4096x320xf16>, tensor<320xf16>, tensor<320xf16>) -> (tensor<2x4096x320xf16>, tensor<2x4096xf32>, tensor<2x4096xf32>)
    %620 = "oneflow.broadcast_matmul"(%y_1006, %output_675) {alpha = 1.000000e+00 : f64, device_name = ["@0:0"], device_tag = "cuda", hierarchy = [1], op_name = "unet.up_blocks.3.attentions.2.transformer_blocks.0.ff.net.0.proj-broadcast_matmul-900", scope_symbol_id = 6092 : i64, transpose_a = false, transpose_b = true} : (tensor<2x4096x320xf16>, tensor<2560x320xf16>) -> tensor<2x4096x2560xf16>
    %621 = "oneflow.broadcast_add"(%620, %output_676) {device_name = ["@0:0"], device_tag = "cuda", hierarchy = [1], op_name = "unet.up_blocks.3.attentions.2.transformer_blocks.0.ff.net.0.proj-broadcast_add-901", scope_symbol_id = 6092 : i64} : (tensor<2x4096x2560xf16>, tensor<2560xf16>) -> tensor<2x4096x2560xf16>
    %622 = "oneflow.narrow"(%621) {device_name = ["@0:0"], device_tag = "cuda", dim = 2 : si64, hierarchy = [1], length = 1280 : si64, op_name = "unet.up_blocks.3.attentions.2.transformer_blocks.0.ff.net.0-narrow-902", scope_symbol_id = 6102 : i64, start = 0 : si64} : (tensor<2x4096x2560xf16>) -> tensor<2x4096x1280xf16>
    %623 = "oneflow.narrow"(%621) {device_name = ["@0:0"], device_tag = "cuda", dim = 2 : si64, hierarchy = [1], length = 1280 : si64, op_name = "unet.up_blocks.3.attentions.2.transformer_blocks.0.ff.net.0-narrow-903", scope_symbol_id = 6102 : i64, start = 1280 : si64} : (tensor<2x4096x2560xf16>) -> tensor<2x4096x1280xf16>
    %624 = "oneflow.gelu"(%623) {device_name = ["@0:0"], device_tag = "cuda", hierarchy = [1], op_name = "unet.up_blocks.3.attentions.2.transformer_blocks.0.ff.net.0-gelu-904", scope_symbol_id = 6102 : i64} : (tensor<2x4096x1280xf16>) -> tensor<2x4096x1280xf16>
    %625 = "oneflow.broadcast_mul"(%622, %624) {device_name = ["@0:0"], device_tag = "cuda", hierarchy = [1], op_name = "unet.up_blocks.3.attentions.2.transformer_blocks.0.ff.net.0-broadcast_mul-905", scope_symbol_id = 6102 : i64} : (tensor<2x4096x1280xf16>, tensor<2x4096x1280xf16>) -> tensor<2x4096x1280xf16>
    %626 = "oneflow.broadcast_matmul"(%625, %output_677) {alpha = 1.000000e+00 : f64, device_name = ["@0:0"], device_tag = "cuda", hierarchy = [1], op_name = "unet.up_blocks.3.attentions.2.transformer_blocks.0.ff.net.2-broadcast_matmul-906", scope_symbol_id = 6120 : i64, transpose_a = false, transpose_b = true} : (tensor<2x4096x1280xf16>, tensor<320x1280xf16>) -> tensor<2x4096x320xf16>
    %627 = "oneflow.broadcast_add"(%626, %output_678) {device_name = ["@0:0"], device_tag = "cuda", hierarchy = [1], op_name = "unet.up_blocks.3.attentions.2.transformer_blocks.0.ff.net.2-broadcast_add-907", scope_symbol_id = 6120 : i64} : (tensor<2x4096x320xf16>, tensor<320xf16>) -> tensor<2x4096x320xf16>
    %628 = "oneflow.add_n2"(%627, %619) {device_name = ["@0:0"], device_tag = "cuda", hierarchy = [1], op_name = "unet.up_blocks.3.attentions.2.transformer_blocks.0-add_n-908", op_type_name = "add_n", scope_symbol_id = 6009 : i64} : (tensor<2x4096x320xf16>, tensor<2x4096x320xf16>) -> tensor<2x4096x320xf16>
    %629 = "oneflow.reshape"(%628) {device_name = ["@0:0"], device_tag = "cuda", hierarchy = [1], op_name = "unet.up_blocks.3.attentions.2-reshape-909", scope_symbol_id = 5945 : i64, shape = [2 : si64, 64 : si64, 64 : si64, 320 : si64]} : (tensor<2x4096x320xf16>) -> tensor<2x64x64x320xf16>
    %630 = "oneflow.conv2d"(%629, %output_679, %output_680) {data_format = "channels_last", device_name = ["@0:0"], device_tag = "cuda", dilation_rate = [1 : si32, 1 : si32], filters = 320 : si32, groups = 1 : si32, hierarchy = [1], kernel_size = [1 : si32, 1 : si32], op_name = "unet.up_blocks.3.attentions.2.proj_out-conv2d-911", operand_segment_sizes = dense<[1, 1, 1, 0]> : vector<4xi32>, padding_before = [0 : si32, 0 : si32], scope_symbol_id = 6148 : i64, strides = [1 : si32, 1 : si32]} : (tensor<2x64x64x320xf16>, tensor<320x1x1x320xf16>, tensor<320xf16>) -> tensor<2x64x64x320xf16>
    %631 = "oneflow.add_n2"(%630, %607) {device_name = ["@0:0"], device_tag = "cuda", hierarchy = [1], op_name = "unet.up_blocks.3.attentions.2-add_n-912", op_type_name = "add_n", scope_symbol_id = 5945 : i64} : (tensor<2x64x64x320xf16>, tensor<2x64x64x320xf16>) -> tensor<2x64x64x320xf16>
    %632 = "oneflow.cast"(%631) {device_name = ["@0:0"], device_tag = "cuda", dtype = 2 : i32, hierarchy = [1], op_name = "unet-cast-913", pin_memory = false, scope_symbol_id = 31 : i64} : (tensor<2x64x64x320xf16>) -> tensor<2x64x64x320xf32>
    %y_1009, %mean_1010, %inv_variance_1011 = "oneflow.group_norm"(%632, %2, %1) {activation = "none", affine = true, data_format = "channels_last", device_name = ["@0:0"], device_tag = "cuda", epsilon = 1.000000e-05 : f64, hierarchy = [1], num_groups = 32 : si32, op_name = "unet.conv_norm_out-group_norm-917", operand_segment_sizes = dense<1> : vector<3xi32>, scope_symbol_id = 6169 : i64} : (tensor<2x64x64x320xf32>, tensor<320xf32>, tensor<320xf32>) -> (tensor<2x64x64x320xf32>, tensor<2x32xf32>, tensor<2x32xf32>)
    %633 = "oneflow.cast"(%y_1009) {device_name = ["@0:0"], device_tag = "cuda", dtype = 9 : i32, hierarchy = [1], op_name = "unet-cast-918", pin_memory = false, scope_symbol_id = 31 : i64} : (tensor<2x64x64x320xf32>) -> tensor<2x64x64x320xf16>
    %634 = "oneflow.silu"(%633) {device_name = ["@0:0"], device_tag = "cuda", hierarchy = [1], op_name = "unet.conv_act-silu-919", scope_symbol_id = 6182 : i64} : (tensor<2x64x64x320xf16>) -> tensor<2x64x64x320xf16>
    %635 = "oneflow.conv2d"(%634, %output_683, %output_684) {data_format = "channels_last", device_name = ["@0:0"], device_tag = "cuda", dilation_rate = [1 : si32, 1 : si32], filters = 4 : si32, groups = 1 : si32, hierarchy = [1], kernel_size = [3 : si32, 3 : si32], op_name = "unet.conv_out-conv2d-920", operand_segment_sizes = dense<[1, 1, 1, 0]> : vector<4xi32>, padding_before = [1 : si32, 1 : si32], scope_symbol_id = 6194 : i64, strides = [1 : si32, 1 : si32]} : (tensor<2x64x64x320xf16>, tensor<4x3x3x320xf16>, tensor<4xf16>) -> tensor<2x64x64x4xf16>
    %636 = "oneflow.transpose"(%635) {device_name = ["@0:0"], device_tag = "cuda", hierarchy = [1], op_name = "unet.conv_out-conv2d-920_transpose_output_0", perm = [0 : si32, 3 : si32, 1 : si32, 2 : si32], scope_symbol_id = 6194 : i64} : (tensor<2x64x64x4xf16>) -> tensor<2x4x64x64xf16>
    %output_1012 = "oneflow.output"(%636) {data_type = 9 : i32, device_name = ["@0:0"], device_tag = "cuda", hierarchy = [1], is_dynamic = false, nd_sbp = ["B"], op_name = "_UNetGraph_0_output.0.0_2", output_lbns = ["_UNetGraph_0_output.0.0_2/out"], scope_symbol_id = 12 : i64, shape = [2 : si64, 4 : si64, 64 : si64, 64 : si64]} : (tensor<2x4x64x64xf16>) -> tensor<2x4x64x64xf16>
    oneflow.return %output_1012 : tensor<2x4x64x64xf16>
  }
}
