module {
  oneflow.job @UNetGraph_0(%arg0: tensor<2x4x64x64xf32>, %arg1: tensor<si64>, %arg2: tensor<2x77x768xf16>) -> tensor<2x4x64x64xf16> {
    %output = "oneflow.variable"() {data_type = 9 : i32, device_name = ["@0:0"], device_tag = "cuda", hierarchy = [1], op_name = "unet.time_embedding.linear_1.weight", output_lbns = ["unet.time_embedding.linear_1.weight/out"], parallel = #sbp.parallel<[] -> [[#sbp.B]]>, scope_symbol_id = 83 : i64, shape = [1280 : si64, 320 : si64]} : () -> tensor<1280x320xf16>
    %output_0 = "oneflow.variable"() {data_type = 9 : i32, device_name = ["@0:0"], device_tag = "cuda", hierarchy = [1], op_name = "unet.time_embedding.linear_1.bias", output_lbns = ["unet.time_embedding.linear_1.bias/out"], parallel = #sbp.parallel<[] -> [[#sbp.B]]>, scope_symbol_id = 90 : i64, shape = [1280 : si64]} : () -> tensor<1280xf16>
    %output_1 = "oneflow.variable"() {data_type = 9 : i32, device_name = ["@0:0"], device_tag = "cuda", hierarchy = [1], op_name = "unet.time_embedding.linear_2.weight", output_lbns = ["unet.time_embedding.linear_2.weight/out"], parallel = #sbp.parallel<[] -> [[#sbp.B]]>, scope_symbol_id = 102 : i64, shape = [1280 : si64, 1280 : si64]} : () -> tensor<1280x1280xf16>
    %output_2 = "oneflow.variable"() {data_type = 9 : i32, device_name = ["@0:0"], device_tag = "cuda", hierarchy = [1], op_name = "unet.time_embedding.linear_2.bias", output_lbns = ["unet.time_embedding.linear_2.bias/out"], parallel = #sbp.parallel<[] -> [[#sbp.B]]>, scope_symbol_id = 109 : i64, shape = [1280 : si64]} : () -> tensor<1280xf16>
    %output_3 = "oneflow.variable"() {data_type = 9 : i32, device_name = ["@0:0"], device_tag = "cuda", hierarchy = [1], op_name = "variable_415", output_lbns = ["variable_415/out"], parallel = #sbp.parallel<[] -> [[#sbp.B]]>, scope_symbol_id = 117 : i64, shape = [320 : si64, 3 : si64, 3 : si64, 4 : si64]} : () -> tensor<320x3x3x4xf16>
    %output_4 = "oneflow.variable"() {data_type = 9 : i32, device_name = ["@0:0"], device_tag = "cuda", hierarchy = [1], op_name = "unet.conv_in.bias", output_lbns = ["unet.conv_in.bias/out"], parallel = #sbp.parallel<[] -> [[#sbp.B]]>, scope_symbol_id = 121 : i64, shape = [320 : si64]} : () -> tensor<320xf16>
    %output_5 = "oneflow.variable"() {data_type = 9 : i32, device_name = ["@0:0"], device_tag = "cuda", hierarchy = [1], op_name = "unet.down_blocks.0.resnets.0.norm1.weight", output_lbns = ["unet.down_blocks.0.resnets.0.norm1.weight/out"], parallel = #sbp.parallel<[] -> [[#sbp.B]]>, scope_symbol_id = 134 : i64, shape = [320 : si64]} : () -> tensor<320xf16>
    %output_6 = "oneflow.variable"() {data_type = 9 : i32, device_name = ["@0:0"], device_tag = "cuda", hierarchy = [1], op_name = "unet.down_blocks.0.resnets.0.norm1.bias", output_lbns = ["unet.down_blocks.0.resnets.0.norm1.bias/out"], parallel = #sbp.parallel<[] -> [[#sbp.B]]>, scope_symbol_id = 138 : i64, shape = [320 : si64]} : () -> tensor<320xf16>
    %output_7 = "oneflow.variable"() {data_type = 9 : i32, device_name = ["@0:0"], device_tag = "cuda", hierarchy = [1], op_name = "variable_414", output_lbns = ["variable_414/out"], parallel = #sbp.parallel<[] -> [[#sbp.B]]>, scope_symbol_id = 150 : i64, shape = [320 : si64, 3 : si64, 3 : si64, 320 : si64]} : () -> tensor<320x3x3x320xf16>
    %output_8 = "oneflow.variable"() {data_type = 9 : i32, device_name = ["@0:0"], device_tag = "cuda", hierarchy = [1], op_name = "unet.down_blocks.0.resnets.0.conv1.bias", output_lbns = ["unet.down_blocks.0.resnets.0.conv1.bias/out"], parallel = #sbp.parallel<[] -> [[#sbp.B]]>, scope_symbol_id = 154 : i64, shape = [320 : si64]} : () -> tensor<320xf16>
    %output_9 = "oneflow.variable"() {data_type = 9 : i32, device_name = ["@0:0"], device_tag = "cuda", hierarchy = [1], op_name = "unet.down_blocks.0.resnets.0.time_emb_proj.weight", output_lbns = ["unet.down_blocks.0.resnets.0.time_emb_proj.weight/out"], parallel = #sbp.parallel<[] -> [[#sbp.B]]>, scope_symbol_id = 165 : i64, shape = [320 : si64, 1280 : si64]} : () -> tensor<320x1280xf16>
    %output_10 = "oneflow.variable"() {data_type = 9 : i32, device_name = ["@0:0"], device_tag = "cuda", hierarchy = [1], op_name = "unet.down_blocks.0.resnets.0.time_emb_proj.bias", output_lbns = ["unet.down_blocks.0.resnets.0.time_emb_proj.bias/out"], parallel = #sbp.parallel<[] -> [[#sbp.B]]>, scope_symbol_id = 172 : i64, shape = [320 : si64]} : () -> tensor<320xf16>
    %output_11 = "oneflow.variable"() {data_type = 9 : i32, device_name = ["@0:0"], device_tag = "cuda", hierarchy = [1], op_name = "unet.down_blocks.0.resnets.0.norm2.weight", output_lbns = ["unet.down_blocks.0.resnets.0.norm2.weight/out"], parallel = #sbp.parallel<[] -> [[#sbp.B]]>, scope_symbol_id = 189 : i64, shape = [320 : si64]} : () -> tensor<320xf16>
    %output_12 = "oneflow.variable"() {data_type = 9 : i32, device_name = ["@0:0"], device_tag = "cuda", hierarchy = [1], op_name = "unet.down_blocks.0.resnets.0.norm2.bias", output_lbns = ["unet.down_blocks.0.resnets.0.norm2.bias/out"], parallel = #sbp.parallel<[] -> [[#sbp.B]]>, scope_symbol_id = 193 : i64, shape = [320 : si64]} : () -> tensor<320xf16>
    %output_13 = "oneflow.variable"() {data_type = 9 : i32, device_name = ["@0:0"], device_tag = "cuda", hierarchy = [1], op_name = "variable_413", output_lbns = ["variable_413/out"], parallel = #sbp.parallel<[] -> [[#sbp.B]]>, scope_symbol_id = 205 : i64, shape = [320 : si64, 3 : si64, 3 : si64, 320 : si64]} : () -> tensor<320x3x3x320xf16>
    %output_14 = "oneflow.variable"() {data_type = 9 : i32, device_name = ["@0:0"], device_tag = "cuda", hierarchy = [1], op_name = "unet.down_blocks.0.resnets.0.conv2.bias", output_lbns = ["unet.down_blocks.0.resnets.0.conv2.bias/out"], parallel = #sbp.parallel<[] -> [[#sbp.B]]>, scope_symbol_id = 209 : i64, shape = [320 : si64]} : () -> tensor<320xf16>
    %output_15 = "oneflow.variable"() {data_type = 9 : i32, device_name = ["@0:0"], device_tag = "cuda", hierarchy = [1], op_name = "unet.down_blocks.0.attentions.0.norm.weight", output_lbns = ["unet.down_blocks.0.attentions.0.norm.weight/out"], parallel = #sbp.parallel<[] -> [[#sbp.B]]>, scope_symbol_id = 224 : i64, shape = [320 : si64]} : () -> tensor<320xf16>
    %output_16 = "oneflow.variable"() {data_type = 9 : i32, device_name = ["@0:0"], device_tag = "cuda", hierarchy = [1], op_name = "unet.down_blocks.0.attentions.0.norm.bias", output_lbns = ["unet.down_blocks.0.attentions.0.norm.bias/out"], parallel = #sbp.parallel<[] -> [[#sbp.B]]>, scope_symbol_id = 228 : i64, shape = [320 : si64]} : () -> tensor<320xf16>
    %output_17 = "oneflow.variable"() {data_type = 9 : i32, device_name = ["@0:0"], device_tag = "cuda", hierarchy = [1], op_name = "variable_412", output_lbns = ["variable_412/out"], parallel = #sbp.parallel<[] -> [[#sbp.B]]>, scope_symbol_id = 236 : i64, shape = [320 : si64, 1 : si64, 1 : si64, 320 : si64]} : () -> tensor<320x1x1x320xf16>
    %output_18 = "oneflow.variable"() {data_type = 9 : i32, device_name = ["@0:0"], device_tag = "cuda", hierarchy = [1], op_name = "unet.down_blocks.0.attentions.0.proj_in.bias", output_lbns = ["unet.down_blocks.0.attentions.0.proj_in.bias/out"], parallel = #sbp.parallel<[] -> [[#sbp.B]]>, scope_symbol_id = 240 : i64, shape = [320 : si64]} : () -> tensor<320xf16>
    %output_19 = "oneflow.variable"() {data_type = 9 : i32, device_name = ["@0:0"], device_tag = "cuda", hierarchy = [1], op_name = "unet.down_blocks.0.attentions.0.transformer_blocks.0.norm1.weight", output_lbns = ["unet.down_blocks.0.attentions.0.transformer_blocks.0.norm1.weight/out"], parallel = #sbp.parallel<[] -> [[#sbp.B]]>, scope_symbol_id = 255 : i64, shape = [320 : si64]} : () -> tensor<320xf16>
    %output_20 = "oneflow.variable"() {data_type = 9 : i32, device_name = ["@0:0"], device_tag = "cuda", hierarchy = [1], op_name = "unet.down_blocks.0.attentions.0.transformer_blocks.0.norm1.bias", output_lbns = ["unet.down_blocks.0.attentions.0.transformer_blocks.0.norm1.bias/out"], parallel = #sbp.parallel<[] -> [[#sbp.B]]>, scope_symbol_id = 259 : i64, shape = [320 : si64]} : () -> tensor<320xf16>
    %output_21 = "oneflow.variable"() {data_type = 9 : i32, device_name = ["@0:0"], device_tag = "cuda", hierarchy = [1], op_name = "unet.down_blocks.0.attentions.0.transformer_blocks.0.attn1.to_q.weight", output_lbns = ["unet.down_blocks.0.attentions.0.transformer_blocks.0.attn1.to_q.weight/out"], parallel = #sbp.parallel<[] -> [[#sbp.B]]>, scope_symbol_id = 268 : i64, shape = [320 : si64, 320 : si64]} : () -> tensor<320x320xf16>
    %output_22 = "oneflow.variable"() {data_type = 9 : i32, device_name = ["@0:0"], device_tag = "cuda", hierarchy = [1], op_name = "unet.down_blocks.0.attentions.0.transformer_blocks.0.attn1.to_k.weight", output_lbns = ["unet.down_blocks.0.attentions.0.transformer_blocks.0.attn1.to_k.weight/out"], parallel = #sbp.parallel<[] -> [[#sbp.B]]>, scope_symbol_id = 276 : i64, shape = [320 : si64, 320 : si64]} : () -> tensor<320x320xf16>
    %output_23 = "oneflow.variable"() {data_type = 9 : i32, device_name = ["@0:0"], device_tag = "cuda", hierarchy = [1], op_name = "unet.down_blocks.0.attentions.0.transformer_blocks.0.attn1.to_v.weight", output_lbns = ["unet.down_blocks.0.attentions.0.transformer_blocks.0.attn1.to_v.weight/out"], parallel = #sbp.parallel<[] -> [[#sbp.B]]>, scope_symbol_id = 284 : i64, shape = [320 : si64, 320 : si64]} : () -> tensor<320x320xf16>
    %output_24 = "oneflow.variable"() {data_type = 9 : i32, device_name = ["@0:0"], device_tag = "cuda", hierarchy = [1], op_name = "unet.down_blocks.0.attentions.0.transformer_blocks.0.attn1.to_out.0.weight", output_lbns = ["unet.down_blocks.0.attentions.0.transformer_blocks.0.attn1.to_out.0.weight/out"], parallel = #sbp.parallel<[] -> [[#sbp.B]]>, scope_symbol_id = 295 : i64, shape = [320 : si64, 320 : si64]} : () -> tensor<320x320xf16>
    %output_25 = "oneflow.variable"() {data_type = 9 : i32, device_name = ["@0:0"], device_tag = "cuda", hierarchy = [1], op_name = "unet.down_blocks.0.attentions.0.transformer_blocks.0.attn1.to_out.0.bias", output_lbns = ["unet.down_blocks.0.attentions.0.transformer_blocks.0.attn1.to_out.0.bias/out"], parallel = #sbp.parallel<[] -> [[#sbp.B]]>, scope_symbol_id = 302 : i64, shape = [320 : si64]} : () -> tensor<320xf16>
    %output_26 = "oneflow.variable"() {data_type = 9 : i32, device_name = ["@0:0"], device_tag = "cuda", hierarchy = [1], op_name = "unet.down_blocks.0.attentions.0.transformer_blocks.0.norm2.weight", output_lbns = ["unet.down_blocks.0.attentions.0.transformer_blocks.0.norm2.weight/out"], parallel = #sbp.parallel<[] -> [[#sbp.B]]>, scope_symbol_id = 314 : i64, shape = [320 : si64]} : () -> tensor<320xf16>
    %output_27 = "oneflow.variable"() {data_type = 9 : i32, device_name = ["@0:0"], device_tag = "cuda", hierarchy = [1], op_name = "unet.down_blocks.0.attentions.0.transformer_blocks.0.norm2.bias", output_lbns = ["unet.down_blocks.0.attentions.0.transformer_blocks.0.norm2.bias/out"], parallel = #sbp.parallel<[] -> [[#sbp.B]]>, scope_symbol_id = 318 : i64, shape = [320 : si64]} : () -> tensor<320xf16>
    %output_28 = "oneflow.variable"() {data_type = 9 : i32, device_name = ["@0:0"], device_tag = "cuda", hierarchy = [1], op_name = "unet.down_blocks.0.attentions.0.transformer_blocks.0.attn2.to_q.weight", output_lbns = ["unet.down_blocks.0.attentions.0.transformer_blocks.0.attn2.to_q.weight/out"], parallel = #sbp.parallel<[] -> [[#sbp.B]]>, scope_symbol_id = 327 : i64, shape = [320 : si64, 320 : si64]} : () -> tensor<320x320xf16>
    %output_29 = "oneflow.variable"() {data_type = 9 : i32, device_name = ["@0:0"], device_tag = "cuda", hierarchy = [1], op_name = "unet.down_blocks.0.attentions.0.transformer_blocks.0.attn2.to_k.weight", output_lbns = ["unet.down_blocks.0.attentions.0.transformer_blocks.0.attn2.to_k.weight/out"], parallel = #sbp.parallel<[] -> [[#sbp.B]]>, scope_symbol_id = 335 : i64, shape = [320 : si64, 768 : si64]} : () -> tensor<320x768xf16>
    %output_30 = "oneflow.variable"() {data_type = 9 : i32, device_name = ["@0:0"], device_tag = "cuda", hierarchy = [1], op_name = "unet.down_blocks.0.attentions.0.transformer_blocks.0.attn2.to_v.weight", output_lbns = ["unet.down_blocks.0.attentions.0.transformer_blocks.0.attn2.to_v.weight/out"], parallel = #sbp.parallel<[] -> [[#sbp.B]]>, scope_symbol_id = 343 : i64, shape = [320 : si64, 768 : si64]} : () -> tensor<320x768xf16>
    %output_31 = "oneflow.variable"() {data_type = 9 : i32, device_name = ["@0:0"], device_tag = "cuda", hierarchy = [1], op_name = "unet.down_blocks.0.attentions.0.transformer_blocks.0.attn2.to_out.0.weight", output_lbns = ["unet.down_blocks.0.attentions.0.transformer_blocks.0.attn2.to_out.0.weight/out"], parallel = #sbp.parallel<[] -> [[#sbp.B]]>, scope_symbol_id = 354 : i64, shape = [320 : si64, 320 : si64]} : () -> tensor<320x320xf16>
    %output_32 = "oneflow.variable"() {data_type = 9 : i32, device_name = ["@0:0"], device_tag = "cuda", hierarchy = [1], op_name = "unet.down_blocks.0.attentions.0.transformer_blocks.0.attn2.to_out.0.bias", output_lbns = ["unet.down_blocks.0.attentions.0.transformer_blocks.0.attn2.to_out.0.bias/out"], parallel = #sbp.parallel<[] -> [[#sbp.B]]>, scope_symbol_id = 361 : i64, shape = [320 : si64]} : () -> tensor<320xf16>
    %output_33 = "oneflow.variable"() {data_type = 9 : i32, device_name = ["@0:0"], device_tag = "cuda", hierarchy = [1], op_name = "unet.down_blocks.0.attentions.0.transformer_blocks.0.norm3.weight", output_lbns = ["unet.down_blocks.0.attentions.0.transformer_blocks.0.norm3.weight/out"], parallel = #sbp.parallel<[] -> [[#sbp.B]]>, scope_symbol_id = 373 : i64, shape = [320 : si64]} : () -> tensor<320xf16>
    %output_34 = "oneflow.variable"() {data_type = 9 : i32, device_name = ["@0:0"], device_tag = "cuda", hierarchy = [1], op_name = "unet.down_blocks.0.attentions.0.transformer_blocks.0.norm3.bias", output_lbns = ["unet.down_blocks.0.attentions.0.transformer_blocks.0.norm3.bias/out"], parallel = #sbp.parallel<[] -> [[#sbp.B]]>, scope_symbol_id = 377 : i64, shape = [320 : si64]} : () -> tensor<320xf16>
    %output_35 = "oneflow.variable"() {data_type = 9 : i32, device_name = ["@0:0"], device_tag = "cuda", hierarchy = [1], op_name = "unet.down_blocks.0.attentions.0.transformer_blocks.0.ff.net.0.proj.weight", output_lbns = ["unet.down_blocks.0.attentions.0.transformer_blocks.0.ff.net.0.proj.weight/out"], parallel = #sbp.parallel<[] -> [[#sbp.B]]>, scope_symbol_id = 387 : i64, shape = [2560 : si64, 320 : si64]} : () -> tensor<2560x320xf16>
    %output_36 = "oneflow.variable"() {data_type = 9 : i32, device_name = ["@0:0"], device_tag = "cuda", hierarchy = [1], op_name = "unet.down_blocks.0.attentions.0.transformer_blocks.0.ff.net.0.proj.bias", output_lbns = ["unet.down_blocks.0.attentions.0.transformer_blocks.0.ff.net.0.proj.bias/out"], parallel = #sbp.parallel<[] -> [[#sbp.B]]>, scope_symbol_id = 394 : i64, shape = [2560 : si64]} : () -> tensor<2560xf16>
    %output_37 = "oneflow.variable"() {data_type = 9 : i32, device_name = ["@0:0"], device_tag = "cuda", hierarchy = [1], op_name = "unet.down_blocks.0.attentions.0.transformer_blocks.0.ff.net.2.weight", output_lbns = ["unet.down_blocks.0.attentions.0.transformer_blocks.0.ff.net.2.weight/out"], parallel = #sbp.parallel<[] -> [[#sbp.B]]>, scope_symbol_id = 415 : i64, shape = [320 : si64, 1280 : si64]} : () -> tensor<320x1280xf16>
    %output_38 = "oneflow.variable"() {data_type = 9 : i32, device_name = ["@0:0"], device_tag = "cuda", hierarchy = [1], op_name = "unet.down_blocks.0.attentions.0.transformer_blocks.0.ff.net.2.bias", output_lbns = ["unet.down_blocks.0.attentions.0.transformer_blocks.0.ff.net.2.bias/out"], parallel = #sbp.parallel<[] -> [[#sbp.B]]>, scope_symbol_id = 422 : i64, shape = [320 : si64]} : () -> tensor<320xf16>
    %output_39 = "oneflow.variable"() {data_type = 9 : i32, device_name = ["@0:0"], device_tag = "cuda", hierarchy = [1], op_name = "variable_411", output_lbns = ["variable_411/out"], parallel = #sbp.parallel<[] -> [[#sbp.B]]>, scope_symbol_id = 439 : i64, shape = [320 : si64, 1 : si64, 1 : si64, 320 : si64]} : () -> tensor<320x1x1x320xf16>
    %output_40 = "oneflow.variable"() {data_type = 9 : i32, device_name = ["@0:0"], device_tag = "cuda", hierarchy = [1], op_name = "unet.down_blocks.0.attentions.0.proj_out.bias", output_lbns = ["unet.down_blocks.0.attentions.0.proj_out.bias/out"], parallel = #sbp.parallel<[] -> [[#sbp.B]]>, scope_symbol_id = 443 : i64, shape = [320 : si64]} : () -> tensor<320xf16>
    %output_41 = "oneflow.variable"() {data_type = 9 : i32, device_name = ["@0:0"], device_tag = "cuda", hierarchy = [1], op_name = "unet.down_blocks.0.resnets.1.norm1.weight", output_lbns = ["unet.down_blocks.0.resnets.1.norm1.weight/out"], parallel = #sbp.parallel<[] -> [[#sbp.B]]>, scope_symbol_id = 455 : i64, shape = [320 : si64]} : () -> tensor<320xf16>
    %output_42 = "oneflow.variable"() {data_type = 9 : i32, device_name = ["@0:0"], device_tag = "cuda", hierarchy = [1], op_name = "unet.down_blocks.0.resnets.1.norm1.bias", output_lbns = ["unet.down_blocks.0.resnets.1.norm1.bias/out"], parallel = #sbp.parallel<[] -> [[#sbp.B]]>, scope_symbol_id = 459 : i64, shape = [320 : si64]} : () -> tensor<320xf16>
    %output_43 = "oneflow.variable"() {data_type = 9 : i32, device_name = ["@0:0"], device_tag = "cuda", hierarchy = [1], op_name = "variable_410", output_lbns = ["variable_410/out"], parallel = #sbp.parallel<[] -> [[#sbp.B]]>, scope_symbol_id = 471 : i64, shape = [320 : si64, 3 : si64, 3 : si64, 320 : si64]} : () -> tensor<320x3x3x320xf16>
    %output_44 = "oneflow.variable"() {data_type = 9 : i32, device_name = ["@0:0"], device_tag = "cuda", hierarchy = [1], op_name = "unet.down_blocks.0.resnets.1.conv1.bias", output_lbns = ["unet.down_blocks.0.resnets.1.conv1.bias/out"], parallel = #sbp.parallel<[] -> [[#sbp.B]]>, scope_symbol_id = 475 : i64, shape = [320 : si64]} : () -> tensor<320xf16>
    %output_45 = "oneflow.variable"() {data_type = 9 : i32, device_name = ["@0:0"], device_tag = "cuda", hierarchy = [1], op_name = "unet.down_blocks.0.resnets.1.time_emb_proj.weight", output_lbns = ["unet.down_blocks.0.resnets.1.time_emb_proj.weight/out"], parallel = #sbp.parallel<[] -> [[#sbp.B]]>, scope_symbol_id = 486 : i64, shape = [320 : si64, 1280 : si64]} : () -> tensor<320x1280xf16>
    %output_46 = "oneflow.variable"() {data_type = 9 : i32, device_name = ["@0:0"], device_tag = "cuda", hierarchy = [1], op_name = "unet.down_blocks.0.resnets.1.time_emb_proj.bias", output_lbns = ["unet.down_blocks.0.resnets.1.time_emb_proj.bias/out"], parallel = #sbp.parallel<[] -> [[#sbp.B]]>, scope_symbol_id = 493 : i64, shape = [320 : si64]} : () -> tensor<320xf16>
    %output_47 = "oneflow.variable"() {data_type = 9 : i32, device_name = ["@0:0"], device_tag = "cuda", hierarchy = [1], op_name = "unet.down_blocks.0.resnets.1.norm2.weight", output_lbns = ["unet.down_blocks.0.resnets.1.norm2.weight/out"], parallel = #sbp.parallel<[] -> [[#sbp.B]]>, scope_symbol_id = 510 : i64, shape = [320 : si64]} : () -> tensor<320xf16>
    %output_48 = "oneflow.variable"() {data_type = 9 : i32, device_name = ["@0:0"], device_tag = "cuda", hierarchy = [1], op_name = "unet.down_blocks.0.resnets.1.norm2.bias", output_lbns = ["unet.down_blocks.0.resnets.1.norm2.bias/out"], parallel = #sbp.parallel<[] -> [[#sbp.B]]>, scope_symbol_id = 514 : i64, shape = [320 : si64]} : () -> tensor<320xf16>
    %output_49 = "oneflow.variable"() {data_type = 9 : i32, device_name = ["@0:0"], device_tag = "cuda", hierarchy = [1], op_name = "variable_409", output_lbns = ["variable_409/out"], parallel = #sbp.parallel<[] -> [[#sbp.B]]>, scope_symbol_id = 526 : i64, shape = [320 : si64, 3 : si64, 3 : si64, 320 : si64]} : () -> tensor<320x3x3x320xf16>
    %output_50 = "oneflow.variable"() {data_type = 9 : i32, device_name = ["@0:0"], device_tag = "cuda", hierarchy = [1], op_name = "unet.down_blocks.0.resnets.1.conv2.bias", output_lbns = ["unet.down_blocks.0.resnets.1.conv2.bias/out"], parallel = #sbp.parallel<[] -> [[#sbp.B]]>, scope_symbol_id = 530 : i64, shape = [320 : si64]} : () -> tensor<320xf16>
    %output_51 = "oneflow.variable"() {data_type = 9 : i32, device_name = ["@0:0"], device_tag = "cuda", hierarchy = [1], op_name = "unet.down_blocks.0.attentions.1.norm.weight", output_lbns = ["unet.down_blocks.0.attentions.1.norm.weight/out"], parallel = #sbp.parallel<[] -> [[#sbp.B]]>, scope_symbol_id = 545 : i64, shape = [320 : si64]} : () -> tensor<320xf16>
    %output_52 = "oneflow.variable"() {data_type = 9 : i32, device_name = ["@0:0"], device_tag = "cuda", hierarchy = [1], op_name = "unet.down_blocks.0.attentions.1.norm.bias", output_lbns = ["unet.down_blocks.0.attentions.1.norm.bias/out"], parallel = #sbp.parallel<[] -> [[#sbp.B]]>, scope_symbol_id = 549 : i64, shape = [320 : si64]} : () -> tensor<320xf16>
    %output_53 = "oneflow.variable"() {data_type = 9 : i32, device_name = ["@0:0"], device_tag = "cuda", hierarchy = [1], op_name = "variable_408", output_lbns = ["variable_408/out"], parallel = #sbp.parallel<[] -> [[#sbp.B]]>, scope_symbol_id = 557 : i64, shape = [320 : si64, 1 : si64, 1 : si64, 320 : si64]} : () -> tensor<320x1x1x320xf16>
    %output_54 = "oneflow.variable"() {data_type = 9 : i32, device_name = ["@0:0"], device_tag = "cuda", hierarchy = [1], op_name = "unet.down_blocks.0.attentions.1.proj_in.bias", output_lbns = ["unet.down_blocks.0.attentions.1.proj_in.bias/out"], parallel = #sbp.parallel<[] -> [[#sbp.B]]>, scope_symbol_id = 561 : i64, shape = [320 : si64]} : () -> tensor<320xf16>
    %output_55 = "oneflow.variable"() {data_type = 9 : i32, device_name = ["@0:0"], device_tag = "cuda", hierarchy = [1], op_name = "unet.down_blocks.0.attentions.1.transformer_blocks.0.norm1.weight", output_lbns = ["unet.down_blocks.0.attentions.1.transformer_blocks.0.norm1.weight/out"], parallel = #sbp.parallel<[] -> [[#sbp.B]]>, scope_symbol_id = 576 : i64, shape = [320 : si64]} : () -> tensor<320xf16>
    %output_56 = "oneflow.variable"() {data_type = 9 : i32, device_name = ["@0:0"], device_tag = "cuda", hierarchy = [1], op_name = "unet.down_blocks.0.attentions.1.transformer_blocks.0.norm1.bias", output_lbns = ["unet.down_blocks.0.attentions.1.transformer_blocks.0.norm1.bias/out"], parallel = #sbp.parallel<[] -> [[#sbp.B]]>, scope_symbol_id = 580 : i64, shape = [320 : si64]} : () -> tensor<320xf16>
    %output_57 = "oneflow.variable"() {data_type = 9 : i32, device_name = ["@0:0"], device_tag = "cuda", hierarchy = [1], op_name = "unet.down_blocks.0.attentions.1.transformer_blocks.0.attn1.to_q.weight", output_lbns = ["unet.down_blocks.0.attentions.1.transformer_blocks.0.attn1.to_q.weight/out"], parallel = #sbp.parallel<[] -> [[#sbp.B]]>, scope_symbol_id = 589 : i64, shape = [320 : si64, 320 : si64]} : () -> tensor<320x320xf16>
    %output_58 = "oneflow.variable"() {data_type = 9 : i32, device_name = ["@0:0"], device_tag = "cuda", hierarchy = [1], op_name = "unet.down_blocks.0.attentions.1.transformer_blocks.0.attn1.to_k.weight", output_lbns = ["unet.down_blocks.0.attentions.1.transformer_blocks.0.attn1.to_k.weight/out"], parallel = #sbp.parallel<[] -> [[#sbp.B]]>, scope_symbol_id = 597 : i64, shape = [320 : si64, 320 : si64]} : () -> tensor<320x320xf16>
    %output_59 = "oneflow.variable"() {data_type = 9 : i32, device_name = ["@0:0"], device_tag = "cuda", hierarchy = [1], op_name = "unet.down_blocks.0.attentions.1.transformer_blocks.0.attn1.to_v.weight", output_lbns = ["unet.down_blocks.0.attentions.1.transformer_blocks.0.attn1.to_v.weight/out"], parallel = #sbp.parallel<[] -> [[#sbp.B]]>, scope_symbol_id = 605 : i64, shape = [320 : si64, 320 : si64]} : () -> tensor<320x320xf16>
    %output_60 = "oneflow.variable"() {data_type = 9 : i32, device_name = ["@0:0"], device_tag = "cuda", hierarchy = [1], op_name = "unet.down_blocks.0.attentions.1.transformer_blocks.0.attn1.to_out.0.weight", output_lbns = ["unet.down_blocks.0.attentions.1.transformer_blocks.0.attn1.to_out.0.weight/out"], parallel = #sbp.parallel<[] -> [[#sbp.B]]>, scope_symbol_id = 616 : i64, shape = [320 : si64, 320 : si64]} : () -> tensor<320x320xf16>
    %output_61 = "oneflow.variable"() {data_type = 9 : i32, device_name = ["@0:0"], device_tag = "cuda", hierarchy = [1], op_name = "unet.down_blocks.0.attentions.1.transformer_blocks.0.attn1.to_out.0.bias", output_lbns = ["unet.down_blocks.0.attentions.1.transformer_blocks.0.attn1.to_out.0.bias/out"], parallel = #sbp.parallel<[] -> [[#sbp.B]]>, scope_symbol_id = 623 : i64, shape = [320 : si64]} : () -> tensor<320xf16>
    %output_62 = "oneflow.variable"() {data_type = 9 : i32, device_name = ["@0:0"], device_tag = "cuda", hierarchy = [1], op_name = "unet.down_blocks.0.attentions.1.transformer_blocks.0.norm2.weight", output_lbns = ["unet.down_blocks.0.attentions.1.transformer_blocks.0.norm2.weight/out"], parallel = #sbp.parallel<[] -> [[#sbp.B]]>, scope_symbol_id = 635 : i64, shape = [320 : si64]} : () -> tensor<320xf16>
    %output_63 = "oneflow.variable"() {data_type = 9 : i32, device_name = ["@0:0"], device_tag = "cuda", hierarchy = [1], op_name = "unet.down_blocks.0.attentions.1.transformer_blocks.0.norm2.bias", output_lbns = ["unet.down_blocks.0.attentions.1.transformer_blocks.0.norm2.bias/out"], parallel = #sbp.parallel<[] -> [[#sbp.B]]>, scope_symbol_id = 639 : i64, shape = [320 : si64]} : () -> tensor<320xf16>
    %output_64 = "oneflow.variable"() {data_type = 9 : i32, device_name = ["@0:0"], device_tag = "cuda", hierarchy = [1], op_name = "unet.down_blocks.0.attentions.1.transformer_blocks.0.attn2.to_q.weight", output_lbns = ["unet.down_blocks.0.attentions.1.transformer_blocks.0.attn2.to_q.weight/out"], parallel = #sbp.parallel<[] -> [[#sbp.B]]>, scope_symbol_id = 648 : i64, shape = [320 : si64, 320 : si64]} : () -> tensor<320x320xf16>
    %output_65 = "oneflow.variable"() {data_type = 9 : i32, device_name = ["@0:0"], device_tag = "cuda", hierarchy = [1], op_name = "unet.down_blocks.0.attentions.1.transformer_blocks.0.attn2.to_k.weight", output_lbns = ["unet.down_blocks.0.attentions.1.transformer_blocks.0.attn2.to_k.weight/out"], parallel = #sbp.parallel<[] -> [[#sbp.B]]>, scope_symbol_id = 656 : i64, shape = [320 : si64, 768 : si64]} : () -> tensor<320x768xf16>
    %output_66 = "oneflow.variable"() {data_type = 9 : i32, device_name = ["@0:0"], device_tag = "cuda", hierarchy = [1], op_name = "unet.down_blocks.0.attentions.1.transformer_blocks.0.attn2.to_v.weight", output_lbns = ["unet.down_blocks.0.attentions.1.transformer_blocks.0.attn2.to_v.weight/out"], parallel = #sbp.parallel<[] -> [[#sbp.B]]>, scope_symbol_id = 664 : i64, shape = [320 : si64, 768 : si64]} : () -> tensor<320x768xf16>
    %output_67 = "oneflow.variable"() {data_type = 9 : i32, device_name = ["@0:0"], device_tag = "cuda", hierarchy = [1], op_name = "unet.down_blocks.0.attentions.1.transformer_blocks.0.attn2.to_out.0.weight", output_lbns = ["unet.down_blocks.0.attentions.1.transformer_blocks.0.attn2.to_out.0.weight/out"], parallel = #sbp.parallel<[] -> [[#sbp.B]]>, scope_symbol_id = 675 : i64, shape = [320 : si64, 320 : si64]} : () -> tensor<320x320xf16>
    %output_68 = "oneflow.variable"() {data_type = 9 : i32, device_name = ["@0:0"], device_tag = "cuda", hierarchy = [1], op_name = "unet.down_blocks.0.attentions.1.transformer_blocks.0.attn2.to_out.0.bias", output_lbns = ["unet.down_blocks.0.attentions.1.transformer_blocks.0.attn2.to_out.0.bias/out"], parallel = #sbp.parallel<[] -> [[#sbp.B]]>, scope_symbol_id = 682 : i64, shape = [320 : si64]} : () -> tensor<320xf16>
    %output_69 = "oneflow.variable"() {data_type = 9 : i32, device_name = ["@0:0"], device_tag = "cuda", hierarchy = [1], op_name = "unet.down_blocks.0.attentions.1.transformer_blocks.0.norm3.weight", output_lbns = ["unet.down_blocks.0.attentions.1.transformer_blocks.0.norm3.weight/out"], parallel = #sbp.parallel<[] -> [[#sbp.B]]>, scope_symbol_id = 694 : i64, shape = [320 : si64]} : () -> tensor<320xf16>
    %output_70 = "oneflow.variable"() {data_type = 9 : i32, device_name = ["@0:0"], device_tag = "cuda", hierarchy = [1], op_name = "unet.down_blocks.0.attentions.1.transformer_blocks.0.norm3.bias", output_lbns = ["unet.down_blocks.0.attentions.1.transformer_blocks.0.norm3.bias/out"], parallel = #sbp.parallel<[] -> [[#sbp.B]]>, scope_symbol_id = 698 : i64, shape = [320 : si64]} : () -> tensor<320xf16>
    %output_71 = "oneflow.variable"() {data_type = 9 : i32, device_name = ["@0:0"], device_tag = "cuda", hierarchy = [1], op_name = "unet.down_blocks.0.attentions.1.transformer_blocks.0.ff.net.0.proj.weight", output_lbns = ["unet.down_blocks.0.attentions.1.transformer_blocks.0.ff.net.0.proj.weight/out"], parallel = #sbp.parallel<[] -> [[#sbp.B]]>, scope_symbol_id = 708 : i64, shape = [2560 : si64, 320 : si64]} : () -> tensor<2560x320xf16>
    %output_72 = "oneflow.variable"() {data_type = 9 : i32, device_name = ["@0:0"], device_tag = "cuda", hierarchy = [1], op_name = "unet.down_blocks.0.attentions.1.transformer_blocks.0.ff.net.0.proj.bias", output_lbns = ["unet.down_blocks.0.attentions.1.transformer_blocks.0.ff.net.0.proj.bias/out"], parallel = #sbp.parallel<[] -> [[#sbp.B]]>, scope_symbol_id = 715 : i64, shape = [2560 : si64]} : () -> tensor<2560xf16>
    %output_73 = "oneflow.variable"() {data_type = 9 : i32, device_name = ["@0:0"], device_tag = "cuda", hierarchy = [1], op_name = "unet.down_blocks.0.attentions.1.transformer_blocks.0.ff.net.2.weight", output_lbns = ["unet.down_blocks.0.attentions.1.transformer_blocks.0.ff.net.2.weight/out"], parallel = #sbp.parallel<[] -> [[#sbp.B]]>, scope_symbol_id = 736 : i64, shape = [320 : si64, 1280 : si64]} : () -> tensor<320x1280xf16>
    %output_74 = "oneflow.variable"() {data_type = 9 : i32, device_name = ["@0:0"], device_tag = "cuda", hierarchy = [1], op_name = "unet.down_blocks.0.attentions.1.transformer_blocks.0.ff.net.2.bias", output_lbns = ["unet.down_blocks.0.attentions.1.transformer_blocks.0.ff.net.2.bias/out"], parallel = #sbp.parallel<[] -> [[#sbp.B]]>, scope_symbol_id = 743 : i64, shape = [320 : si64]} : () -> tensor<320xf16>
    %output_75 = "oneflow.variable"() {data_type = 9 : i32, device_name = ["@0:0"], device_tag = "cuda", hierarchy = [1], op_name = "variable_407", output_lbns = ["variable_407/out"], parallel = #sbp.parallel<[] -> [[#sbp.B]]>, scope_symbol_id = 760 : i64, shape = [320 : si64, 1 : si64, 1 : si64, 320 : si64]} : () -> tensor<320x1x1x320xf16>
    %output_76 = "oneflow.variable"() {data_type = 9 : i32, device_name = ["@0:0"], device_tag = "cuda", hierarchy = [1], op_name = "unet.down_blocks.0.attentions.1.proj_out.bias", output_lbns = ["unet.down_blocks.0.attentions.1.proj_out.bias/out"], parallel = #sbp.parallel<[] -> [[#sbp.B]]>, scope_symbol_id = 764 : i64, shape = [320 : si64]} : () -> tensor<320xf16>
    %output_77 = "oneflow.variable"() {data_type = 9 : i32, device_name = ["@0:0"], device_tag = "cuda", hierarchy = [1], op_name = "variable_406", output_lbns = ["variable_406/out"], parallel = #sbp.parallel<[] -> [[#sbp.B]]>, scope_symbol_id = 776 : i64, shape = [320 : si64, 3 : si64, 3 : si64, 320 : si64]} : () -> tensor<320x3x3x320xf16>
    %output_78 = "oneflow.variable"() {data_type = 9 : i32, device_name = ["@0:0"], device_tag = "cuda", hierarchy = [1], op_name = "unet.down_blocks.0.downsamplers.0.conv.bias", output_lbns = ["unet.down_blocks.0.downsamplers.0.conv.bias/out"], parallel = #sbp.parallel<[] -> [[#sbp.B]]>, scope_symbol_id = 780 : i64, shape = [320 : si64]} : () -> tensor<320xf16>
    %output_79 = "oneflow.variable"() {data_type = 9 : i32, device_name = ["@0:0"], device_tag = "cuda", hierarchy = [1], op_name = "unet.down_blocks.1.resnets.0.norm1.weight", output_lbns = ["unet.down_blocks.1.resnets.0.norm1.weight/out"], parallel = #sbp.parallel<[] -> [[#sbp.B]]>, scope_symbol_id = 790 : i64, shape = [320 : si64]} : () -> tensor<320xf16>
    %output_80 = "oneflow.variable"() {data_type = 9 : i32, device_name = ["@0:0"], device_tag = "cuda", hierarchy = [1], op_name = "unet.down_blocks.1.resnets.0.norm1.bias", output_lbns = ["unet.down_blocks.1.resnets.0.norm1.bias/out"], parallel = #sbp.parallel<[] -> [[#sbp.B]]>, scope_symbol_id = 794 : i64, shape = [320 : si64]} : () -> tensor<320xf16>
    %output_81 = "oneflow.variable"() {data_type = 9 : i32, device_name = ["@0:0"], device_tag = "cuda", hierarchy = [1], op_name = "variable_405", output_lbns = ["variable_405/out"], parallel = #sbp.parallel<[] -> [[#sbp.B]]>, scope_symbol_id = 806 : i64, shape = [640 : si64, 3 : si64, 3 : si64, 320 : si64]} : () -> tensor<640x3x3x320xf16>
    %output_82 = "oneflow.variable"() {data_type = 9 : i32, device_name = ["@0:0"], device_tag = "cuda", hierarchy = [1], op_name = "unet.down_blocks.1.resnets.0.conv1.bias", output_lbns = ["unet.down_blocks.1.resnets.0.conv1.bias/out"], parallel = #sbp.parallel<[] -> [[#sbp.B]]>, scope_symbol_id = 810 : i64, shape = [640 : si64]} : () -> tensor<640xf16>
    %output_83 = "oneflow.variable"() {data_type = 9 : i32, device_name = ["@0:0"], device_tag = "cuda", hierarchy = [1], op_name = "unet.down_blocks.1.resnets.0.time_emb_proj.weight", output_lbns = ["unet.down_blocks.1.resnets.0.time_emb_proj.weight/out"], parallel = #sbp.parallel<[] -> [[#sbp.B]]>, scope_symbol_id = 821 : i64, shape = [640 : si64, 1280 : si64]} : () -> tensor<640x1280xf16>
    %output_84 = "oneflow.variable"() {data_type = 9 : i32, device_name = ["@0:0"], device_tag = "cuda", hierarchy = [1], op_name = "unet.down_blocks.1.resnets.0.time_emb_proj.bias", output_lbns = ["unet.down_blocks.1.resnets.0.time_emb_proj.bias/out"], parallel = #sbp.parallel<[] -> [[#sbp.B]]>, scope_symbol_id = 828 : i64, shape = [640 : si64]} : () -> tensor<640xf16>
    %output_85 = "oneflow.variable"() {data_type = 9 : i32, device_name = ["@0:0"], device_tag = "cuda", hierarchy = [1], op_name = "unet.down_blocks.1.resnets.0.norm2.weight", output_lbns = ["unet.down_blocks.1.resnets.0.norm2.weight/out"], parallel = #sbp.parallel<[] -> [[#sbp.B]]>, scope_symbol_id = 845 : i64, shape = [640 : si64]} : () -> tensor<640xf16>
    %output_86 = "oneflow.variable"() {data_type = 9 : i32, device_name = ["@0:0"], device_tag = "cuda", hierarchy = [1], op_name = "unet.down_blocks.1.resnets.0.norm2.bias", output_lbns = ["unet.down_blocks.1.resnets.0.norm2.bias/out"], parallel = #sbp.parallel<[] -> [[#sbp.B]]>, scope_symbol_id = 849 : i64, shape = [640 : si64]} : () -> tensor<640xf16>
    %output_87 = "oneflow.variable"() {data_type = 9 : i32, device_name = ["@0:0"], device_tag = "cuda", hierarchy = [1], op_name = "variable_404", output_lbns = ["variable_404/out"], parallel = #sbp.parallel<[] -> [[#sbp.B]]>, scope_symbol_id = 861 : i64, shape = [640 : si64, 3 : si64, 3 : si64, 640 : si64]} : () -> tensor<640x3x3x640xf16>
    %output_88 = "oneflow.variable"() {data_type = 9 : i32, device_name = ["@0:0"], device_tag = "cuda", hierarchy = [1], op_name = "unet.down_blocks.1.resnets.0.conv2.bias", output_lbns = ["unet.down_blocks.1.resnets.0.conv2.bias/out"], parallel = #sbp.parallel<[] -> [[#sbp.B]]>, scope_symbol_id = 865 : i64, shape = [640 : si64]} : () -> tensor<640xf16>
    %output_89 = "oneflow.variable"() {data_type = 9 : i32, device_name = ["@0:0"], device_tag = "cuda", hierarchy = [1], op_name = "variable_403", output_lbns = ["variable_403/out"], parallel = #sbp.parallel<[] -> [[#sbp.B]]>, scope_symbol_id = 873 : i64, shape = [640 : si64, 1 : si64, 1 : si64, 320 : si64]} : () -> tensor<640x1x1x320xf16>
    %output_90 = "oneflow.variable"() {data_type = 9 : i32, device_name = ["@0:0"], device_tag = "cuda", hierarchy = [1], op_name = "unet.down_blocks.1.resnets.0.conv_shortcut.bias", output_lbns = ["unet.down_blocks.1.resnets.0.conv_shortcut.bias/out"], parallel = #sbp.parallel<[] -> [[#sbp.B]]>, scope_symbol_id = 877 : i64, shape = [640 : si64]} : () -> tensor<640xf16>
    %output_91 = "oneflow.variable"() {data_type = 9 : i32, device_name = ["@0:0"], device_tag = "cuda", hierarchy = [1], op_name = "unet.down_blocks.1.attentions.0.norm.weight", output_lbns = ["unet.down_blocks.1.attentions.0.norm.weight/out"], parallel = #sbp.parallel<[] -> [[#sbp.B]]>, scope_symbol_id = 892 : i64, shape = [640 : si64]} : () -> tensor<640xf16>
    %output_92 = "oneflow.variable"() {data_type = 9 : i32, device_name = ["@0:0"], device_tag = "cuda", hierarchy = [1], op_name = "unet.down_blocks.1.attentions.0.norm.bias", output_lbns = ["unet.down_blocks.1.attentions.0.norm.bias/out"], parallel = #sbp.parallel<[] -> [[#sbp.B]]>, scope_symbol_id = 896 : i64, shape = [640 : si64]} : () -> tensor<640xf16>
    %output_93 = "oneflow.variable"() {data_type = 9 : i32, device_name = ["@0:0"], device_tag = "cuda", hierarchy = [1], op_name = "variable_402", output_lbns = ["variable_402/out"], parallel = #sbp.parallel<[] -> [[#sbp.B]]>, scope_symbol_id = 904 : i64, shape = [640 : si64, 1 : si64, 1 : si64, 640 : si64]} : () -> tensor<640x1x1x640xf16>
    %output_94 = "oneflow.variable"() {data_type = 9 : i32, device_name = ["@0:0"], device_tag = "cuda", hierarchy = [1], op_name = "unet.down_blocks.1.attentions.0.proj_in.bias", output_lbns = ["unet.down_blocks.1.attentions.0.proj_in.bias/out"], parallel = #sbp.parallel<[] -> [[#sbp.B]]>, scope_symbol_id = 908 : i64, shape = [640 : si64]} : () -> tensor<640xf16>
    %output_95 = "oneflow.variable"() {data_type = 9 : i32, device_name = ["@0:0"], device_tag = "cuda", hierarchy = [1], op_name = "unet.down_blocks.1.attentions.0.transformer_blocks.0.norm1.weight", output_lbns = ["unet.down_blocks.1.attentions.0.transformer_blocks.0.norm1.weight/out"], parallel = #sbp.parallel<[] -> [[#sbp.B]]>, scope_symbol_id = 923 : i64, shape = [640 : si64]} : () -> tensor<640xf16>
    %output_96 = "oneflow.variable"() {data_type = 9 : i32, device_name = ["@0:0"], device_tag = "cuda", hierarchy = [1], op_name = "unet.down_blocks.1.attentions.0.transformer_blocks.0.norm1.bias", output_lbns = ["unet.down_blocks.1.attentions.0.transformer_blocks.0.norm1.bias/out"], parallel = #sbp.parallel<[] -> [[#sbp.B]]>, scope_symbol_id = 927 : i64, shape = [640 : si64]} : () -> tensor<640xf16>
    %output_97 = "oneflow.variable"() {data_type = 9 : i32, device_name = ["@0:0"], device_tag = "cuda", hierarchy = [1], op_name = "unet.down_blocks.1.attentions.0.transformer_blocks.0.attn1.to_q.weight", output_lbns = ["unet.down_blocks.1.attentions.0.transformer_blocks.0.attn1.to_q.weight/out"], parallel = #sbp.parallel<[] -> [[#sbp.B]]>, scope_symbol_id = 936 : i64, shape = [640 : si64, 640 : si64]} : () -> tensor<640x640xf16>
    %output_98 = "oneflow.variable"() {data_type = 9 : i32, device_name = ["@0:0"], device_tag = "cuda", hierarchy = [1], op_name = "unet.down_blocks.1.attentions.0.transformer_blocks.0.attn1.to_k.weight", output_lbns = ["unet.down_blocks.1.attentions.0.transformer_blocks.0.attn1.to_k.weight/out"], parallel = #sbp.parallel<[] -> [[#sbp.B]]>, scope_symbol_id = 944 : i64, shape = [640 : si64, 640 : si64]} : () -> tensor<640x640xf16>
    %output_99 = "oneflow.variable"() {data_type = 9 : i32, device_name = ["@0:0"], device_tag = "cuda", hierarchy = [1], op_name = "unet.down_blocks.1.attentions.0.transformer_blocks.0.attn1.to_v.weight", output_lbns = ["unet.down_blocks.1.attentions.0.transformer_blocks.0.attn1.to_v.weight/out"], parallel = #sbp.parallel<[] -> [[#sbp.B]]>, scope_symbol_id = 952 : i64, shape = [640 : si64, 640 : si64]} : () -> tensor<640x640xf16>
    %output_100 = "oneflow.variable"() {data_type = 9 : i32, device_name = ["@0:0"], device_tag = "cuda", hierarchy = [1], op_name = "unet.down_blocks.1.attentions.0.transformer_blocks.0.attn1.to_out.0.weight", output_lbns = ["unet.down_blocks.1.attentions.0.transformer_blocks.0.attn1.to_out.0.weight/out"], parallel = #sbp.parallel<[] -> [[#sbp.B]]>, scope_symbol_id = 963 : i64, shape = [640 : si64, 640 : si64]} : () -> tensor<640x640xf16>
    %output_101 = "oneflow.variable"() {data_type = 9 : i32, device_name = ["@0:0"], device_tag = "cuda", hierarchy = [1], op_name = "unet.down_blocks.1.attentions.0.transformer_blocks.0.attn1.to_out.0.bias", output_lbns = ["unet.down_blocks.1.attentions.0.transformer_blocks.0.attn1.to_out.0.bias/out"], parallel = #sbp.parallel<[] -> [[#sbp.B]]>, scope_symbol_id = 970 : i64, shape = [640 : si64]} : () -> tensor<640xf16>
    %output_102 = "oneflow.variable"() {data_type = 9 : i32, device_name = ["@0:0"], device_tag = "cuda", hierarchy = [1], op_name = "unet.down_blocks.1.attentions.0.transformer_blocks.0.norm2.weight", output_lbns = ["unet.down_blocks.1.attentions.0.transformer_blocks.0.norm2.weight/out"], parallel = #sbp.parallel<[] -> [[#sbp.B]]>, scope_symbol_id = 982 : i64, shape = [640 : si64]} : () -> tensor<640xf16>
    %output_103 = "oneflow.variable"() {data_type = 9 : i32, device_name = ["@0:0"], device_tag = "cuda", hierarchy = [1], op_name = "unet.down_blocks.1.attentions.0.transformer_blocks.0.norm2.bias", output_lbns = ["unet.down_blocks.1.attentions.0.transformer_blocks.0.norm2.bias/out"], parallel = #sbp.parallel<[] -> [[#sbp.B]]>, scope_symbol_id = 986 : i64, shape = [640 : si64]} : () -> tensor<640xf16>
    %output_104 = "oneflow.variable"() {data_type = 9 : i32, device_name = ["@0:0"], device_tag = "cuda", hierarchy = [1], op_name = "unet.down_blocks.1.attentions.0.transformer_blocks.0.attn2.to_q.weight", output_lbns = ["unet.down_blocks.1.attentions.0.transformer_blocks.0.attn2.to_q.weight/out"], parallel = #sbp.parallel<[] -> [[#sbp.B]]>, scope_symbol_id = 995 : i64, shape = [640 : si64, 640 : si64]} : () -> tensor<640x640xf16>
    %output_105 = "oneflow.variable"() {data_type = 9 : i32, device_name = ["@0:0"], device_tag = "cuda", hierarchy = [1], op_name = "unet.down_blocks.1.attentions.0.transformer_blocks.0.attn2.to_k.weight", output_lbns = ["unet.down_blocks.1.attentions.0.transformer_blocks.0.attn2.to_k.weight/out"], parallel = #sbp.parallel<[] -> [[#sbp.B]]>, scope_symbol_id = 1003 : i64, shape = [640 : si64, 768 : si64]} : () -> tensor<640x768xf16>
    %output_106 = "oneflow.variable"() {data_type = 9 : i32, device_name = ["@0:0"], device_tag = "cuda", hierarchy = [1], op_name = "unet.down_blocks.1.attentions.0.transformer_blocks.0.attn2.to_v.weight", output_lbns = ["unet.down_blocks.1.attentions.0.transformer_blocks.0.attn2.to_v.weight/out"], parallel = #sbp.parallel<[] -> [[#sbp.B]]>, scope_symbol_id = 1011 : i64, shape = [640 : si64, 768 : si64]} : () -> tensor<640x768xf16>
    %output_107 = "oneflow.variable"() {data_type = 9 : i32, device_name = ["@0:0"], device_tag = "cuda", hierarchy = [1], op_name = "unet.down_blocks.1.attentions.0.transformer_blocks.0.attn2.to_out.0.weight", output_lbns = ["unet.down_blocks.1.attentions.0.transformer_blocks.0.attn2.to_out.0.weight/out"], parallel = #sbp.parallel<[] -> [[#sbp.B]]>, scope_symbol_id = 1022 : i64, shape = [640 : si64, 640 : si64]} : () -> tensor<640x640xf16>
    %output_108 = "oneflow.variable"() {data_type = 9 : i32, device_name = ["@0:0"], device_tag = "cuda", hierarchy = [1], op_name = "unet.down_blocks.1.attentions.0.transformer_blocks.0.attn2.to_out.0.bias", output_lbns = ["unet.down_blocks.1.attentions.0.transformer_blocks.0.attn2.to_out.0.bias/out"], parallel = #sbp.parallel<[] -> [[#sbp.B]]>, scope_symbol_id = 1029 : i64, shape = [640 : si64]} : () -> tensor<640xf16>
    %output_109 = "oneflow.variable"() {data_type = 9 : i32, device_name = ["@0:0"], device_tag = "cuda", hierarchy = [1], op_name = "unet.down_blocks.1.attentions.0.transformer_blocks.0.norm3.weight", output_lbns = ["unet.down_blocks.1.attentions.0.transformer_blocks.0.norm3.weight/out"], parallel = #sbp.parallel<[] -> [[#sbp.B]]>, scope_symbol_id = 1041 : i64, shape = [640 : si64]} : () -> tensor<640xf16>
    %output_110 = "oneflow.variable"() {data_type = 9 : i32, device_name = ["@0:0"], device_tag = "cuda", hierarchy = [1], op_name = "unet.down_blocks.1.attentions.0.transformer_blocks.0.norm3.bias", output_lbns = ["unet.down_blocks.1.attentions.0.transformer_blocks.0.norm3.bias/out"], parallel = #sbp.parallel<[] -> [[#sbp.B]]>, scope_symbol_id = 1045 : i64, shape = [640 : si64]} : () -> tensor<640xf16>
    %output_111 = "oneflow.variable"() {data_type = 9 : i32, device_name = ["@0:0"], device_tag = "cuda", hierarchy = [1], op_name = "unet.down_blocks.1.attentions.0.transformer_blocks.0.ff.net.0.proj.weight", output_lbns = ["unet.down_blocks.1.attentions.0.transformer_blocks.0.ff.net.0.proj.weight/out"], parallel = #sbp.parallel<[] -> [[#sbp.B]]>, scope_symbol_id = 1055 : i64, shape = [5120 : si64, 640 : si64]} : () -> tensor<5120x640xf16>
    %output_112 = "oneflow.variable"() {data_type = 9 : i32, device_name = ["@0:0"], device_tag = "cuda", hierarchy = [1], op_name = "unet.down_blocks.1.attentions.0.transformer_blocks.0.ff.net.0.proj.bias", output_lbns = ["unet.down_blocks.1.attentions.0.transformer_blocks.0.ff.net.0.proj.bias/out"], parallel = #sbp.parallel<[] -> [[#sbp.B]]>, scope_symbol_id = 1062 : i64, shape = [5120 : si64]} : () -> tensor<5120xf16>
    %output_113 = "oneflow.variable"() {data_type = 9 : i32, device_name = ["@0:0"], device_tag = "cuda", hierarchy = [1], op_name = "unet.down_blocks.1.attentions.0.transformer_blocks.0.ff.net.2.weight", output_lbns = ["unet.down_blocks.1.attentions.0.transformer_blocks.0.ff.net.2.weight/out"], parallel = #sbp.parallel<[] -> [[#sbp.B]]>, scope_symbol_id = 1083 : i64, shape = [640 : si64, 2560 : si64]} : () -> tensor<640x2560xf16>
    %output_114 = "oneflow.variable"() {data_type = 9 : i32, device_name = ["@0:0"], device_tag = "cuda", hierarchy = [1], op_name = "unet.down_blocks.1.attentions.0.transformer_blocks.0.ff.net.2.bias", output_lbns = ["unet.down_blocks.1.attentions.0.transformer_blocks.0.ff.net.2.bias/out"], parallel = #sbp.parallel<[] -> [[#sbp.B]]>, scope_symbol_id = 1090 : i64, shape = [640 : si64]} : () -> tensor<640xf16>
    %output_115 = "oneflow.variable"() {data_type = 9 : i32, device_name = ["@0:0"], device_tag = "cuda", hierarchy = [1], op_name = "variable_401", output_lbns = ["variable_401/out"], parallel = #sbp.parallel<[] -> [[#sbp.B]]>, scope_symbol_id = 1107 : i64, shape = [640 : si64, 1 : si64, 1 : si64, 640 : si64]} : () -> tensor<640x1x1x640xf16>
    %output_116 = "oneflow.variable"() {data_type = 9 : i32, device_name = ["@0:0"], device_tag = "cuda", hierarchy = [1], op_name = "unet.down_blocks.1.attentions.0.proj_out.bias", output_lbns = ["unet.down_blocks.1.attentions.0.proj_out.bias/out"], parallel = #sbp.parallel<[] -> [[#sbp.B]]>, scope_symbol_id = 1111 : i64, shape = [640 : si64]} : () -> tensor<640xf16>
    %output_117 = "oneflow.variable"() {data_type = 9 : i32, device_name = ["@0:0"], device_tag = "cuda", hierarchy = [1], op_name = "unet.down_blocks.1.resnets.1.norm1.weight", output_lbns = ["unet.down_blocks.1.resnets.1.norm1.weight/out"], parallel = #sbp.parallel<[] -> [[#sbp.B]]>, scope_symbol_id = 1123 : i64, shape = [640 : si64]} : () -> tensor<640xf16>
    %output_118 = "oneflow.variable"() {data_type = 9 : i32, device_name = ["@0:0"], device_tag = "cuda", hierarchy = [1], op_name = "unet.down_blocks.1.resnets.1.norm1.bias", output_lbns = ["unet.down_blocks.1.resnets.1.norm1.bias/out"], parallel = #sbp.parallel<[] -> [[#sbp.B]]>, scope_symbol_id = 1127 : i64, shape = [640 : si64]} : () -> tensor<640xf16>
    %output_119 = "oneflow.variable"() {data_type = 9 : i32, device_name = ["@0:0"], device_tag = "cuda", hierarchy = [1], op_name = "variable_400", output_lbns = ["variable_400/out"], parallel = #sbp.parallel<[] -> [[#sbp.B]]>, scope_symbol_id = 1139 : i64, shape = [640 : si64, 3 : si64, 3 : si64, 640 : si64]} : () -> tensor<640x3x3x640xf16>
    %output_120 = "oneflow.variable"() {data_type = 9 : i32, device_name = ["@0:0"], device_tag = "cuda", hierarchy = [1], op_name = "unet.down_blocks.1.resnets.1.conv1.bias", output_lbns = ["unet.down_blocks.1.resnets.1.conv1.bias/out"], parallel = #sbp.parallel<[] -> [[#sbp.B]]>, scope_symbol_id = 1143 : i64, shape = [640 : si64]} : () -> tensor<640xf16>
    %output_121 = "oneflow.variable"() {data_type = 9 : i32, device_name = ["@0:0"], device_tag = "cuda", hierarchy = [1], op_name = "unet.down_blocks.1.resnets.1.time_emb_proj.weight", output_lbns = ["unet.down_blocks.1.resnets.1.time_emb_proj.weight/out"], parallel = #sbp.parallel<[] -> [[#sbp.B]]>, scope_symbol_id = 1154 : i64, shape = [640 : si64, 1280 : si64]} : () -> tensor<640x1280xf16>
    %output_122 = "oneflow.variable"() {data_type = 9 : i32, device_name = ["@0:0"], device_tag = "cuda", hierarchy = [1], op_name = "unet.down_blocks.1.resnets.1.time_emb_proj.bias", output_lbns = ["unet.down_blocks.1.resnets.1.time_emb_proj.bias/out"], parallel = #sbp.parallel<[] -> [[#sbp.B]]>, scope_symbol_id = 1161 : i64, shape = [640 : si64]} : () -> tensor<640xf16>
    %output_123 = "oneflow.variable"() {data_type = 9 : i32, device_name = ["@0:0"], device_tag = "cuda", hierarchy = [1], op_name = "unet.down_blocks.1.resnets.1.norm2.weight", output_lbns = ["unet.down_blocks.1.resnets.1.norm2.weight/out"], parallel = #sbp.parallel<[] -> [[#sbp.B]]>, scope_symbol_id = 1178 : i64, shape = [640 : si64]} : () -> tensor<640xf16>
    %output_124 = "oneflow.variable"() {data_type = 9 : i32, device_name = ["@0:0"], device_tag = "cuda", hierarchy = [1], op_name = "unet.down_blocks.1.resnets.1.norm2.bias", output_lbns = ["unet.down_blocks.1.resnets.1.norm2.bias/out"], parallel = #sbp.parallel<[] -> [[#sbp.B]]>, scope_symbol_id = 1182 : i64, shape = [640 : si64]} : () -> tensor<640xf16>
    %output_125 = "oneflow.variable"() {data_type = 9 : i32, device_name = ["@0:0"], device_tag = "cuda", hierarchy = [1], op_name = "variable_399", output_lbns = ["variable_399/out"], parallel = #sbp.parallel<[] -> [[#sbp.B]]>, scope_symbol_id = 1194 : i64, shape = [640 : si64, 3 : si64, 3 : si64, 640 : si64]} : () -> tensor<640x3x3x640xf16>
    %output_126 = "oneflow.variable"() {data_type = 9 : i32, device_name = ["@0:0"], device_tag = "cuda", hierarchy = [1], op_name = "unet.down_blocks.1.resnets.1.conv2.bias", output_lbns = ["unet.down_blocks.1.resnets.1.conv2.bias/out"], parallel = #sbp.parallel<[] -> [[#sbp.B]]>, scope_symbol_id = 1198 : i64, shape = [640 : si64]} : () -> tensor<640xf16>
    %output_127 = "oneflow.variable"() {data_type = 9 : i32, device_name = ["@0:0"], device_tag = "cuda", hierarchy = [1], op_name = "unet.down_blocks.1.attentions.1.norm.weight", output_lbns = ["unet.down_blocks.1.attentions.1.norm.weight/out"], parallel = #sbp.parallel<[] -> [[#sbp.B]]>, scope_symbol_id = 1213 : i64, shape = [640 : si64]} : () -> tensor<640xf16>
    %output_128 = "oneflow.variable"() {data_type = 9 : i32, device_name = ["@0:0"], device_tag = "cuda", hierarchy = [1], op_name = "unet.down_blocks.1.attentions.1.norm.bias", output_lbns = ["unet.down_blocks.1.attentions.1.norm.bias/out"], parallel = #sbp.parallel<[] -> [[#sbp.B]]>, scope_symbol_id = 1217 : i64, shape = [640 : si64]} : () -> tensor<640xf16>
    %output_129 = "oneflow.variable"() {data_type = 9 : i32, device_name = ["@0:0"], device_tag = "cuda", hierarchy = [1], op_name = "variable_398", output_lbns = ["variable_398/out"], parallel = #sbp.parallel<[] -> [[#sbp.B]]>, scope_symbol_id = 1225 : i64, shape = [640 : si64, 1 : si64, 1 : si64, 640 : si64]} : () -> tensor<640x1x1x640xf16>
    %output_130 = "oneflow.variable"() {data_type = 9 : i32, device_name = ["@0:0"], device_tag = "cuda", hierarchy = [1], op_name = "unet.down_blocks.1.attentions.1.proj_in.bias", output_lbns = ["unet.down_blocks.1.attentions.1.proj_in.bias/out"], parallel = #sbp.parallel<[] -> [[#sbp.B]]>, scope_symbol_id = 1229 : i64, shape = [640 : si64]} : () -> tensor<640xf16>
    %output_131 = "oneflow.variable"() {data_type = 9 : i32, device_name = ["@0:0"], device_tag = "cuda", hierarchy = [1], op_name = "unet.down_blocks.1.attentions.1.transformer_blocks.0.norm1.weight", output_lbns = ["unet.down_blocks.1.attentions.1.transformer_blocks.0.norm1.weight/out"], parallel = #sbp.parallel<[] -> [[#sbp.B]]>, scope_symbol_id = 1244 : i64, shape = [640 : si64]} : () -> tensor<640xf16>
    %output_132 = "oneflow.variable"() {data_type = 9 : i32, device_name = ["@0:0"], device_tag = "cuda", hierarchy = [1], op_name = "unet.down_blocks.1.attentions.1.transformer_blocks.0.norm1.bias", output_lbns = ["unet.down_blocks.1.attentions.1.transformer_blocks.0.norm1.bias/out"], parallel = #sbp.parallel<[] -> [[#sbp.B]]>, scope_symbol_id = 1248 : i64, shape = [640 : si64]} : () -> tensor<640xf16>
    %output_133 = "oneflow.variable"() {data_type = 9 : i32, device_name = ["@0:0"], device_tag = "cuda", hierarchy = [1], op_name = "unet.down_blocks.1.attentions.1.transformer_blocks.0.attn1.to_q.weight", output_lbns = ["unet.down_blocks.1.attentions.1.transformer_blocks.0.attn1.to_q.weight/out"], parallel = #sbp.parallel<[] -> [[#sbp.B]]>, scope_symbol_id = 1257 : i64, shape = [640 : si64, 640 : si64]} : () -> tensor<640x640xf16>
    %output_134 = "oneflow.variable"() {data_type = 9 : i32, device_name = ["@0:0"], device_tag = "cuda", hierarchy = [1], op_name = "unet.down_blocks.1.attentions.1.transformer_blocks.0.attn1.to_k.weight", output_lbns = ["unet.down_blocks.1.attentions.1.transformer_blocks.0.attn1.to_k.weight/out"], parallel = #sbp.parallel<[] -> [[#sbp.B]]>, scope_symbol_id = 1265 : i64, shape = [640 : si64, 640 : si64]} : () -> tensor<640x640xf16>
    %output_135 = "oneflow.variable"() {data_type = 9 : i32, device_name = ["@0:0"], device_tag = "cuda", hierarchy = [1], op_name = "unet.down_blocks.1.attentions.1.transformer_blocks.0.attn1.to_v.weight", output_lbns = ["unet.down_blocks.1.attentions.1.transformer_blocks.0.attn1.to_v.weight/out"], parallel = #sbp.parallel<[] -> [[#sbp.B]]>, scope_symbol_id = 1273 : i64, shape = [640 : si64, 640 : si64]} : () -> tensor<640x640xf16>
    %output_136 = "oneflow.variable"() {data_type = 9 : i32, device_name = ["@0:0"], device_tag = "cuda", hierarchy = [1], op_name = "unet.down_blocks.1.attentions.1.transformer_blocks.0.attn1.to_out.0.weight", output_lbns = ["unet.down_blocks.1.attentions.1.transformer_blocks.0.attn1.to_out.0.weight/out"], parallel = #sbp.parallel<[] -> [[#sbp.B]]>, scope_symbol_id = 1284 : i64, shape = [640 : si64, 640 : si64]} : () -> tensor<640x640xf16>
    %output_137 = "oneflow.variable"() {data_type = 9 : i32, device_name = ["@0:0"], device_tag = "cuda", hierarchy = [1], op_name = "unet.down_blocks.1.attentions.1.transformer_blocks.0.attn1.to_out.0.bias", output_lbns = ["unet.down_blocks.1.attentions.1.transformer_blocks.0.attn1.to_out.0.bias/out"], parallel = #sbp.parallel<[] -> [[#sbp.B]]>, scope_symbol_id = 1291 : i64, shape = [640 : si64]} : () -> tensor<640xf16>
    %output_138 = "oneflow.variable"() {data_type = 9 : i32, device_name = ["@0:0"], device_tag = "cuda", hierarchy = [1], op_name = "unet.down_blocks.1.attentions.1.transformer_blocks.0.norm2.weight", output_lbns = ["unet.down_blocks.1.attentions.1.transformer_blocks.0.norm2.weight/out"], parallel = #sbp.parallel<[] -> [[#sbp.B]]>, scope_symbol_id = 1303 : i64, shape = [640 : si64]} : () -> tensor<640xf16>
    %output_139 = "oneflow.variable"() {data_type = 9 : i32, device_name = ["@0:0"], device_tag = "cuda", hierarchy = [1], op_name = "unet.down_blocks.1.attentions.1.transformer_blocks.0.norm2.bias", output_lbns = ["unet.down_blocks.1.attentions.1.transformer_blocks.0.norm2.bias/out"], parallel = #sbp.parallel<[] -> [[#sbp.B]]>, scope_symbol_id = 1307 : i64, shape = [640 : si64]} : () -> tensor<640xf16>
    %output_140 = "oneflow.variable"() {data_type = 9 : i32, device_name = ["@0:0"], device_tag = "cuda", hierarchy = [1], op_name = "unet.down_blocks.1.attentions.1.transformer_blocks.0.attn2.to_q.weight", output_lbns = ["unet.down_blocks.1.attentions.1.transformer_blocks.0.attn2.to_q.weight/out"], parallel = #sbp.parallel<[] -> [[#sbp.B]]>, scope_symbol_id = 1316 : i64, shape = [640 : si64, 640 : si64]} : () -> tensor<640x640xf16>
    %output_141 = "oneflow.variable"() {data_type = 9 : i32, device_name = ["@0:0"], device_tag = "cuda", hierarchy = [1], op_name = "unet.down_blocks.1.attentions.1.transformer_blocks.0.attn2.to_k.weight", output_lbns = ["unet.down_blocks.1.attentions.1.transformer_blocks.0.attn2.to_k.weight/out"], parallel = #sbp.parallel<[] -> [[#sbp.B]]>, scope_symbol_id = 1324 : i64, shape = [640 : si64, 768 : si64]} : () -> tensor<640x768xf16>
    %output_142 = "oneflow.variable"() {data_type = 9 : i32, device_name = ["@0:0"], device_tag = "cuda", hierarchy = [1], op_name = "unet.down_blocks.1.attentions.1.transformer_blocks.0.attn2.to_v.weight", output_lbns = ["unet.down_blocks.1.attentions.1.transformer_blocks.0.attn2.to_v.weight/out"], parallel = #sbp.parallel<[] -> [[#sbp.B]]>, scope_symbol_id = 1332 : i64, shape = [640 : si64, 768 : si64]} : () -> tensor<640x768xf16>
    %output_143 = "oneflow.variable"() {data_type = 9 : i32, device_name = ["@0:0"], device_tag = "cuda", hierarchy = [1], op_name = "unet.down_blocks.1.attentions.1.transformer_blocks.0.attn2.to_out.0.weight", output_lbns = ["unet.down_blocks.1.attentions.1.transformer_blocks.0.attn2.to_out.0.weight/out"], parallel = #sbp.parallel<[] -> [[#sbp.B]]>, scope_symbol_id = 1343 : i64, shape = [640 : si64, 640 : si64]} : () -> tensor<640x640xf16>
    %output_144 = "oneflow.variable"() {data_type = 9 : i32, device_name = ["@0:0"], device_tag = "cuda", hierarchy = [1], op_name = "unet.down_blocks.1.attentions.1.transformer_blocks.0.attn2.to_out.0.bias", output_lbns = ["unet.down_blocks.1.attentions.1.transformer_blocks.0.attn2.to_out.0.bias/out"], parallel = #sbp.parallel<[] -> [[#sbp.B]]>, scope_symbol_id = 1350 : i64, shape = [640 : si64]} : () -> tensor<640xf16>
    %output_145 = "oneflow.variable"() {data_type = 9 : i32, device_name = ["@0:0"], device_tag = "cuda", hierarchy = [1], op_name = "unet.down_blocks.1.attentions.1.transformer_blocks.0.norm3.weight", output_lbns = ["unet.down_blocks.1.attentions.1.transformer_blocks.0.norm3.weight/out"], parallel = #sbp.parallel<[] -> [[#sbp.B]]>, scope_symbol_id = 1362 : i64, shape = [640 : si64]} : () -> tensor<640xf16>
    %output_146 = "oneflow.variable"() {data_type = 9 : i32, device_name = ["@0:0"], device_tag = "cuda", hierarchy = [1], op_name = "unet.down_blocks.1.attentions.1.transformer_blocks.0.norm3.bias", output_lbns = ["unet.down_blocks.1.attentions.1.transformer_blocks.0.norm3.bias/out"], parallel = #sbp.parallel<[] -> [[#sbp.B]]>, scope_symbol_id = 1366 : i64, shape = [640 : si64]} : () -> tensor<640xf16>
    %output_147 = "oneflow.variable"() {data_type = 9 : i32, device_name = ["@0:0"], device_tag = "cuda", hierarchy = [1], op_name = "unet.down_blocks.1.attentions.1.transformer_blocks.0.ff.net.0.proj.weight", output_lbns = ["unet.down_blocks.1.attentions.1.transformer_blocks.0.ff.net.0.proj.weight/out"], parallel = #sbp.parallel<[] -> [[#sbp.B]]>, scope_symbol_id = 1376 : i64, shape = [5120 : si64, 640 : si64]} : () -> tensor<5120x640xf16>
    %output_148 = "oneflow.variable"() {data_type = 9 : i32, device_name = ["@0:0"], device_tag = "cuda", hierarchy = [1], op_name = "unet.down_blocks.1.attentions.1.transformer_blocks.0.ff.net.0.proj.bias", output_lbns = ["unet.down_blocks.1.attentions.1.transformer_blocks.0.ff.net.0.proj.bias/out"], parallel = #sbp.parallel<[] -> [[#sbp.B]]>, scope_symbol_id = 1383 : i64, shape = [5120 : si64]} : () -> tensor<5120xf16>
    %output_149 = "oneflow.variable"() {data_type = 9 : i32, device_name = ["@0:0"], device_tag = "cuda", hierarchy = [1], op_name = "unet.down_blocks.1.attentions.1.transformer_blocks.0.ff.net.2.weight", output_lbns = ["unet.down_blocks.1.attentions.1.transformer_blocks.0.ff.net.2.weight/out"], parallel = #sbp.parallel<[] -> [[#sbp.B]]>, scope_symbol_id = 1404 : i64, shape = [640 : si64, 2560 : si64]} : () -> tensor<640x2560xf16>
    %output_150 = "oneflow.variable"() {data_type = 9 : i32, device_name = ["@0:0"], device_tag = "cuda", hierarchy = [1], op_name = "unet.down_blocks.1.attentions.1.transformer_blocks.0.ff.net.2.bias", output_lbns = ["unet.down_blocks.1.attentions.1.transformer_blocks.0.ff.net.2.bias/out"], parallel = #sbp.parallel<[] -> [[#sbp.B]]>, scope_symbol_id = 1411 : i64, shape = [640 : si64]} : () -> tensor<640xf16>
    %output_151 = "oneflow.variable"() {data_type = 9 : i32, device_name = ["@0:0"], device_tag = "cuda", hierarchy = [1], op_name = "variable_397", output_lbns = ["variable_397/out"], parallel = #sbp.parallel<[] -> [[#sbp.B]]>, scope_symbol_id = 1428 : i64, shape = [640 : si64, 1 : si64, 1 : si64, 640 : si64]} : () -> tensor<640x1x1x640xf16>
    %output_152 = "oneflow.variable"() {data_type = 9 : i32, device_name = ["@0:0"], device_tag = "cuda", hierarchy = [1], op_name = "unet.down_blocks.1.attentions.1.proj_out.bias", output_lbns = ["unet.down_blocks.1.attentions.1.proj_out.bias/out"], parallel = #sbp.parallel<[] -> [[#sbp.B]]>, scope_symbol_id = 1432 : i64, shape = [640 : si64]} : () -> tensor<640xf16>
    %output_153 = "oneflow.variable"() {data_type = 9 : i32, device_name = ["@0:0"], device_tag = "cuda", hierarchy = [1], op_name = "variable_396", output_lbns = ["variable_396/out"], parallel = #sbp.parallel<[] -> [[#sbp.B]]>, scope_symbol_id = 1444 : i64, shape = [640 : si64, 3 : si64, 3 : si64, 640 : si64]} : () -> tensor<640x3x3x640xf16>
    %output_154 = "oneflow.variable"() {data_type = 9 : i32, device_name = ["@0:0"], device_tag = "cuda", hierarchy = [1], op_name = "unet.down_blocks.1.downsamplers.0.conv.bias", output_lbns = ["unet.down_blocks.1.downsamplers.0.conv.bias/out"], parallel = #sbp.parallel<[] -> [[#sbp.B]]>, scope_symbol_id = 1448 : i64, shape = [640 : si64]} : () -> tensor<640xf16>
    %output_155 = "oneflow.variable"() {data_type = 9 : i32, device_name = ["@0:0"], device_tag = "cuda", hierarchy = [1], op_name = "unet.down_blocks.2.resnets.0.norm1.weight", output_lbns = ["unet.down_blocks.2.resnets.0.norm1.weight/out"], parallel = #sbp.parallel<[] -> [[#sbp.B]]>, scope_symbol_id = 1458 : i64, shape = [640 : si64]} : () -> tensor<640xf16>
    %output_156 = "oneflow.variable"() {data_type = 9 : i32, device_name = ["@0:0"], device_tag = "cuda", hierarchy = [1], op_name = "unet.down_blocks.2.resnets.0.norm1.bias", output_lbns = ["unet.down_blocks.2.resnets.0.norm1.bias/out"], parallel = #sbp.parallel<[] -> [[#sbp.B]]>, scope_symbol_id = 1462 : i64, shape = [640 : si64]} : () -> tensor<640xf16>
    %output_157 = "oneflow.variable"() {data_type = 9 : i32, device_name = ["@0:0"], device_tag = "cuda", hierarchy = [1], op_name = "variable_395", output_lbns = ["variable_395/out"], parallel = #sbp.parallel<[] -> [[#sbp.B]]>, scope_symbol_id = 1474 : i64, shape = [1280 : si64, 3 : si64, 3 : si64, 640 : si64]} : () -> tensor<1280x3x3x640xf16>
    %output_158 = "oneflow.variable"() {data_type = 9 : i32, device_name = ["@0:0"], device_tag = "cuda", hierarchy = [1], op_name = "unet.down_blocks.2.resnets.0.conv1.bias", output_lbns = ["unet.down_blocks.2.resnets.0.conv1.bias/out"], parallel = #sbp.parallel<[] -> [[#sbp.B]]>, scope_symbol_id = 1478 : i64, shape = [1280 : si64]} : () -> tensor<1280xf16>
    %output_159 = "oneflow.variable"() {data_type = 9 : i32, device_name = ["@0:0"], device_tag = "cuda", hierarchy = [1], op_name = "unet.down_blocks.2.resnets.0.time_emb_proj.weight", output_lbns = ["unet.down_blocks.2.resnets.0.time_emb_proj.weight/out"], parallel = #sbp.parallel<[] -> [[#sbp.B]]>, scope_symbol_id = 1489 : i64, shape = [1280 : si64, 1280 : si64]} : () -> tensor<1280x1280xf16>
    %output_160 = "oneflow.variable"() {data_type = 9 : i32, device_name = ["@0:0"], device_tag = "cuda", hierarchy = [1], op_name = "unet.down_blocks.2.resnets.0.time_emb_proj.bias", output_lbns = ["unet.down_blocks.2.resnets.0.time_emb_proj.bias/out"], parallel = #sbp.parallel<[] -> [[#sbp.B]]>, scope_symbol_id = 1496 : i64, shape = [1280 : si64]} : () -> tensor<1280xf16>
    %output_161 = "oneflow.variable"() {data_type = 9 : i32, device_name = ["@0:0"], device_tag = "cuda", hierarchy = [1], op_name = "unet.down_blocks.2.resnets.0.norm2.weight", output_lbns = ["unet.down_blocks.2.resnets.0.norm2.weight/out"], parallel = #sbp.parallel<[] -> [[#sbp.B]]>, scope_symbol_id = 1513 : i64, shape = [1280 : si64]} : () -> tensor<1280xf16>
    %output_162 = "oneflow.variable"() {data_type = 9 : i32, device_name = ["@0:0"], device_tag = "cuda", hierarchy = [1], op_name = "unet.down_blocks.2.resnets.0.norm2.bias", output_lbns = ["unet.down_blocks.2.resnets.0.norm2.bias/out"], parallel = #sbp.parallel<[] -> [[#sbp.B]]>, scope_symbol_id = 1517 : i64, shape = [1280 : si64]} : () -> tensor<1280xf16>
    %output_163 = "oneflow.variable"() {data_type = 9 : i32, device_name = ["@0:0"], device_tag = "cuda", hierarchy = [1], op_name = "variable_394", output_lbns = ["variable_394/out"], parallel = #sbp.parallel<[] -> [[#sbp.B]]>, scope_symbol_id = 1529 : i64, shape = [1280 : si64, 3 : si64, 3 : si64, 1280 : si64]} : () -> tensor<1280x3x3x1280xf16>
    %output_164 = "oneflow.variable"() {data_type = 9 : i32, device_name = ["@0:0"], device_tag = "cuda", hierarchy = [1], op_name = "unet.down_blocks.2.resnets.0.conv2.bias", output_lbns = ["unet.down_blocks.2.resnets.0.conv2.bias/out"], parallel = #sbp.parallel<[] -> [[#sbp.B]]>, scope_symbol_id = 1533 : i64, shape = [1280 : si64]} : () -> tensor<1280xf16>
    %output_165 = "oneflow.variable"() {data_type = 9 : i32, device_name = ["@0:0"], device_tag = "cuda", hierarchy = [1], op_name = "variable_393", output_lbns = ["variable_393/out"], parallel = #sbp.parallel<[] -> [[#sbp.B]]>, scope_symbol_id = 1541 : i64, shape = [1280 : si64, 1 : si64, 1 : si64, 640 : si64]} : () -> tensor<1280x1x1x640xf16>
    %output_166 = "oneflow.variable"() {data_type = 9 : i32, device_name = ["@0:0"], device_tag = "cuda", hierarchy = [1], op_name = "unet.down_blocks.2.resnets.0.conv_shortcut.bias", output_lbns = ["unet.down_blocks.2.resnets.0.conv_shortcut.bias/out"], parallel = #sbp.parallel<[] -> [[#sbp.B]]>, scope_symbol_id = 1545 : i64, shape = [1280 : si64]} : () -> tensor<1280xf16>
    %output_167 = "oneflow.variable"() {data_type = 9 : i32, device_name = ["@0:0"], device_tag = "cuda", hierarchy = [1], op_name = "unet.down_blocks.2.attentions.0.norm.weight", output_lbns = ["unet.down_blocks.2.attentions.0.norm.weight/out"], parallel = #sbp.parallel<[] -> [[#sbp.B]]>, scope_symbol_id = 1560 : i64, shape = [1280 : si64]} : () -> tensor<1280xf16>
    %output_168 = "oneflow.variable"() {data_type = 9 : i32, device_name = ["@0:0"], device_tag = "cuda", hierarchy = [1], op_name = "unet.down_blocks.2.attentions.0.norm.bias", output_lbns = ["unet.down_blocks.2.attentions.0.norm.bias/out"], parallel = #sbp.parallel<[] -> [[#sbp.B]]>, scope_symbol_id = 1564 : i64, shape = [1280 : si64]} : () -> tensor<1280xf16>
    %output_169 = "oneflow.variable"() {data_type = 9 : i32, device_name = ["@0:0"], device_tag = "cuda", hierarchy = [1], op_name = "variable_392", output_lbns = ["variable_392/out"], parallel = #sbp.parallel<[] -> [[#sbp.B]]>, scope_symbol_id = 1572 : i64, shape = [1280 : si64, 1 : si64, 1 : si64, 1280 : si64]} : () -> tensor<1280x1x1x1280xf16>
    %output_170 = "oneflow.variable"() {data_type = 9 : i32, device_name = ["@0:0"], device_tag = "cuda", hierarchy = [1], op_name = "unet.down_blocks.2.attentions.0.proj_in.bias", output_lbns = ["unet.down_blocks.2.attentions.0.proj_in.bias/out"], parallel = #sbp.parallel<[] -> [[#sbp.B]]>, scope_symbol_id = 1576 : i64, shape = [1280 : si64]} : () -> tensor<1280xf16>
    %output_171 = "oneflow.variable"() {data_type = 9 : i32, device_name = ["@0:0"], device_tag = "cuda", hierarchy = [1], op_name = "unet.down_blocks.2.attentions.0.transformer_blocks.0.norm1.weight", output_lbns = ["unet.down_blocks.2.attentions.0.transformer_blocks.0.norm1.weight/out"], parallel = #sbp.parallel<[] -> [[#sbp.B]]>, scope_symbol_id = 1591 : i64, shape = [1280 : si64]} : () -> tensor<1280xf16>
    %output_172 = "oneflow.variable"() {data_type = 9 : i32, device_name = ["@0:0"], device_tag = "cuda", hierarchy = [1], op_name = "unet.down_blocks.2.attentions.0.transformer_blocks.0.norm1.bias", output_lbns = ["unet.down_blocks.2.attentions.0.transformer_blocks.0.norm1.bias/out"], parallel = #sbp.parallel<[] -> [[#sbp.B]]>, scope_symbol_id = 1595 : i64, shape = [1280 : si64]} : () -> tensor<1280xf16>
    %output_173 = "oneflow.variable"() {data_type = 9 : i32, device_name = ["@0:0"], device_tag = "cuda", hierarchy = [1], op_name = "unet.down_blocks.2.attentions.0.transformer_blocks.0.attn1.to_q.weight", output_lbns = ["unet.down_blocks.2.attentions.0.transformer_blocks.0.attn1.to_q.weight/out"], parallel = #sbp.parallel<[] -> [[#sbp.B]]>, scope_symbol_id = 1604 : i64, shape = [1280 : si64, 1280 : si64]} : () -> tensor<1280x1280xf16>
    %output_174 = "oneflow.variable"() {data_type = 9 : i32, device_name = ["@0:0"], device_tag = "cuda", hierarchy = [1], op_name = "unet.down_blocks.2.attentions.0.transformer_blocks.0.attn1.to_k.weight", output_lbns = ["unet.down_blocks.2.attentions.0.transformer_blocks.0.attn1.to_k.weight/out"], parallel = #sbp.parallel<[] -> [[#sbp.B]]>, scope_symbol_id = 1612 : i64, shape = [1280 : si64, 1280 : si64]} : () -> tensor<1280x1280xf16>
    %output_175 = "oneflow.variable"() {data_type = 9 : i32, device_name = ["@0:0"], device_tag = "cuda", hierarchy = [1], op_name = "unet.down_blocks.2.attentions.0.transformer_blocks.0.attn1.to_v.weight", output_lbns = ["unet.down_blocks.2.attentions.0.transformer_blocks.0.attn1.to_v.weight/out"], parallel = #sbp.parallel<[] -> [[#sbp.B]]>, scope_symbol_id = 1620 : i64, shape = [1280 : si64, 1280 : si64]} : () -> tensor<1280x1280xf16>
    %output_176 = "oneflow.variable"() {data_type = 9 : i32, device_name = ["@0:0"], device_tag = "cuda", hierarchy = [1], op_name = "unet.down_blocks.2.attentions.0.transformer_blocks.0.attn1.to_out.0.weight", output_lbns = ["unet.down_blocks.2.attentions.0.transformer_blocks.0.attn1.to_out.0.weight/out"], parallel = #sbp.parallel<[] -> [[#sbp.B]]>, scope_symbol_id = 1631 : i64, shape = [1280 : si64, 1280 : si64]} : () -> tensor<1280x1280xf16>
    %output_177 = "oneflow.variable"() {data_type = 9 : i32, device_name = ["@0:0"], device_tag = "cuda", hierarchy = [1], op_name = "unet.down_blocks.2.attentions.0.transformer_blocks.0.attn1.to_out.0.bias", output_lbns = ["unet.down_blocks.2.attentions.0.transformer_blocks.0.attn1.to_out.0.bias/out"], parallel = #sbp.parallel<[] -> [[#sbp.B]]>, scope_symbol_id = 1638 : i64, shape = [1280 : si64]} : () -> tensor<1280xf16>
    %output_178 = "oneflow.variable"() {data_type = 9 : i32, device_name = ["@0:0"], device_tag = "cuda", hierarchy = [1], op_name = "unet.down_blocks.2.attentions.0.transformer_blocks.0.norm2.weight", output_lbns = ["unet.down_blocks.2.attentions.0.transformer_blocks.0.norm2.weight/out"], parallel = #sbp.parallel<[] -> [[#sbp.B]]>, scope_symbol_id = 1650 : i64, shape = [1280 : si64]} : () -> tensor<1280xf16>
    %output_179 = "oneflow.variable"() {data_type = 9 : i32, device_name = ["@0:0"], device_tag = "cuda", hierarchy = [1], op_name = "unet.down_blocks.2.attentions.0.transformer_blocks.0.norm2.bias", output_lbns = ["unet.down_blocks.2.attentions.0.transformer_blocks.0.norm2.bias/out"], parallel = #sbp.parallel<[] -> [[#sbp.B]]>, scope_symbol_id = 1654 : i64, shape = [1280 : si64]} : () -> tensor<1280xf16>
    %output_180 = "oneflow.variable"() {data_type = 9 : i32, device_name = ["@0:0"], device_tag = "cuda", hierarchy = [1], op_name = "unet.down_blocks.2.attentions.0.transformer_blocks.0.attn2.to_q.weight", output_lbns = ["unet.down_blocks.2.attentions.0.transformer_blocks.0.attn2.to_q.weight/out"], parallel = #sbp.parallel<[] -> [[#sbp.B]]>, scope_symbol_id = 1663 : i64, shape = [1280 : si64, 1280 : si64]} : () -> tensor<1280x1280xf16>
    %output_181 = "oneflow.variable"() {data_type = 9 : i32, device_name = ["@0:0"], device_tag = "cuda", hierarchy = [1], op_name = "unet.down_blocks.2.attentions.0.transformer_blocks.0.attn2.to_k.weight", output_lbns = ["unet.down_blocks.2.attentions.0.transformer_blocks.0.attn2.to_k.weight/out"], parallel = #sbp.parallel<[] -> [[#sbp.B]]>, scope_symbol_id = 1671 : i64, shape = [1280 : si64, 768 : si64]} : () -> tensor<1280x768xf16>
    %output_182 = "oneflow.variable"() {data_type = 9 : i32, device_name = ["@0:0"], device_tag = "cuda", hierarchy = [1], op_name = "unet.down_blocks.2.attentions.0.transformer_blocks.0.attn2.to_v.weight", output_lbns = ["unet.down_blocks.2.attentions.0.transformer_blocks.0.attn2.to_v.weight/out"], parallel = #sbp.parallel<[] -> [[#sbp.B]]>, scope_symbol_id = 1679 : i64, shape = [1280 : si64, 768 : si64]} : () -> tensor<1280x768xf16>
    %output_183 = "oneflow.variable"() {data_type = 9 : i32, device_name = ["@0:0"], device_tag = "cuda", hierarchy = [1], op_name = "unet.down_blocks.2.attentions.0.transformer_blocks.0.attn2.to_out.0.weight", output_lbns = ["unet.down_blocks.2.attentions.0.transformer_blocks.0.attn2.to_out.0.weight/out"], parallel = #sbp.parallel<[] -> [[#sbp.B]]>, scope_symbol_id = 1690 : i64, shape = [1280 : si64, 1280 : si64]} : () -> tensor<1280x1280xf16>
    %output_184 = "oneflow.variable"() {data_type = 9 : i32, device_name = ["@0:0"], device_tag = "cuda", hierarchy = [1], op_name = "unet.down_blocks.2.attentions.0.transformer_blocks.0.attn2.to_out.0.bias", output_lbns = ["unet.down_blocks.2.attentions.0.transformer_blocks.0.attn2.to_out.0.bias/out"], parallel = #sbp.parallel<[] -> [[#sbp.B]]>, scope_symbol_id = 1697 : i64, shape = [1280 : si64]} : () -> tensor<1280xf16>
    %output_185 = "oneflow.variable"() {data_type = 9 : i32, device_name = ["@0:0"], device_tag = "cuda", hierarchy = [1], op_name = "unet.down_blocks.2.attentions.0.transformer_blocks.0.norm3.weight", output_lbns = ["unet.down_blocks.2.attentions.0.transformer_blocks.0.norm3.weight/out"], parallel = #sbp.parallel<[] -> [[#sbp.B]]>, scope_symbol_id = 1709 : i64, shape = [1280 : si64]} : () -> tensor<1280xf16>
    %output_186 = "oneflow.variable"() {data_type = 9 : i32, device_name = ["@0:0"], device_tag = "cuda", hierarchy = [1], op_name = "unet.down_blocks.2.attentions.0.transformer_blocks.0.norm3.bias", output_lbns = ["unet.down_blocks.2.attentions.0.transformer_blocks.0.norm3.bias/out"], parallel = #sbp.parallel<[] -> [[#sbp.B]]>, scope_symbol_id = 1713 : i64, shape = [1280 : si64]} : () -> tensor<1280xf16>
    %output_187 = "oneflow.variable"() {data_type = 9 : i32, device_name = ["@0:0"], device_tag = "cuda", hierarchy = [1], op_name = "unet.down_blocks.2.attentions.0.transformer_blocks.0.ff.net.0.proj.weight", output_lbns = ["unet.down_blocks.2.attentions.0.transformer_blocks.0.ff.net.0.proj.weight/out"], parallel = #sbp.parallel<[] -> [[#sbp.B]]>, scope_symbol_id = 1723 : i64, shape = [10240 : si64, 1280 : si64]} : () -> tensor<10240x1280xf16>
    %output_188 = "oneflow.variable"() {data_type = 9 : i32, device_name = ["@0:0"], device_tag = "cuda", hierarchy = [1], op_name = "unet.down_blocks.2.attentions.0.transformer_blocks.0.ff.net.0.proj.bias", output_lbns = ["unet.down_blocks.2.attentions.0.transformer_blocks.0.ff.net.0.proj.bias/out"], parallel = #sbp.parallel<[] -> [[#sbp.B]]>, scope_symbol_id = 1730 : i64, shape = [10240 : si64]} : () -> tensor<10240xf16>
    %output_189 = "oneflow.variable"() {data_type = 9 : i32, device_name = ["@0:0"], device_tag = "cuda", hierarchy = [1], op_name = "unet.down_blocks.2.attentions.0.transformer_blocks.0.ff.net.2.weight", output_lbns = ["unet.down_blocks.2.attentions.0.transformer_blocks.0.ff.net.2.weight/out"], parallel = #sbp.parallel<[] -> [[#sbp.B]]>, scope_symbol_id = 1751 : i64, shape = [1280 : si64, 5120 : si64]} : () -> tensor<1280x5120xf16>
    %output_190 = "oneflow.variable"() {data_type = 9 : i32, device_name = ["@0:0"], device_tag = "cuda", hierarchy = [1], op_name = "unet.down_blocks.2.attentions.0.transformer_blocks.0.ff.net.2.bias", output_lbns = ["unet.down_blocks.2.attentions.0.transformer_blocks.0.ff.net.2.bias/out"], parallel = #sbp.parallel<[] -> [[#sbp.B]]>, scope_symbol_id = 1758 : i64, shape = [1280 : si64]} : () -> tensor<1280xf16>
    %output_191 = "oneflow.variable"() {data_type = 9 : i32, device_name = ["@0:0"], device_tag = "cuda", hierarchy = [1], op_name = "variable_391", output_lbns = ["variable_391/out"], parallel = #sbp.parallel<[] -> [[#sbp.B]]>, scope_symbol_id = 1775 : i64, shape = [1280 : si64, 1 : si64, 1 : si64, 1280 : si64]} : () -> tensor<1280x1x1x1280xf16>
    %output_192 = "oneflow.variable"() {data_type = 9 : i32, device_name = ["@0:0"], device_tag = "cuda", hierarchy = [1], op_name = "unet.down_blocks.2.attentions.0.proj_out.bias", output_lbns = ["unet.down_blocks.2.attentions.0.proj_out.bias/out"], parallel = #sbp.parallel<[] -> [[#sbp.B]]>, scope_symbol_id = 1779 : i64, shape = [1280 : si64]} : () -> tensor<1280xf16>
    %output_193 = "oneflow.variable"() {data_type = 9 : i32, device_name = ["@0:0"], device_tag = "cuda", hierarchy = [1], op_name = "unet.down_blocks.2.resnets.1.norm1.weight", output_lbns = ["unet.down_blocks.2.resnets.1.norm1.weight/out"], parallel = #sbp.parallel<[] -> [[#sbp.B]]>, scope_symbol_id = 1791 : i64, shape = [1280 : si64]} : () -> tensor<1280xf16>
    %output_194 = "oneflow.variable"() {data_type = 9 : i32, device_name = ["@0:0"], device_tag = "cuda", hierarchy = [1], op_name = "unet.down_blocks.2.resnets.1.norm1.bias", output_lbns = ["unet.down_blocks.2.resnets.1.norm1.bias/out"], parallel = #sbp.parallel<[] -> [[#sbp.B]]>, scope_symbol_id = 1795 : i64, shape = [1280 : si64]} : () -> tensor<1280xf16>
    %output_195 = "oneflow.variable"() {data_type = 9 : i32, device_name = ["@0:0"], device_tag = "cuda", hierarchy = [1], op_name = "variable_390", output_lbns = ["variable_390/out"], parallel = #sbp.parallel<[] -> [[#sbp.B]]>, scope_symbol_id = 1807 : i64, shape = [1280 : si64, 3 : si64, 3 : si64, 1280 : si64]} : () -> tensor<1280x3x3x1280xf16>
    %output_196 = "oneflow.variable"() {data_type = 9 : i32, device_name = ["@0:0"], device_tag = "cuda", hierarchy = [1], op_name = "unet.down_blocks.2.resnets.1.conv1.bias", output_lbns = ["unet.down_blocks.2.resnets.1.conv1.bias/out"], parallel = #sbp.parallel<[] -> [[#sbp.B]]>, scope_symbol_id = 1811 : i64, shape = [1280 : si64]} : () -> tensor<1280xf16>
    %output_197 = "oneflow.variable"() {data_type = 9 : i32, device_name = ["@0:0"], device_tag = "cuda", hierarchy = [1], op_name = "unet.down_blocks.2.resnets.1.time_emb_proj.weight", output_lbns = ["unet.down_blocks.2.resnets.1.time_emb_proj.weight/out"], parallel = #sbp.parallel<[] -> [[#sbp.B]]>, scope_symbol_id = 1822 : i64, shape = [1280 : si64, 1280 : si64]} : () -> tensor<1280x1280xf16>
    %output_198 = "oneflow.variable"() {data_type = 9 : i32, device_name = ["@0:0"], device_tag = "cuda", hierarchy = [1], op_name = "unet.down_blocks.2.resnets.1.time_emb_proj.bias", output_lbns = ["unet.down_blocks.2.resnets.1.time_emb_proj.bias/out"], parallel = #sbp.parallel<[] -> [[#sbp.B]]>, scope_symbol_id = 1829 : i64, shape = [1280 : si64]} : () -> tensor<1280xf16>
    %output_199 = "oneflow.variable"() {data_type = 9 : i32, device_name = ["@0:0"], device_tag = "cuda", hierarchy = [1], op_name = "unet.down_blocks.2.resnets.1.norm2.weight", output_lbns = ["unet.down_blocks.2.resnets.1.norm2.weight/out"], parallel = #sbp.parallel<[] -> [[#sbp.B]]>, scope_symbol_id = 1846 : i64, shape = [1280 : si64]} : () -> tensor<1280xf16>
    %output_200 = "oneflow.variable"() {data_type = 9 : i32, device_name = ["@0:0"], device_tag = "cuda", hierarchy = [1], op_name = "unet.down_blocks.2.resnets.1.norm2.bias", output_lbns = ["unet.down_blocks.2.resnets.1.norm2.bias/out"], parallel = #sbp.parallel<[] -> [[#sbp.B]]>, scope_symbol_id = 1850 : i64, shape = [1280 : si64]} : () -> tensor<1280xf16>
    %output_201 = "oneflow.variable"() {data_type = 9 : i32, device_name = ["@0:0"], device_tag = "cuda", hierarchy = [1], op_name = "variable_389", output_lbns = ["variable_389/out"], parallel = #sbp.parallel<[] -> [[#sbp.B]]>, scope_symbol_id = 1862 : i64, shape = [1280 : si64, 3 : si64, 3 : si64, 1280 : si64]} : () -> tensor<1280x3x3x1280xf16>
    %output_202 = "oneflow.variable"() {data_type = 9 : i32, device_name = ["@0:0"], device_tag = "cuda", hierarchy = [1], op_name = "unet.down_blocks.2.resnets.1.conv2.bias", output_lbns = ["unet.down_blocks.2.resnets.1.conv2.bias/out"], parallel = #sbp.parallel<[] -> [[#sbp.B]]>, scope_symbol_id = 1866 : i64, shape = [1280 : si64]} : () -> tensor<1280xf16>
    %output_203 = "oneflow.variable"() {data_type = 9 : i32, device_name = ["@0:0"], device_tag = "cuda", hierarchy = [1], op_name = "unet.down_blocks.2.attentions.1.norm.weight", output_lbns = ["unet.down_blocks.2.attentions.1.norm.weight/out"], parallel = #sbp.parallel<[] -> [[#sbp.B]]>, scope_symbol_id = 1881 : i64, shape = [1280 : si64]} : () -> tensor<1280xf16>
    %output_204 = "oneflow.variable"() {data_type = 9 : i32, device_name = ["@0:0"], device_tag = "cuda", hierarchy = [1], op_name = "unet.down_blocks.2.attentions.1.norm.bias", output_lbns = ["unet.down_blocks.2.attentions.1.norm.bias/out"], parallel = #sbp.parallel<[] -> [[#sbp.B]]>, scope_symbol_id = 1885 : i64, shape = [1280 : si64]} : () -> tensor<1280xf16>
    %output_205 = "oneflow.variable"() {data_type = 9 : i32, device_name = ["@0:0"], device_tag = "cuda", hierarchy = [1], op_name = "variable_388", output_lbns = ["variable_388/out"], parallel = #sbp.parallel<[] -> [[#sbp.B]]>, scope_symbol_id = 1893 : i64, shape = [1280 : si64, 1 : si64, 1 : si64, 1280 : si64]} : () -> tensor<1280x1x1x1280xf16>
    %output_206 = "oneflow.variable"() {data_type = 9 : i32, device_name = ["@0:0"], device_tag = "cuda", hierarchy = [1], op_name = "unet.down_blocks.2.attentions.1.proj_in.bias", output_lbns = ["unet.down_blocks.2.attentions.1.proj_in.bias/out"], parallel = #sbp.parallel<[] -> [[#sbp.B]]>, scope_symbol_id = 1897 : i64, shape = [1280 : si64]} : () -> tensor<1280xf16>
    %output_207 = "oneflow.variable"() {data_type = 9 : i32, device_name = ["@0:0"], device_tag = "cuda", hierarchy = [1], op_name = "unet.down_blocks.2.attentions.1.transformer_blocks.0.norm1.weight", output_lbns = ["unet.down_blocks.2.attentions.1.transformer_blocks.0.norm1.weight/out"], parallel = #sbp.parallel<[] -> [[#sbp.B]]>, scope_symbol_id = 1912 : i64, shape = [1280 : si64]} : () -> tensor<1280xf16>
    %output_208 = "oneflow.variable"() {data_type = 9 : i32, device_name = ["@0:0"], device_tag = "cuda", hierarchy = [1], op_name = "unet.down_blocks.2.attentions.1.transformer_blocks.0.norm1.bias", output_lbns = ["unet.down_blocks.2.attentions.1.transformer_blocks.0.norm1.bias/out"], parallel = #sbp.parallel<[] -> [[#sbp.B]]>, scope_symbol_id = 1916 : i64, shape = [1280 : si64]} : () -> tensor<1280xf16>
    %output_209 = "oneflow.variable"() {data_type = 9 : i32, device_name = ["@0:0"], device_tag = "cuda", hierarchy = [1], op_name = "unet.down_blocks.2.attentions.1.transformer_blocks.0.attn1.to_q.weight", output_lbns = ["unet.down_blocks.2.attentions.1.transformer_blocks.0.attn1.to_q.weight/out"], parallel = #sbp.parallel<[] -> [[#sbp.B]]>, scope_symbol_id = 1925 : i64, shape = [1280 : si64, 1280 : si64]} : () -> tensor<1280x1280xf16>
    %output_210 = "oneflow.variable"() {data_type = 9 : i32, device_name = ["@0:0"], device_tag = "cuda", hierarchy = [1], op_name = "unet.down_blocks.2.attentions.1.transformer_blocks.0.attn1.to_k.weight", output_lbns = ["unet.down_blocks.2.attentions.1.transformer_blocks.0.attn1.to_k.weight/out"], parallel = #sbp.parallel<[] -> [[#sbp.B]]>, scope_symbol_id = 1933 : i64, shape = [1280 : si64, 1280 : si64]} : () -> tensor<1280x1280xf16>
    %output_211 = "oneflow.variable"() {data_type = 9 : i32, device_name = ["@0:0"], device_tag = "cuda", hierarchy = [1], op_name = "unet.down_blocks.2.attentions.1.transformer_blocks.0.attn1.to_v.weight", output_lbns = ["unet.down_blocks.2.attentions.1.transformer_blocks.0.attn1.to_v.weight/out"], parallel = #sbp.parallel<[] -> [[#sbp.B]]>, scope_symbol_id = 1941 : i64, shape = [1280 : si64, 1280 : si64]} : () -> tensor<1280x1280xf16>
    %output_212 = "oneflow.variable"() {data_type = 9 : i32, device_name = ["@0:0"], device_tag = "cuda", hierarchy = [1], op_name = "unet.down_blocks.2.attentions.1.transformer_blocks.0.attn1.to_out.0.weight", output_lbns = ["unet.down_blocks.2.attentions.1.transformer_blocks.0.attn1.to_out.0.weight/out"], parallel = #sbp.parallel<[] -> [[#sbp.B]]>, scope_symbol_id = 1952 : i64, shape = [1280 : si64, 1280 : si64]} : () -> tensor<1280x1280xf16>
    %output_213 = "oneflow.variable"() {data_type = 9 : i32, device_name = ["@0:0"], device_tag = "cuda", hierarchy = [1], op_name = "unet.down_blocks.2.attentions.1.transformer_blocks.0.attn1.to_out.0.bias", output_lbns = ["unet.down_blocks.2.attentions.1.transformer_blocks.0.attn1.to_out.0.bias/out"], parallel = #sbp.parallel<[] -> [[#sbp.B]]>, scope_symbol_id = 1959 : i64, shape = [1280 : si64]} : () -> tensor<1280xf16>
    %output_214 = "oneflow.variable"() {data_type = 9 : i32, device_name = ["@0:0"], device_tag = "cuda", hierarchy = [1], op_name = "unet.down_blocks.2.attentions.1.transformer_blocks.0.norm2.weight", output_lbns = ["unet.down_blocks.2.attentions.1.transformer_blocks.0.norm2.weight/out"], parallel = #sbp.parallel<[] -> [[#sbp.B]]>, scope_symbol_id = 1971 : i64, shape = [1280 : si64]} : () -> tensor<1280xf16>
    %output_215 = "oneflow.variable"() {data_type = 9 : i32, device_name = ["@0:0"], device_tag = "cuda", hierarchy = [1], op_name = "unet.down_blocks.2.attentions.1.transformer_blocks.0.norm2.bias", output_lbns = ["unet.down_blocks.2.attentions.1.transformer_blocks.0.norm2.bias/out"], parallel = #sbp.parallel<[] -> [[#sbp.B]]>, scope_symbol_id = 1975 : i64, shape = [1280 : si64]} : () -> tensor<1280xf16>
    %output_216 = "oneflow.variable"() {data_type = 9 : i32, device_name = ["@0:0"], device_tag = "cuda", hierarchy = [1], op_name = "unet.down_blocks.2.attentions.1.transformer_blocks.0.attn2.to_q.weight", output_lbns = ["unet.down_blocks.2.attentions.1.transformer_blocks.0.attn2.to_q.weight/out"], parallel = #sbp.parallel<[] -> [[#sbp.B]]>, scope_symbol_id = 1984 : i64, shape = [1280 : si64, 1280 : si64]} : () -> tensor<1280x1280xf16>
    %output_217 = "oneflow.variable"() {data_type = 9 : i32, device_name = ["@0:0"], device_tag = "cuda", hierarchy = [1], op_name = "unet.down_blocks.2.attentions.1.transformer_blocks.0.attn2.to_k.weight", output_lbns = ["unet.down_blocks.2.attentions.1.transformer_blocks.0.attn2.to_k.weight/out"], parallel = #sbp.parallel<[] -> [[#sbp.B]]>, scope_symbol_id = 1992 : i64, shape = [1280 : si64, 768 : si64]} : () -> tensor<1280x768xf16>
    %output_218 = "oneflow.variable"() {data_type = 9 : i32, device_name = ["@0:0"], device_tag = "cuda", hierarchy = [1], op_name = "unet.down_blocks.2.attentions.1.transformer_blocks.0.attn2.to_v.weight", output_lbns = ["unet.down_blocks.2.attentions.1.transformer_blocks.0.attn2.to_v.weight/out"], parallel = #sbp.parallel<[] -> [[#sbp.B]]>, scope_symbol_id = 2000 : i64, shape = [1280 : si64, 768 : si64]} : () -> tensor<1280x768xf16>
    %output_219 = "oneflow.variable"() {data_type = 9 : i32, device_name = ["@0:0"], device_tag = "cuda", hierarchy = [1], op_name = "unet.down_blocks.2.attentions.1.transformer_blocks.0.attn2.to_out.0.weight", output_lbns = ["unet.down_blocks.2.attentions.1.transformer_blocks.0.attn2.to_out.0.weight/out"], parallel = #sbp.parallel<[] -> [[#sbp.B]]>, scope_symbol_id = 2011 : i64, shape = [1280 : si64, 1280 : si64]} : () -> tensor<1280x1280xf16>
    %output_220 = "oneflow.variable"() {data_type = 9 : i32, device_name = ["@0:0"], device_tag = "cuda", hierarchy = [1], op_name = "unet.down_blocks.2.attentions.1.transformer_blocks.0.attn2.to_out.0.bias", output_lbns = ["unet.down_blocks.2.attentions.1.transformer_blocks.0.attn2.to_out.0.bias/out"], parallel = #sbp.parallel<[] -> [[#sbp.B]]>, scope_symbol_id = 2018 : i64, shape = [1280 : si64]} : () -> tensor<1280xf16>
    %output_221 = "oneflow.variable"() {data_type = 9 : i32, device_name = ["@0:0"], device_tag = "cuda", hierarchy = [1], op_name = "unet.down_blocks.2.attentions.1.transformer_blocks.0.norm3.weight", output_lbns = ["unet.down_blocks.2.attentions.1.transformer_blocks.0.norm3.weight/out"], parallel = #sbp.parallel<[] -> [[#sbp.B]]>, scope_symbol_id = 2030 : i64, shape = [1280 : si64]} : () -> tensor<1280xf16>
    %output_222 = "oneflow.variable"() {data_type = 9 : i32, device_name = ["@0:0"], device_tag = "cuda", hierarchy = [1], op_name = "unet.down_blocks.2.attentions.1.transformer_blocks.0.norm3.bias", output_lbns = ["unet.down_blocks.2.attentions.1.transformer_blocks.0.norm3.bias/out"], parallel = #sbp.parallel<[] -> [[#sbp.B]]>, scope_symbol_id = 2034 : i64, shape = [1280 : si64]} : () -> tensor<1280xf16>
    %output_223 = "oneflow.variable"() {data_type = 9 : i32, device_name = ["@0:0"], device_tag = "cuda", hierarchy = [1], op_name = "unet.down_blocks.2.attentions.1.transformer_blocks.0.ff.net.0.proj.weight", output_lbns = ["unet.down_blocks.2.attentions.1.transformer_blocks.0.ff.net.0.proj.weight/out"], parallel = #sbp.parallel<[] -> [[#sbp.B]]>, scope_symbol_id = 2044 : i64, shape = [10240 : si64, 1280 : si64]} : () -> tensor<10240x1280xf16>
    %output_224 = "oneflow.variable"() {data_type = 9 : i32, device_name = ["@0:0"], device_tag = "cuda", hierarchy = [1], op_name = "unet.down_blocks.2.attentions.1.transformer_blocks.0.ff.net.0.proj.bias", output_lbns = ["unet.down_blocks.2.attentions.1.transformer_blocks.0.ff.net.0.proj.bias/out"], parallel = #sbp.parallel<[] -> [[#sbp.B]]>, scope_symbol_id = 2051 : i64, shape = [10240 : si64]} : () -> tensor<10240xf16>
    %output_225 = "oneflow.variable"() {data_type = 9 : i32, device_name = ["@0:0"], device_tag = "cuda", hierarchy = [1], op_name = "unet.down_blocks.2.attentions.1.transformer_blocks.0.ff.net.2.weight", output_lbns = ["unet.down_blocks.2.attentions.1.transformer_blocks.0.ff.net.2.weight/out"], parallel = #sbp.parallel<[] -> [[#sbp.B]]>, scope_symbol_id = 2072 : i64, shape = [1280 : si64, 5120 : si64]} : () -> tensor<1280x5120xf16>
    %output_226 = "oneflow.variable"() {data_type = 9 : i32, device_name = ["@0:0"], device_tag = "cuda", hierarchy = [1], op_name = "unet.down_blocks.2.attentions.1.transformer_blocks.0.ff.net.2.bias", output_lbns = ["unet.down_blocks.2.attentions.1.transformer_blocks.0.ff.net.2.bias/out"], parallel = #sbp.parallel<[] -> [[#sbp.B]]>, scope_symbol_id = 2079 : i64, shape = [1280 : si64]} : () -> tensor<1280xf16>
    %output_227 = "oneflow.variable"() {data_type = 9 : i32, device_name = ["@0:0"], device_tag = "cuda", hierarchy = [1], op_name = "variable_387", output_lbns = ["variable_387/out"], parallel = #sbp.parallel<[] -> [[#sbp.B]]>, scope_symbol_id = 2096 : i64, shape = [1280 : si64, 1 : si64, 1 : si64, 1280 : si64]} : () -> tensor<1280x1x1x1280xf16>
    %output_228 = "oneflow.variable"() {data_type = 9 : i32, device_name = ["@0:0"], device_tag = "cuda", hierarchy = [1], op_name = "unet.down_blocks.2.attentions.1.proj_out.bias", output_lbns = ["unet.down_blocks.2.attentions.1.proj_out.bias/out"], parallel = #sbp.parallel<[] -> [[#sbp.B]]>, scope_symbol_id = 2100 : i64, shape = [1280 : si64]} : () -> tensor<1280xf16>
    %output_229 = "oneflow.variable"() {data_type = 9 : i32, device_name = ["@0:0"], device_tag = "cuda", hierarchy = [1], op_name = "variable_386", output_lbns = ["variable_386/out"], parallel = #sbp.parallel<[] -> [[#sbp.B]]>, scope_symbol_id = 2112 : i64, shape = [1280 : si64, 3 : si64, 3 : si64, 1280 : si64]} : () -> tensor<1280x3x3x1280xf16>
    %output_230 = "oneflow.variable"() {data_type = 9 : i32, device_name = ["@0:0"], device_tag = "cuda", hierarchy = [1], op_name = "unet.down_blocks.2.downsamplers.0.conv.bias", output_lbns = ["unet.down_blocks.2.downsamplers.0.conv.bias/out"], parallel = #sbp.parallel<[] -> [[#sbp.B]]>, scope_symbol_id = 2116 : i64, shape = [1280 : si64]} : () -> tensor<1280xf16>
    %output_231 = "oneflow.variable"() {data_type = 9 : i32, device_name = ["@0:0"], device_tag = "cuda", hierarchy = [1], op_name = "unet.down_blocks.3.resnets.0.norm1.weight", output_lbns = ["unet.down_blocks.3.resnets.0.norm1.weight/out"], parallel = #sbp.parallel<[] -> [[#sbp.B]]>, scope_symbol_id = 2126 : i64, shape = [1280 : si64]} : () -> tensor<1280xf16>
    %output_232 = "oneflow.variable"() {data_type = 9 : i32, device_name = ["@0:0"], device_tag = "cuda", hierarchy = [1], op_name = "unet.down_blocks.3.resnets.0.norm1.bias", output_lbns = ["unet.down_blocks.3.resnets.0.norm1.bias/out"], parallel = #sbp.parallel<[] -> [[#sbp.B]]>, scope_symbol_id = 2130 : i64, shape = [1280 : si64]} : () -> tensor<1280xf16>
    %output_233 = "oneflow.variable"() {data_type = 9 : i32, device_name = ["@0:0"], device_tag = "cuda", hierarchy = [1], op_name = "variable_385", output_lbns = ["variable_385/out"], parallel = #sbp.parallel<[] -> [[#sbp.B]]>, scope_symbol_id = 2142 : i64, shape = [1280 : si64, 3 : si64, 3 : si64, 1280 : si64]} : () -> tensor<1280x3x3x1280xf16>
    %output_234 = "oneflow.variable"() {data_type = 9 : i32, device_name = ["@0:0"], device_tag = "cuda", hierarchy = [1], op_name = "unet.down_blocks.3.resnets.0.conv1.bias", output_lbns = ["unet.down_blocks.3.resnets.0.conv1.bias/out"], parallel = #sbp.parallel<[] -> [[#sbp.B]]>, scope_symbol_id = 2146 : i64, shape = [1280 : si64]} : () -> tensor<1280xf16>
    %output_235 = "oneflow.variable"() {data_type = 9 : i32, device_name = ["@0:0"], device_tag = "cuda", hierarchy = [1], op_name = "unet.down_blocks.3.resnets.0.time_emb_proj.weight", output_lbns = ["unet.down_blocks.3.resnets.0.time_emb_proj.weight/out"], parallel = #sbp.parallel<[] -> [[#sbp.B]]>, scope_symbol_id = 2157 : i64, shape = [1280 : si64, 1280 : si64]} : () -> tensor<1280x1280xf16>
    %output_236 = "oneflow.variable"() {data_type = 9 : i32, device_name = ["@0:0"], device_tag = "cuda", hierarchy = [1], op_name = "unet.down_blocks.3.resnets.0.time_emb_proj.bias", output_lbns = ["unet.down_blocks.3.resnets.0.time_emb_proj.bias/out"], parallel = #sbp.parallel<[] -> [[#sbp.B]]>, scope_symbol_id = 2164 : i64, shape = [1280 : si64]} : () -> tensor<1280xf16>
    %output_237 = "oneflow.variable"() {data_type = 9 : i32, device_name = ["@0:0"], device_tag = "cuda", hierarchy = [1], op_name = "unet.down_blocks.3.resnets.0.norm2.weight", output_lbns = ["unet.down_blocks.3.resnets.0.norm2.weight/out"], parallel = #sbp.parallel<[] -> [[#sbp.B]]>, scope_symbol_id = 2181 : i64, shape = [1280 : si64]} : () -> tensor<1280xf16>
    %output_238 = "oneflow.variable"() {data_type = 9 : i32, device_name = ["@0:0"], device_tag = "cuda", hierarchy = [1], op_name = "unet.down_blocks.3.resnets.0.norm2.bias", output_lbns = ["unet.down_blocks.3.resnets.0.norm2.bias/out"], parallel = #sbp.parallel<[] -> [[#sbp.B]]>, scope_symbol_id = 2185 : i64, shape = [1280 : si64]} : () -> tensor<1280xf16>
    %output_239 = "oneflow.variable"() {data_type = 9 : i32, device_name = ["@0:0"], device_tag = "cuda", hierarchy = [1], op_name = "variable_384", output_lbns = ["variable_384/out"], parallel = #sbp.parallel<[] -> [[#sbp.B]]>, scope_symbol_id = 2197 : i64, shape = [1280 : si64, 3 : si64, 3 : si64, 1280 : si64]} : () -> tensor<1280x3x3x1280xf16>
    %output_240 = "oneflow.variable"() {data_type = 9 : i32, device_name = ["@0:0"], device_tag = "cuda", hierarchy = [1], op_name = "unet.down_blocks.3.resnets.0.conv2.bias", output_lbns = ["unet.down_blocks.3.resnets.0.conv2.bias/out"], parallel = #sbp.parallel<[] -> [[#sbp.B]]>, scope_symbol_id = 2201 : i64, shape = [1280 : si64]} : () -> tensor<1280xf16>
    %output_241 = "oneflow.variable"() {data_type = 9 : i32, device_name = ["@0:0"], device_tag = "cuda", hierarchy = [1], op_name = "unet.down_blocks.3.resnets.1.norm1.weight", output_lbns = ["unet.down_blocks.3.resnets.1.norm1.weight/out"], parallel = #sbp.parallel<[] -> [[#sbp.B]]>, scope_symbol_id = 2216 : i64, shape = [1280 : si64]} : () -> tensor<1280xf16>
    %output_242 = "oneflow.variable"() {data_type = 9 : i32, device_name = ["@0:0"], device_tag = "cuda", hierarchy = [1], op_name = "unet.down_blocks.3.resnets.1.norm1.bias", output_lbns = ["unet.down_blocks.3.resnets.1.norm1.bias/out"], parallel = #sbp.parallel<[] -> [[#sbp.B]]>, scope_symbol_id = 2220 : i64, shape = [1280 : si64]} : () -> tensor<1280xf16>
    %output_243 = "oneflow.variable"() {data_type = 9 : i32, device_name = ["@0:0"], device_tag = "cuda", hierarchy = [1], op_name = "variable_383", output_lbns = ["variable_383/out"], parallel = #sbp.parallel<[] -> [[#sbp.B]]>, scope_symbol_id = 2232 : i64, shape = [1280 : si64, 3 : si64, 3 : si64, 1280 : si64]} : () -> tensor<1280x3x3x1280xf16>
    %output_244 = "oneflow.variable"() {data_type = 9 : i32, device_name = ["@0:0"], device_tag = "cuda", hierarchy = [1], op_name = "unet.down_blocks.3.resnets.1.conv1.bias", output_lbns = ["unet.down_blocks.3.resnets.1.conv1.bias/out"], parallel = #sbp.parallel<[] -> [[#sbp.B]]>, scope_symbol_id = 2236 : i64, shape = [1280 : si64]} : () -> tensor<1280xf16>
    %output_245 = "oneflow.variable"() {data_type = 9 : i32, device_name = ["@0:0"], device_tag = "cuda", hierarchy = [1], op_name = "unet.down_blocks.3.resnets.1.time_emb_proj.weight", output_lbns = ["unet.down_blocks.3.resnets.1.time_emb_proj.weight/out"], parallel = #sbp.parallel<[] -> [[#sbp.B]]>, scope_symbol_id = 2247 : i64, shape = [1280 : si64, 1280 : si64]} : () -> tensor<1280x1280xf16>
    %output_246 = "oneflow.variable"() {data_type = 9 : i32, device_name = ["@0:0"], device_tag = "cuda", hierarchy = [1], op_name = "unet.down_blocks.3.resnets.1.time_emb_proj.bias", output_lbns = ["unet.down_blocks.3.resnets.1.time_emb_proj.bias/out"], parallel = #sbp.parallel<[] -> [[#sbp.B]]>, scope_symbol_id = 2254 : i64, shape = [1280 : si64]} : () -> tensor<1280xf16>
    %output_247 = "oneflow.variable"() {data_type = 9 : i32, device_name = ["@0:0"], device_tag = "cuda", hierarchy = [1], op_name = "unet.down_blocks.3.resnets.1.norm2.weight", output_lbns = ["unet.down_blocks.3.resnets.1.norm2.weight/out"], parallel = #sbp.parallel<[] -> [[#sbp.B]]>, scope_symbol_id = 2271 : i64, shape = [1280 : si64]} : () -> tensor<1280xf16>
    %output_248 = "oneflow.variable"() {data_type = 9 : i32, device_name = ["@0:0"], device_tag = "cuda", hierarchy = [1], op_name = "unet.down_blocks.3.resnets.1.norm2.bias", output_lbns = ["unet.down_blocks.3.resnets.1.norm2.bias/out"], parallel = #sbp.parallel<[] -> [[#sbp.B]]>, scope_symbol_id = 2275 : i64, shape = [1280 : si64]} : () -> tensor<1280xf16>
    %output_249 = "oneflow.variable"() {data_type = 9 : i32, device_name = ["@0:0"], device_tag = "cuda", hierarchy = [1], op_name = "variable_382", output_lbns = ["variable_382/out"], parallel = #sbp.parallel<[] -> [[#sbp.B]]>, scope_symbol_id = 2287 : i64, shape = [1280 : si64, 3 : si64, 3 : si64, 1280 : si64]} : () -> tensor<1280x3x3x1280xf16>
    %output_250 = "oneflow.variable"() {data_type = 9 : i32, device_name = ["@0:0"], device_tag = "cuda", hierarchy = [1], op_name = "unet.down_blocks.3.resnets.1.conv2.bias", output_lbns = ["unet.down_blocks.3.resnets.1.conv2.bias/out"], parallel = #sbp.parallel<[] -> [[#sbp.B]]>, scope_symbol_id = 2291 : i64, shape = [1280 : si64]} : () -> tensor<1280xf16>
    %output_251 = "oneflow.variable"() {data_type = 9 : i32, device_name = ["@0:0"], device_tag = "cuda", hierarchy = [1], op_name = "unet.mid_block.resnets.0.norm1.weight", output_lbns = ["unet.mid_block.resnets.0.norm1.weight/out"], parallel = #sbp.parallel<[] -> [[#sbp.B]]>, scope_symbol_id = 2307 : i64, shape = [1280 : si64]} : () -> tensor<1280xf16>
    %output_252 = "oneflow.variable"() {data_type = 9 : i32, device_name = ["@0:0"], device_tag = "cuda", hierarchy = [1], op_name = "unet.mid_block.resnets.0.norm1.bias", output_lbns = ["unet.mid_block.resnets.0.norm1.bias/out"], parallel = #sbp.parallel<[] -> [[#sbp.B]]>, scope_symbol_id = 2311 : i64, shape = [1280 : si64]} : () -> tensor<1280xf16>
    %output_253 = "oneflow.variable"() {data_type = 9 : i32, device_name = ["@0:0"], device_tag = "cuda", hierarchy = [1], op_name = "variable_381", output_lbns = ["variable_381/out"], parallel = #sbp.parallel<[] -> [[#sbp.B]]>, scope_symbol_id = 2323 : i64, shape = [1280 : si64, 3 : si64, 3 : si64, 1280 : si64]} : () -> tensor<1280x3x3x1280xf16>
    %output_254 = "oneflow.variable"() {data_type = 9 : i32, device_name = ["@0:0"], device_tag = "cuda", hierarchy = [1], op_name = "unet.mid_block.resnets.0.conv1.bias", output_lbns = ["unet.mid_block.resnets.0.conv1.bias/out"], parallel = #sbp.parallel<[] -> [[#sbp.B]]>, scope_symbol_id = 2327 : i64, shape = [1280 : si64]} : () -> tensor<1280xf16>
    %output_255 = "oneflow.variable"() {data_type = 9 : i32, device_name = ["@0:0"], device_tag = "cuda", hierarchy = [1], op_name = "unet.mid_block.resnets.0.time_emb_proj.weight", output_lbns = ["unet.mid_block.resnets.0.time_emb_proj.weight/out"], parallel = #sbp.parallel<[] -> [[#sbp.B]]>, scope_symbol_id = 2338 : i64, shape = [1280 : si64, 1280 : si64]} : () -> tensor<1280x1280xf16>
    %output_256 = "oneflow.variable"() {data_type = 9 : i32, device_name = ["@0:0"], device_tag = "cuda", hierarchy = [1], op_name = "unet.mid_block.resnets.0.time_emb_proj.bias", output_lbns = ["unet.mid_block.resnets.0.time_emb_proj.bias/out"], parallel = #sbp.parallel<[] -> [[#sbp.B]]>, scope_symbol_id = 2345 : i64, shape = [1280 : si64]} : () -> tensor<1280xf16>
    %output_257 = "oneflow.variable"() {data_type = 9 : i32, device_name = ["@0:0"], device_tag = "cuda", hierarchy = [1], op_name = "unet.mid_block.resnets.0.norm2.weight", output_lbns = ["unet.mid_block.resnets.0.norm2.weight/out"], parallel = #sbp.parallel<[] -> [[#sbp.B]]>, scope_symbol_id = 2362 : i64, shape = [1280 : si64]} : () -> tensor<1280xf16>
    %output_258 = "oneflow.variable"() {data_type = 9 : i32, device_name = ["@0:0"], device_tag = "cuda", hierarchy = [1], op_name = "unet.mid_block.resnets.0.norm2.bias", output_lbns = ["unet.mid_block.resnets.0.norm2.bias/out"], parallel = #sbp.parallel<[] -> [[#sbp.B]]>, scope_symbol_id = 2366 : i64, shape = [1280 : si64]} : () -> tensor<1280xf16>
    %output_259 = "oneflow.variable"() {data_type = 9 : i32, device_name = ["@0:0"], device_tag = "cuda", hierarchy = [1], op_name = "variable_380", output_lbns = ["variable_380/out"], parallel = #sbp.parallel<[] -> [[#sbp.B]]>, scope_symbol_id = 2378 : i64, shape = [1280 : si64, 3 : si64, 3 : si64, 1280 : si64]} : () -> tensor<1280x3x3x1280xf16>
    %output_260 = "oneflow.variable"() {data_type = 9 : i32, device_name = ["@0:0"], device_tag = "cuda", hierarchy = [1], op_name = "unet.mid_block.resnets.0.conv2.bias", output_lbns = ["unet.mid_block.resnets.0.conv2.bias/out"], parallel = #sbp.parallel<[] -> [[#sbp.B]]>, scope_symbol_id = 2382 : i64, shape = [1280 : si64]} : () -> tensor<1280xf16>
    %output_261 = "oneflow.variable"() {data_type = 9 : i32, device_name = ["@0:0"], device_tag = "cuda", hierarchy = [1], op_name = "unet.mid_block.attentions.0.norm.weight", output_lbns = ["unet.mid_block.attentions.0.norm.weight/out"], parallel = #sbp.parallel<[] -> [[#sbp.B]]>, scope_symbol_id = 2397 : i64, shape = [1280 : si64]} : () -> tensor<1280xf16>
    %output_262 = "oneflow.variable"() {data_type = 9 : i32, device_name = ["@0:0"], device_tag = "cuda", hierarchy = [1], op_name = "unet.mid_block.attentions.0.norm.bias", output_lbns = ["unet.mid_block.attentions.0.norm.bias/out"], parallel = #sbp.parallel<[] -> [[#sbp.B]]>, scope_symbol_id = 2401 : i64, shape = [1280 : si64]} : () -> tensor<1280xf16>
    %output_263 = "oneflow.variable"() {data_type = 9 : i32, device_name = ["@0:0"], device_tag = "cuda", hierarchy = [1], op_name = "variable_379", output_lbns = ["variable_379/out"], parallel = #sbp.parallel<[] -> [[#sbp.B]]>, scope_symbol_id = 2409 : i64, shape = [1280 : si64, 1 : si64, 1 : si64, 1280 : si64]} : () -> tensor<1280x1x1x1280xf16>
    %output_264 = "oneflow.variable"() {data_type = 9 : i32, device_name = ["@0:0"], device_tag = "cuda", hierarchy = [1], op_name = "unet.mid_block.attentions.0.proj_in.bias", output_lbns = ["unet.mid_block.attentions.0.proj_in.bias/out"], parallel = #sbp.parallel<[] -> [[#sbp.B]]>, scope_symbol_id = 2413 : i64, shape = [1280 : si64]} : () -> tensor<1280xf16>
    %output_265 = "oneflow.variable"() {data_type = 9 : i32, device_name = ["@0:0"], device_tag = "cuda", hierarchy = [1], op_name = "unet.mid_block.attentions.0.transformer_blocks.0.norm1.weight", output_lbns = ["unet.mid_block.attentions.0.transformer_blocks.0.norm1.weight/out"], parallel = #sbp.parallel<[] -> [[#sbp.B]]>, scope_symbol_id = 2428 : i64, shape = [1280 : si64]} : () -> tensor<1280xf16>
    %output_266 = "oneflow.variable"() {data_type = 9 : i32, device_name = ["@0:0"], device_tag = "cuda", hierarchy = [1], op_name = "unet.mid_block.attentions.0.transformer_blocks.0.norm1.bias", output_lbns = ["unet.mid_block.attentions.0.transformer_blocks.0.norm1.bias/out"], parallel = #sbp.parallel<[] -> [[#sbp.B]]>, scope_symbol_id = 2432 : i64, shape = [1280 : si64]} : () -> tensor<1280xf16>
    %output_267 = "oneflow.variable"() {data_type = 9 : i32, device_name = ["@0:0"], device_tag = "cuda", hierarchy = [1], op_name = "unet.mid_block.attentions.0.transformer_blocks.0.attn1.to_q.weight", output_lbns = ["unet.mid_block.attentions.0.transformer_blocks.0.attn1.to_q.weight/out"], parallel = #sbp.parallel<[] -> [[#sbp.B]]>, scope_symbol_id = 2441 : i64, shape = [1280 : si64, 1280 : si64]} : () -> tensor<1280x1280xf16>
    %output_268 = "oneflow.variable"() {data_type = 9 : i32, device_name = ["@0:0"], device_tag = "cuda", hierarchy = [1], op_name = "unet.mid_block.attentions.0.transformer_blocks.0.attn1.to_k.weight", output_lbns = ["unet.mid_block.attentions.0.transformer_blocks.0.attn1.to_k.weight/out"], parallel = #sbp.parallel<[] -> [[#sbp.B]]>, scope_symbol_id = 2449 : i64, shape = [1280 : si64, 1280 : si64]} : () -> tensor<1280x1280xf16>
    %output_269 = "oneflow.variable"() {data_type = 9 : i32, device_name = ["@0:0"], device_tag = "cuda", hierarchy = [1], op_name = "unet.mid_block.attentions.0.transformer_blocks.0.attn1.to_v.weight", output_lbns = ["unet.mid_block.attentions.0.transformer_blocks.0.attn1.to_v.weight/out"], parallel = #sbp.parallel<[] -> [[#sbp.B]]>, scope_symbol_id = 2457 : i64, shape = [1280 : si64, 1280 : si64]} : () -> tensor<1280x1280xf16>
    %output_270 = "oneflow.variable"() {data_type = 9 : i32, device_name = ["@0:0"], device_tag = "cuda", hierarchy = [1], op_name = "unet.mid_block.attentions.0.transformer_blocks.0.attn1.to_out.0.weight", output_lbns = ["unet.mid_block.attentions.0.transformer_blocks.0.attn1.to_out.0.weight/out"], parallel = #sbp.parallel<[] -> [[#sbp.B]]>, scope_symbol_id = 2468 : i64, shape = [1280 : si64, 1280 : si64]} : () -> tensor<1280x1280xf16>
    %output_271 = "oneflow.variable"() {data_type = 9 : i32, device_name = ["@0:0"], device_tag = "cuda", hierarchy = [1], op_name = "unet.mid_block.attentions.0.transformer_blocks.0.attn1.to_out.0.bias", output_lbns = ["unet.mid_block.attentions.0.transformer_blocks.0.attn1.to_out.0.bias/out"], parallel = #sbp.parallel<[] -> [[#sbp.B]]>, scope_symbol_id = 2475 : i64, shape = [1280 : si64]} : () -> tensor<1280xf16>
    %output_272 = "oneflow.variable"() {data_type = 9 : i32, device_name = ["@0:0"], device_tag = "cuda", hierarchy = [1], op_name = "unet.mid_block.attentions.0.transformer_blocks.0.norm2.weight", output_lbns = ["unet.mid_block.attentions.0.transformer_blocks.0.norm2.weight/out"], parallel = #sbp.parallel<[] -> [[#sbp.B]]>, scope_symbol_id = 2487 : i64, shape = [1280 : si64]} : () -> tensor<1280xf16>
    %output_273 = "oneflow.variable"() {data_type = 9 : i32, device_name = ["@0:0"], device_tag = "cuda", hierarchy = [1], op_name = "unet.mid_block.attentions.0.transformer_blocks.0.norm2.bias", output_lbns = ["unet.mid_block.attentions.0.transformer_blocks.0.norm2.bias/out"], parallel = #sbp.parallel<[] -> [[#sbp.B]]>, scope_symbol_id = 2491 : i64, shape = [1280 : si64]} : () -> tensor<1280xf16>
    %output_274 = "oneflow.variable"() {data_type = 9 : i32, device_name = ["@0:0"], device_tag = "cuda", hierarchy = [1], op_name = "unet.mid_block.attentions.0.transformer_blocks.0.attn2.to_q.weight", output_lbns = ["unet.mid_block.attentions.0.transformer_blocks.0.attn2.to_q.weight/out"], parallel = #sbp.parallel<[] -> [[#sbp.B]]>, scope_symbol_id = 2500 : i64, shape = [1280 : si64, 1280 : si64]} : () -> tensor<1280x1280xf16>
    %output_275 = "oneflow.variable"() {data_type = 9 : i32, device_name = ["@0:0"], device_tag = "cuda", hierarchy = [1], op_name = "unet.mid_block.attentions.0.transformer_blocks.0.attn2.to_k.weight", output_lbns = ["unet.mid_block.attentions.0.transformer_blocks.0.attn2.to_k.weight/out"], parallel = #sbp.parallel<[] -> [[#sbp.B]]>, scope_symbol_id = 2508 : i64, shape = [1280 : si64, 768 : si64]} : () -> tensor<1280x768xf16>
    %output_276 = "oneflow.variable"() {data_type = 9 : i32, device_name = ["@0:0"], device_tag = "cuda", hierarchy = [1], op_name = "unet.mid_block.attentions.0.transformer_blocks.0.attn2.to_v.weight", output_lbns = ["unet.mid_block.attentions.0.transformer_blocks.0.attn2.to_v.weight/out"], parallel = #sbp.parallel<[] -> [[#sbp.B]]>, scope_symbol_id = 2516 : i64, shape = [1280 : si64, 768 : si64]} : () -> tensor<1280x768xf16>
    %output_277 = "oneflow.variable"() {data_type = 9 : i32, device_name = ["@0:0"], device_tag = "cuda", hierarchy = [1], op_name = "unet.mid_block.attentions.0.transformer_blocks.0.attn2.to_out.0.weight", output_lbns = ["unet.mid_block.attentions.0.transformer_blocks.0.attn2.to_out.0.weight/out"], parallel = #sbp.parallel<[] -> [[#sbp.B]]>, scope_symbol_id = 2527 : i64, shape = [1280 : si64, 1280 : si64]} : () -> tensor<1280x1280xf16>
    %output_278 = "oneflow.variable"() {data_type = 9 : i32, device_name = ["@0:0"], device_tag = "cuda", hierarchy = [1], op_name = "unet.mid_block.attentions.0.transformer_blocks.0.attn2.to_out.0.bias", output_lbns = ["unet.mid_block.attentions.0.transformer_blocks.0.attn2.to_out.0.bias/out"], parallel = #sbp.parallel<[] -> [[#sbp.B]]>, scope_symbol_id = 2534 : i64, shape = [1280 : si64]} : () -> tensor<1280xf16>
    %output_279 = "oneflow.variable"() {data_type = 9 : i32, device_name = ["@0:0"], device_tag = "cuda", hierarchy = [1], op_name = "unet.mid_block.attentions.0.transformer_blocks.0.norm3.weight", output_lbns = ["unet.mid_block.attentions.0.transformer_blocks.0.norm3.weight/out"], parallel = #sbp.parallel<[] -> [[#sbp.B]]>, scope_symbol_id = 2546 : i64, shape = [1280 : si64]} : () -> tensor<1280xf16>
    %output_280 = "oneflow.variable"() {data_type = 9 : i32, device_name = ["@0:0"], device_tag = "cuda", hierarchy = [1], op_name = "unet.mid_block.attentions.0.transformer_blocks.0.norm3.bias", output_lbns = ["unet.mid_block.attentions.0.transformer_blocks.0.norm3.bias/out"], parallel = #sbp.parallel<[] -> [[#sbp.B]]>, scope_symbol_id = 2550 : i64, shape = [1280 : si64]} : () -> tensor<1280xf16>
    %output_281 = "oneflow.variable"() {data_type = 9 : i32, device_name = ["@0:0"], device_tag = "cuda", hierarchy = [1], op_name = "unet.mid_block.attentions.0.transformer_blocks.0.ff.net.0.proj.weight", output_lbns = ["unet.mid_block.attentions.0.transformer_blocks.0.ff.net.0.proj.weight/out"], parallel = #sbp.parallel<[] -> [[#sbp.B]]>, scope_symbol_id = 2560 : i64, shape = [10240 : si64, 1280 : si64]} : () -> tensor<10240x1280xf16>
    %output_282 = "oneflow.variable"() {data_type = 9 : i32, device_name = ["@0:0"], device_tag = "cuda", hierarchy = [1], op_name = "unet.mid_block.attentions.0.transformer_blocks.0.ff.net.0.proj.bias", output_lbns = ["unet.mid_block.attentions.0.transformer_blocks.0.ff.net.0.proj.bias/out"], parallel = #sbp.parallel<[] -> [[#sbp.B]]>, scope_symbol_id = 2567 : i64, shape = [10240 : si64]} : () -> tensor<10240xf16>
    %output_283 = "oneflow.variable"() {data_type = 9 : i32, device_name = ["@0:0"], device_tag = "cuda", hierarchy = [1], op_name = "unet.mid_block.attentions.0.transformer_blocks.0.ff.net.2.weight", output_lbns = ["unet.mid_block.attentions.0.transformer_blocks.0.ff.net.2.weight/out"], parallel = #sbp.parallel<[] -> [[#sbp.B]]>, scope_symbol_id = 2588 : i64, shape = [1280 : si64, 5120 : si64]} : () -> tensor<1280x5120xf16>
    %output_284 = "oneflow.variable"() {data_type = 9 : i32, device_name = ["@0:0"], device_tag = "cuda", hierarchy = [1], op_name = "unet.mid_block.attentions.0.transformer_blocks.0.ff.net.2.bias", output_lbns = ["unet.mid_block.attentions.0.transformer_blocks.0.ff.net.2.bias/out"], parallel = #sbp.parallel<[] -> [[#sbp.B]]>, scope_symbol_id = 2595 : i64, shape = [1280 : si64]} : () -> tensor<1280xf16>
    %output_285 = "oneflow.variable"() {data_type = 9 : i32, device_name = ["@0:0"], device_tag = "cuda", hierarchy = [1], op_name = "variable_378", output_lbns = ["variable_378/out"], parallel = #sbp.parallel<[] -> [[#sbp.B]]>, scope_symbol_id = 2612 : i64, shape = [1280 : si64, 1 : si64, 1 : si64, 1280 : si64]} : () -> tensor<1280x1x1x1280xf16>
    %output_286 = "oneflow.variable"() {data_type = 9 : i32, device_name = ["@0:0"], device_tag = "cuda", hierarchy = [1], op_name = "unet.mid_block.attentions.0.proj_out.bias", output_lbns = ["unet.mid_block.attentions.0.proj_out.bias/out"], parallel = #sbp.parallel<[] -> [[#sbp.B]]>, scope_symbol_id = 2616 : i64, shape = [1280 : si64]} : () -> tensor<1280xf16>
    %output_287 = "oneflow.variable"() {data_type = 9 : i32, device_name = ["@0:0"], device_tag = "cuda", hierarchy = [1], op_name = "unet.mid_block.resnets.1.norm1.weight", output_lbns = ["unet.mid_block.resnets.1.norm1.weight/out"], parallel = #sbp.parallel<[] -> [[#sbp.B]]>, scope_symbol_id = 2628 : i64, shape = [1280 : si64]} : () -> tensor<1280xf16>
    %output_288 = "oneflow.variable"() {data_type = 9 : i32, device_name = ["@0:0"], device_tag = "cuda", hierarchy = [1], op_name = "unet.mid_block.resnets.1.norm1.bias", output_lbns = ["unet.mid_block.resnets.1.norm1.bias/out"], parallel = #sbp.parallel<[] -> [[#sbp.B]]>, scope_symbol_id = 2632 : i64, shape = [1280 : si64]} : () -> tensor<1280xf16>
    %output_289 = "oneflow.variable"() {data_type = 9 : i32, device_name = ["@0:0"], device_tag = "cuda", hierarchy = [1], op_name = "variable_377", output_lbns = ["variable_377/out"], parallel = #sbp.parallel<[] -> [[#sbp.B]]>, scope_symbol_id = 2644 : i64, shape = [1280 : si64, 3 : si64, 3 : si64, 1280 : si64]} : () -> tensor<1280x3x3x1280xf16>
    %output_290 = "oneflow.variable"() {data_type = 9 : i32, device_name = ["@0:0"], device_tag = "cuda", hierarchy = [1], op_name = "unet.mid_block.resnets.1.conv1.bias", output_lbns = ["unet.mid_block.resnets.1.conv1.bias/out"], parallel = #sbp.parallel<[] -> [[#sbp.B]]>, scope_symbol_id = 2648 : i64, shape = [1280 : si64]} : () -> tensor<1280xf16>
    %output_291 = "oneflow.variable"() {data_type = 9 : i32, device_name = ["@0:0"], device_tag = "cuda", hierarchy = [1], op_name = "unet.mid_block.resnets.1.time_emb_proj.weight", output_lbns = ["unet.mid_block.resnets.1.time_emb_proj.weight/out"], parallel = #sbp.parallel<[] -> [[#sbp.B]]>, scope_symbol_id = 2659 : i64, shape = [1280 : si64, 1280 : si64]} : () -> tensor<1280x1280xf16>
    %output_292 = "oneflow.variable"() {data_type = 9 : i32, device_name = ["@0:0"], device_tag = "cuda", hierarchy = [1], op_name = "unet.mid_block.resnets.1.time_emb_proj.bias", output_lbns = ["unet.mid_block.resnets.1.time_emb_proj.bias/out"], parallel = #sbp.parallel<[] -> [[#sbp.B]]>, scope_symbol_id = 2666 : i64, shape = [1280 : si64]} : () -> tensor<1280xf16>
    %output_293 = "oneflow.variable"() {data_type = 9 : i32, device_name = ["@0:0"], device_tag = "cuda", hierarchy = [1], op_name = "unet.mid_block.resnets.1.norm2.weight", output_lbns = ["unet.mid_block.resnets.1.norm2.weight/out"], parallel = #sbp.parallel<[] -> [[#sbp.B]]>, scope_symbol_id = 2683 : i64, shape = [1280 : si64]} : () -> tensor<1280xf16>
    %output_294 = "oneflow.variable"() {data_type = 9 : i32, device_name = ["@0:0"], device_tag = "cuda", hierarchy = [1], op_name = "unet.mid_block.resnets.1.norm2.bias", output_lbns = ["unet.mid_block.resnets.1.norm2.bias/out"], parallel = #sbp.parallel<[] -> [[#sbp.B]]>, scope_symbol_id = 2687 : i64, shape = [1280 : si64]} : () -> tensor<1280xf16>
    %output_295 = "oneflow.variable"() {data_type = 9 : i32, device_name = ["@0:0"], device_tag = "cuda", hierarchy = [1], op_name = "variable_376", output_lbns = ["variable_376/out"], parallel = #sbp.parallel<[] -> [[#sbp.B]]>, scope_symbol_id = 2699 : i64, shape = [1280 : si64, 3 : si64, 3 : si64, 1280 : si64]} : () -> tensor<1280x3x3x1280xf16>
    %output_296 = "oneflow.variable"() {data_type = 9 : i32, device_name = ["@0:0"], device_tag = "cuda", hierarchy = [1], op_name = "unet.mid_block.resnets.1.conv2.bias", output_lbns = ["unet.mid_block.resnets.1.conv2.bias/out"], parallel = #sbp.parallel<[] -> [[#sbp.B]]>, scope_symbol_id = 2703 : i64, shape = [1280 : si64]} : () -> tensor<1280xf16>
    %output_297 = "oneflow.variable"() {data_type = 9 : i32, device_name = ["@0:0"], device_tag = "cuda", hierarchy = [1], op_name = "unet.up_blocks.0.resnets.0.norm1.weight", output_lbns = ["unet.up_blocks.0.resnets.0.norm1.weight/out"], parallel = #sbp.parallel<[] -> [[#sbp.B]]>, scope_symbol_id = 2722 : i64, shape = [2560 : si64]} : () -> tensor<2560xf16>
    %output_298 = "oneflow.variable"() {data_type = 9 : i32, device_name = ["@0:0"], device_tag = "cuda", hierarchy = [1], op_name = "unet.up_blocks.0.resnets.0.norm1.bias", output_lbns = ["unet.up_blocks.0.resnets.0.norm1.bias/out"], parallel = #sbp.parallel<[] -> [[#sbp.B]]>, scope_symbol_id = 2726 : i64, shape = [2560 : si64]} : () -> tensor<2560xf16>
    %output_299 = "oneflow.variable"() {data_type = 9 : i32, device_name = ["@0:0"], device_tag = "cuda", hierarchy = [1], op_name = "variable_375", output_lbns = ["variable_375/out"], parallel = #sbp.parallel<[] -> [[#sbp.B]]>, scope_symbol_id = 2738 : i64, shape = [1280 : si64, 3 : si64, 3 : si64, 2560 : si64]} : () -> tensor<1280x3x3x2560xf16>
    %output_300 = "oneflow.variable"() {data_type = 9 : i32, device_name = ["@0:0"], device_tag = "cuda", hierarchy = [1], op_name = "unet.up_blocks.0.resnets.0.conv1.bias", output_lbns = ["unet.up_blocks.0.resnets.0.conv1.bias/out"], parallel = #sbp.parallel<[] -> [[#sbp.B]]>, scope_symbol_id = 2742 : i64, shape = [1280 : si64]} : () -> tensor<1280xf16>
    %output_301 = "oneflow.variable"() {data_type = 9 : i32, device_name = ["@0:0"], device_tag = "cuda", hierarchy = [1], op_name = "unet.up_blocks.0.resnets.0.time_emb_proj.weight", output_lbns = ["unet.up_blocks.0.resnets.0.time_emb_proj.weight/out"], parallel = #sbp.parallel<[] -> [[#sbp.B]]>, scope_symbol_id = 2753 : i64, shape = [1280 : si64, 1280 : si64]} : () -> tensor<1280x1280xf16>
    %output_302 = "oneflow.variable"() {data_type = 9 : i32, device_name = ["@0:0"], device_tag = "cuda", hierarchy = [1], op_name = "unet.up_blocks.0.resnets.0.time_emb_proj.bias", output_lbns = ["unet.up_blocks.0.resnets.0.time_emb_proj.bias/out"], parallel = #sbp.parallel<[] -> [[#sbp.B]]>, scope_symbol_id = 2760 : i64, shape = [1280 : si64]} : () -> tensor<1280xf16>
    %output_303 = "oneflow.variable"() {data_type = 9 : i32, device_name = ["@0:0"], device_tag = "cuda", hierarchy = [1], op_name = "unet.up_blocks.0.resnets.0.norm2.weight", output_lbns = ["unet.up_blocks.0.resnets.0.norm2.weight/out"], parallel = #sbp.parallel<[] -> [[#sbp.B]]>, scope_symbol_id = 2777 : i64, shape = [1280 : si64]} : () -> tensor<1280xf16>
    %output_304 = "oneflow.variable"() {data_type = 9 : i32, device_name = ["@0:0"], device_tag = "cuda", hierarchy = [1], op_name = "unet.up_blocks.0.resnets.0.norm2.bias", output_lbns = ["unet.up_blocks.0.resnets.0.norm2.bias/out"], parallel = #sbp.parallel<[] -> [[#sbp.B]]>, scope_symbol_id = 2781 : i64, shape = [1280 : si64]} : () -> tensor<1280xf16>
    %output_305 = "oneflow.variable"() {data_type = 9 : i32, device_name = ["@0:0"], device_tag = "cuda", hierarchy = [1], op_name = "variable_374", output_lbns = ["variable_374/out"], parallel = #sbp.parallel<[] -> [[#sbp.B]]>, scope_symbol_id = 2793 : i64, shape = [1280 : si64, 3 : si64, 3 : si64, 1280 : si64]} : () -> tensor<1280x3x3x1280xf16>
    %output_306 = "oneflow.variable"() {data_type = 9 : i32, device_name = ["@0:0"], device_tag = "cuda", hierarchy = [1], op_name = "unet.up_blocks.0.resnets.0.conv2.bias", output_lbns = ["unet.up_blocks.0.resnets.0.conv2.bias/out"], parallel = #sbp.parallel<[] -> [[#sbp.B]]>, scope_symbol_id = 2797 : i64, shape = [1280 : si64]} : () -> tensor<1280xf16>
    %output_307 = "oneflow.variable"() {data_type = 9 : i32, device_name = ["@0:0"], device_tag = "cuda", hierarchy = [1], op_name = "variable_373", output_lbns = ["variable_373/out"], parallel = #sbp.parallel<[] -> [[#sbp.B]]>, scope_symbol_id = 2805 : i64, shape = [1280 : si64, 1 : si64, 1 : si64, 2560 : si64]} : () -> tensor<1280x1x1x2560xf16>
    %output_308 = "oneflow.variable"() {data_type = 9 : i32, device_name = ["@0:0"], device_tag = "cuda", hierarchy = [1], op_name = "unet.up_blocks.0.resnets.0.conv_shortcut.bias", output_lbns = ["unet.up_blocks.0.resnets.0.conv_shortcut.bias/out"], parallel = #sbp.parallel<[] -> [[#sbp.B]]>, scope_symbol_id = 2809 : i64, shape = [1280 : si64]} : () -> tensor<1280xf16>
    %output_309 = "oneflow.variable"() {data_type = 9 : i32, device_name = ["@0:0"], device_tag = "cuda", hierarchy = [1], op_name = "unet.up_blocks.0.resnets.1.norm1.weight", output_lbns = ["unet.up_blocks.0.resnets.1.norm1.weight/out"], parallel = #sbp.parallel<[] -> [[#sbp.B]]>, scope_symbol_id = 2827 : i64, shape = [2560 : si64]} : () -> tensor<2560xf16>
    %output_310 = "oneflow.variable"() {data_type = 9 : i32, device_name = ["@0:0"], device_tag = "cuda", hierarchy = [1], op_name = "unet.up_blocks.0.resnets.1.norm1.bias", output_lbns = ["unet.up_blocks.0.resnets.1.norm1.bias/out"], parallel = #sbp.parallel<[] -> [[#sbp.B]]>, scope_symbol_id = 2831 : i64, shape = [2560 : si64]} : () -> tensor<2560xf16>
    %output_311 = "oneflow.variable"() {data_type = 9 : i32, device_name = ["@0:0"], device_tag = "cuda", hierarchy = [1], op_name = "variable_372", output_lbns = ["variable_372/out"], parallel = #sbp.parallel<[] -> [[#sbp.B]]>, scope_symbol_id = 2843 : i64, shape = [1280 : si64, 3 : si64, 3 : si64, 2560 : si64]} : () -> tensor<1280x3x3x2560xf16>
    %output_312 = "oneflow.variable"() {data_type = 9 : i32, device_name = ["@0:0"], device_tag = "cuda", hierarchy = [1], op_name = "unet.up_blocks.0.resnets.1.conv1.bias", output_lbns = ["unet.up_blocks.0.resnets.1.conv1.bias/out"], parallel = #sbp.parallel<[] -> [[#sbp.B]]>, scope_symbol_id = 2847 : i64, shape = [1280 : si64]} : () -> tensor<1280xf16>
    %output_313 = "oneflow.variable"() {data_type = 9 : i32, device_name = ["@0:0"], device_tag = "cuda", hierarchy = [1], op_name = "unet.up_blocks.0.resnets.1.time_emb_proj.weight", output_lbns = ["unet.up_blocks.0.resnets.1.time_emb_proj.weight/out"], parallel = #sbp.parallel<[] -> [[#sbp.B]]>, scope_symbol_id = 2858 : i64, shape = [1280 : si64, 1280 : si64]} : () -> tensor<1280x1280xf16>
    %output_314 = "oneflow.variable"() {data_type = 9 : i32, device_name = ["@0:0"], device_tag = "cuda", hierarchy = [1], op_name = "unet.up_blocks.0.resnets.1.time_emb_proj.bias", output_lbns = ["unet.up_blocks.0.resnets.1.time_emb_proj.bias/out"], parallel = #sbp.parallel<[] -> [[#sbp.B]]>, scope_symbol_id = 2865 : i64, shape = [1280 : si64]} : () -> tensor<1280xf16>
    %output_315 = "oneflow.variable"() {data_type = 9 : i32, device_name = ["@0:0"], device_tag = "cuda", hierarchy = [1], op_name = "unet.up_blocks.0.resnets.1.norm2.weight", output_lbns = ["unet.up_blocks.0.resnets.1.norm2.weight/out"], parallel = #sbp.parallel<[] -> [[#sbp.B]]>, scope_symbol_id = 2882 : i64, shape = [1280 : si64]} : () -> tensor<1280xf16>
    %output_316 = "oneflow.variable"() {data_type = 9 : i32, device_name = ["@0:0"], device_tag = "cuda", hierarchy = [1], op_name = "unet.up_blocks.0.resnets.1.norm2.bias", output_lbns = ["unet.up_blocks.0.resnets.1.norm2.bias/out"], parallel = #sbp.parallel<[] -> [[#sbp.B]]>, scope_symbol_id = 2886 : i64, shape = [1280 : si64]} : () -> tensor<1280xf16>
    %output_317 = "oneflow.variable"() {data_type = 9 : i32, device_name = ["@0:0"], device_tag = "cuda", hierarchy = [1], op_name = "variable_371", output_lbns = ["variable_371/out"], parallel = #sbp.parallel<[] -> [[#sbp.B]]>, scope_symbol_id = 2898 : i64, shape = [1280 : si64, 3 : si64, 3 : si64, 1280 : si64]} : () -> tensor<1280x3x3x1280xf16>
    %output_318 = "oneflow.variable"() {data_type = 9 : i32, device_name = ["@0:0"], device_tag = "cuda", hierarchy = [1], op_name = "unet.up_blocks.0.resnets.1.conv2.bias", output_lbns = ["unet.up_blocks.0.resnets.1.conv2.bias/out"], parallel = #sbp.parallel<[] -> [[#sbp.B]]>, scope_symbol_id = 2902 : i64, shape = [1280 : si64]} : () -> tensor<1280xf16>
    %output_319 = "oneflow.variable"() {data_type = 9 : i32, device_name = ["@0:0"], device_tag = "cuda", hierarchy = [1], op_name = "variable_370", output_lbns = ["variable_370/out"], parallel = #sbp.parallel<[] -> [[#sbp.B]]>, scope_symbol_id = 2910 : i64, shape = [1280 : si64, 1 : si64, 1 : si64, 2560 : si64]} : () -> tensor<1280x1x1x2560xf16>
    %output_320 = "oneflow.variable"() {data_type = 9 : i32, device_name = ["@0:0"], device_tag = "cuda", hierarchy = [1], op_name = "unet.up_blocks.0.resnets.1.conv_shortcut.bias", output_lbns = ["unet.up_blocks.0.resnets.1.conv_shortcut.bias/out"], parallel = #sbp.parallel<[] -> [[#sbp.B]]>, scope_symbol_id = 2914 : i64, shape = [1280 : si64]} : () -> tensor<1280xf16>
    %output_321 = "oneflow.variable"() {data_type = 9 : i32, device_name = ["@0:0"], device_tag = "cuda", hierarchy = [1], op_name = "unet.up_blocks.0.resnets.2.norm1.weight", output_lbns = ["unet.up_blocks.0.resnets.2.norm1.weight/out"], parallel = #sbp.parallel<[] -> [[#sbp.B]]>, scope_symbol_id = 2932 : i64, shape = [2560 : si64]} : () -> tensor<2560xf16>
    %output_322 = "oneflow.variable"() {data_type = 9 : i32, device_name = ["@0:0"], device_tag = "cuda", hierarchy = [1], op_name = "unet.up_blocks.0.resnets.2.norm1.bias", output_lbns = ["unet.up_blocks.0.resnets.2.norm1.bias/out"], parallel = #sbp.parallel<[] -> [[#sbp.B]]>, scope_symbol_id = 2936 : i64, shape = [2560 : si64]} : () -> tensor<2560xf16>
    %output_323 = "oneflow.variable"() {data_type = 9 : i32, device_name = ["@0:0"], device_tag = "cuda", hierarchy = [1], op_name = "variable_369", output_lbns = ["variable_369/out"], parallel = #sbp.parallel<[] -> [[#sbp.B]]>, scope_symbol_id = 2948 : i64, shape = [1280 : si64, 3 : si64, 3 : si64, 2560 : si64]} : () -> tensor<1280x3x3x2560xf16>
    %output_324 = "oneflow.variable"() {data_type = 9 : i32, device_name = ["@0:0"], device_tag = "cuda", hierarchy = [1], op_name = "unet.up_blocks.0.resnets.2.conv1.bias", output_lbns = ["unet.up_blocks.0.resnets.2.conv1.bias/out"], parallel = #sbp.parallel<[] -> [[#sbp.B]]>, scope_symbol_id = 2952 : i64, shape = [1280 : si64]} : () -> tensor<1280xf16>
    %output_325 = "oneflow.variable"() {data_type = 9 : i32, device_name = ["@0:0"], device_tag = "cuda", hierarchy = [1], op_name = "unet.up_blocks.0.resnets.2.time_emb_proj.weight", output_lbns = ["unet.up_blocks.0.resnets.2.time_emb_proj.weight/out"], parallel = #sbp.parallel<[] -> [[#sbp.B]]>, scope_symbol_id = 2963 : i64, shape = [1280 : si64, 1280 : si64]} : () -> tensor<1280x1280xf16>
    %output_326 = "oneflow.variable"() {data_type = 9 : i32, device_name = ["@0:0"], device_tag = "cuda", hierarchy = [1], op_name = "unet.up_blocks.0.resnets.2.time_emb_proj.bias", output_lbns = ["unet.up_blocks.0.resnets.2.time_emb_proj.bias/out"], parallel = #sbp.parallel<[] -> [[#sbp.B]]>, scope_symbol_id = 2970 : i64, shape = [1280 : si64]} : () -> tensor<1280xf16>
    %output_327 = "oneflow.variable"() {data_type = 9 : i32, device_name = ["@0:0"], device_tag = "cuda", hierarchy = [1], op_name = "unet.up_blocks.0.resnets.2.norm2.weight", output_lbns = ["unet.up_blocks.0.resnets.2.norm2.weight/out"], parallel = #sbp.parallel<[] -> [[#sbp.B]]>, scope_symbol_id = 2987 : i64, shape = [1280 : si64]} : () -> tensor<1280xf16>
    %output_328 = "oneflow.variable"() {data_type = 9 : i32, device_name = ["@0:0"], device_tag = "cuda", hierarchy = [1], op_name = "unet.up_blocks.0.resnets.2.norm2.bias", output_lbns = ["unet.up_blocks.0.resnets.2.norm2.bias/out"], parallel = #sbp.parallel<[] -> [[#sbp.B]]>, scope_symbol_id = 2991 : i64, shape = [1280 : si64]} : () -> tensor<1280xf16>
    %output_329 = "oneflow.variable"() {data_type = 9 : i32, device_name = ["@0:0"], device_tag = "cuda", hierarchy = [1], op_name = "variable_368", output_lbns = ["variable_368/out"], parallel = #sbp.parallel<[] -> [[#sbp.B]]>, scope_symbol_id = 3003 : i64, shape = [1280 : si64, 3 : si64, 3 : si64, 1280 : si64]} : () -> tensor<1280x3x3x1280xf16>
    %output_330 = "oneflow.variable"() {data_type = 9 : i32, device_name = ["@0:0"], device_tag = "cuda", hierarchy = [1], op_name = "unet.up_blocks.0.resnets.2.conv2.bias", output_lbns = ["unet.up_blocks.0.resnets.2.conv2.bias/out"], parallel = #sbp.parallel<[] -> [[#sbp.B]]>, scope_symbol_id = 3007 : i64, shape = [1280 : si64]} : () -> tensor<1280xf16>
    %output_331 = "oneflow.variable"() {data_type = 9 : i32, device_name = ["@0:0"], device_tag = "cuda", hierarchy = [1], op_name = "variable_367", output_lbns = ["variable_367/out"], parallel = #sbp.parallel<[] -> [[#sbp.B]]>, scope_symbol_id = 3015 : i64, shape = [1280 : si64, 1 : si64, 1 : si64, 2560 : si64]} : () -> tensor<1280x1x1x2560xf16>
    %output_332 = "oneflow.variable"() {data_type = 9 : i32, device_name = ["@0:0"], device_tag = "cuda", hierarchy = [1], op_name = "unet.up_blocks.0.resnets.2.conv_shortcut.bias", output_lbns = ["unet.up_blocks.0.resnets.2.conv_shortcut.bias/out"], parallel = #sbp.parallel<[] -> [[#sbp.B]]>, scope_symbol_id = 3019 : i64, shape = [1280 : si64]} : () -> tensor<1280xf16>
    %output_333 = "oneflow.variable"() {data_type = 9 : i32, device_name = ["@0:0"], device_tag = "cuda", hierarchy = [1], op_name = "variable_366", output_lbns = ["variable_366/out"], parallel = #sbp.parallel<[] -> [[#sbp.B]]>, scope_symbol_id = 3037 : i64, shape = [1280 : si64, 3 : si64, 3 : si64, 1280 : si64]} : () -> tensor<1280x3x3x1280xf16>
    %output_334 = "oneflow.variable"() {data_type = 9 : i32, device_name = ["@0:0"], device_tag = "cuda", hierarchy = [1], op_name = "unet.up_blocks.0.upsamplers.0.conv.bias", output_lbns = ["unet.up_blocks.0.upsamplers.0.conv.bias/out"], parallel = #sbp.parallel<[] -> [[#sbp.B]]>, scope_symbol_id = 3041 : i64, shape = [1280 : si64]} : () -> tensor<1280xf16>
    %output_335 = "oneflow.variable"() {data_type = 9 : i32, device_name = ["@0:0"], device_tag = "cuda", hierarchy = [1], op_name = "unet.up_blocks.1.resnets.0.norm1.weight", output_lbns = ["unet.up_blocks.1.resnets.0.norm1.weight/out"], parallel = #sbp.parallel<[] -> [[#sbp.B]]>, scope_symbol_id = 3054 : i64, shape = [2560 : si64]} : () -> tensor<2560xf16>
    %output_336 = "oneflow.variable"() {data_type = 9 : i32, device_name = ["@0:0"], device_tag = "cuda", hierarchy = [1], op_name = "unet.up_blocks.1.resnets.0.norm1.bias", output_lbns = ["unet.up_blocks.1.resnets.0.norm1.bias/out"], parallel = #sbp.parallel<[] -> [[#sbp.B]]>, scope_symbol_id = 3058 : i64, shape = [2560 : si64]} : () -> tensor<2560xf16>
    %output_337 = "oneflow.variable"() {data_type = 9 : i32, device_name = ["@0:0"], device_tag = "cuda", hierarchy = [1], op_name = "variable_365", output_lbns = ["variable_365/out"], parallel = #sbp.parallel<[] -> [[#sbp.B]]>, scope_symbol_id = 3070 : i64, shape = [1280 : si64, 3 : si64, 3 : si64, 2560 : si64]} : () -> tensor<1280x3x3x2560xf16>
    %output_338 = "oneflow.variable"() {data_type = 9 : i32, device_name = ["@0:0"], device_tag = "cuda", hierarchy = [1], op_name = "unet.up_blocks.1.resnets.0.conv1.bias", output_lbns = ["unet.up_blocks.1.resnets.0.conv1.bias/out"], parallel = #sbp.parallel<[] -> [[#sbp.B]]>, scope_symbol_id = 3074 : i64, shape = [1280 : si64]} : () -> tensor<1280xf16>
    %output_339 = "oneflow.variable"() {data_type = 9 : i32, device_name = ["@0:0"], device_tag = "cuda", hierarchy = [1], op_name = "unet.up_blocks.1.resnets.0.time_emb_proj.weight", output_lbns = ["unet.up_blocks.1.resnets.0.time_emb_proj.weight/out"], parallel = #sbp.parallel<[] -> [[#sbp.B]]>, scope_symbol_id = 3085 : i64, shape = [1280 : si64, 1280 : si64]} : () -> tensor<1280x1280xf16>
    %output_340 = "oneflow.variable"() {data_type = 9 : i32, device_name = ["@0:0"], device_tag = "cuda", hierarchy = [1], op_name = "unet.up_blocks.1.resnets.0.time_emb_proj.bias", output_lbns = ["unet.up_blocks.1.resnets.0.time_emb_proj.bias/out"], parallel = #sbp.parallel<[] -> [[#sbp.B]]>, scope_symbol_id = 3092 : i64, shape = [1280 : si64]} : () -> tensor<1280xf16>
    %output_341 = "oneflow.variable"() {data_type = 9 : i32, device_name = ["@0:0"], device_tag = "cuda", hierarchy = [1], op_name = "unet.up_blocks.1.resnets.0.norm2.weight", output_lbns = ["unet.up_blocks.1.resnets.0.norm2.weight/out"], parallel = #sbp.parallel<[] -> [[#sbp.B]]>, scope_symbol_id = 3109 : i64, shape = [1280 : si64]} : () -> tensor<1280xf16>
    %output_342 = "oneflow.variable"() {data_type = 9 : i32, device_name = ["@0:0"], device_tag = "cuda", hierarchy = [1], op_name = "unet.up_blocks.1.resnets.0.norm2.bias", output_lbns = ["unet.up_blocks.1.resnets.0.norm2.bias/out"], parallel = #sbp.parallel<[] -> [[#sbp.B]]>, scope_symbol_id = 3113 : i64, shape = [1280 : si64]} : () -> tensor<1280xf16>
    %output_343 = "oneflow.variable"() {data_type = 9 : i32, device_name = ["@0:0"], device_tag = "cuda", hierarchy = [1], op_name = "variable_364", output_lbns = ["variable_364/out"], parallel = #sbp.parallel<[] -> [[#sbp.B]]>, scope_symbol_id = 3125 : i64, shape = [1280 : si64, 3 : si64, 3 : si64, 1280 : si64]} : () -> tensor<1280x3x3x1280xf16>
    %output_344 = "oneflow.variable"() {data_type = 9 : i32, device_name = ["@0:0"], device_tag = "cuda", hierarchy = [1], op_name = "unet.up_blocks.1.resnets.0.conv2.bias", output_lbns = ["unet.up_blocks.1.resnets.0.conv2.bias/out"], parallel = #sbp.parallel<[] -> [[#sbp.B]]>, scope_symbol_id = 3129 : i64, shape = [1280 : si64]} : () -> tensor<1280xf16>
    %output_345 = "oneflow.variable"() {data_type = 9 : i32, device_name = ["@0:0"], device_tag = "cuda", hierarchy = [1], op_name = "variable_363", output_lbns = ["variable_363/out"], parallel = #sbp.parallel<[] -> [[#sbp.B]]>, scope_symbol_id = 3137 : i64, shape = [1280 : si64, 1 : si64, 1 : si64, 2560 : si64]} : () -> tensor<1280x1x1x2560xf16>
    %output_346 = "oneflow.variable"() {data_type = 9 : i32, device_name = ["@0:0"], device_tag = "cuda", hierarchy = [1], op_name = "unet.up_blocks.1.resnets.0.conv_shortcut.bias", output_lbns = ["unet.up_blocks.1.resnets.0.conv_shortcut.bias/out"], parallel = #sbp.parallel<[] -> [[#sbp.B]]>, scope_symbol_id = 3141 : i64, shape = [1280 : si64]} : () -> tensor<1280xf16>
    %output_347 = "oneflow.variable"() {data_type = 9 : i32, device_name = ["@0:0"], device_tag = "cuda", hierarchy = [1], op_name = "unet.up_blocks.1.attentions.0.norm.weight", output_lbns = ["unet.up_blocks.1.attentions.0.norm.weight/out"], parallel = #sbp.parallel<[] -> [[#sbp.B]]>, scope_symbol_id = 3156 : i64, shape = [1280 : si64]} : () -> tensor<1280xf16>
    %output_348 = "oneflow.variable"() {data_type = 9 : i32, device_name = ["@0:0"], device_tag = "cuda", hierarchy = [1], op_name = "unet.up_blocks.1.attentions.0.norm.bias", output_lbns = ["unet.up_blocks.1.attentions.0.norm.bias/out"], parallel = #sbp.parallel<[] -> [[#sbp.B]]>, scope_symbol_id = 3160 : i64, shape = [1280 : si64]} : () -> tensor<1280xf16>
    %output_349 = "oneflow.variable"() {data_type = 9 : i32, device_name = ["@0:0"], device_tag = "cuda", hierarchy = [1], op_name = "variable_362", output_lbns = ["variable_362/out"], parallel = #sbp.parallel<[] -> [[#sbp.B]]>, scope_symbol_id = 3168 : i64, shape = [1280 : si64, 1 : si64, 1 : si64, 1280 : si64]} : () -> tensor<1280x1x1x1280xf16>
    %output_350 = "oneflow.variable"() {data_type = 9 : i32, device_name = ["@0:0"], device_tag = "cuda", hierarchy = [1], op_name = "unet.up_blocks.1.attentions.0.proj_in.bias", output_lbns = ["unet.up_blocks.1.attentions.0.proj_in.bias/out"], parallel = #sbp.parallel<[] -> [[#sbp.B]]>, scope_symbol_id = 3172 : i64, shape = [1280 : si64]} : () -> tensor<1280xf16>
    %output_351 = "oneflow.variable"() {data_type = 9 : i32, device_name = ["@0:0"], device_tag = "cuda", hierarchy = [1], op_name = "unet.up_blocks.1.attentions.0.transformer_blocks.0.norm1.weight", output_lbns = ["unet.up_blocks.1.attentions.0.transformer_blocks.0.norm1.weight/out"], parallel = #sbp.parallel<[] -> [[#sbp.B]]>, scope_symbol_id = 3187 : i64, shape = [1280 : si64]} : () -> tensor<1280xf16>
    %output_352 = "oneflow.variable"() {data_type = 9 : i32, device_name = ["@0:0"], device_tag = "cuda", hierarchy = [1], op_name = "unet.up_blocks.1.attentions.0.transformer_blocks.0.norm1.bias", output_lbns = ["unet.up_blocks.1.attentions.0.transformer_blocks.0.norm1.bias/out"], parallel = #sbp.parallel<[] -> [[#sbp.B]]>, scope_symbol_id = 3191 : i64, shape = [1280 : si64]} : () -> tensor<1280xf16>
    %output_353 = "oneflow.variable"() {data_type = 9 : i32, device_name = ["@0:0"], device_tag = "cuda", hierarchy = [1], op_name = "unet.up_blocks.1.attentions.0.transformer_blocks.0.attn1.to_q.weight", output_lbns = ["unet.up_blocks.1.attentions.0.transformer_blocks.0.attn1.to_q.weight/out"], parallel = #sbp.parallel<[] -> [[#sbp.B]]>, scope_symbol_id = 3200 : i64, shape = [1280 : si64, 1280 : si64]} : () -> tensor<1280x1280xf16>
    %output_354 = "oneflow.variable"() {data_type = 9 : i32, device_name = ["@0:0"], device_tag = "cuda", hierarchy = [1], op_name = "unet.up_blocks.1.attentions.0.transformer_blocks.0.attn1.to_k.weight", output_lbns = ["unet.up_blocks.1.attentions.0.transformer_blocks.0.attn1.to_k.weight/out"], parallel = #sbp.parallel<[] -> [[#sbp.B]]>, scope_symbol_id = 3208 : i64, shape = [1280 : si64, 1280 : si64]} : () -> tensor<1280x1280xf16>
    %output_355 = "oneflow.variable"() {data_type = 9 : i32, device_name = ["@0:0"], device_tag = "cuda", hierarchy = [1], op_name = "unet.up_blocks.1.attentions.0.transformer_blocks.0.attn1.to_v.weight", output_lbns = ["unet.up_blocks.1.attentions.0.transformer_blocks.0.attn1.to_v.weight/out"], parallel = #sbp.parallel<[] -> [[#sbp.B]]>, scope_symbol_id = 3216 : i64, shape = [1280 : si64, 1280 : si64]} : () -> tensor<1280x1280xf16>
    %output_356 = "oneflow.variable"() {data_type = 9 : i32, device_name = ["@0:0"], device_tag = "cuda", hierarchy = [1], op_name = "unet.up_blocks.1.attentions.0.transformer_blocks.0.attn1.to_out.0.weight", output_lbns = ["unet.up_blocks.1.attentions.0.transformer_blocks.0.attn1.to_out.0.weight/out"], parallel = #sbp.parallel<[] -> [[#sbp.B]]>, scope_symbol_id = 3227 : i64, shape = [1280 : si64, 1280 : si64]} : () -> tensor<1280x1280xf16>
    %output_357 = "oneflow.variable"() {data_type = 9 : i32, device_name = ["@0:0"], device_tag = "cuda", hierarchy = [1], op_name = "unet.up_blocks.1.attentions.0.transformer_blocks.0.attn1.to_out.0.bias", output_lbns = ["unet.up_blocks.1.attentions.0.transformer_blocks.0.attn1.to_out.0.bias/out"], parallel = #sbp.parallel<[] -> [[#sbp.B]]>, scope_symbol_id = 3234 : i64, shape = [1280 : si64]} : () -> tensor<1280xf16>
    %output_358 = "oneflow.variable"() {data_type = 9 : i32, device_name = ["@0:0"], device_tag = "cuda", hierarchy = [1], op_name = "unet.up_blocks.1.attentions.0.transformer_blocks.0.norm2.weight", output_lbns = ["unet.up_blocks.1.attentions.0.transformer_blocks.0.norm2.weight/out"], parallel = #sbp.parallel<[] -> [[#sbp.B]]>, scope_symbol_id = 3246 : i64, shape = [1280 : si64]} : () -> tensor<1280xf16>
    %output_359 = "oneflow.variable"() {data_type = 9 : i32, device_name = ["@0:0"], device_tag = "cuda", hierarchy = [1], op_name = "unet.up_blocks.1.attentions.0.transformer_blocks.0.norm2.bias", output_lbns = ["unet.up_blocks.1.attentions.0.transformer_blocks.0.norm2.bias/out"], parallel = #sbp.parallel<[] -> [[#sbp.B]]>, scope_symbol_id = 3250 : i64, shape = [1280 : si64]} : () -> tensor<1280xf16>
    %output_360 = "oneflow.variable"() {data_type = 9 : i32, device_name = ["@0:0"], device_tag = "cuda", hierarchy = [1], op_name = "unet.up_blocks.1.attentions.0.transformer_blocks.0.attn2.to_q.weight", output_lbns = ["unet.up_blocks.1.attentions.0.transformer_blocks.0.attn2.to_q.weight/out"], parallel = #sbp.parallel<[] -> [[#sbp.B]]>, scope_symbol_id = 3259 : i64, shape = [1280 : si64, 1280 : si64]} : () -> tensor<1280x1280xf16>
    %output_361 = "oneflow.variable"() {data_type = 9 : i32, device_name = ["@0:0"], device_tag = "cuda", hierarchy = [1], op_name = "unet.up_blocks.1.attentions.0.transformer_blocks.0.attn2.to_k.weight", output_lbns = ["unet.up_blocks.1.attentions.0.transformer_blocks.0.attn2.to_k.weight/out"], parallel = #sbp.parallel<[] -> [[#sbp.B]]>, scope_symbol_id = 3267 : i64, shape = [1280 : si64, 768 : si64]} : () -> tensor<1280x768xf16>
    %output_362 = "oneflow.variable"() {data_type = 9 : i32, device_name = ["@0:0"], device_tag = "cuda", hierarchy = [1], op_name = "unet.up_blocks.1.attentions.0.transformer_blocks.0.attn2.to_v.weight", output_lbns = ["unet.up_blocks.1.attentions.0.transformer_blocks.0.attn2.to_v.weight/out"], parallel = #sbp.parallel<[] -> [[#sbp.B]]>, scope_symbol_id = 3275 : i64, shape = [1280 : si64, 768 : si64]} : () -> tensor<1280x768xf16>
    %output_363 = "oneflow.variable"() {data_type = 9 : i32, device_name = ["@0:0"], device_tag = "cuda", hierarchy = [1], op_name = "unet.up_blocks.1.attentions.0.transformer_blocks.0.attn2.to_out.0.weight", output_lbns = ["unet.up_blocks.1.attentions.0.transformer_blocks.0.attn2.to_out.0.weight/out"], parallel = #sbp.parallel<[] -> [[#sbp.B]]>, scope_symbol_id = 3286 : i64, shape = [1280 : si64, 1280 : si64]} : () -> tensor<1280x1280xf16>
    %output_364 = "oneflow.variable"() {data_type = 9 : i32, device_name = ["@0:0"], device_tag = "cuda", hierarchy = [1], op_name = "unet.up_blocks.1.attentions.0.transformer_blocks.0.attn2.to_out.0.bias", output_lbns = ["unet.up_blocks.1.attentions.0.transformer_blocks.0.attn2.to_out.0.bias/out"], parallel = #sbp.parallel<[] -> [[#sbp.B]]>, scope_symbol_id = 3293 : i64, shape = [1280 : si64]} : () -> tensor<1280xf16>
    %output_365 = "oneflow.variable"() {data_type = 9 : i32, device_name = ["@0:0"], device_tag = "cuda", hierarchy = [1], op_name = "unet.up_blocks.1.attentions.0.transformer_blocks.0.norm3.weight", output_lbns = ["unet.up_blocks.1.attentions.0.transformer_blocks.0.norm3.weight/out"], parallel = #sbp.parallel<[] -> [[#sbp.B]]>, scope_symbol_id = 3305 : i64, shape = [1280 : si64]} : () -> tensor<1280xf16>
    %output_366 = "oneflow.variable"() {data_type = 9 : i32, device_name = ["@0:0"], device_tag = "cuda", hierarchy = [1], op_name = "unet.up_blocks.1.attentions.0.transformer_blocks.0.norm3.bias", output_lbns = ["unet.up_blocks.1.attentions.0.transformer_blocks.0.norm3.bias/out"], parallel = #sbp.parallel<[] -> [[#sbp.B]]>, scope_symbol_id = 3309 : i64, shape = [1280 : si64]} : () -> tensor<1280xf16>
    %output_367 = "oneflow.variable"() {data_type = 9 : i32, device_name = ["@0:0"], device_tag = "cuda", hierarchy = [1], op_name = "unet.up_blocks.1.attentions.0.transformer_blocks.0.ff.net.0.proj.weight", output_lbns = ["unet.up_blocks.1.attentions.0.transformer_blocks.0.ff.net.0.proj.weight/out"], parallel = #sbp.parallel<[] -> [[#sbp.B]]>, scope_symbol_id = 3319 : i64, shape = [10240 : si64, 1280 : si64]} : () -> tensor<10240x1280xf16>
    %output_368 = "oneflow.variable"() {data_type = 9 : i32, device_name = ["@0:0"], device_tag = "cuda", hierarchy = [1], op_name = "unet.up_blocks.1.attentions.0.transformer_blocks.0.ff.net.0.proj.bias", output_lbns = ["unet.up_blocks.1.attentions.0.transformer_blocks.0.ff.net.0.proj.bias/out"], parallel = #sbp.parallel<[] -> [[#sbp.B]]>, scope_symbol_id = 3326 : i64, shape = [10240 : si64]} : () -> tensor<10240xf16>
    %output_369 = "oneflow.variable"() {data_type = 9 : i32, device_name = ["@0:0"], device_tag = "cuda", hierarchy = [1], op_name = "unet.up_blocks.1.attentions.0.transformer_blocks.0.ff.net.2.weight", output_lbns = ["unet.up_blocks.1.attentions.0.transformer_blocks.0.ff.net.2.weight/out"], parallel = #sbp.parallel<[] -> [[#sbp.B]]>, scope_symbol_id = 3347 : i64, shape = [1280 : si64, 5120 : si64]} : () -> tensor<1280x5120xf16>
    %output_370 = "oneflow.variable"() {data_type = 9 : i32, device_name = ["@0:0"], device_tag = "cuda", hierarchy = [1], op_name = "unet.up_blocks.1.attentions.0.transformer_blocks.0.ff.net.2.bias", output_lbns = ["unet.up_blocks.1.attentions.0.transformer_blocks.0.ff.net.2.bias/out"], parallel = #sbp.parallel<[] -> [[#sbp.B]]>, scope_symbol_id = 3354 : i64, shape = [1280 : si64]} : () -> tensor<1280xf16>
    %output_371 = "oneflow.variable"() {data_type = 9 : i32, device_name = ["@0:0"], device_tag = "cuda", hierarchy = [1], op_name = "variable_361", output_lbns = ["variable_361/out"], parallel = #sbp.parallel<[] -> [[#sbp.B]]>, scope_symbol_id = 3371 : i64, shape = [1280 : si64, 1 : si64, 1 : si64, 1280 : si64]} : () -> tensor<1280x1x1x1280xf16>
    %output_372 = "oneflow.variable"() {data_type = 9 : i32, device_name = ["@0:0"], device_tag = "cuda", hierarchy = [1], op_name = "unet.up_blocks.1.attentions.0.proj_out.bias", output_lbns = ["unet.up_blocks.1.attentions.0.proj_out.bias/out"], parallel = #sbp.parallel<[] -> [[#sbp.B]]>, scope_symbol_id = 3375 : i64, shape = [1280 : si64]} : () -> tensor<1280xf16>
    %output_373 = "oneflow.variable"() {data_type = 9 : i32, device_name = ["@0:0"], device_tag = "cuda", hierarchy = [1], op_name = "unet.up_blocks.1.resnets.1.norm1.weight", output_lbns = ["unet.up_blocks.1.resnets.1.norm1.weight/out"], parallel = #sbp.parallel<[] -> [[#sbp.B]]>, scope_symbol_id = 3390 : i64, shape = [2560 : si64]} : () -> tensor<2560xf16>
    %output_374 = "oneflow.variable"() {data_type = 9 : i32, device_name = ["@0:0"], device_tag = "cuda", hierarchy = [1], op_name = "unet.up_blocks.1.resnets.1.norm1.bias", output_lbns = ["unet.up_blocks.1.resnets.1.norm1.bias/out"], parallel = #sbp.parallel<[] -> [[#sbp.B]]>, scope_symbol_id = 3394 : i64, shape = [2560 : si64]} : () -> tensor<2560xf16>
    %output_375 = "oneflow.variable"() {data_type = 9 : i32, device_name = ["@0:0"], device_tag = "cuda", hierarchy = [1], op_name = "variable_360", output_lbns = ["variable_360/out"], parallel = #sbp.parallel<[] -> [[#sbp.B]]>, scope_symbol_id = 3406 : i64, shape = [1280 : si64, 3 : si64, 3 : si64, 2560 : si64]} : () -> tensor<1280x3x3x2560xf16>
    %output_376 = "oneflow.variable"() {data_type = 9 : i32, device_name = ["@0:0"], device_tag = "cuda", hierarchy = [1], op_name = "unet.up_blocks.1.resnets.1.conv1.bias", output_lbns = ["unet.up_blocks.1.resnets.1.conv1.bias/out"], parallel = #sbp.parallel<[] -> [[#sbp.B]]>, scope_symbol_id = 3410 : i64, shape = [1280 : si64]} : () -> tensor<1280xf16>
    %output_377 = "oneflow.variable"() {data_type = 9 : i32, device_name = ["@0:0"], device_tag = "cuda", hierarchy = [1], op_name = "unet.up_blocks.1.resnets.1.time_emb_proj.weight", output_lbns = ["unet.up_blocks.1.resnets.1.time_emb_proj.weight/out"], parallel = #sbp.parallel<[] -> [[#sbp.B]]>, scope_symbol_id = 3421 : i64, shape = [1280 : si64, 1280 : si64]} : () -> tensor<1280x1280xf16>
    %output_378 = "oneflow.variable"() {data_type = 9 : i32, device_name = ["@0:0"], device_tag = "cuda", hierarchy = [1], op_name = "unet.up_blocks.1.resnets.1.time_emb_proj.bias", output_lbns = ["unet.up_blocks.1.resnets.1.time_emb_proj.bias/out"], parallel = #sbp.parallel<[] -> [[#sbp.B]]>, scope_symbol_id = 3428 : i64, shape = [1280 : si64]} : () -> tensor<1280xf16>
    %output_379 = "oneflow.variable"() {data_type = 9 : i32, device_name = ["@0:0"], device_tag = "cuda", hierarchy = [1], op_name = "unet.up_blocks.1.resnets.1.norm2.weight", output_lbns = ["unet.up_blocks.1.resnets.1.norm2.weight/out"], parallel = #sbp.parallel<[] -> [[#sbp.B]]>, scope_symbol_id = 3445 : i64, shape = [1280 : si64]} : () -> tensor<1280xf16>
    %output_380 = "oneflow.variable"() {data_type = 9 : i32, device_name = ["@0:0"], device_tag = "cuda", hierarchy = [1], op_name = "unet.up_blocks.1.resnets.1.norm2.bias", output_lbns = ["unet.up_blocks.1.resnets.1.norm2.bias/out"], parallel = #sbp.parallel<[] -> [[#sbp.B]]>, scope_symbol_id = 3449 : i64, shape = [1280 : si64]} : () -> tensor<1280xf16>
    %output_381 = "oneflow.variable"() {data_type = 9 : i32, device_name = ["@0:0"], device_tag = "cuda", hierarchy = [1], op_name = "variable_359", output_lbns = ["variable_359/out"], parallel = #sbp.parallel<[] -> [[#sbp.B]]>, scope_symbol_id = 3461 : i64, shape = [1280 : si64, 3 : si64, 3 : si64, 1280 : si64]} : () -> tensor<1280x3x3x1280xf16>
    %output_382 = "oneflow.variable"() {data_type = 9 : i32, device_name = ["@0:0"], device_tag = "cuda", hierarchy = [1], op_name = "unet.up_blocks.1.resnets.1.conv2.bias", output_lbns = ["unet.up_blocks.1.resnets.1.conv2.bias/out"], parallel = #sbp.parallel<[] -> [[#sbp.B]]>, scope_symbol_id = 3465 : i64, shape = [1280 : si64]} : () -> tensor<1280xf16>
    %output_383 = "oneflow.variable"() {data_type = 9 : i32, device_name = ["@0:0"], device_tag = "cuda", hierarchy = [1], op_name = "variable_358", output_lbns = ["variable_358/out"], parallel = #sbp.parallel<[] -> [[#sbp.B]]>, scope_symbol_id = 3473 : i64, shape = [1280 : si64, 1 : si64, 1 : si64, 2560 : si64]} : () -> tensor<1280x1x1x2560xf16>
    %output_384 = "oneflow.variable"() {data_type = 9 : i32, device_name = ["@0:0"], device_tag = "cuda", hierarchy = [1], op_name = "unet.up_blocks.1.resnets.1.conv_shortcut.bias", output_lbns = ["unet.up_blocks.1.resnets.1.conv_shortcut.bias/out"], parallel = #sbp.parallel<[] -> [[#sbp.B]]>, scope_symbol_id = 3477 : i64, shape = [1280 : si64]} : () -> tensor<1280xf16>
…
    %534 = "oneflow.upsample_nearest_2d"(%533) {data_format = "channels_first", device_name = ["@0:0"], device_tag = "cuda", height_scale = 2.000000e+00 : f64, hierarchy = [1], op_name = "unet.up_blocks.2.upsamplers.0-upsample_nearest_2d-761", output_size = [], scope_symbol_id = 5082 : i64, width_scale = 2.000000e+00 : f64} : (tensor<2x640x32x32xf16>) -> tensor<2x640x64x64xf16>
    %535 = "oneflow.transpose"(%534) {device_name = ["@0:0"], device_tag = "cuda", hierarchy = [1], op_name = "unet.up_blocks.2.upsamplers.0.conv-conv2d-762_transpose_input_0", perm = [0 : si32, 2 : si32, 3 : si32, 1 : si32], scope_symbol_id = 5094 : i64} : (tensor<2x640x64x64xf16>) -> tensor<2x64x64x640xf16>
    %536 = "oneflow.conv2d"(%535, %output_565, %output_566) {data_format = "channels_last", device_name = ["@0:0"], device_tag = "cuda", dilation_rate = [1 : si32, 1 : si32], filters = 640 : si32, groups = 1 : si32, hierarchy = [1], kernel_size = [3 : si32, 3 : si32], op_name = "unet.up_blocks.2.upsamplers.0.conv-conv2d-762", operand_segment_sizes = dense<[1, 1, 1, 0]> : vector<4xi32>, padding_before = [1 : si32, 1 : si32], scope_symbol_id = 5094 : i64, strides = [1 : si32, 1 : si32]} : (tensor<2x64x64x640xf16>, tensor<640x3x3x640xf16>, tensor<640xf16>) -> tensor<2x64x64x640xf16>
    %537 = "oneflow.concat"(%536, %152) {axis = 3 : si64, device_name = ["@0:0"], device_tag = "cuda", hierarchy = [1], max_dim_size = 960 : si64, op_name = "unet.up_blocks.3-concat-763", scope_symbol_id = 5098 : i64} : (tensor<2x64x64x640xf16>, tensor<2x64x64x320xf16>) -> tensor<2x64x64x960xf16>
    %y_955, %mean_956, %inv_variance_957 = "oneflow.group_norm"(%537, %output_568, %output_567) {activation = "silu", affine = true, data_format = "channels_last", device_name = ["@0:0"], device_tag = "cuda", epsilon = 1.000000e-05 : f64, hierarchy = [1], num_groups = 32 : si32, op_name = "unet.up_blocks.3.resnets.0.norm1-group_norm-764_with_activation", operand_segment_sizes = dense<1> : vector<3xi32>, scope_symbol_id = 5111 : i64} : (tensor<2x64x64x960xf16>, tensor<960xf16>, tensor<960xf16>) -> (tensor<2x64x64x960xf16>, tensor<2x32xf32>, tensor<2x32xf32>)
    %538 = "oneflow.conv2d"(%537, %output_577, %output_578) {data_format = "channels_last", device_name = ["@0:0"], device_tag = "cuda", dilation_rate = [1 : si32, 1 : si32], filters = 320 : si32, groups = 1 : si32, hierarchy = [1], kernel_size = [1 : si32, 1 : si32], op_name = "unet.up_blocks.3.resnets.0.conv_shortcut-conv2d-776", operand_segment_sizes = dense<[1, 1, 1, 0]> : vector<4xi32>, padding_before = [0 : si32, 0 : si32], scope_symbol_id = 5194 : i64, strides = [1 : si32, 1 : si32]} : (tensor<2x64x64x960xf16>, tensor<320x1x1x960xf16>, tensor<320xf16>) -> tensor<2x64x64x320xf16>
    %539 = "oneflow.conv2d"(%y_955, %output_569, %output_570) {data_format = "channels_last", device_name = ["@0:0"], device_tag = "cuda", dilation_rate = [1 : si32, 1 : si32], filters = 320 : si32, groups = 1 : si32, hierarchy = [1], kernel_size = [3 : si32, 3 : si32], op_name = "unet.up_blocks.3.resnets.0.conv1-conv2d-766", operand_segment_sizes = dense<[1, 1, 1, 0]> : vector<4xi32>, padding_before = [1 : si32, 1 : si32], scope_symbol_id = 5127 : i64, strides = [1 : si32, 1 : si32]} : (tensor<2x64x64x960xf16>, tensor<320x3x3x960xf16>, tensor<320xf16>) -> tensor<2x64x64x320xf16>
    %540 = "oneflow.broadcast_add"(%539, %85) {device_name = ["@0:0"], device_tag = "cuda", hierarchy = [1], op_name = "unet.up_blocks.3.resnets.0-broadcast_add-772", scope_symbol_id = 5148 : i64} : (tensor<2x64x64x320xf16>, tensor<2x1x1x320xf16>) -> tensor<2x64x64x320xf16>
    %y_958, %mean_959, %inv_variance_960 = "oneflow.group_norm"(%540, %output_574, %output_573) {activation = "silu", affine = true, data_format = "channels_last", device_name = ["@0:0"], device_tag = "cuda", epsilon = 1.000000e-05 : f64, hierarchy = [1], num_groups = 32 : si32, op_name = "unet.up_blocks.3.resnets.0.norm2-group_norm-773_with_activation", operand_segment_sizes = dense<1> : vector<3xi32>, scope_symbol_id = 5166 : i64} : (tensor<2x64x64x320xf16>, tensor<320xf16>, tensor<320xf16>) -> (tensor<2x64x64x320xf16>, tensor<2x32xf32>, tensor<2x32xf32>)
    %541 = "oneflow.conv2d"(%y_958, %output_575, %output_576) {data_format = "channels_last", device_name = ["@0:0"], device_tag = "cuda", dilation_rate = [1 : si32, 1 : si32], filters = 320 : si32, groups = 1 : si32, hierarchy = [1], kernel_size = [3 : si32, 3 : si32], op_name = "unet.up_blocks.3.resnets.0.conv2-conv2d-775", operand_segment_sizes = dense<[1, 1, 1, 0]> : vector<4xi32>, padding_before = [1 : si32, 1 : si32], scope_symbol_id = 5182 : i64, strides = [1 : si32, 1 : si32]} : (tensor<2x64x64x320xf16>, tensor<320x3x3x320xf16>, tensor<320xf16>) -> tensor<2x64x64x320xf16>
    %542 = "oneflow.add_n2"(%538, %541) {device_name = ["@0:0"], device_tag = "cuda", hierarchy = [1], op_name = "unet.up_blocks.3.resnets.0-add_n-777", op_type_name = "add_n", scope_symbol_id = 5148 : i64} : (tensor<2x64x64x320xf16>, tensor<2x64x64x320xf16>) -> tensor<2x64x64x320xf16>
    %543 = "oneflow.scalar_div"(%542) {device_name = ["@0:0"], device_tag = "cuda", float_operand = 1.000000e+00 : f64, has_float_operand = true, has_int_operand = false, hierarchy = [1], int_operand = 0 : si64, op_name = "unet.up_blocks.3.resnets.0-scalar_div-778", scope_symbol_id = 5148 : i64} : (tensor<2x64x64x320xf16>) -> tensor<2x64x64x320xf16>
    %y_961, %mean_962, %inv_variance_963 = "oneflow.group_norm"(%543, %output_580, %output_579) {activation = "none", affine = true, data_format = "channels_last", device_name = ["@0:0"], device_tag = "cuda", epsilon = 9.9999999999999995E-7 : f64, hierarchy = [1], num_groups = 32 : si32, op_name = "unet.up_blocks.3.attentions.0.norm-group_norm-779", operand_segment_sizes = dense<1> : vector<3xi32>, scope_symbol_id = 5213 : i64} : (tensor<2x64x64x320xf16>, tensor<320xf16>, tensor<320xf16>) -> (tensor<2x64x64x320xf16>, tensor<2x32xf32>, tensor<2x32xf32>)
    %544 = "oneflow.conv2d"(%y_961, %output_581, %output_582) {data_format = "channels_last", device_name = ["@0:0"], device_tag = "cuda", dilation_rate = [1 : si32, 1 : si32], filters = 320 : si32, groups = 1 : si32, hierarchy = [1], kernel_size = [1 : si32, 1 : si32], op_name = "unet.up_blocks.3.attentions.0.proj_in-conv2d-780", operand_segment_sizes = dense<[1, 1, 1, 0]> : vector<4xi32>, padding_before = [0 : si32, 0 : si32], scope_symbol_id = 5225 : i64, strides = [1 : si32, 1 : si32]} : (tensor<2x64x64x320xf16>, tensor<320x1x1x320xf16>, tensor<320xf16>) -> tensor<2x64x64x320xf16>
    %545 = "oneflow.reshape"(%544) {device_name = ["@0:0"], device_tag = "cuda", hierarchy = [1], op_name = "unet.up_blocks.3.attentions.0-reshape-782", scope_symbol_id = 5228 : i64, shape = [2 : si64, 4096 : si64, 320 : si64]} : (tensor<2x64x64x320xf16>) -> tensor<2x4096x320xf16>
    %y_964, %mean_965, %inv_variance_966 = "oneflow.layer_norm"(%545, %output_584, %output_583) {begin_norm_axis = 2 : si64, begin_params_axis = 2 : si64, center = true, device_name = ["@0:0"], device_tag = "cuda", epsilon = 1.000000e-05 : f64, hierarchy = [1], op_name = "unet.up_blocks.3.attentions.0.transformer_blocks.0.norm1-layer_norm-783", operand_segment_sizes = dense<1> : vector<3xi32>, scale = true, scope_symbol_id = 5244 : i64} : (tensor<2x4096x320xf16>, tensor<320xf16>, tensor<320xf16>) -> (tensor<2x4096x320xf16>, tensor<2x4096xf32>, tensor<2x4096xf32>)
    %546:3 = "oneflow.grouped_matmul_bias"(%y_964, %y_964, %y_964, %output_587, %output_586, %output_585) {device_name = ["@0:0"], device_tag = "cuda", hierarchy = [1], op_name = "grouped_matmul_unet.up_blocks.3.attentions.0.transformer_blocks.0.attn1.to_v-broadcast_matmul-786", operand_segment_sizes = dense<[3, 3, 0]> : vector<3xi32>, scope_symbol_id = 5269 : i64} : (tensor<2x4096x320xf16>, tensor<2x4096x320xf16>, tensor<2x4096x320xf16>, tensor<320x320xf16>, tensor<320x320xf16>, tensor<320x320xf16>) -> (tensor<2x4096x320xf16>, tensor<2x4096x320xf16>, tensor<2x4096x320xf16>)
    %547 = "oneflow.fused_multi_head_attention_inference"(%546#2, %546#1, %546#0) {causal = false, device_name = ["@0:0"], device_tag = "cuda", hierarchy = [1], key_hidden_slice_end = -1 : si64, key_hidden_slice_start = 0 : si64, num_heads = 8 : si64, op_name = "unet.up_blocks.3.attentions.0.transformer_blocks.0.attn1-fused_multi_head_attention_inference-787", query_hidden_slice_end = -1 : si64, query_hidden_slice_start = 0 : si64, scope_symbol_id = 5272 : i64, value_hidden_slice_end = -1 : si64, value_hidden_slice_start = 0 : si64} : (tensor<2x4096x320xf16>, tensor<2x4096x320xf16>, tensor<2x4096x320xf16>) -> tensor<2x4096x320xf16>
    %548 = "oneflow.broadcast_matmul"(%547, %output_588) {alpha = 1.000000e+00 : f64, device_name = ["@0:0"], device_tag = "cuda", hierarchy = [1], op_name = "unet.up_blocks.3.attentions.0.transformer_blocks.0.attn1.to_out.0-broadcast_matmul-788", scope_symbol_id = 5280 : i64, transpose_a = false, transpose_b = true} : (tensor<2x4096x320xf16>, tensor<320x320xf16>) -> tensor<2x4096x320xf16>
    %549 = "oneflow.broadcast_add"(%548, %output_589) {device_name = ["@0:0"], device_tag = "cuda", hierarchy = [1], op_name = "unet.up_blocks.3.attentions.0.transformer_blocks.0.attn1.to_out.0-broadcast_add-789", scope_symbol_id = 5280 : i64} : (tensor<2x4096x320xf16>, tensor<320xf16>) -> tensor<2x4096x320xf16>
    %550 = "oneflow.add_n2"(%549, %545) {device_name = ["@0:0"], device_tag = "cuda", hierarchy = [1], op_name = "unet.up_blocks.3.attentions.0.transformer_blocks.0-add_n-790", op_type_name = "add_n", scope_symbol_id = 5291 : i64} : (tensor<2x4096x320xf16>, tensor<2x4096x320xf16>) -> tensor<2x4096x320xf16>
    %y_967, %mean_968, %inv_variance_969 = "oneflow.layer_norm"(%550, %output_591, %output_590) {begin_norm_axis = 2 : si64, begin_params_axis = 2 : si64, center = true, device_name = ["@0:0"], device_tag = "cuda", epsilon = 1.000000e-05 : f64, hierarchy = [1], op_name = "unet.up_blocks.3.attentions.0.transformer_blocks.0.norm2-layer_norm-791", operand_segment_sizes = dense<1> : vector<3xi32>, scale = true, scope_symbol_id = 5303 : i64} : (tensor<2x4096x320xf16>, tensor<320xf16>, tensor<320xf16>) -> (tensor<2x4096x320xf16>, tensor<2x4096xf32>, tensor<2x4096xf32>)
    %551 = "oneflow.broadcast_matmul"(%y_967, %output_592) {alpha = 1.000000e+00 : f64, device_name = ["@0:0"], device_tag = "cuda", hierarchy = [1], op_name = "unet.up_blocks.3.attentions.0.transformer_blocks.0.attn2.to_q-broadcast_matmul-792", scope_symbol_id = 5312 : i64, transpose_a = false, transpose_b = true} : (tensor<2x4096x320xf16>, tensor<320x320xf16>) -> tensor<2x4096x320xf16>
    %552 = "oneflow.fused_multi_head_attention_inference"(%551, %4#1, %4#0) {causal = false, device_name = ["@0:0"], device_tag = "cuda", hierarchy = [1], key_hidden_slice_end = -1 : si64, key_hidden_slice_start = 0 : si64, num_heads = 8 : si64, op_name = "unet.up_blocks.3.attentions.0.transformer_blocks.0.attn2-fused_multi_head_attention_inference-795", query_hidden_slice_end = -1 : si64, query_hidden_slice_start = 0 : si64, scope_symbol_id = 5331 : i64, value_hidden_slice_end = -1 : si64, value_hidden_slice_start = 0 : si64} : (tensor<2x4096x320xf16>, tensor<2x77x320xf16>, tensor<2x77x320xf16>) -> tensor<2x4096x320xf16>
    %553 = "oneflow.broadcast_matmul"(%552, %output_595) {alpha = 1.000000e+00 : f64, device_name = ["@0:0"], device_tag = "cuda", hierarchy = [1], op_name = "unet.up_blocks.3.attentions.0.transformer_blocks.0.attn2.to_out.0-broadcast_matmul-796", scope_symbol_id = 5339 : i64, transpose_a = false, transpose_b = true} : (tensor<2x4096x320xf16>, tensor<320x320xf16>) -> tensor<2x4096x320xf16>
    %554 = "oneflow.broadcast_add"(%553, %output_596) {device_name = ["@0:0"], device_tag = "cuda", hierarchy = [1], op_name = "unet.up_blocks.3.attentions.0.transformer_blocks.0.attn2.to_out.0-broadcast_add-797", scope_symbol_id = 5339 : i64} : (tensor<2x4096x320xf16>, tensor<320xf16>) -> tensor<2x4096x320xf16>
    %555 = "oneflow.add_n2"(%554, %550) {device_name = ["@0:0"], device_tag = "cuda", hierarchy = [1], op_name = "unet.up_blocks.3.attentions.0.transformer_blocks.0-add_n-798", op_type_name = "add_n", scope_symbol_id = 5291 : i64} : (tensor<2x4096x320xf16>, tensor<2x4096x320xf16>) -> tensor<2x4096x320xf16>
    %y_970, %mean_971, %inv_variance_972 = "oneflow.layer_norm"(%555, %output_598, %output_597) {begin_norm_axis = 2 : si64, begin_params_axis = 2 : si64, center = true, device_name = ["@0:0"], device_tag = "cuda", epsilon = 1.000000e-05 : f64, hierarchy = [1], op_name = "unet.up_blocks.3.attentions.0.transformer_blocks.0.norm3-layer_norm-799", operand_segment_sizes = dense<1> : vector<3xi32>, scale = true, scope_symbol_id = 5362 : i64} : (tensor<2x4096x320xf16>, tensor<320xf16>, tensor<320xf16>) -> (tensor<2x4096x320xf16>, tensor<2x4096xf32>, tensor<2x4096xf32>)
    %556 = "oneflow.broadcast_matmul"(%y_970, %output_599) {alpha = 1.000000e+00 : f64, device_name = ["@0:0"], device_tag = "cuda", hierarchy = [1], op_name = "unet.up_blocks.3.attentions.0.transformer_blocks.0.ff.net.0.proj-broadcast_matmul-800", scope_symbol_id = 5372 : i64, transpose_a = false, transpose_b = true} : (tensor<2x4096x320xf16>, tensor<2560x320xf16>) -> tensor<2x4096x2560xf16>
    %557 = "oneflow.broadcast_add"(%556, %output_600) {device_name = ["@0:0"], device_tag = "cuda", hierarchy = [1], op_name = "unet.up_blocks.3.attentions.0.transformer_blocks.0.ff.net.0.proj-broadcast_add-801", scope_symbol_id = 5372 : i64} : (tensor<2x4096x2560xf16>, tensor<2560xf16>) -> tensor<2x4096x2560xf16>
    %558 = "oneflow.narrow"(%557) {device_name = ["@0:0"], device_tag = "cuda", dim = 2 : si64, hierarchy = [1], length = 1280 : si64, op_name = "unet.up_blocks.3.attentions.0.transformer_blocks.0.ff.net.0-narrow-802", scope_symbol_id = 5382 : i64, start = 0 : si64} : (tensor<2x4096x2560xf16>) -> tensor<2x4096x1280xf16>
    %559 = "oneflow.narrow"(%557) {device_name = ["@0:0"], device_tag = "cuda", dim = 2 : si64, hierarchy = [1], length = 1280 : si64, op_name = "unet.up_blocks.3.attentions.0.transformer_blocks.0.ff.net.0-narrow-803", scope_symbol_id = 5382 : i64, start = 1280 : si64} : (tensor<2x4096x2560xf16>) -> tensor<2x4096x1280xf16>
    %560 = "oneflow.gelu"(%559) {device_name = ["@0:0"], device_tag = "cuda", hierarchy = [1], op_name = "unet.up_blocks.3.attentions.0.transformer_blocks.0.ff.net.0-gelu-804", scope_symbol_id = 5382 : i64} : (tensor<2x4096x1280xf16>) -> tensor<2x4096x1280xf16>
    %561 = "oneflow.broadcast_mul"(%558, %560) {device_name = ["@0:0"], device_tag = "cuda", hierarchy = [1], op_name = "unet.up_blocks.3.attentions.0.transformer_blocks.0.ff.net.0-broadcast_mul-805", scope_symbol_id = 5382 : i64} : (tensor<2x4096x1280xf16>, tensor<2x4096x1280xf16>) -> tensor<2x4096x1280xf16>
    %562 = "oneflow.broadcast_matmul"(%561, %output_601) {alpha = 1.000000e+00 : f64, device_name = ["@0:0"], device_tag = "cuda", hierarchy = [1], op_name = "unet.up_blocks.3.attentions.0.transformer_blocks.0.ff.net.2-broadcast_matmul-806", scope_symbol_id = 5400 : i64, transpose_a = false, transpose_b = true} : (tensor<2x4096x1280xf16>, tensor<320x1280xf16>) -> tensor<2x4096x320xf16>
    %563 = "oneflow.broadcast_add"(%562, %output_602) {device_name = ["@0:0"], device_tag = "cuda", hierarchy = [1], op_name = "unet.up_blocks.3.attentions.0.transformer_blocks.0.ff.net.2-broadcast_add-807", scope_symbol_id = 5400 : i64} : (tensor<2x4096x320xf16>, tensor<320xf16>) -> tensor<2x4096x320xf16>
    %564 = "oneflow.add_n2"(%563, %555) {device_name = ["@0:0"], device_tag = "cuda", hierarchy = [1], op_name = "unet.up_blocks.3.attentions.0.transformer_blocks.0-add_n-808", op_type_name = "add_n", scope_symbol_id = 5291 : i64} : (tensor<2x4096x320xf16>, tensor<2x4096x320xf16>) -> tensor<2x4096x320xf16>
    %565 = "oneflow.reshape"(%564) {device_name = ["@0:0"], device_tag = "cuda", hierarchy = [1], op_name = "unet.up_blocks.3.attentions.0-reshape-809", scope_symbol_id = 5228 : i64, shape = [2 : si64, 64 : si64, 64 : si64, 320 : si64]} : (tensor<2x4096x320xf16>) -> tensor<2x64x64x320xf16>
    %566 = "oneflow.conv2d"(%565, %output_603, %output_604) {data_format = "channels_last", device_name = ["@0:0"], device_tag = "cuda", dilation_rate = [1 : si32, 1 : si32], filters = 320 : si32, groups = 1 : si32, hierarchy = [1], kernel_size = [1 : si32, 1 : si32], op_name = "unet.up_blocks.3.attentions.0.proj_out-conv2d-811", operand_segment_sizes = dense<[1, 1, 1, 0]> : vector<4xi32>, padding_before = [0 : si32, 0 : si32], scope_symbol_id = 5428 : i64, strides = [1 : si32, 1 : si32]} : (tensor<2x64x64x320xf16>, tensor<320x1x1x320xf16>, tensor<320xf16>) -> tensor<2x64x64x320xf16>
    %567 = "oneflow.add_n2"(%566, %543) {device_name = ["@0:0"], device_tag = "cuda", hierarchy = [1], op_name = "unet.up_blocks.3.attentions.0-add_n-812", op_type_name = "add_n", scope_symbol_id = 5228 : i64} : (tensor<2x64x64x320xf16>, tensor<2x64x64x320xf16>) -> tensor<2x64x64x320xf16>
    %568 = "oneflow.concat"(%567, %123) {axis = 3 : si64, device_name = ["@0:0"], device_tag = "cuda", hierarchy = [1], max_dim_size = 640 : si64, op_name = "unet.up_blocks.3-concat-813", scope_symbol_id = 5098 : i64} : (tensor<2x64x64x320xf16>, tensor<2x64x64x320xf16>) -> tensor<2x64x64x640xf16>
    %y_973, %mean_974, %inv_variance_975 = "oneflow.group_norm"(%568, %output_606, %output_605) {activation = "silu", affine = true, data_format = "channels_last", device_name = ["@0:0"], device_tag = "cuda", epsilon = 1.000000e-05 : f64, hierarchy = [1], num_groups = 32 : si32, op_name = "unet.up_blocks.3.resnets.1.norm1-group_norm-814_with_activation", operand_segment_sizes = dense<1> : vector<3xi32>, scope_symbol_id = 5447 : i64} : (tensor<2x64x64x640xf16>, tensor<640xf16>, tensor<640xf16>) -> (tensor<2x64x64x640xf16>, tensor<2x32xf32>, tensor<2x32xf32>)
    %569 = "oneflow.conv2d"(%568, %output_615, %output_616) {data_format = "channels_last", device_name = ["@0:0"], device_tag = "cuda", dilation_rate = [1 : si32, 1 : si32], filters = 320 : si32, groups = 1 : si32, hierarchy = [1], kernel_size = [1 : si32, 1 : si32], op_name = "unet.up_blocks.3.resnets.1.conv_shortcut-conv2d-826", operand_segment_sizes = dense<[1, 1, 1, 0]> : vector<4xi32>, padding_before = [0 : si32, 0 : si32], scope_symbol_id = 5530 : i64, strides = [1 : si32, 1 : si32]} : (tensor<2x64x64x640xf16>, tensor<320x1x1x640xf16>, tensor<320xf16>) -> tensor<2x64x64x320xf16>
    %570 = "oneflow.conv2d"(%y_973, %output_607, %output_608) {data_format = "channels_last", device_name = ["@0:0"], device_tag = "cuda", dilation_rate = [1 : si32, 1 : si32], filters = 320 : si32, groups = 1 : si32, hierarchy = [1], kernel_size = [3 : si32, 3 : si32], op_name = "unet.up_blocks.3.resnets.1.conv1-conv2d-816", operand_segment_sizes = dense<[1, 1, 1, 0]> : vector<4xi32>, padding_before = [1 : si32, 1 : si32], scope_symbol_id = 5463 : i64, strides = [1 : si32, 1 : si32]} : (tensor<2x64x64x640xf16>, tensor<320x3x3x640xf16>, tensor<320xf16>) -> tensor<2x64x64x320xf16>
    %571 = "oneflow.broadcast_add"(%570, %83) {device_name = ["@0:0"], device_tag = "cuda", hierarchy = [1], op_name = "unet.up_blocks.3.resnets.1-broadcast_add-822", scope_symbol_id = 5484 : i64} : (tensor<2x64x64x320xf16>, tensor<2x1x1x320xf16>) -> tensor<2x64x64x320xf16>
    %y_976, %mean_977, %inv_variance_978 = "oneflow.group_norm"(%571, %output_612, %output_611) {activation = "silu", affine = true, data_format = "channels_last", device_name = ["@0:0"], device_tag = "cuda", epsilon = 1.000000e-05 : f64, hierarchy = [1], num_groups = 32 : si32, op_name = "unet.up_blocks.3.resnets.1.norm2-group_norm-823_with_activation", operand_segment_sizes = dense<1> : vector<3xi32>, scope_symbol_id = 5502 : i64} : (tensor<2x64x64x320xf16>, tensor<320xf16>, tensor<320xf16>) -> (tensor<2x64x64x320xf16>, tensor<2x32xf32>, tensor<2x32xf32>)
    %572 = "oneflow.conv2d"(%y_976, %output_613, %output_614) {data_format = "channels_last", device_name = ["@0:0"], device_tag = "cuda", dilation_rate = [1 : si32, 1 : si32], filters = 320 : si32, groups = 1 : si32, hierarchy = [1], kernel_size = [3 : si32, 3 : si32], op_name = "unet.up_blocks.3.resnets.1.conv2-conv2d-825", operand_segment_sizes = dense<[1, 1, 1, 0]> : vector<4xi32>, padding_before = [1 : si32, 1 : si32], scope_symbol_id = 5518 : i64, strides = [1 : si32, 1 : si32]} : (tensor<2x64x64x320xf16>, tensor<320x3x3x320xf16>, tensor<320xf16>) -> tensor<2x64x64x320xf16>
    %573 = "oneflow.add_n2"(%569, %572) {device_name = ["@0:0"], device_tag = "cuda", hierarchy = [1], op_name = "unet.up_blocks.3.resnets.1-add_n-827", op_type_name = "add_n", scope_symbol_id = 5484 : i64} : (tensor<2x64x64x320xf16>, tensor<2x64x64x320xf16>) -> tensor<2x64x64x320xf16>
    %574 = "oneflow.scalar_div"(%573) {device_name = ["@0:0"], device_tag = "cuda", float_operand = 1.000000e+00 : f64, has_float_operand = true, has_int_operand = false, hierarchy = [1], int_operand = 0 : si64, op_name = "unet.up_blocks.3.resnets.1-scalar_div-828", scope_symbol_id = 5484 : i64} : (tensor<2x64x64x320xf16>) -> tensor<2x64x64x320xf16>
    %y_979, %mean_980, %inv_variance_981 = "oneflow.group_norm"(%574, %output_618, %output_617) {activation = "none", affine = true, data_format = "channels_last", device_name = ["@0:0"], device_tag = "cuda", epsilon = 9.9999999999999995E-7 : f64, hierarchy = [1], num_groups = 32 : si32, op_name = "unet.up_blocks.3.attentions.1.norm-group_norm-829", operand_segment_sizes = dense<1> : vector<3xi32>, scope_symbol_id = 5549 : i64} : (tensor<2x64x64x320xf16>, tensor<320xf16>, tensor<320xf16>) -> (tensor<2x64x64x320xf16>, tensor<2x32xf32>, tensor<2x32xf32>)
    %575 = "oneflow.conv2d"(%y_979, %output_619, %output_620) {data_format = "channels_last", device_name = ["@0:0"], device_tag = "cuda", dilation_rate = [1 : si32, 1 : si32], filters = 320 : si32, groups = 1 : si32, hierarchy = [1], kernel_size = [1 : si32, 1 : si32], op_name = "unet.up_blocks.3.attentions.1.proj_in-conv2d-830", operand_segment_sizes = dense<[1, 1, 1, 0]> : vector<4xi32>, padding_before = [0 : si32, 0 : si32], scope_symbol_id = 5561 : i64, strides = [1 : si32, 1 : si32]} : (tensor<2x64x64x320xf16>, tensor<320x1x1x320xf16>, tensor<320xf16>) -> tensor<2x64x64x320xf16>
    %576 = "oneflow.reshape"(%575) {device_name = ["@0:0"], device_tag = "cuda", hierarchy = [1], op_name = "unet.up_blocks.3.attentions.1-reshape-832", scope_symbol_id = 5564 : i64, shape = [2 : si64, 4096 : si64, 320 : si64]} : (tensor<2x64x64x320xf16>) -> tensor<2x4096x320xf16>
    %y_982, %mean_983, %inv_variance_984 = "oneflow.layer_norm"(%576, %output_622, %output_621) {begin_norm_axis = 2 : si64, begin_params_axis = 2 : si64, center = true, device_name = ["@0:0"], device_tag = "cuda", epsilon = 1.000000e-05 : f64, hierarchy = [1], op_name = "unet.up_blocks.3.attentions.1.transformer_blocks.0.norm1-layer_norm-833", operand_segment_sizes = dense<1> : vector<3xi32>, scale = true, scope_symbol_id = 5580 : i64} : (tensor<2x4096x320xf16>, tensor<320xf16>, tensor<320xf16>) -> (tensor<2x4096x320xf16>, tensor<2x4096xf32>, tensor<2x4096xf32>)
    %577:3 = "oneflow.grouped_matmul_bias"(%y_982, %y_982, %y_982, %output_624, %output_625, %output_623) {device_name = ["@0:0"], device_tag = "cuda", hierarchy = [1], op_name = "grouped_matmul_unet.up_blocks.3.attentions.1.transformer_blocks.0.attn1.to_k-broadcast_matmul-835", operand_segment_sizes = dense<[3, 3, 0]> : vector<3xi32>, scope_symbol_id = 5597 : i64} : (tensor<2x4096x320xf16>, tensor<2x4096x320xf16>, tensor<2x4096x320xf16>, tensor<320x320xf16>, tensor<320x320xf16>, tensor<320x320xf16>) -> (tensor<2x4096x320xf16>, tensor<2x4096x320xf16>, tensor<2x4096x320xf16>)
    %578 = "oneflow.fused_multi_head_attention_inference"(%577#2, %577#0, %577#1) {causal = false, device_name = ["@0:0"], device_tag = "cuda", hierarchy = [1], key_hidden_slice_end = -1 : si64, key_hidden_slice_start = 0 : si64, num_heads = 8 : si64, op_name = "unet.up_blocks.3.attentions.1.transformer_blocks.0.attn1-fused_multi_head_attention_inference-837", query_hidden_slice_end = -1 : si64, query_hidden_slice_start = 0 : si64, scope_symbol_id = 5608 : i64, value_hidden_slice_end = -1 : si64, value_hidden_slice_start = 0 : si64} : (tensor<2x4096x320xf16>, tensor<2x4096x320xf16>, tensor<2x4096x320xf16>) -> tensor<2x4096x320xf16>
    %579 = "oneflow.broadcast_matmul"(%578, %output_626) {alpha = 1.000000e+00 : f64, device_name = ["@0:0"], device_tag = "cuda", hierarchy = [1], op_name = "unet.up_blocks.3.attentions.1.transformer_blocks.0.attn1.to_out.0-broadcast_matmul-838", scope_symbol_id = 5616 : i64, transpose_a = false, transpose_b = true} : (tensor<2x4096x320xf16>, tensor<320x320xf16>) -> tensor<2x4096x320xf16>
    %580 = "oneflow.broadcast_add"(%579, %output_627) {device_name = ["@0:0"], device_tag = "cuda", hierarchy = [1], op_name = "unet.up_blocks.3.attentions.1.transformer_blocks.0.attn1.to_out.0-broadcast_add-839", scope_symbol_id = 5616 : i64} : (tensor<2x4096x320xf16>, tensor<320xf16>) -> tensor<2x4096x320xf16>
    %581 = "oneflow.add_n2"(%580, %576) {device_name = ["@0:0"], device_tag = "cuda", hierarchy = [1], op_name = "unet.up_blocks.3.attentions.1.transformer_blocks.0-add_n-840", op_type_name = "add_n", scope_symbol_id = 5627 : i64} : (tensor<2x4096x320xf16>, tensor<2x4096x320xf16>) -> tensor<2x4096x320xf16>
    %y_985, %mean_986, %inv_variance_987 = "oneflow.layer_norm"(%581, %output_629, %output_628) {begin_norm_axis = 2 : si64, begin_params_axis = 2 : si64, center = true, device_name = ["@0:0"], device_tag = "cuda", epsilon = 1.000000e-05 : f64, hierarchy = [1], op_name = "unet.up_blocks.3.attentions.1.transformer_blocks.0.norm2-layer_norm-841", operand_segment_sizes = dense<1> : vector<3xi32>, scale = true, scope_symbol_id = 5639 : i64} : (tensor<2x4096x320xf16>, tensor<320xf16>, tensor<320xf16>) -> (tensor<2x4096x320xf16>, tensor<2x4096xf32>, tensor<2x4096xf32>)
    %582 = "oneflow.broadcast_matmul"(%y_985, %output_630) {alpha = 1.000000e+00 : f64, device_name = ["@0:0"], device_tag = "cuda", hierarchy = [1], op_name = "unet.up_blocks.3.attentions.1.transformer_blocks.0.attn2.to_q-broadcast_matmul-842", scope_symbol_id = 5648 : i64, transpose_a = false, transpose_b = true} : (tensor<2x4096x320xf16>, tensor<320x320xf16>) -> tensor<2x4096x320xf16>
    %583 = "oneflow.fused_multi_head_attention_inference"(%582, %4#12, %4#29) {causal = false, device_name = ["@0:0"], device_tag = "cuda", hierarchy = [1], key_hidden_slice_end = -1 : si64, key_hidden_slice_start = 0 : si64, num_heads = 8 : si64, op_name = "unet.up_blocks.3.attentions.1.transformer_blocks.0.attn2-fused_multi_head_attention_inference-845", query_hidden_slice_end = -1 : si64, query_hidden_slice_start = 0 : si64, scope_symbol_id = 5667 : i64, value_hidden_slice_end = -1 : si64, value_hidden_slice_start = 0 : si64} : (tensor<2x4096x320xf16>, tensor<2x77x320xf16>, tensor<2x77x320xf16>) -> tensor<2x4096x320xf16>
    %584 = "oneflow.broadcast_matmul"(%583, %output_633) {alpha = 1.000000e+00 : f64, device_name = ["@0:0"], device_tag = "cuda", hierarchy = [1], op_name = "unet.up_blocks.3.attentions.1.transformer_blocks.0.attn2.to_out.0-broadcast_matmul-846", scope_symbol_id = 5675 : i64, transpose_a = false, transpose_b = true} : (tensor<2x4096x320xf16>, tensor<320x320xf16>) -> tensor<2x4096x320xf16>
    %585 = "oneflow.broadcast_add"(%584, %output_634) {device_name = ["@0:0"], device_tag = "cuda", hierarchy = [1], op_name = "unet.up_blocks.3.attentions.1.transformer_blocks.0.attn2.to_out.0-broadcast_add-847", scope_symbol_id = 5675 : i64} : (tensor<2x4096x320xf16>, tensor<320xf16>) -> tensor<2x4096x320xf16>
    %586 = "oneflow.add_n2"(%585, %581) {device_name = ["@0:0"], device_tag = "cuda", hierarchy = [1], op_name = "unet.up_blocks.3.attentions.1.transformer_blocks.0-add_n-848", op_type_name = "add_n", scope_symbol_id = 5627 : i64} : (tensor<2x4096x320xf16>, tensor<2x4096x320xf16>) -> tensor<2x4096x320xf16>
    %y_988, %mean_989, %inv_variance_990 = "oneflow.layer_norm"(%586, %output_636, %output_635) {begin_norm_axis = 2 : si64, begin_params_axis = 2 : si64, center = true, device_name = ["@0:0"], device_tag = "cuda", epsilon = 1.000000e-05 : f64, hierarchy = [1], op_name = "unet.up_blocks.3.attentions.1.transformer_blocks.0.norm3-layer_norm-849", operand_segment_sizes = dense<1> : vector<3xi32>, scale = true, scope_symbol_id = 5698 : i64} : (tensor<2x4096x320xf16>, tensor<320xf16>, tensor<320xf16>) -> (tensor<2x4096x320xf16>, tensor<2x4096xf32>, tensor<2x4096xf32>)
    %587 = "oneflow.broadcast_matmul"(%y_988, %output_637) {alpha = 1.000000e+00 : f64, device_name = ["@0:0"], device_tag = "cuda", hierarchy = [1], op_name = "unet.up_blocks.3.attentions.1.transformer_blocks.0.ff.net.0.proj-broadcast_matmul-850", scope_symbol_id = 5708 : i64, transpose_a = false, transpose_b = true} : (tensor<2x4096x320xf16>, tensor<2560x320xf16>) -> tensor<2x4096x2560xf16>
    %588 = "oneflow.broadcast_add"(%587, %output_638) {device_name = ["@0:0"], device_tag = "cuda", hierarchy = [1], op_name = "unet.up_blocks.3.attentions.1.transformer_blocks.0.ff.net.0.proj-broadcast_add-851", scope_symbol_id = 5708 : i64} : (tensor<2x4096x2560xf16>, tensor<2560xf16>) -> tensor<2x4096x2560xf16>
    %589 = "oneflow.narrow"(%588) {device_name = ["@0:0"], device_tag = "cuda", dim = 2 : si64, hierarchy = [1], length = 1280 : si64, op_name = "unet.up_blocks.3.attentions.1.transformer_blocks.0.ff.net.0-narrow-852", scope_symbol_id = 5718 : i64, start = 0 : si64} : (tensor<2x4096x2560xf16>) -> tensor<2x4096x1280xf16>
    %590 = "oneflow.narrow"(%588) {device_name = ["@0:0"], device_tag = "cuda", dim = 2 : si64, hierarchy = [1], length = 1280 : si64, op_name = "unet.up_blocks.3.attentions.1.transformer_blocks.0.ff.net.0-narrow-853", scope_symbol_id = 5718 : i64, start = 1280 : si64} : (tensor<2x4096x2560xf16>) -> tensor<2x4096x1280xf16>
    %591 = "oneflow.gelu"(%590) {device_name = ["@0:0"], device_tag = "cuda", hierarchy = [1], op_name = "unet.up_blocks.3.attentions.1.transformer_blocks.0.ff.net.0-gelu-854", scope_symbol_id = 5718 : i64} : (tensor<2x4096x1280xf16>) -> tensor<2x4096x1280xf16>
    %592 = "oneflow.broadcast_mul"(%589, %591) {device_name = ["@0:0"], device_tag = "cuda", hierarchy = [1], op_name = "unet.up_blocks.3.attentions.1.transformer_blocks.0.ff.net.0-broadcast_mul-855", scope_symbol_id = 5718 : i64} : (tensor<2x4096x1280xf16>, tensor<2x4096x1280xf16>) -> tensor<2x4096x1280xf16>
    %593 = "oneflow.broadcast_matmul"(%592, %output_639) {alpha = 1.000000e+00 : f64, device_name = ["@0:0"], device_tag = "cuda", hierarchy = [1], op_name = "unet.up_blocks.3.attentions.1.transformer_blocks.0.ff.net.2-broadcast_matmul-856", scope_symbol_id = 5736 : i64, transpose_a = false, transpose_b = true} : (tensor<2x4096x1280xf16>, tensor<320x1280xf16>) -> tensor<2x4096x320xf16>
    %594 = "oneflow.broadcast_add"(%593, %output_640) {device_name = ["@0:0"], device_tag = "cuda", hierarchy = [1], op_name = "unet.up_blocks.3.attentions.1.transformer_blocks.0.ff.net.2-broadcast_add-857", scope_symbol_id = 5736 : i64} : (tensor<2x4096x320xf16>, tensor<320xf16>) -> tensor<2x4096x320xf16>
    %595 = "oneflow.add_n2"(%594, %586) {device_name = ["@0:0"], device_tag = "cuda", hierarchy = [1], op_name = "unet.up_blocks.3.attentions.1.transformer_blocks.0-add_n-858", op_type_name = "add_n", scope_symbol_id = 5627 : i64} : (tensor<2x4096x320xf16>, tensor<2x4096x320xf16>) -> tensor<2x4096x320xf16>
    %596 = "oneflow.reshape"(%595) {device_name = ["@0:0"], device_tag = "cuda", hierarchy = [1], op_name = "unet.up_blocks.3.attentions.1-reshape-859", scope_symbol_id = 5564 : i64, shape = [2 : si64, 64 : si64, 64 : si64, 320 : si64]} : (tensor<2x4096x320xf16>) -> tensor<2x64x64x320xf16>
    %597 = "oneflow.conv2d"(%596, %output_641, %output_642) {data_format = "channels_last", device_name = ["@0:0"], device_tag = "cuda", dilation_rate = [1 : si32, 1 : si32], filters = 320 : si32, groups = 1 : si32, hierarchy = [1], kernel_size = [1 : si32, 1 : si32], op_name = "unet.up_blocks.3.attentions.1.proj_out-conv2d-861", operand_segment_sizes = dense<[1, 1, 1, 0]> : vector<4xi32>, padding_before = [0 : si32, 0 : si32], scope_symbol_id = 5764 : i64, strides = [1 : si32, 1 : si32]} : (tensor<2x64x64x320xf16>, tensor<320x1x1x320xf16>, tensor<320xf16>) -> tensor<2x64x64x320xf16>
    %598 = "oneflow.add_n2"(%597, %574) {device_name = ["@0:0"], device_tag = "cuda", hierarchy = [1], op_name = "unet.up_blocks.3.attentions.1-add_n-862", op_type_name = "add_n", scope_symbol_id = 5564 : i64} : (tensor<2x64x64x320xf16>, tensor<2x64x64x320xf16>) -> tensor<2x64x64x320xf16>
    %599 = "oneflow.concat"(%598, %9) {axis = 3 : si64, device_name = ["@0:0"], device_tag = "cuda", hierarchy = [1], max_dim_size = 640 : si64, op_name = "unet.up_blocks.3-concat-863", scope_symbol_id = 5098 : i64} : (tensor<2x64x64x320xf16>, tensor<2x64x64x320xf16>) -> tensor<2x64x64x640xf16>
    %y_991, %mean_992, %inv_variance_993 = "oneflow.group_norm"(%599, %output_644, %output_643) {activation = "silu", affine = true, data_format = "channels_last", device_name = ["@0:0"], device_tag = "cuda", epsilon = 1.000000e-05 : f64, hierarchy = [1], num_groups = 32 : si32, op_name = "unet.up_blocks.3.resnets.2.norm1-group_norm-864_with_activation", operand_segment_sizes = dense<1> : vector<3xi32>, scope_symbol_id = 5783 : i64} : (tensor<2x64x64x640xf16>, tensor<640xf16>, tensor<640xf16>) -> (tensor<2x64x64x640xf16>, tensor<2x32xf32>, tensor<2x32xf32>)
    %600 = "oneflow.conv2d"(%599, %output_653, %output_654) {data_format = "channels_last", device_name = ["@0:0"], device_tag = "cuda", dilation_rate = [1 : si32, 1 : si32], filters = 320 : si32, groups = 1 : si32, hierarchy = [1], kernel_size = [1 : si32, 1 : si32], op_name = "unet.up_blocks.3.resnets.2.conv_shortcut-conv2d-876", operand_segment_sizes = dense<[1, 1, 1, 0]> : vector<4xi32>, padding_before = [0 : si32, 0 : si32], scope_symbol_id = 5866 : i64, strides = [1 : si32, 1 : si32]} : (tensor<2x64x64x640xf16>, tensor<320x1x1x640xf16>, tensor<320xf16>) -> tensor<2x64x64x320xf16>
    %601 = "oneflow.conv2d"(%y_991, %output_645, %output_646) {data_format = "channels_last", device_name = ["@0:0"], device_tag = "cuda", dilation_rate = [1 : si32, 1 : si32], filters = 320 : si32, groups = 1 : si32, hierarchy = [1], kernel_size = [3 : si32, 3 : si32], op_name = "unet.up_blocks.3.resnets.2.conv1-conv2d-866", operand_segment_sizes = dense<[1, 1, 1, 0]> : vector<4xi32>, padding_before = [1 : si32, 1 : si32], scope_symbol_id = 5799 : i64, strides = [1 : si32, 1 : si32]} : (tensor<2x64x64x640xf16>, tensor<320x3x3x640xf16>, tensor<320xf16>) -> tensor<2x64x64x320xf16>
    %602 = "oneflow.broadcast_add"(%601, %82) {device_name = ["@0:0"], device_tag = "cuda", hierarchy = [1], op_name = "unet.up_blocks.3.resnets.2-broadcast_add-872", scope_symbol_id = 5820 : i64} : (tensor<2x64x64x320xf16>, tensor<2x1x1x320xf16>) -> tensor<2x64x64x320xf16>
    %y_994, %mean_995, %inv_variance_996 = "oneflow.group_norm"(%602, %output_650, %output_649) {activation = "silu", affine = true, data_format = "channels_last", device_name = ["@0:0"], device_tag = "cuda", epsilon = 1.000000e-05 : f64, hierarchy = [1], num_groups = 32 : si32, op_name = "unet.up_blocks.3.resnets.2.norm2-group_norm-873_with_activation", operand_segment_sizes = dense<1> : vector<3xi32>, scope_symbol_id = 5838 : i64} : (tensor<2x64x64x320xf16>, tensor<320xf16>, tensor<320xf16>) -> (tensor<2x64x64x320xf16>, tensor<2x32xf32>, tensor<2x32xf32>)
    %603 = "oneflow.conv2d"(%y_994, %output_651, %output_652) {data_format = "channels_last", device_name = ["@0:0"], device_tag = "cuda", dilation_rate = [1 : si32, 1 : si32], filters = 320 : si32, groups = 1 : si32, hierarchy = [1], kernel_size = [3 : si32, 3 : si32], op_name = "unet.up_blocks.3.resnets.2.conv2-conv2d-875", operand_segment_sizes = dense<[1, 1, 1, 0]> : vector<4xi32>, padding_before = [1 : si32, 1 : si32], scope_symbol_id = 5854 : i64, strides = [1 : si32, 1 : si32]} : (tensor<2x64x64x320xf16>, tensor<320x3x3x320xf16>, tensor<320xf16>) -> tensor<2x64x64x320xf16>
    %604 = "oneflow.add_n2"(%600, %603) {device_name = ["@0:0"], device_tag = "cuda", hierarchy = [1], op_name = "unet.up_blocks.3.resnets.2-add_n-877", op_type_name = "add_n", scope_symbol_id = 5820 : i64} : (tensor<2x64x64x320xf16>, tensor<2x64x64x320xf16>) -> tensor<2x64x64x320xf16>
    %605 = "oneflow.scalar_div"(%604) {device_name = ["@0:0"], device_tag = "cuda", float_operand = 1.000000e+00 : f64, has_float_operand = true, has_int_operand = false, hierarchy = [1], int_operand = 0 : si64, op_name = "unet.up_blocks.3.resnets.2-scalar_div-878", scope_symbol_id = 5820 : i64} : (tensor<2x64x64x320xf16>) -> tensor<2x64x64x320xf16>
    %y_997, %mean_998, %inv_variance_999 = "oneflow.group_norm"(%605, %output_656, %output_655) {activation = "none", affine = true, data_format = "channels_last", device_name = ["@0:0"], device_tag = "cuda", epsilon = 9.9999999999999995E-7 : f64, hierarchy = [1], num_groups = 32 : si32, op_name = "unet.up_blocks.3.attentions.2.norm-group_norm-879", operand_segment_sizes = dense<1> : vector<3xi32>, scope_symbol_id = 5885 : i64} : (tensor<2x64x64x320xf16>, tensor<320xf16>, tensor<320xf16>) -> (tensor<2x64x64x320xf16>, tensor<2x32xf32>, tensor<2x32xf32>)
    %606 = "oneflow.conv2d"(%y_997, %output_657, %output_658) {data_format = "channels_last", device_name = ["@0:0"], device_tag = "cuda", dilation_rate = [1 : si32, 1 : si32], filters = 320 : si32, groups = 1 : si32, hierarchy = [1], kernel_size = [1 : si32, 1 : si32], op_name = "unet.up_blocks.3.attentions.2.proj_in-conv2d-880", operand_segment_sizes = dense<[1, 1, 1, 0]> : vector<4xi32>, padding_before = [0 : si32, 0 : si32], scope_symbol_id = 5897 : i64, strides = [1 : si32, 1 : si32]} : (tensor<2x64x64x320xf16>, tensor<320x1x1x320xf16>, tensor<320xf16>) -> tensor<2x64x64x320xf16>
    %607 = "oneflow.reshape"(%606) {device_name = ["@0:0"], device_tag = "cuda", hierarchy = [1], op_name = "unet.up_blocks.3.attentions.2-reshape-882", scope_symbol_id = 5900 : i64, shape = [2 : si64, 4096 : si64, 320 : si64]} : (tensor<2x64x64x320xf16>) -> tensor<2x4096x320xf16>
    %y_1000, %mean_1001, %inv_variance_1002 = "oneflow.layer_norm"(%607, %output_660, %output_659) {begin_norm_axis = 2 : si64, begin_params_axis = 2 : si64, center = true, device_name = ["@0:0"], device_tag = "cuda", epsilon = 1.000000e-05 : f64, hierarchy = [1], op_name = "unet.up_blocks.3.attentions.2.transformer_blocks.0.norm1-layer_norm-883", operand_segment_sizes = dense<1> : vector<3xi32>, scale = true, scope_symbol_id = 5916 : i64} : (tensor<2x4096x320xf16>, tensor<320xf16>, tensor<320xf16>) -> (tensor<2x4096x320xf16>, tensor<2x4096xf32>, tensor<2x4096xf32>)
    %608:3 = "oneflow.grouped_matmul_bias"(%y_1000, %y_1000, %y_1000, %output_662, %output_663, %output_661) {device_name = ["@0:0"], device_tag = "cuda", hierarchy = [1], op_name = "grouped_matmul_unet.up_blocks.3.attentions.2.transformer_blocks.0.attn1.to_k-broadcast_matmul-885", operand_segment_sizes = dense<[3, 3, 0]> : vector<3xi32>, scope_symbol_id = 5933 : i64} : (tensor<2x4096x320xf16>, tensor<2x4096x320xf16>, tensor<2x4096x320xf16>, tensor<320x320xf16>, tensor<320x320xf16>, tensor<320x320xf16>) -> (tensor<2x4096x320xf16>, tensor<2x4096x320xf16>, tensor<2x4096x320xf16>)
    %609 = "oneflow.fused_multi_head_attention_inference"(%608#2, %608#0, %608#1) {causal = false, device_name = ["@0:0"], device_tag = "cuda", hierarchy = [1], key_hidden_slice_end = -1 : si64, key_hidden_slice_start = 0 : si64, num_heads = 8 : si64, op_name = "unet.up_blocks.3.attentions.2.transformer_blocks.0.attn1-fused_multi_head_attention_inference-887", query_hidden_slice_end = -1 : si64, query_hidden_slice_start = 0 : si64, scope_symbol_id = 5944 : i64, value_hidden_slice_end = -1 : si64, value_hidden_slice_start = 0 : si64} : (tensor<2x4096x320xf16>, tensor<2x4096x320xf16>, tensor<2x4096x320xf16>) -> tensor<2x4096x320xf16>
    %610 = "oneflow.broadcast_matmul"(%609, %output_664) {alpha = 1.000000e+00 : f64, device_name = ["@0:0"], device_tag = "cuda", hierarchy = [1], op_name = "unet.up_blocks.3.attentions.2.transformer_blocks.0.attn1.to_out.0-broadcast_matmul-888", scope_symbol_id = 5952 : i64, transpose_a = false, transpose_b = true} : (tensor<2x4096x320xf16>, tensor<320x320xf16>) -> tensor<2x4096x320xf16>
    %611 = "oneflow.broadcast_add"(%610, %output_665) {device_name = ["@0:0"], device_tag = "cuda", hierarchy = [1], op_name = "unet.up_blocks.3.attentions.2.transformer_blocks.0.attn1.to_out.0-broadcast_add-889", scope_symbol_id = 5952 : i64} : (tensor<2x4096x320xf16>, tensor<320xf16>) -> tensor<2x4096x320xf16>
    %612 = "oneflow.add_n2"(%611, %607) {device_name = ["@0:0"], device_tag = "cuda", hierarchy = [1], op_name = "unet.up_blocks.3.attentions.2.transformer_blocks.0-add_n-890", op_type_name = "add_n", scope_symbol_id = 5963 : i64} : (tensor<2x4096x320xf16>, tensor<2x4096x320xf16>) -> tensor<2x4096x320xf16>
    %y_1003, %mean_1004, %inv_variance_1005 = "oneflow.layer_norm"(%612, %output_667, %output_666) {begin_norm_axis = 2 : si64, begin_params_axis = 2 : si64, center = true, device_name = ["@0:0"], device_tag = "cuda", epsilon = 1.000000e-05 : f64, hierarchy = [1], op_name = "unet.up_blocks.3.attentions.2.transformer_blocks.0.norm2-layer_norm-891", operand_segment_sizes = dense<1> : vector<3xi32>, scale = true, scope_symbol_id = 5975 : i64} : (tensor<2x4096x320xf16>, tensor<320xf16>, tensor<320xf16>) -> (tensor<2x4096x320xf16>, tensor<2x4096xf32>, tensor<2x4096xf32>)
    %613 = "oneflow.broadcast_matmul"(%y_1003, %output_668) {alpha = 1.000000e+00 : f64, device_name = ["@0:0"], device_tag = "cuda", hierarchy = [1], op_name = "unet.up_blocks.3.attentions.2.transformer_blocks.0.attn2.to_q-broadcast_matmul-892", scope_symbol_id = 5984 : i64, transpose_a = false, transpose_b = true} : (tensor<2x4096x320xf16>, tensor<320x320xf16>) -> tensor<2x4096x320xf16>
    %614 = "oneflow.fused_multi_head_attention_inference"(%613, %4#30, %4#31) {causal = false, device_name = ["@0:0"], device_tag = "cuda", hierarchy = [1], key_hidden_slice_end = -1 : si64, key_hidden_slice_start = 0 : si64, num_heads = 8 : si64, op_name = "unet.up_blocks.3.attentions.2.transformer_blocks.0.attn2-fused_multi_head_attention_inference-895", query_hidden_slice_end = -1 : si64, query_hidden_slice_start = 0 : si64, scope_symbol_id = 6003 : i64, value_hidden_slice_end = -1 : si64, value_hidden_slice_start = 0 : si64} : (tensor<2x4096x320xf16>, tensor<2x77x320xf16>, tensor<2x77x320xf16>) -> tensor<2x4096x320xf16>
    %615 = "oneflow.broadcast_matmul"(%614, %output_671) {alpha = 1.000000e+00 : f64, device_name = ["@0:0"], device_tag = "cuda", hierarchy = [1], op_name = "unet.up_blocks.3.attentions.2.transformer_blocks.0.attn2.to_out.0-broadcast_matmul-896", scope_symbol_id = 6011 : i64, transpose_a = false, transpose_b = true} : (tensor<2x4096x320xf16>, tensor<320x320xf16>) -> tensor<2x4096x320xf16>
    %616 = "oneflow.broadcast_add"(%615, %output_672) {device_name = ["@0:0"], device_tag = "cuda", hierarchy = [1], op_name = "unet.up_blocks.3.attentions.2.transformer_blocks.0.attn2.to_out.0-broadcast_add-897", scope_symbol_id = 6011 : i64} : (tensor<2x4096x320xf16>, tensor<320xf16>) -> tensor<2x4096x320xf16>
    %617 = "oneflow.add_n2"(%616, %612) {device_name = ["@0:0"], device_tag = "cuda", hierarchy = [1], op_name = "unet.up_blocks.3.attentions.2.transformer_blocks.0-add_n-898", op_type_name = "add_n", scope_symbol_id = 5963 : i64} : (tensor<2x4096x320xf16>, tensor<2x4096x320xf16>) -> tensor<2x4096x320xf16>
    %y_1006, %mean_1007, %inv_variance_1008 = "oneflow.layer_norm"(%617, %output_674, %output_673) {begin_norm_axis = 2 : si64, begin_params_axis = 2 : si64, center = true, device_name = ["@0:0"], device_tag = "cuda", epsilon = 1.000000e-05 : f64, hierarchy = [1], op_name = "unet.up_blocks.3.attentions.2.transformer_blocks.0.norm3-layer_norm-899", operand_segment_sizes = dense<1> : vector<3xi32>, scale = true, scope_symbol_id = 6034 : i64} : (tensor<2x4096x320xf16>, tensor<320xf16>, tensor<320xf16>) -> (tensor<2x4096x320xf16>, tensor<2x4096xf32>, tensor<2x4096xf32>)
    %618 = "oneflow.broadcast_matmul"(%y_1006, %output_675) {alpha = 1.000000e+00 : f64, device_name = ["@0:0"], device_tag = "cuda", hierarchy = [1], op_name = "unet.up_blocks.3.attentions.2.transformer_blocks.0.ff.net.0.proj-broadcast_matmul-900", scope_symbol_id = 6044 : i64, transpose_a = false, transpose_b = true} : (tensor<2x4096x320xf16>, tensor<2560x320xf16>) -> tensor<2x4096x2560xf16>
    %619 = "oneflow.broadcast_add"(%618, %output_676) {device_name = ["@0:0"], device_tag = "cuda", hierarchy = [1], op_name = "unet.up_blocks.3.attentions.2.transformer_blocks.0.ff.net.0.proj-broadcast_add-901", scope_symbol_id = 6044 : i64} : (tensor<2x4096x2560xf16>, tensor<2560xf16>) -> tensor<2x4096x2560xf16>
    %620 = "oneflow.narrow"(%619) {device_name = ["@0:0"], device_tag = "cuda", dim = 2 : si64, hierarchy = [1], length = 1280 : si64, op_name = "unet.up_blocks.3.attentions.2.transformer_blocks.0.ff.net.0-narrow-902", scope_symbol_id = 6054 : i64, start = 0 : si64} : (tensor<2x4096x2560xf16>) -> tensor<2x4096x1280xf16>
    %621 = "oneflow.narrow"(%619) {device_name = ["@0:0"], device_tag = "cuda", dim = 2 : si64, hierarchy = [1], length = 1280 : si64, op_name = "unet.up_blocks.3.attentions.2.transformer_blocks.0.ff.net.0-narrow-903", scope_symbol_id = 6054 : i64, start = 1280 : si64} : (tensor<2x4096x2560xf16>) -> tensor<2x4096x1280xf16>
    %622 = "oneflow.gelu"(%621) {device_name = ["@0:0"], device_tag = "cuda", hierarchy = [1], op_name = "unet.up_blocks.3.attentions.2.transformer_blocks.0.ff.net.0-gelu-904", scope_symbol_id = 6054 : i64} : (tensor<2x4096x1280xf16>) -> tensor<2x4096x1280xf16>
    %623 = "oneflow.broadcast_mul"(%620, %622) {device_name = ["@0:0"], device_tag = "cuda", hierarchy = [1], op_name = "unet.up_blocks.3.attentions.2.transformer_blocks.0.ff.net.0-broadcast_mul-905", scope_symbol_id = 6054 : i64} : (tensor<2x4096x1280xf16>, tensor<2x4096x1280xf16>) -> tensor<2x4096x1280xf16>
    %624 = "oneflow.broadcast_matmul"(%623, %output_677) {alpha = 1.000000e+00 : f64, device_name = ["@0:0"], device_tag = "cuda", hierarchy = [1], op_name = "unet.up_blocks.3.attentions.2.transformer_blocks.0.ff.net.2-broadcast_matmul-906", scope_symbol_id = 6072 : i64, transpose_a = false, transpose_b = true} : (tensor<2x4096x1280xf16>, tensor<320x1280xf16>) -> tensor<2x4096x320xf16>
    %625 = "oneflow.broadcast_add"(%624, %output_678) {device_name = ["@0:0"], device_tag = "cuda", hierarchy = [1], op_name = "unet.up_blocks.3.attentions.2.transformer_blocks.0.ff.net.2-broadcast_add-907", scope_symbol_id = 6072 : i64} : (tensor<2x4096x320xf16>, tensor<320xf16>) -> tensor<2x4096x320xf16>
    %626 = "oneflow.add_n2"(%625, %617) {device_name = ["@0:0"], device_tag = "cuda", hierarchy = [1], op_name = "unet.up_blocks.3.attentions.2.transformer_blocks.0-add_n-908", op_type_name = "add_n", scope_symbol_id = 5963 : i64} : (tensor<2x4096x320xf16>, tensor<2x4096x320xf16>) -> tensor<2x4096x320xf16>
    %627 = "oneflow.reshape"(%626) {device_name = ["@0:0"], device_tag = "cuda", hierarchy = [1], op_name = "unet.up_blocks.3.attentions.2-reshape-909", scope_symbol_id = 5900 : i64, shape = [2 : si64, 64 : si64, 64 : si64, 320 : si64]} : (tensor<2x4096x320xf16>) -> tensor<2x64x64x320xf16>
    %628 = "oneflow.conv2d"(%627, %output_679, %output_680) {data_format = "channels_last", device_name = ["@0:0"], device_tag = "cuda", dilation_rate = [1 : si32, 1 : si32], filters = 320 : si32, groups = 1 : si32, hierarchy = [1], kernel_size = [1 : si32, 1 : si32], op_name = "unet.up_blocks.3.attentions.2.proj_out-conv2d-911", operand_segment_sizes = dense<[1, 1, 1, 0]> : vector<4xi32>, padding_before = [0 : si32, 0 : si32], scope_symbol_id = 6100 : i64, strides = [1 : si32, 1 : si32]} : (tensor<2x64x64x320xf16>, tensor<320x1x1x320xf16>, tensor<320xf16>) -> tensor<2x64x64x320xf16>
    %629 = "oneflow.add_n2"(%628, %605) {device_name = ["@0:0"], device_tag = "cuda", hierarchy = [1], op_name = "unet.up_blocks.3.attentions.2-add_n-912", op_type_name = "add_n", scope_symbol_id = 5900 : i64} : (tensor<2x64x64x320xf16>, tensor<2x64x64x320xf16>) -> tensor<2x64x64x320xf16>
    %y_1009, %mean_1010, %inv_variance_1011 = "oneflow.group_norm"(%629, %output_682, %output_681) {activation = "silu", affine = true, data_format = "channels_last", device_name = ["@0:0"], device_tag = "cuda", epsilon = 1.000000e-05 : f64, hierarchy = [1], num_groups = 32 : si32, op_name = "unet.conv_norm_out-group_norm-913_with_activation", operand_segment_sizes = dense<1> : vector<3xi32>, scope_symbol_id = 6115 : i64} : (tensor<2x64x64x320xf16>, tensor<320xf16>, tensor<320xf16>) -> (tensor<2x64x64x320xf16>, tensor<2x32xf32>, tensor<2x32xf32>)
    %630 = "oneflow.conv2d"(%y_1009, %output_683, %output_684) {data_format = "channels_last", device_name = ["@0:0"], device_tag = "cuda", dilation_rate = [1 : si32, 1 : si32], filters = 4 : si32, groups = 1 : si32, hierarchy = [1], kernel_size = [3 : si32, 3 : si32], op_name = "unet.conv_out-conv2d-915", operand_segment_sizes = dense<[1, 1, 1, 0]> : vector<4xi32>, padding_before = [1 : si32, 1 : si32], scope_symbol_id = 6131 : i64, strides = [1 : si32, 1 : si32]} : (tensor<2x64x64x320xf16>, tensor<4x3x3x320xf16>, tensor<4xf16>) -> tensor<2x64x64x4xf16>
    %631 = "oneflow.transpose"(%630) {device_name = ["@0:0"], device_tag = "cuda", hierarchy = [1], op_name = "unet.conv_out-conv2d-915_transpose_output_0", perm = [0 : si32, 3 : si32, 1 : si32, 2 : si32], scope_symbol_id = 6131 : i64} : (tensor<2x64x64x4xf16>) -> tensor<2x4x64x64xf16>
    %output_1012 = "oneflow.output"(%631) {data_type = 9 : i32, device_name = ["@0:0"], device_tag = "cuda", hierarchy = [1], is_dynamic = false, nd_sbp = ["B"], op_name = "_UNetGraph_0_output.0.0_2", output_lbns = ["_UNetGraph_0_output.0.0_2/out"], scope_symbol_id = 12 : i64, shape = [2 : si64, 4 : si64, 64 : si64, 64 : si64]} : (tensor<2x4x64x64xf16>) -> tensor<2x4x64x64xf16>
    oneflow.return %output_1012 : tensor<2x4x64x64xf16>
  }
}
