module {
  oneflow.job @UNetGraph_0(%arg0: tensor<2x4x64x64xf32>, %arg1: tensor<si64>, %arg2: tensor<2x77x768xf16>) -> tensor<2x4x64x64xf16> {
    %output = "oneflow.variable"() {data_type = 9 : i32, device_name = ["@0:0"], device_tag = "cuda", hierarchy = [1], op_name = "unet.time_embedding.linear_1.weight", output_lbns = ["unet.time_embedding.linear_1.weight/out"], parallel = #sbp.parallel<[] -> [[#sbp.B]]>, scope_symbol_id = 80 : i64, shape = [1280 : si64, 320 : si64]} : () -> tensor<1280x320xf16>
    %output_0 = "oneflow.variable"() {data_type = 9 : i32, device_name = ["@0:0"], device_tag = "cuda", hierarchy = [1], op_name = "unet.time_embedding.linear_1.bias", output_lbns = ["unet.time_embedding.linear_1.bias/out"], parallel = #sbp.parallel<[] -> [[#sbp.B]]>, scope_symbol_id = 90 : i64, shape = [1280 : si64]} : () -> tensor<1280xf16>
    %output_1 = "oneflow.variable"() {data_type = 9 : i32, device_name = ["@0:0"], device_tag = "cuda", hierarchy = [1], op_name = "unet.time_embedding.linear_2.weight", output_lbns = ["unet.time_embedding.linear_2.weight/out"], parallel = #sbp.parallel<[] -> [[#sbp.B]]>, scope_symbol_id = 102 : i64, shape = [1280 : si64, 1280 : si64]} : () -> tensor<1280x1280xf16>
    %output_2 = "oneflow.variable"() {data_type = 9 : i32, device_name = ["@0:0"], device_tag = "cuda", hierarchy = [1], op_name = "unet.time_embedding.linear_2.bias", output_lbns = ["unet.time_embedding.linear_2.bias/out"], parallel = #sbp.parallel<[] -> [[#sbp.B]]>, scope_symbol_id = 109 : i64, shape = [1280 : si64]} : () -> tensor<1280xf16>
    %output_3 = "oneflow.variable"() {data_type = 9 : i32, device_name = ["@0:0"], device_tag = "cuda", hierarchy = [1], op_name = "variable_413", output_lbns = ["variable_413/out"], parallel = #sbp.parallel<[] -> [[#sbp.B]]>, scope_symbol_id = 117 : i64, shape = [320 : si64, 3 : si64, 3 : si64, 4 : si64]} : () -> tensor<320x3x3x4xf16>
    %output_4 = "oneflow.variable"() {data_type = 9 : i32, device_name = ["@0:0"], device_tag = "cuda", hierarchy = [1], op_name = "unet.conv_in.bias", output_lbns = ["unet.conv_in.bias/out"], parallel = #sbp.parallel<[] -> [[#sbp.B]]>, scope_symbol_id = 121 : i64, shape = [320 : si64]} : () -> tensor<320xf16>
    %output_5 = "oneflow.variable"() {data_type = 9 : i32, device_name = ["@0:0"], device_tag = "cuda", hierarchy = [1], op_name = "unet.down_blocks.0.resnets.0.norm1.weight", output_lbns = ["unet.down_blocks.0.resnets.0.norm1.weight/out"], parallel = #sbp.parallel<[] -> [[#sbp.B]]>, scope_symbol_id = 134 : i64, shape = [320 : si64]} : () -> tensor<320xf16>
    %output_6 = "oneflow.variable"() {data_type = 9 : i32, device_name = ["@0:0"], device_tag = "cuda", hierarchy = [1], op_name = "unet.down_blocks.0.resnets.0.norm1.bias", output_lbns = ["unet.down_blocks.0.resnets.0.norm1.bias/out"], parallel = #sbp.parallel<[] -> [[#sbp.B]]>, scope_symbol_id = 138 : i64, shape = [320 : si64]} : () -> tensor<320xf16>
    %output_7 = "oneflow.variable"() {data_type = 9 : i32, device_name = ["@0:0"], device_tag = "cuda", hierarchy = [1], op_name = "variable_412", output_lbns = ["variable_412/out"], parallel = #sbp.parallel<[] -> [[#sbp.B]]>, scope_symbol_id = 150 : i64, shape = [320 : si64, 3 : si64, 3 : si64, 320 : si64]} : () -> tensor<320x3x3x320xf16>
    %output_8 = "oneflow.variable"() {data_type = 9 : i32, device_name = ["@0:0"], device_tag = "cuda", hierarchy = [1], op_name = "unet.down_blocks.0.resnets.0.conv1.bias", output_lbns = ["unet.down_blocks.0.resnets.0.conv1.bias/out"], parallel = #sbp.parallel<[] -> [[#sbp.B]]>, scope_symbol_id = 154 : i64, shape = [320 : si64]} : () -> tensor<320xf16>
    %output_9 = "oneflow.variable"() {data_type = 9 : i32, device_name = ["@0:0"], device_tag = "cuda", hierarchy = [1], op_name = "unet.down_blocks.0.resnets.0.time_emb_proj.weight", output_lbns = ["unet.down_blocks.0.resnets.0.time_emb_proj.weight/out"], parallel = #sbp.parallel<[] -> [[#sbp.B]]>, scope_symbol_id = 165 : i64, shape = [320 : si64, 1280 : si64]} : () -> tensor<320x1280xf16>
    %output_10 = "oneflow.variable"() {data_type = 9 : i32, device_name = ["@0:0"], device_tag = "cuda", hierarchy = [1], op_name = "unet.down_blocks.0.resnets.0.time_emb_proj.bias", output_lbns = ["unet.down_blocks.0.resnets.0.time_emb_proj.bias/out"], parallel = #sbp.parallel<[] -> [[#sbp.B]]>, scope_symbol_id = 172 : i64, shape = [320 : si64]} : () -> tensor<320xf16>
    %output_11 = "oneflow.variable"() {data_type = 9 : i32, device_name = ["@0:0"], device_tag = "cuda", hierarchy = [1], op_name = "unet.down_blocks.0.resnets.0.norm2.weight", output_lbns = ["unet.down_blocks.0.resnets.0.norm2.weight/out"], parallel = #sbp.parallel<[] -> [[#sbp.B]]>, scope_symbol_id = 189 : i64, shape = [320 : si64]} : () -> tensor<320xf16>
    %output_12 = "oneflow.variable"() {data_type = 9 : i32, device_name = ["@0:0"], device_tag = "cuda", hierarchy = [1], op_name = "unet.down_blocks.0.resnets.0.norm2.bias", output_lbns = ["unet.down_blocks.0.resnets.0.norm2.bias/out"], parallel = #sbp.parallel<[] -> [[#sbp.B]]>, scope_symbol_id = 193 : i64, shape = [320 : si64]} : () -> tensor<320xf16>
    %output_13 = "oneflow.variable"() {data_type = 9 : i32, device_name = ["@0:0"], device_tag = "cuda", hierarchy = [1], op_name = "variable_411", output_lbns = ["variable_411/out"], parallel = #sbp.parallel<[] -> [[#sbp.B]]>, scope_symbol_id = 205 : i64, shape = [320 : si64, 3 : si64, 3 : si64, 320 : si64]} : () -> tensor<320x3x3x320xf16>
    %output_14 = "oneflow.variable"() {data_type = 9 : i32, device_name = ["@0:0"], device_tag = "cuda", hierarchy = [1], op_name = "unet.down_blocks.0.resnets.0.conv2.bias", output_lbns = ["unet.down_blocks.0.resnets.0.conv2.bias/out"], parallel = #sbp.parallel<[] -> [[#sbp.B]]>, scope_symbol_id = 209 : i64, shape = [320 : si64]} : () -> tensor<320xf16>
    %output_15 = "oneflow.variable"() {data_type = 9 : i32, device_name = ["@0:0"], device_tag = "cuda", hierarchy = [1], op_name = "unet.down_blocks.0.attentions.0.norm.weight", output_lbns = ["unet.down_blocks.0.attentions.0.norm.weight/out"], parallel = #sbp.parallel<[] -> [[#sbp.B]]>, scope_symbol_id = 224 : i64, shape = [320 : si64]} : () -> tensor<320xf16>
    %output_16 = "oneflow.variable"() {data_type = 9 : i32, device_name = ["@0:0"], device_tag = "cuda", hierarchy = [1], op_name = "unet.down_blocks.0.attentions.0.norm.bias", output_lbns = ["unet.down_blocks.0.attentions.0.norm.bias/out"], parallel = #sbp.parallel<[] -> [[#sbp.B]]>, scope_symbol_id = 228 : i64, shape = [320 : si64]} : () -> tensor<320xf16>
    %output_17 = "oneflow.variable"() {data_type = 9 : i32, device_name = ["@0:0"], device_tag = "cuda", hierarchy = [1], op_name = "variable_410", output_lbns = ["variable_410/out"], parallel = #sbp.parallel<[] -> [[#sbp.B]]>, scope_symbol_id = 236 : i64, shape = [320 : si64, 1 : si64, 1 : si64, 320 : si64]} : () -> tensor<320x1x1x320xf16>
    %output_18 = "oneflow.variable"() {data_type = 9 : i32, device_name = ["@0:0"], device_tag = "cuda", hierarchy = [1], op_name = "unet.down_blocks.0.attentions.0.proj_in.bias", output_lbns = ["unet.down_blocks.0.attentions.0.proj_in.bias/out"], parallel = #sbp.parallel<[] -> [[#sbp.B]]>, scope_symbol_id = 240 : i64, shape = [320 : si64]} : () -> tensor<320xf16>
    %output_19 = "oneflow.variable"() {data_type = 9 : i32, device_name = ["@0:0"], device_tag = "cuda", hierarchy = [1], op_name = "unet.down_blocks.0.attentions.0.transformer_blocks.0.norm1.weight", output_lbns = ["unet.down_blocks.0.attentions.0.transformer_blocks.0.norm1.weight/out"], parallel = #sbp.parallel<[] -> [[#sbp.B]]>, scope_symbol_id = 255 : i64, shape = [320 : si64]} : () -> tensor<320xf16>
    %output_20 = "oneflow.variable"() {data_type = 9 : i32, device_name = ["@0:0"], device_tag = "cuda", hierarchy = [1], op_name = "unet.down_blocks.0.attentions.0.transformer_blocks.0.norm1.bias", output_lbns = ["unet.down_blocks.0.attentions.0.transformer_blocks.0.norm1.bias/out"], parallel = #sbp.parallel<[] -> [[#sbp.B]]>, scope_symbol_id = 259 : i64, shape = [320 : si64]} : () -> tensor<320xf16>
    %output_21 = "oneflow.variable"() {data_type = 9 : i32, device_name = ["@0:0"], device_tag = "cuda", hierarchy = [1], op_name = "unet.down_blocks.0.attentions.0.transformer_blocks.0.attn1.to_q.weight", output_lbns = ["unet.down_blocks.0.attentions.0.transformer_blocks.0.attn1.to_q.weight/out"], parallel = #sbp.parallel<[] -> [[#sbp.B]]>, scope_symbol_id = 268 : i64, shape = [320 : si64, 320 : si64]} : () -> tensor<320x320xf16>
    %output_22 = "oneflow.variable"() {data_type = 9 : i32, device_name = ["@0:0"], device_tag = "cuda", hierarchy = [1], op_name = "unet.down_blocks.0.attentions.0.transformer_blocks.0.attn1.to_k.weight", output_lbns = ["unet.down_blocks.0.attentions.0.transformer_blocks.0.attn1.to_k.weight/out"], parallel = #sbp.parallel<[] -> [[#sbp.B]]>, scope_symbol_id = 276 : i64, shape = [320 : si64, 320 : si64]} : () -> tensor<320x320xf16>
    %output_23 = "oneflow.variable"() {data_type = 9 : i32, device_name = ["@0:0"], device_tag = "cuda", hierarchy = [1], op_name = "unet.down_blocks.0.attentions.0.transformer_blocks.0.attn1.to_v.weight", output_lbns = ["unet.down_blocks.0.attentions.0.transformer_blocks.0.attn1.to_v.weight/out"], parallel = #sbp.parallel<[] -> [[#sbp.B]]>, scope_symbol_id = 284 : i64, shape = [320 : si64, 320 : si64]} : () -> tensor<320x320xf16>
    %output_24 = "oneflow.variable"() {data_type = 9 : i32, device_name = ["@0:0"], device_tag = "cuda", hierarchy = [1], op_name = "unet.down_blocks.0.attentions.0.transformer_blocks.0.attn1.to_out.0.weight", output_lbns = ["unet.down_blocks.0.attentions.0.transformer_blocks.0.attn1.to_out.0.weight/out"], parallel = #sbp.parallel<[] -> [[#sbp.B]]>, scope_symbol_id = 296 : i64, shape = [320 : si64, 320 : si64]} : () -> tensor<320x320xf16>
    %output_25 = "oneflow.variable"() {data_type = 9 : i32, device_name = ["@0:0"], device_tag = "cuda", hierarchy = [1], op_name = "unet.down_blocks.0.attentions.0.transformer_blocks.0.attn1.to_out.0.bias", output_lbns = ["unet.down_blocks.0.attentions.0.transformer_blocks.0.attn1.to_out.0.bias/out"], parallel = #sbp.parallel<[] -> [[#sbp.B]]>, scope_symbol_id = 303 : i64, shape = [320 : si64]} : () -> tensor<320xf16>
    %output_26 = "oneflow.variable"() {data_type = 9 : i32, device_name = ["@0:0"], device_tag = "cuda", hierarchy = [1], op_name = "unet.down_blocks.0.attentions.0.transformer_blocks.0.norm2.weight", output_lbns = ["unet.down_blocks.0.attentions.0.transformer_blocks.0.norm2.weight/out"], parallel = #sbp.parallel<[] -> [[#sbp.B]]>, scope_symbol_id = 315 : i64, shape = [320 : si64]} : () -> tensor<320xf16>
    %output_27 = "oneflow.variable"() {data_type = 9 : i32, device_name = ["@0:0"], device_tag = "cuda", hierarchy = [1], op_name = "unet.down_blocks.0.attentions.0.transformer_blocks.0.norm2.bias", output_lbns = ["unet.down_blocks.0.attentions.0.transformer_blocks.0.norm2.bias/out"], parallel = #sbp.parallel<[] -> [[#sbp.B]]>, scope_symbol_id = 319 : i64, shape = [320 : si64]} : () -> tensor<320xf16>
    %output_28 = "oneflow.variable"() {data_type = 9 : i32, device_name = ["@0:0"], device_tag = "cuda", hierarchy = [1], op_name = "unet.down_blocks.0.attentions.0.transformer_blocks.0.attn2.to_q.weight", output_lbns = ["unet.down_blocks.0.attentions.0.transformer_blocks.0.attn2.to_q.weight/out"], parallel = #sbp.parallel<[] -> [[#sbp.B]]>, scope_symbol_id = 328 : i64, shape = [320 : si64, 320 : si64]} : () -> tensor<320x320xf16>
    %output_29 = "oneflow.variable"() {data_type = 9 : i32, device_name = ["@0:0"], device_tag = "cuda", hierarchy = [1], op_name = "unet.down_blocks.0.attentions.0.transformer_blocks.0.attn2.to_k.weight", output_lbns = ["unet.down_blocks.0.attentions.0.transformer_blocks.0.attn2.to_k.weight/out"], parallel = #sbp.parallel<[] -> [[#sbp.B]]>, scope_symbol_id = 336 : i64, shape = [320 : si64, 768 : si64]} : () -> tensor<320x768xf16>
    %output_30 = "oneflow.variable"() {data_type = 9 : i32, device_name = ["@0:0"], device_tag = "cuda", hierarchy = [1], op_name = "unet.down_blocks.0.attentions.0.transformer_blocks.0.attn2.to_v.weight", output_lbns = ["unet.down_blocks.0.attentions.0.transformer_blocks.0.attn2.to_v.weight/out"], parallel = #sbp.parallel<[] -> [[#sbp.B]]>, scope_symbol_id = 344 : i64, shape = [320 : si64, 768 : si64]} : () -> tensor<320x768xf16>
    %output_31 = "oneflow.variable"() {data_type = 9 : i32, device_name = ["@0:0"], device_tag = "cuda", hierarchy = [1], op_name = "unet.down_blocks.0.attentions.0.transformer_blocks.0.attn2.to_out.0.weight", output_lbns = ["unet.down_blocks.0.attentions.0.transformer_blocks.0.attn2.to_out.0.weight/out"], parallel = #sbp.parallel<[] -> [[#sbp.B]]>, scope_symbol_id = 356 : i64, shape = [320 : si64, 320 : si64]} : () -> tensor<320x320xf16>
    %output_32 = "oneflow.variable"() {data_type = 9 : i32, device_name = ["@0:0"], device_tag = "cuda", hierarchy = [1], op_name = "unet.down_blocks.0.attentions.0.transformer_blocks.0.attn2.to_out.0.bias", output_lbns = ["unet.down_blocks.0.attentions.0.transformer_blocks.0.attn2.to_out.0.bias/out"], parallel = #sbp.parallel<[] -> [[#sbp.B]]>, scope_symbol_id = 363 : i64, shape = [320 : si64]} : () -> tensor<320xf16>
    %output_33 = "oneflow.variable"() {data_type = 9 : i32, device_name = ["@0:0"], device_tag = "cuda", hierarchy = [1], op_name = "unet.down_blocks.0.attentions.0.transformer_blocks.0.norm3.weight", output_lbns = ["unet.down_blocks.0.attentions.0.transformer_blocks.0.norm3.weight/out"], parallel = #sbp.parallel<[] -> [[#sbp.B]]>, scope_symbol_id = 375 : i64, shape = [320 : si64]} : () -> tensor<320xf16>
    %output_34 = "oneflow.variable"() {data_type = 9 : i32, device_name = ["@0:0"], device_tag = "cuda", hierarchy = [1], op_name = "unet.down_blocks.0.attentions.0.transformer_blocks.0.norm3.bias", output_lbns = ["unet.down_blocks.0.attentions.0.transformer_blocks.0.norm3.bias/out"], parallel = #sbp.parallel<[] -> [[#sbp.B]]>, scope_symbol_id = 379 : i64, shape = [320 : si64]} : () -> tensor<320xf16>
    %output_35 = "oneflow.variable"() {data_type = 9 : i32, device_name = ["@0:0"], device_tag = "cuda", hierarchy = [1], op_name = "unet.down_blocks.0.attentions.0.transformer_blocks.0.ff.net.0.proj.weight", output_lbns = ["unet.down_blocks.0.attentions.0.transformer_blocks.0.ff.net.0.proj.weight/out"], parallel = #sbp.parallel<[] -> [[#sbp.B]]>, scope_symbol_id = 390 : i64, shape = [2560 : si64, 320 : si64]} : () -> tensor<2560x320xf16>
    %output_36 = "oneflow.variable"() {data_type = 9 : i32, device_name = ["@0:0"], device_tag = "cuda", hierarchy = [1], op_name = "unet.down_blocks.0.attentions.0.transformer_blocks.0.ff.net.0.proj.bias", output_lbns = ["unet.down_blocks.0.attentions.0.transformer_blocks.0.ff.net.0.proj.bias/out"], parallel = #sbp.parallel<[] -> [[#sbp.B]]>, scope_symbol_id = 397 : i64, shape = [2560 : si64]} : () -> tensor<2560xf16>
    %output_37 = "oneflow.variable"() {data_type = 9 : i32, device_name = ["@0:0"], device_tag = "cuda", hierarchy = [1], op_name = "unet.down_blocks.0.attentions.0.transformer_blocks.0.ff.net.2.weight", output_lbns = ["unet.down_blocks.0.attentions.0.transformer_blocks.0.ff.net.2.weight/out"], parallel = #sbp.parallel<[] -> [[#sbp.B]]>, scope_symbol_id = 418 : i64, shape = [320 : si64, 1280 : si64]} : () -> tensor<320x1280xf16>
    %output_38 = "oneflow.variable"() {data_type = 9 : i32, device_name = ["@0:0"], device_tag = "cuda", hierarchy = [1], op_name = "unet.down_blocks.0.attentions.0.transformer_blocks.0.ff.net.2.bias", output_lbns = ["unet.down_blocks.0.attentions.0.transformer_blocks.0.ff.net.2.bias/out"], parallel = #sbp.parallel<[] -> [[#sbp.B]]>, scope_symbol_id = 425 : i64, shape = [320 : si64]} : () -> tensor<320xf16>
    %output_39 = "oneflow.variable"() {data_type = 9 : i32, device_name = ["@0:0"], device_tag = "cuda", hierarchy = [1], op_name = "variable_409", output_lbns = ["variable_409/out"], parallel = #sbp.parallel<[] -> [[#sbp.B]]>, scope_symbol_id = 442 : i64, shape = [320 : si64, 1 : si64, 1 : si64, 320 : si64]} : () -> tensor<320x1x1x320xf16>
    %output_40 = "oneflow.variable"() {data_type = 9 : i32, device_name = ["@0:0"], device_tag = "cuda", hierarchy = [1], op_name = "unet.down_blocks.0.attentions.0.proj_out.bias", output_lbns = ["unet.down_blocks.0.attentions.0.proj_out.bias/out"], parallel = #sbp.parallel<[] -> [[#sbp.B]]>, scope_symbol_id = 446 : i64, shape = [320 : si64]} : () -> tensor<320xf16>
    %output_41 = "oneflow.variable"() {data_type = 9 : i32, device_name = ["@0:0"], device_tag = "cuda", hierarchy = [1], op_name = "unet.down_blocks.0.resnets.1.norm1.weight", output_lbns = ["unet.down_blocks.0.resnets.1.norm1.weight/out"], parallel = #sbp.parallel<[] -> [[#sbp.B]]>, scope_symbol_id = 458 : i64, shape = [320 : si64]} : () -> tensor<320xf16>
    %output_42 = "oneflow.variable"() {data_type = 9 : i32, device_name = ["@0:0"], device_tag = "cuda", hierarchy = [1], op_name = "unet.down_blocks.0.resnets.1.norm1.bias", output_lbns = ["unet.down_blocks.0.resnets.1.norm1.bias/out"], parallel = #sbp.parallel<[] -> [[#sbp.B]]>, scope_symbol_id = 462 : i64, shape = [320 : si64]} : () -> tensor<320xf16>
    %output_43 = "oneflow.variable"() {data_type = 9 : i32, device_name = ["@0:0"], device_tag = "cuda", hierarchy = [1], op_name = "variable_408", output_lbns = ["variable_408/out"], parallel = #sbp.parallel<[] -> [[#sbp.B]]>, scope_symbol_id = 474 : i64, shape = [320 : si64, 3 : si64, 3 : si64, 320 : si64]} : () -> tensor<320x3x3x320xf16>
    %output_44 = "oneflow.variable"() {data_type = 9 : i32, device_name = ["@0:0"], device_tag = "cuda", hierarchy = [1], op_name = "unet.down_blocks.0.resnets.1.conv1.bias", output_lbns = ["unet.down_blocks.0.resnets.1.conv1.bias/out"], parallel = #sbp.parallel<[] -> [[#sbp.B]]>, scope_symbol_id = 478 : i64, shape = [320 : si64]} : () -> tensor<320xf16>
    %output_45 = "oneflow.variable"() {data_type = 9 : i32, device_name = ["@0:0"], device_tag = "cuda", hierarchy = [1], op_name = "unet.down_blocks.0.resnets.1.time_emb_proj.weight", output_lbns = ["unet.down_blocks.0.resnets.1.time_emb_proj.weight/out"], parallel = #sbp.parallel<[] -> [[#sbp.B]]>, scope_symbol_id = 489 : i64, shape = [320 : si64, 1280 : si64]} : () -> tensor<320x1280xf16>
    %output_46 = "oneflow.variable"() {data_type = 9 : i32, device_name = ["@0:0"], device_tag = "cuda", hierarchy = [1], op_name = "unet.down_blocks.0.resnets.1.time_emb_proj.bias", output_lbns = ["unet.down_blocks.0.resnets.1.time_emb_proj.bias/out"], parallel = #sbp.parallel<[] -> [[#sbp.B]]>, scope_symbol_id = 496 : i64, shape = [320 : si64]} : () -> tensor<320xf16>
    %output_47 = "oneflow.variable"() {data_type = 9 : i32, device_name = ["@0:0"], device_tag = "cuda", hierarchy = [1], op_name = "unet.down_blocks.0.resnets.1.norm2.weight", output_lbns = ["unet.down_blocks.0.resnets.1.norm2.weight/out"], parallel = #sbp.parallel<[] -> [[#sbp.B]]>, scope_symbol_id = 513 : i64, shape = [320 : si64]} : () -> tensor<320xf16>
    %output_48 = "oneflow.variable"() {data_type = 9 : i32, device_name = ["@0:0"], device_tag = "cuda", hierarchy = [1], op_name = "unet.down_blocks.0.resnets.1.norm2.bias", output_lbns = ["unet.down_blocks.0.resnets.1.norm2.bias/out"], parallel = #sbp.parallel<[] -> [[#sbp.B]]>, scope_symbol_id = 517 : i64, shape = [320 : si64]} : () -> tensor<320xf16>
    %output_49 = "oneflow.variable"() {data_type = 9 : i32, device_name = ["@0:0"], device_tag = "cuda", hierarchy = [1], op_name = "variable_407", output_lbns = ["variable_407/out"], parallel = #sbp.parallel<[] -> [[#sbp.B]]>, scope_symbol_id = 529 : i64, shape = [320 : si64, 3 : si64, 3 : si64, 320 : si64]} : () -> tensor<320x3x3x320xf16>
    %output_50 = "oneflow.variable"() {data_type = 9 : i32, device_name = ["@0:0"], device_tag = "cuda", hierarchy = [1], op_name = "unet.down_blocks.0.resnets.1.conv2.bias", output_lbns = ["unet.down_blocks.0.resnets.1.conv2.bias/out"], parallel = #sbp.parallel<[] -> [[#sbp.B]]>, scope_symbol_id = 533 : i64, shape = [320 : si64]} : () -> tensor<320xf16>
    %output_51 = "oneflow.variable"() {data_type = 9 : i32, device_name = ["@0:0"], device_tag = "cuda", hierarchy = [1], op_name = "unet.down_blocks.0.attentions.1.norm.weight", output_lbns = ["unet.down_blocks.0.attentions.1.norm.weight/out"], parallel = #sbp.parallel<[] -> [[#sbp.B]]>, scope_symbol_id = 548 : i64, shape = [320 : si64]} : () -> tensor<320xf16>
    %output_52 = "oneflow.variable"() {data_type = 9 : i32, device_name = ["@0:0"], device_tag = "cuda", hierarchy = [1], op_name = "unet.down_blocks.0.attentions.1.norm.bias", output_lbns = ["unet.down_blocks.0.attentions.1.norm.bias/out"], parallel = #sbp.parallel<[] -> [[#sbp.B]]>, scope_symbol_id = 552 : i64, shape = [320 : si64]} : () -> tensor<320xf16>
    %output_53 = "oneflow.variable"() {data_type = 9 : i32, device_name = ["@0:0"], device_tag = "cuda", hierarchy = [1], op_name = "variable_406", output_lbns = ["variable_406/out"], parallel = #sbp.parallel<[] -> [[#sbp.B]]>, scope_symbol_id = 560 : i64, shape = [320 : si64, 1 : si64, 1 : si64, 320 : si64]} : () -> tensor<320x1x1x320xf16>
    %output_54 = "oneflow.variable"() {data_type = 9 : i32, device_name = ["@0:0"], device_tag = "cuda", hierarchy = [1], op_name = "unet.down_blocks.0.attentions.1.proj_in.bias", output_lbns = ["unet.down_blocks.0.attentions.1.proj_in.bias/out"], parallel = #sbp.parallel<[] -> [[#sbp.B]]>, scope_symbol_id = 564 : i64, shape = [320 : si64]} : () -> tensor<320xf16>
    %output_55 = "oneflow.variable"() {data_type = 9 : i32, device_name = ["@0:0"], device_tag = "cuda", hierarchy = [1], op_name = "unet.down_blocks.0.attentions.1.transformer_blocks.0.norm1.weight", output_lbns = ["unet.down_blocks.0.attentions.1.transformer_blocks.0.norm1.weight/out"], parallel = #sbp.parallel<[] -> [[#sbp.B]]>, scope_symbol_id = 579 : i64, shape = [320 : si64]} : () -> tensor<320xf16>
    %output_56 = "oneflow.variable"() {data_type = 9 : i32, device_name = ["@0:0"], device_tag = "cuda", hierarchy = [1], op_name = "unet.down_blocks.0.attentions.1.transformer_blocks.0.norm1.bias", output_lbns = ["unet.down_blocks.0.attentions.1.transformer_blocks.0.norm1.bias/out"], parallel = #sbp.parallel<[] -> [[#sbp.B]]>, scope_symbol_id = 583 : i64, shape = [320 : si64]} : () -> tensor<320xf16>
    %output_57 = "oneflow.variable"() {data_type = 9 : i32, device_name = ["@0:0"], device_tag = "cuda", hierarchy = [1], op_name = "unet.down_blocks.0.attentions.1.transformer_blocks.0.attn1.to_q.weight", output_lbns = ["unet.down_blocks.0.attentions.1.transformer_blocks.0.attn1.to_q.weight/out"], parallel = #sbp.parallel<[] -> [[#sbp.B]]>, scope_symbol_id = 592 : i64, shape = [320 : si64, 320 : si64]} : () -> tensor<320x320xf16>
    %output_58 = "oneflow.variable"() {data_type = 9 : i32, device_name = ["@0:0"], device_tag = "cuda", hierarchy = [1], op_name = "unet.down_blocks.0.attentions.1.transformer_blocks.0.attn1.to_k.weight", output_lbns = ["unet.down_blocks.0.attentions.1.transformer_blocks.0.attn1.to_k.weight/out"], parallel = #sbp.parallel<[] -> [[#sbp.B]]>, scope_symbol_id = 600 : i64, shape = [320 : si64, 320 : si64]} : () -> tensor<320x320xf16>
    %output_59 = "oneflow.variable"() {data_type = 9 : i32, device_name = ["@0:0"], device_tag = "cuda", hierarchy = [1], op_name = "unet.down_blocks.0.attentions.1.transformer_blocks.0.attn1.to_v.weight", output_lbns = ["unet.down_blocks.0.attentions.1.transformer_blocks.0.attn1.to_v.weight/out"], parallel = #sbp.parallel<[] -> [[#sbp.B]]>, scope_symbol_id = 608 : i64, shape = [320 : si64, 320 : si64]} : () -> tensor<320x320xf16>
    %output_60 = "oneflow.variable"() {data_type = 9 : i32, device_name = ["@0:0"], device_tag = "cuda", hierarchy = [1], op_name = "unet.down_blocks.0.attentions.1.transformer_blocks.0.attn1.to_out.0.weight", output_lbns = ["unet.down_blocks.0.attentions.1.transformer_blocks.0.attn1.to_out.0.weight/out"], parallel = #sbp.parallel<[] -> [[#sbp.B]]>, scope_symbol_id = 620 : i64, shape = [320 : si64, 320 : si64]} : () -> tensor<320x320xf16>
    %output_61 = "oneflow.variable"() {data_type = 9 : i32, device_name = ["@0:0"], device_tag = "cuda", hierarchy = [1], op_name = "unet.down_blocks.0.attentions.1.transformer_blocks.0.attn1.to_out.0.bias", output_lbns = ["unet.down_blocks.0.attentions.1.transformer_blocks.0.attn1.to_out.0.bias/out"], parallel = #sbp.parallel<[] -> [[#sbp.B]]>, scope_symbol_id = 627 : i64, shape = [320 : si64]} : () -> tensor<320xf16>
    %output_62 = "oneflow.variable"() {data_type = 9 : i32, device_name = ["@0:0"], device_tag = "cuda", hierarchy = [1], op_name = "unet.down_blocks.0.attentions.1.transformer_blocks.0.norm2.weight", output_lbns = ["unet.down_blocks.0.attentions.1.transformer_blocks.0.norm2.weight/out"], parallel = #sbp.parallel<[] -> [[#sbp.B]]>, scope_symbol_id = 639 : i64, shape = [320 : si64]} : () -> tensor<320xf16>
    %output_63 = "oneflow.variable"() {data_type = 9 : i32, device_name = ["@0:0"], device_tag = "cuda", hierarchy = [1], op_name = "unet.down_blocks.0.attentions.1.transformer_blocks.0.norm2.bias", output_lbns = ["unet.down_blocks.0.attentions.1.transformer_blocks.0.norm2.bias/out"], parallel = #sbp.parallel<[] -> [[#sbp.B]]>, scope_symbol_id = 643 : i64, shape = [320 : si64]} : () -> tensor<320xf16>
    %output_64 = "oneflow.variable"() {data_type = 9 : i32, device_name = ["@0:0"], device_tag = "cuda", hierarchy = [1], op_name = "unet.down_blocks.0.attentions.1.transformer_blocks.0.attn2.to_q.weight", output_lbns = ["unet.down_blocks.0.attentions.1.transformer_blocks.0.attn2.to_q.weight/out"], parallel = #sbp.parallel<[] -> [[#sbp.B]]>, scope_symbol_id = 652 : i64, shape = [320 : si64, 320 : si64]} : () -> tensor<320x320xf16>
    %output_65 = "oneflow.variable"() {data_type = 9 : i32, device_name = ["@0:0"], device_tag = "cuda", hierarchy = [1], op_name = "unet.down_blocks.0.attentions.1.transformer_blocks.0.attn2.to_k.weight", output_lbns = ["unet.down_blocks.0.attentions.1.transformer_blocks.0.attn2.to_k.weight/out"], parallel = #sbp.parallel<[] -> [[#sbp.B]]>, scope_symbol_id = 660 : i64, shape = [320 : si64, 768 : si64]} : () -> tensor<320x768xf16>
    %output_66 = "oneflow.variable"() {data_type = 9 : i32, device_name = ["@0:0"], device_tag = "cuda", hierarchy = [1], op_name = "unet.down_blocks.0.attentions.1.transformer_blocks.0.attn2.to_v.weight", output_lbns = ["unet.down_blocks.0.attentions.1.transformer_blocks.0.attn2.to_v.weight/out"], parallel = #sbp.parallel<[] -> [[#sbp.B]]>, scope_symbol_id = 668 : i64, shape = [320 : si64, 768 : si64]} : () -> tensor<320x768xf16>
    %output_67 = "oneflow.variable"() {data_type = 9 : i32, device_name = ["@0:0"], device_tag = "cuda", hierarchy = [1], op_name = "unet.down_blocks.0.attentions.1.transformer_blocks.0.attn2.to_out.0.weight", output_lbns = ["unet.down_blocks.0.attentions.1.transformer_blocks.0.attn2.to_out.0.weight/out"], parallel = #sbp.parallel<[] -> [[#sbp.B]]>, scope_symbol_id = 680 : i64, shape = [320 : si64, 320 : si64]} : () -> tensor<320x320xf16>
    %output_68 = "oneflow.variable"() {data_type = 9 : i32, device_name = ["@0:0"], device_tag = "cuda", hierarchy = [1], op_name = "unet.down_blocks.0.attentions.1.transformer_blocks.0.attn2.to_out.0.bias", output_lbns = ["unet.down_blocks.0.attentions.1.transformer_blocks.0.attn2.to_out.0.bias/out"], parallel = #sbp.parallel<[] -> [[#sbp.B]]>, scope_symbol_id = 687 : i64, shape = [320 : si64]} : () -> tensor<320xf16>
    %output_69 = "oneflow.variable"() {data_type = 9 : i32, device_name = ["@0:0"], device_tag = "cuda", hierarchy = [1], op_name = "unet.down_blocks.0.attentions.1.transformer_blocks.0.norm3.weight", output_lbns = ["unet.down_blocks.0.attentions.1.transformer_blocks.0.norm3.weight/out"], parallel = #sbp.parallel<[] -> [[#sbp.B]]>, scope_symbol_id = 699 : i64, shape = [320 : si64]} : () -> tensor<320xf16>
    %output_70 = "oneflow.variable"() {data_type = 9 : i32, device_name = ["@0:0"], device_tag = "cuda", hierarchy = [1], op_name = "unet.down_blocks.0.attentions.1.transformer_blocks.0.norm3.bias", output_lbns = ["unet.down_blocks.0.attentions.1.transformer_blocks.0.norm3.bias/out"], parallel = #sbp.parallel<[] -> [[#sbp.B]]>, scope_symbol_id = 703 : i64, shape = [320 : si64]} : () -> tensor<320xf16>
    %output_71 = "oneflow.variable"() {data_type = 9 : i32, device_name = ["@0:0"], device_tag = "cuda", hierarchy = [1], op_name = "unet.down_blocks.0.attentions.1.transformer_blocks.0.ff.net.0.proj.weight", output_lbns = ["unet.down_blocks.0.attentions.1.transformer_blocks.0.ff.net.0.proj.weight/out"], parallel = #sbp.parallel<[] -> [[#sbp.B]]>, scope_symbol_id = 714 : i64, shape = [2560 : si64, 320 : si64]} : () -> tensor<2560x320xf16>
    %output_72 = "oneflow.variable"() {data_type = 9 : i32, device_name = ["@0:0"], device_tag = "cuda", hierarchy = [1], op_name = "unet.down_blocks.0.attentions.1.transformer_blocks.0.ff.net.0.proj.bias", output_lbns = ["unet.down_blocks.0.attentions.1.transformer_blocks.0.ff.net.0.proj.bias/out"], parallel = #sbp.parallel<[] -> [[#sbp.B]]>, scope_symbol_id = 721 : i64, shape = [2560 : si64]} : () -> tensor<2560xf16>
    %output_73 = "oneflow.variable"() {data_type = 9 : i32, device_name = ["@0:0"], device_tag = "cuda", hierarchy = [1], op_name = "unet.down_blocks.0.attentions.1.transformer_blocks.0.ff.net.2.weight", output_lbns = ["unet.down_blocks.0.attentions.1.transformer_blocks.0.ff.net.2.weight/out"], parallel = #sbp.parallel<[] -> [[#sbp.B]]>, scope_symbol_id = 742 : i64, shape = [320 : si64, 1280 : si64]} : () -> tensor<320x1280xf16>
    %output_74 = "oneflow.variable"() {data_type = 9 : i32, device_name = ["@0:0"], device_tag = "cuda", hierarchy = [1], op_name = "unet.down_blocks.0.attentions.1.transformer_blocks.0.ff.net.2.bias", output_lbns = ["unet.down_blocks.0.attentions.1.transformer_blocks.0.ff.net.2.bias/out"], parallel = #sbp.parallel<[] -> [[#sbp.B]]>, scope_symbol_id = 749 : i64, shape = [320 : si64]} : () -> tensor<320xf16>
    %output_75 = "oneflow.variable"() {data_type = 9 : i32, device_name = ["@0:0"], device_tag = "cuda", hierarchy = [1], op_name = "variable_405", output_lbns = ["variable_405/out"], parallel = #sbp.parallel<[] -> [[#sbp.B]]>, scope_symbol_id = 766 : i64, shape = [320 : si64, 1 : si64, 1 : si64, 320 : si64]} : () -> tensor<320x1x1x320xf16>
    %output_76 = "oneflow.variable"() {data_type = 9 : i32, device_name = ["@0:0"], device_tag = "cuda", hierarchy = [1], op_name = "unet.down_blocks.0.attentions.1.proj_out.bias", output_lbns = ["unet.down_blocks.0.attentions.1.proj_out.bias/out"], parallel = #sbp.parallel<[] -> [[#sbp.B]]>, scope_symbol_id = 770 : i64, shape = [320 : si64]} : () -> tensor<320xf16>
    %output_77 = "oneflow.variable"() {data_type = 9 : i32, device_name = ["@0:0"], device_tag = "cuda", hierarchy = [1], op_name = "variable_404", output_lbns = ["variable_404/out"], parallel = #sbp.parallel<[] -> [[#sbp.B]]>, scope_symbol_id = 782 : i64, shape = [320 : si64, 3 : si64, 3 : si64, 320 : si64]} : () -> tensor<320x3x3x320xf16>
    %output_78 = "oneflow.variable"() {data_type = 9 : i32, device_name = ["@0:0"], device_tag = "cuda", hierarchy = [1], op_name = "unet.down_blocks.0.downsamplers.0.conv.bias", output_lbns = ["unet.down_blocks.0.downsamplers.0.conv.bias/out"], parallel = #sbp.parallel<[] -> [[#sbp.B]]>, scope_symbol_id = 786 : i64, shape = [320 : si64]} : () -> tensor<320xf16>
    %output_79 = "oneflow.variable"() {data_type = 9 : i32, device_name = ["@0:0"], device_tag = "cuda", hierarchy = [1], op_name = "unet.down_blocks.1.resnets.0.norm1.weight", output_lbns = ["unet.down_blocks.1.resnets.0.norm1.weight/out"], parallel = #sbp.parallel<[] -> [[#sbp.B]]>, scope_symbol_id = 796 : i64, shape = [320 : si64]} : () -> tensor<320xf16>
    %output_80 = "oneflow.variable"() {data_type = 9 : i32, device_name = ["@0:0"], device_tag = "cuda", hierarchy = [1], op_name = "unet.down_blocks.1.resnets.0.norm1.bias", output_lbns = ["unet.down_blocks.1.resnets.0.norm1.bias/out"], parallel = #sbp.parallel<[] -> [[#sbp.B]]>, scope_symbol_id = 800 : i64, shape = [320 : si64]} : () -> tensor<320xf16>
    %output_81 = "oneflow.variable"() {data_type = 9 : i32, device_name = ["@0:0"], device_tag = "cuda", hierarchy = [1], op_name = "variable_403", output_lbns = ["variable_403/out"], parallel = #sbp.parallel<[] -> [[#sbp.B]]>, scope_symbol_id = 812 : i64, shape = [640 : si64, 3 : si64, 3 : si64, 320 : si64]} : () -> tensor<640x3x3x320xf16>
    %output_82 = "oneflow.variable"() {data_type = 9 : i32, device_name = ["@0:0"], device_tag = "cuda", hierarchy = [1], op_name = "unet.down_blocks.1.resnets.0.conv1.bias", output_lbns = ["unet.down_blocks.1.resnets.0.conv1.bias/out"], parallel = #sbp.parallel<[] -> [[#sbp.B]]>, scope_symbol_id = 816 : i64, shape = [640 : si64]} : () -> tensor<640xf16>
    %output_83 = "oneflow.variable"() {data_type = 9 : i32, device_name = ["@0:0"], device_tag = "cuda", hierarchy = [1], op_name = "unet.down_blocks.1.resnets.0.time_emb_proj.weight", output_lbns = ["unet.down_blocks.1.resnets.0.time_emb_proj.weight/out"], parallel = #sbp.parallel<[] -> [[#sbp.B]]>, scope_symbol_id = 827 : i64, shape = [640 : si64, 1280 : si64]} : () -> tensor<640x1280xf16>
    %output_84 = "oneflow.variable"() {data_type = 9 : i32, device_name = ["@0:0"], device_tag = "cuda", hierarchy = [1], op_name = "unet.down_blocks.1.resnets.0.time_emb_proj.bias", output_lbns = ["unet.down_blocks.1.resnets.0.time_emb_proj.bias/out"], parallel = #sbp.parallel<[] -> [[#sbp.B]]>, scope_symbol_id = 834 : i64, shape = [640 : si64]} : () -> tensor<640xf16>
    %output_85 = "oneflow.variable"() {data_type = 9 : i32, device_name = ["@0:0"], device_tag = "cuda", hierarchy = [1], op_name = "unet.down_blocks.1.resnets.0.norm2.weight", output_lbns = ["unet.down_blocks.1.resnets.0.norm2.weight/out"], parallel = #sbp.parallel<[] -> [[#sbp.B]]>, scope_symbol_id = 851 : i64, shape = [640 : si64]} : () -> tensor<640xf16>
    %output_86 = "oneflow.variable"() {data_type = 9 : i32, device_name = ["@0:0"], device_tag = "cuda", hierarchy = [1], op_name = "unet.down_blocks.1.resnets.0.norm2.bias", output_lbns = ["unet.down_blocks.1.resnets.0.norm2.bias/out"], parallel = #sbp.parallel<[] -> [[#sbp.B]]>, scope_symbol_id = 855 : i64, shape = [640 : si64]} : () -> tensor<640xf16>
    %output_87 = "oneflow.variable"() {data_type = 9 : i32, device_name = ["@0:0"], device_tag = "cuda", hierarchy = [1], op_name = "variable_402", output_lbns = ["variable_402/out"], parallel = #sbp.parallel<[] -> [[#sbp.B]]>, scope_symbol_id = 867 : i64, shape = [640 : si64, 3 : si64, 3 : si64, 640 : si64]} : () -> tensor<640x3x3x640xf16>
    %output_88 = "oneflow.variable"() {data_type = 9 : i32, device_name = ["@0:0"], device_tag = "cuda", hierarchy = [1], op_name = "unet.down_blocks.1.resnets.0.conv2.bias", output_lbns = ["unet.down_blocks.1.resnets.0.conv2.bias/out"], parallel = #sbp.parallel<[] -> [[#sbp.B]]>, scope_symbol_id = 871 : i64, shape = [640 : si64]} : () -> tensor<640xf16>
    %output_89 = "oneflow.variable"() {data_type = 9 : i32, device_name = ["@0:0"], device_tag = "cuda", hierarchy = [1], op_name = "variable_401", output_lbns = ["variable_401/out"], parallel = #sbp.parallel<[] -> [[#sbp.B]]>, scope_symbol_id = 879 : i64, shape = [640 : si64, 1 : si64, 1 : si64, 320 : si64]} : () -> tensor<640x1x1x320xf16>
    %output_90 = "oneflow.variable"() {data_type = 9 : i32, device_name = ["@0:0"], device_tag = "cuda", hierarchy = [1], op_name = "unet.down_blocks.1.resnets.0.conv_shortcut.bias", output_lbns = ["unet.down_blocks.1.resnets.0.conv_shortcut.bias/out"], parallel = #sbp.parallel<[] -> [[#sbp.B]]>, scope_symbol_id = 883 : i64, shape = [640 : si64]} : () -> tensor<640xf16>
    %output_91 = "oneflow.variable"() {data_type = 9 : i32, device_name = ["@0:0"], device_tag = "cuda", hierarchy = [1], op_name = "unet.down_blocks.1.attentions.0.norm.weight", output_lbns = ["unet.down_blocks.1.attentions.0.norm.weight/out"], parallel = #sbp.parallel<[] -> [[#sbp.B]]>, scope_symbol_id = 898 : i64, shape = [640 : si64]} : () -> tensor<640xf16>
    %output_92 = "oneflow.variable"() {data_type = 9 : i32, device_name = ["@0:0"], device_tag = "cuda", hierarchy = [1], op_name = "unet.down_blocks.1.attentions.0.norm.bias", output_lbns = ["unet.down_blocks.1.attentions.0.norm.bias/out"], parallel = #sbp.parallel<[] -> [[#sbp.B]]>, scope_symbol_id = 902 : i64, shape = [640 : si64]} : () -> tensor<640xf16>
    %output_93 = "oneflow.variable"() {data_type = 9 : i32, device_name = ["@0:0"], device_tag = "cuda", hierarchy = [1], op_name = "variable_400", output_lbns = ["variable_400/out"], parallel = #sbp.parallel<[] -> [[#sbp.B]]>, scope_symbol_id = 910 : i64, shape = [640 : si64, 1 : si64, 1 : si64, 640 : si64]} : () -> tensor<640x1x1x640xf16>
    %output_94 = "oneflow.variable"() {data_type = 9 : i32, device_name = ["@0:0"], device_tag = "cuda", hierarchy = [1], op_name = "unet.down_blocks.1.attentions.0.proj_in.bias", output_lbns = ["unet.down_blocks.1.attentions.0.proj_in.bias/out"], parallel = #sbp.parallel<[] -> [[#sbp.B]]>, scope_symbol_id = 914 : i64, shape = [640 : si64]} : () -> tensor<640xf16>
    %output_95 = "oneflow.variable"() {data_type = 9 : i32, device_name = ["@0:0"], device_tag = "cuda", hierarchy = [1], op_name = "unet.down_blocks.1.attentions.0.transformer_blocks.0.norm1.weight", output_lbns = ["unet.down_blocks.1.attentions.0.transformer_blocks.0.norm1.weight/out"], parallel = #sbp.parallel<[] -> [[#sbp.B]]>, scope_symbol_id = 929 : i64, shape = [640 : si64]} : () -> tensor<640xf16>
    %output_96 = "oneflow.variable"() {data_type = 9 : i32, device_name = ["@0:0"], device_tag = "cuda", hierarchy = [1], op_name = "unet.down_blocks.1.attentions.0.transformer_blocks.0.norm1.bias", output_lbns = ["unet.down_blocks.1.attentions.0.transformer_blocks.0.norm1.bias/out"], parallel = #sbp.parallel<[] -> [[#sbp.B]]>, scope_symbol_id = 933 : i64, shape = [640 : si64]} : () -> tensor<640xf16>
    %output_97 = "oneflow.variable"() {data_type = 9 : i32, device_name = ["@0:0"], device_tag = "cuda", hierarchy = [1], op_name = "unet.down_blocks.1.attentions.0.transformer_blocks.0.attn1.to_q.weight", output_lbns = ["unet.down_blocks.1.attentions.0.transformer_blocks.0.attn1.to_q.weight/out"], parallel = #sbp.parallel<[] -> [[#sbp.B]]>, scope_symbol_id = 942 : i64, shape = [640 : si64, 640 : si64]} : () -> tensor<640x640xf16>
    %output_98 = "oneflow.variable"() {data_type = 9 : i32, device_name = ["@0:0"], device_tag = "cuda", hierarchy = [1], op_name = "unet.down_blocks.1.attentions.0.transformer_blocks.0.attn1.to_k.weight", output_lbns = ["unet.down_blocks.1.attentions.0.transformer_blocks.0.attn1.to_k.weight/out"], parallel = #sbp.parallel<[] -> [[#sbp.B]]>, scope_symbol_id = 950 : i64, shape = [640 : si64, 640 : si64]} : () -> tensor<640x640xf16>
    %output_99 = "oneflow.variable"() {data_type = 9 : i32, device_name = ["@0:0"], device_tag = "cuda", hierarchy = [1], op_name = "unet.down_blocks.1.attentions.0.transformer_blocks.0.attn1.to_v.weight", output_lbns = ["unet.down_blocks.1.attentions.0.transformer_blocks.0.attn1.to_v.weight/out"], parallel = #sbp.parallel<[] -> [[#sbp.B]]>, scope_symbol_id = 958 : i64, shape = [640 : si64, 640 : si64]} : () -> tensor<640x640xf16>
    %output_100 = "oneflow.variable"() {data_type = 9 : i32, device_name = ["@0:0"], device_tag = "cuda", hierarchy = [1], op_name = "unet.down_blocks.1.attentions.0.transformer_blocks.0.attn1.to_out.0.weight", output_lbns = ["unet.down_blocks.1.attentions.0.transformer_blocks.0.attn1.to_out.0.weight/out"], parallel = #sbp.parallel<[] -> [[#sbp.B]]>, scope_symbol_id = 970 : i64, shape = [640 : si64, 640 : si64]} : () -> tensor<640x640xf16>
    %output_101 = "oneflow.variable"() {data_type = 9 : i32, device_name = ["@0:0"], device_tag = "cuda", hierarchy = [1], op_name = "unet.down_blocks.1.attentions.0.transformer_blocks.0.attn1.to_out.0.bias", output_lbns = ["unet.down_blocks.1.attentions.0.transformer_blocks.0.attn1.to_out.0.bias/out"], parallel = #sbp.parallel<[] -> [[#sbp.B]]>, scope_symbol_id = 977 : i64, shape = [640 : si64]} : () -> tensor<640xf16>
    %output_102 = "oneflow.variable"() {data_type = 9 : i32, device_name = ["@0:0"], device_tag = "cuda", hierarchy = [1], op_name = "unet.down_blocks.1.attentions.0.transformer_blocks.0.norm2.weight", output_lbns = ["unet.down_blocks.1.attentions.0.transformer_blocks.0.norm2.weight/out"], parallel = #sbp.parallel<[] -> [[#sbp.B]]>, scope_symbol_id = 989 : i64, shape = [640 : si64]} : () -> tensor<640xf16>
    %output_103 = "oneflow.variable"() {data_type = 9 : i32, device_name = ["@0:0"], device_tag = "cuda", hierarchy = [1], op_name = "unet.down_blocks.1.attentions.0.transformer_blocks.0.norm2.bias", output_lbns = ["unet.down_blocks.1.attentions.0.transformer_blocks.0.norm2.bias/out"], parallel = #sbp.parallel<[] -> [[#sbp.B]]>, scope_symbol_id = 993 : i64, shape = [640 : si64]} : () -> tensor<640xf16>
    %output_104 = "oneflow.variable"() {data_type = 9 : i32, device_name = ["@0:0"], device_tag = "cuda", hierarchy = [1], op_name = "unet.down_blocks.1.attentions.0.transformer_blocks.0.attn2.to_q.weight", output_lbns = ["unet.down_blocks.1.attentions.0.transformer_blocks.0.attn2.to_q.weight/out"], parallel = #sbp.parallel<[] -> [[#sbp.B]]>, scope_symbol_id = 1002 : i64, shape = [640 : si64, 640 : si64]} : () -> tensor<640x640xf16>
    %output_105 = "oneflow.variable"() {data_type = 9 : i32, device_name = ["@0:0"], device_tag = "cuda", hierarchy = [1], op_name = "unet.down_blocks.1.attentions.0.transformer_blocks.0.attn2.to_k.weight", output_lbns = ["unet.down_blocks.1.attentions.0.transformer_blocks.0.attn2.to_k.weight/out"], parallel = #sbp.parallel<[] -> [[#sbp.B]]>, scope_symbol_id = 1010 : i64, shape = [640 : si64, 768 : si64]} : () -> tensor<640x768xf16>
    %output_106 = "oneflow.variable"() {data_type = 9 : i32, device_name = ["@0:0"], device_tag = "cuda", hierarchy = [1], op_name = "unet.down_blocks.1.attentions.0.transformer_blocks.0.attn2.to_v.weight", output_lbns = ["unet.down_blocks.1.attentions.0.transformer_blocks.0.attn2.to_v.weight/out"], parallel = #sbp.parallel<[] -> [[#sbp.B]]>, scope_symbol_id = 1018 : i64, shape = [640 : si64, 768 : si64]} : () -> tensor<640x768xf16>
    %output_107 = "oneflow.variable"() {data_type = 9 : i32, device_name = ["@0:0"], device_tag = "cuda", hierarchy = [1], op_name = "unet.down_blocks.1.attentions.0.transformer_blocks.0.attn2.to_out.0.weight", output_lbns = ["unet.down_blocks.1.attentions.0.transformer_blocks.0.attn2.to_out.0.weight/out"], parallel = #sbp.parallel<[] -> [[#sbp.B]]>, scope_symbol_id = 1030 : i64, shape = [640 : si64, 640 : si64]} : () -> tensor<640x640xf16>
    %output_108 = "oneflow.variable"() {data_type = 9 : i32, device_name = ["@0:0"], device_tag = "cuda", hierarchy = [1], op_name = "unet.down_blocks.1.attentions.0.transformer_blocks.0.attn2.to_out.0.bias", output_lbns = ["unet.down_blocks.1.attentions.0.transformer_blocks.0.attn2.to_out.0.bias/out"], parallel = #sbp.parallel<[] -> [[#sbp.B]]>, scope_symbol_id = 1037 : i64, shape = [640 : si64]} : () -> tensor<640xf16>
    %output_109 = "oneflow.variable"() {data_type = 9 : i32, device_name = ["@0:0"], device_tag = "cuda", hierarchy = [1], op_name = "unet.down_blocks.1.attentions.0.transformer_blocks.0.norm3.weight", output_lbns = ["unet.down_blocks.1.attentions.0.transformer_blocks.0.norm3.weight/out"], parallel = #sbp.parallel<[] -> [[#sbp.B]]>, scope_symbol_id = 1049 : i64, shape = [640 : si64]} : () -> tensor<640xf16>
    %output_110 = "oneflow.variable"() {data_type = 9 : i32, device_name = ["@0:0"], device_tag = "cuda", hierarchy = [1], op_name = "unet.down_blocks.1.attentions.0.transformer_blocks.0.norm3.bias", output_lbns = ["unet.down_blocks.1.attentions.0.transformer_blocks.0.norm3.bias/out"], parallel = #sbp.parallel<[] -> [[#sbp.B]]>, scope_symbol_id = 1053 : i64, shape = [640 : si64]} : () -> tensor<640xf16>
    %output_111 = "oneflow.variable"() {data_type = 9 : i32, device_name = ["@0:0"], device_tag = "cuda", hierarchy = [1], op_name = "unet.down_blocks.1.attentions.0.transformer_blocks.0.ff.net.0.proj.weight", output_lbns = ["unet.down_blocks.1.attentions.0.transformer_blocks.0.ff.net.0.proj.weight/out"], parallel = #sbp.parallel<[] -> [[#sbp.B]]>, scope_symbol_id = 1064 : i64, shape = [5120 : si64, 640 : si64]} : () -> tensor<5120x640xf16>
    %output_112 = "oneflow.variable"() {data_type = 9 : i32, device_name = ["@0:0"], device_tag = "cuda", hierarchy = [1], op_name = "unet.down_blocks.1.attentions.0.transformer_blocks.0.ff.net.0.proj.bias", output_lbns = ["unet.down_blocks.1.attentions.0.transformer_blocks.0.ff.net.0.proj.bias/out"], parallel = #sbp.parallel<[] -> [[#sbp.B]]>, scope_symbol_id = 1071 : i64, shape = [5120 : si64]} : () -> tensor<5120xf16>
    %output_113 = "oneflow.variable"() {data_type = 9 : i32, device_name = ["@0:0"], device_tag = "cuda", hierarchy = [1], op_name = "unet.down_blocks.1.attentions.0.transformer_blocks.0.ff.net.2.weight", output_lbns = ["unet.down_blocks.1.attentions.0.transformer_blocks.0.ff.net.2.weight/out"], parallel = #sbp.parallel<[] -> [[#sbp.B]]>, scope_symbol_id = 1092 : i64, shape = [640 : si64, 2560 : si64]} : () -> tensor<640x2560xf16>
    %output_114 = "oneflow.variable"() {data_type = 9 : i32, device_name = ["@0:0"], device_tag = "cuda", hierarchy = [1], op_name = "unet.down_blocks.1.attentions.0.transformer_blocks.0.ff.net.2.bias", output_lbns = ["unet.down_blocks.1.attentions.0.transformer_blocks.0.ff.net.2.bias/out"], parallel = #sbp.parallel<[] -> [[#sbp.B]]>, scope_symbol_id = 1099 : i64, shape = [640 : si64]} : () -> tensor<640xf16>
    %output_115 = "oneflow.variable"() {data_type = 9 : i32, device_name = ["@0:0"], device_tag = "cuda", hierarchy = [1], op_name = "variable_399", output_lbns = ["variable_399/out"], parallel = #sbp.parallel<[] -> [[#sbp.B]]>, scope_symbol_id = 1116 : i64, shape = [640 : si64, 1 : si64, 1 : si64, 640 : si64]} : () -> tensor<640x1x1x640xf16>
    %output_116 = "oneflow.variable"() {data_type = 9 : i32, device_name = ["@0:0"], device_tag = "cuda", hierarchy = [1], op_name = "unet.down_blocks.1.attentions.0.proj_out.bias", output_lbns = ["unet.down_blocks.1.attentions.0.proj_out.bias/out"], parallel = #sbp.parallel<[] -> [[#sbp.B]]>, scope_symbol_id = 1120 : i64, shape = [640 : si64]} : () -> tensor<640xf16>
    %output_117 = "oneflow.variable"() {data_type = 9 : i32, device_name = ["@0:0"], device_tag = "cuda", hierarchy = [1], op_name = "unet.down_blocks.1.resnets.1.norm1.weight", output_lbns = ["unet.down_blocks.1.resnets.1.norm1.weight/out"], parallel = #sbp.parallel<[] -> [[#sbp.B]]>, scope_symbol_id = 1132 : i64, shape = [640 : si64]} : () -> tensor<640xf16>
    %output_118 = "oneflow.variable"() {data_type = 9 : i32, device_name = ["@0:0"], device_tag = "cuda", hierarchy = [1], op_name = "unet.down_blocks.1.resnets.1.norm1.bias", output_lbns = ["unet.down_blocks.1.resnets.1.norm1.bias/out"], parallel = #sbp.parallel<[] -> [[#sbp.B]]>, scope_symbol_id = 1136 : i64, shape = [640 : si64]} : () -> tensor<640xf16>
    %output_119 = "oneflow.variable"() {data_type = 9 : i32, device_name = ["@0:0"], device_tag = "cuda", hierarchy = [1], op_name = "variable_398", output_lbns = ["variable_398/out"], parallel = #sbp.parallel<[] -> [[#sbp.B]]>, scope_symbol_id = 1148 : i64, shape = [640 : si64, 3 : si64, 3 : si64, 640 : si64]} : () -> tensor<640x3x3x640xf16>
    %output_120 = "oneflow.variable"() {data_type = 9 : i32, device_name = ["@0:0"], device_tag = "cuda", hierarchy = [1], op_name = "unet.down_blocks.1.resnets.1.conv1.bias", output_lbns = ["unet.down_blocks.1.resnets.1.conv1.bias/out"], parallel = #sbp.parallel<[] -> [[#sbp.B]]>, scope_symbol_id = 1152 : i64, shape = [640 : si64]} : () -> tensor<640xf16>
    %output_121 = "oneflow.variable"() {data_type = 9 : i32, device_name = ["@0:0"], device_tag = "cuda", hierarchy = [1], op_name = "unet.down_blocks.1.resnets.1.time_emb_proj.weight", output_lbns = ["unet.down_blocks.1.resnets.1.time_emb_proj.weight/out"], parallel = #sbp.parallel<[] -> [[#sbp.B]]>, scope_symbol_id = 1163 : i64, shape = [640 : si64, 1280 : si64]} : () -> tensor<640x1280xf16>
    %output_122 = "oneflow.variable"() {data_type = 9 : i32, device_name = ["@0:0"], device_tag = "cuda", hierarchy = [1], op_name = "unet.down_blocks.1.resnets.1.time_emb_proj.bias", output_lbns = ["unet.down_blocks.1.resnets.1.time_emb_proj.bias/out"], parallel = #sbp.parallel<[] -> [[#sbp.B]]>, scope_symbol_id = 1170 : i64, shape = [640 : si64]} : () -> tensor<640xf16>
    %output_123 = "oneflow.variable"() {data_type = 9 : i32, device_name = ["@0:0"], device_tag = "cuda", hierarchy = [1], op_name = "unet.down_blocks.1.resnets.1.norm2.weight", output_lbns = ["unet.down_blocks.1.resnets.1.norm2.weight/out"], parallel = #sbp.parallel<[] -> [[#sbp.B]]>, scope_symbol_id = 1187 : i64, shape = [640 : si64]} : () -> tensor<640xf16>
    %output_124 = "oneflow.variable"() {data_type = 9 : i32, device_name = ["@0:0"], device_tag = "cuda", hierarchy = [1], op_name = "unet.down_blocks.1.resnets.1.norm2.bias", output_lbns = ["unet.down_blocks.1.resnets.1.norm2.bias/out"], parallel = #sbp.parallel<[] -> [[#sbp.B]]>, scope_symbol_id = 1191 : i64, shape = [640 : si64]} : () -> tensor<640xf16>
    %output_125 = "oneflow.variable"() {data_type = 9 : i32, device_name = ["@0:0"], device_tag = "cuda", hierarchy = [1], op_name = "variable_397", output_lbns = ["variable_397/out"], parallel = #sbp.parallel<[] -> [[#sbp.B]]>, scope_symbol_id = 1203 : i64, shape = [640 : si64, 3 : si64, 3 : si64, 640 : si64]} : () -> tensor<640x3x3x640xf16>
    %output_126 = "oneflow.variable"() {data_type = 9 : i32, device_name = ["@0:0"], device_tag = "cuda", hierarchy = [1], op_name = "unet.down_blocks.1.resnets.1.conv2.bias", output_lbns = ["unet.down_blocks.1.resnets.1.conv2.bias/out"], parallel = #sbp.parallel<[] -> [[#sbp.B]]>, scope_symbol_id = 1207 : i64, shape = [640 : si64]} : () -> tensor<640xf16>
    %output_127 = "oneflow.variable"() {data_type = 9 : i32, device_name = ["@0:0"], device_tag = "cuda", hierarchy = [1], op_name = "unet.down_blocks.1.attentions.1.norm.weight", output_lbns = ["unet.down_blocks.1.attentions.1.norm.weight/out"], parallel = #sbp.parallel<[] -> [[#sbp.B]]>, scope_symbol_id = 1222 : i64, shape = [640 : si64]} : () -> tensor<640xf16>
    %output_128 = "oneflow.variable"() {data_type = 9 : i32, device_name = ["@0:0"], device_tag = "cuda", hierarchy = [1], op_name = "unet.down_blocks.1.attentions.1.norm.bias", output_lbns = ["unet.down_blocks.1.attentions.1.norm.bias/out"], parallel = #sbp.parallel<[] -> [[#sbp.B]]>, scope_symbol_id = 1226 : i64, shape = [640 : si64]} : () -> tensor<640xf16>
    %output_129 = "oneflow.variable"() {data_type = 9 : i32, device_name = ["@0:0"], device_tag = "cuda", hierarchy = [1], op_name = "variable_396", output_lbns = ["variable_396/out"], parallel = #sbp.parallel<[] -> [[#sbp.B]]>, scope_symbol_id = 1234 : i64, shape = [640 : si64, 1 : si64, 1 : si64, 640 : si64]} : () -> tensor<640x1x1x640xf16>
    %output_130 = "oneflow.variable"() {data_type = 9 : i32, device_name = ["@0:0"], device_tag = "cuda", hierarchy = [1], op_name = "unet.down_blocks.1.attentions.1.proj_in.bias", output_lbns = ["unet.down_blocks.1.attentions.1.proj_in.bias/out"], parallel = #sbp.parallel<[] -> [[#sbp.B]]>, scope_symbol_id = 1238 : i64, shape = [640 : si64]} : () -> tensor<640xf16>
    %output_131 = "oneflow.variable"() {data_type = 9 : i32, device_name = ["@0:0"], device_tag = "cuda", hierarchy = [1], op_name = "unet.down_blocks.1.attentions.1.transformer_blocks.0.norm1.weight", output_lbns = ["unet.down_blocks.1.attentions.1.transformer_blocks.0.norm1.weight/out"], parallel = #sbp.parallel<[] -> [[#sbp.B]]>, scope_symbol_id = 1253 : i64, shape = [640 : si64]} : () -> tensor<640xf16>
    %output_132 = "oneflow.variable"() {data_type = 9 : i32, device_name = ["@0:0"], device_tag = "cuda", hierarchy = [1], op_name = "unet.down_blocks.1.attentions.1.transformer_blocks.0.norm1.bias", output_lbns = ["unet.down_blocks.1.attentions.1.transformer_blocks.0.norm1.bias/out"], parallel = #sbp.parallel<[] -> [[#sbp.B]]>, scope_symbol_id = 1257 : i64, shape = [640 : si64]} : () -> tensor<640xf16>
    %output_133 = "oneflow.variable"() {data_type = 9 : i32, device_name = ["@0:0"], device_tag = "cuda", hierarchy = [1], op_name = "unet.down_blocks.1.attentions.1.transformer_blocks.0.attn1.to_q.weight", output_lbns = ["unet.down_blocks.1.attentions.1.transformer_blocks.0.attn1.to_q.weight/out"], parallel = #sbp.parallel<[] -> [[#sbp.B]]>, scope_symbol_id = 1266 : i64, shape = [640 : si64, 640 : si64]} : () -> tensor<640x640xf16>
    %output_134 = "oneflow.variable"() {data_type = 9 : i32, device_name = ["@0:0"], device_tag = "cuda", hierarchy = [1], op_name = "unet.down_blocks.1.attentions.1.transformer_blocks.0.attn1.to_k.weight", output_lbns = ["unet.down_blocks.1.attentions.1.transformer_blocks.0.attn1.to_k.weight/out"], parallel = #sbp.parallel<[] -> [[#sbp.B]]>, scope_symbol_id = 1274 : i64, shape = [640 : si64, 640 : si64]} : () -> tensor<640x640xf16>
    %output_135 = "oneflow.variable"() {data_type = 9 : i32, device_name = ["@0:0"], device_tag = "cuda", hierarchy = [1], op_name = "unet.down_blocks.1.attentions.1.transformer_blocks.0.attn1.to_v.weight", output_lbns = ["unet.down_blocks.1.attentions.1.transformer_blocks.0.attn1.to_v.weight/out"], parallel = #sbp.parallel<[] -> [[#sbp.B]]>, scope_symbol_id = 1282 : i64, shape = [640 : si64, 640 : si64]} : () -> tensor<640x640xf16>
    %output_136 = "oneflow.variable"() {data_type = 9 : i32, device_name = ["@0:0"], device_tag = "cuda", hierarchy = [1], op_name = "unet.down_blocks.1.attentions.1.transformer_blocks.0.attn1.to_out.0.weight", output_lbns = ["unet.down_blocks.1.attentions.1.transformer_blocks.0.attn1.to_out.0.weight/out"], parallel = #sbp.parallel<[] -> [[#sbp.B]]>, scope_symbol_id = 1294 : i64, shape = [640 : si64, 640 : si64]} : () -> tensor<640x640xf16>
    %output_137 = "oneflow.variable"() {data_type = 9 : i32, device_name = ["@0:0"], device_tag = "cuda", hierarchy = [1], op_name = "unet.down_blocks.1.attentions.1.transformer_blocks.0.attn1.to_out.0.bias", output_lbns = ["unet.down_blocks.1.attentions.1.transformer_blocks.0.attn1.to_out.0.bias/out"], parallel = #sbp.parallel<[] -> [[#sbp.B]]>, scope_symbol_id = 1301 : i64, shape = [640 : si64]} : () -> tensor<640xf16>
    %output_138 = "oneflow.variable"() {data_type = 9 : i32, device_name = ["@0:0"], device_tag = "cuda", hierarchy = [1], op_name = "unet.down_blocks.1.attentions.1.transformer_blocks.0.norm2.weight", output_lbns = ["unet.down_blocks.1.attentions.1.transformer_blocks.0.norm2.weight/out"], parallel = #sbp.parallel<[] -> [[#sbp.B]]>, scope_symbol_id = 1313 : i64, shape = [640 : si64]} : () -> tensor<640xf16>
    %output_139 = "oneflow.variable"() {data_type = 9 : i32, device_name = ["@0:0"], device_tag = "cuda", hierarchy = [1], op_name = "unet.down_blocks.1.attentions.1.transformer_blocks.0.norm2.bias", output_lbns = ["unet.down_blocks.1.attentions.1.transformer_blocks.0.norm2.bias/out"], parallel = #sbp.parallel<[] -> [[#sbp.B]]>, scope_symbol_id = 1317 : i64, shape = [640 : si64]} : () -> tensor<640xf16>
    %output_140 = "oneflow.variable"() {data_type = 9 : i32, device_name = ["@0:0"], device_tag = "cuda", hierarchy = [1], op_name = "unet.down_blocks.1.attentions.1.transformer_blocks.0.attn2.to_q.weight", output_lbns = ["unet.down_blocks.1.attentions.1.transformer_blocks.0.attn2.to_q.weight/out"], parallel = #sbp.parallel<[] -> [[#sbp.B]]>, scope_symbol_id = 1326 : i64, shape = [640 : si64, 640 : si64]} : () -> tensor<640x640xf16>
    %output_141 = "oneflow.variable"() {data_type = 9 : i32, device_name = ["@0:0"], device_tag = "cuda", hierarchy = [1], op_name = "unet.down_blocks.1.attentions.1.transformer_blocks.0.attn2.to_k.weight", output_lbns = ["unet.down_blocks.1.attentions.1.transformer_blocks.0.attn2.to_k.weight/out"], parallel = #sbp.parallel<[] -> [[#sbp.B]]>, scope_symbol_id = 1334 : i64, shape = [640 : si64, 768 : si64]} : () -> tensor<640x768xf16>
    %output_142 = "oneflow.variable"() {data_type = 9 : i32, device_name = ["@0:0"], device_tag = "cuda", hierarchy = [1], op_name = "unet.down_blocks.1.attentions.1.transformer_blocks.0.attn2.to_v.weight", output_lbns = ["unet.down_blocks.1.attentions.1.transformer_blocks.0.attn2.to_v.weight/out"], parallel = #sbp.parallel<[] -> [[#sbp.B]]>, scope_symbol_id = 1342 : i64, shape = [640 : si64, 768 : si64]} : () -> tensor<640x768xf16>
    %output_143 = "oneflow.variable"() {data_type = 9 : i32, device_name = ["@0:0"], device_tag = "cuda", hierarchy = [1], op_name = "unet.down_blocks.1.attentions.1.transformer_blocks.0.attn2.to_out.0.weight", output_lbns = ["unet.down_blocks.1.attentions.1.transformer_blocks.0.attn2.to_out.0.weight/out"], parallel = #sbp.parallel<[] -> [[#sbp.B]]>, scope_symbol_id = 1354 : i64, shape = [640 : si64, 640 : si64]} : () -> tensor<640x640xf16>
    %output_144 = "oneflow.variable"() {data_type = 9 : i32, device_name = ["@0:0"], device_tag = "cuda", hierarchy = [1], op_name = "unet.down_blocks.1.attentions.1.transformer_blocks.0.attn2.to_out.0.bias", output_lbns = ["unet.down_blocks.1.attentions.1.transformer_blocks.0.attn2.to_out.0.bias/out"], parallel = #sbp.parallel<[] -> [[#sbp.B]]>, scope_symbol_id = 1361 : i64, shape = [640 : si64]} : () -> tensor<640xf16>
    %output_145 = "oneflow.variable"() {data_type = 9 : i32, device_name = ["@0:0"], device_tag = "cuda", hierarchy = [1], op_name = "unet.down_blocks.1.attentions.1.transformer_blocks.0.norm3.weight", output_lbns = ["unet.down_blocks.1.attentions.1.transformer_blocks.0.norm3.weight/out"], parallel = #sbp.parallel<[] -> [[#sbp.B]]>, scope_symbol_id = 1373 : i64, shape = [640 : si64]} : () -> tensor<640xf16>
    %output_146 = "oneflow.variable"() {data_type = 9 : i32, device_name = ["@0:0"], device_tag = "cuda", hierarchy = [1], op_name = "unet.down_blocks.1.attentions.1.transformer_blocks.0.norm3.bias", output_lbns = ["unet.down_blocks.1.attentions.1.transformer_blocks.0.norm3.bias/out"], parallel = #sbp.parallel<[] -> [[#sbp.B]]>, scope_symbol_id = 1377 : i64, shape = [640 : si64]} : () -> tensor<640xf16>
    %output_147 = "oneflow.variable"() {data_type = 9 : i32, device_name = ["@0:0"], device_tag = "cuda", hierarchy = [1], op_name = "unet.down_blocks.1.attentions.1.transformer_blocks.0.ff.net.0.proj.weight", output_lbns = ["unet.down_blocks.1.attentions.1.transformer_blocks.0.ff.net.0.proj.weight/out"], parallel = #sbp.parallel<[] -> [[#sbp.B]]>, scope_symbol_id = 1388 : i64, shape = [5120 : si64, 640 : si64]} : () -> tensor<5120x640xf16>
    %output_148 = "oneflow.variable"() {data_type = 9 : i32, device_name = ["@0:0"], device_tag = "cuda", hierarchy = [1], op_name = "unet.down_blocks.1.attentions.1.transformer_blocks.0.ff.net.0.proj.bias", output_lbns = ["unet.down_blocks.1.attentions.1.transformer_blocks.0.ff.net.0.proj.bias/out"], parallel = #sbp.parallel<[] -> [[#sbp.B]]>, scope_symbol_id = 1395 : i64, shape = [5120 : si64]} : () -> tensor<5120xf16>
    %output_149 = "oneflow.variable"() {data_type = 9 : i32, device_name = ["@0:0"], device_tag = "cuda", hierarchy = [1], op_name = "unet.down_blocks.1.attentions.1.transformer_blocks.0.ff.net.2.weight", output_lbns = ["unet.down_blocks.1.attentions.1.transformer_blocks.0.ff.net.2.weight/out"], parallel = #sbp.parallel<[] -> [[#sbp.B]]>, scope_symbol_id = 1416 : i64, shape = [640 : si64, 2560 : si64]} : () -> tensor<640x2560xf16>
    %output_150 = "oneflow.variable"() {data_type = 9 : i32, device_name = ["@0:0"], device_tag = "cuda", hierarchy = [1], op_name = "unet.down_blocks.1.attentions.1.transformer_blocks.0.ff.net.2.bias", output_lbns = ["unet.down_blocks.1.attentions.1.transformer_blocks.0.ff.net.2.bias/out"], parallel = #sbp.parallel<[] -> [[#sbp.B]]>, scope_symbol_id = 1423 : i64, shape = [640 : si64]} : () -> tensor<640xf16>
    %output_151 = "oneflow.variable"() {data_type = 9 : i32, device_name = ["@0:0"], device_tag = "cuda", hierarchy = [1], op_name = "variable_395", output_lbns = ["variable_395/out"], parallel = #sbp.parallel<[] -> [[#sbp.B]]>, scope_symbol_id = 1440 : i64, shape = [640 : si64, 1 : si64, 1 : si64, 640 : si64]} : () -> tensor<640x1x1x640xf16>
    %output_152 = "oneflow.variable"() {data_type = 9 : i32, device_name = ["@0:0"], device_tag = "cuda", hierarchy = [1], op_name = "unet.down_blocks.1.attentions.1.proj_out.bias", output_lbns = ["unet.down_blocks.1.attentions.1.proj_out.bias/out"], parallel = #sbp.parallel<[] -> [[#sbp.B]]>, scope_symbol_id = 1444 : i64, shape = [640 : si64]} : () -> tensor<640xf16>
    %output_153 = "oneflow.variable"() {data_type = 9 : i32, device_name = ["@0:0"], device_tag = "cuda", hierarchy = [1], op_name = "variable_394", output_lbns = ["variable_394/out"], parallel = #sbp.parallel<[] -> [[#sbp.B]]>, scope_symbol_id = 1456 : i64, shape = [640 : si64, 3 : si64, 3 : si64, 640 : si64]} : () -> tensor<640x3x3x640xf16>
    %output_154 = "oneflow.variable"() {data_type = 9 : i32, device_name = ["@0:0"], device_tag = "cuda", hierarchy = [1], op_name = "unet.down_blocks.1.downsamplers.0.conv.bias", output_lbns = ["unet.down_blocks.1.downsamplers.0.conv.bias/out"], parallel = #sbp.parallel<[] -> [[#sbp.B]]>, scope_symbol_id = 1460 : i64, shape = [640 : si64]} : () -> tensor<640xf16>
    %output_155 = "oneflow.variable"() {data_type = 9 : i32, device_name = ["@0:0"], device_tag = "cuda", hierarchy = [1], op_name = "unet.down_blocks.2.resnets.0.norm1.weight", output_lbns = ["unet.down_blocks.2.resnets.0.norm1.weight/out"], parallel = #sbp.parallel<[] -> [[#sbp.B]]>, scope_symbol_id = 1470 : i64, shape = [640 : si64]} : () -> tensor<640xf16>
    %output_156 = "oneflow.variable"() {data_type = 9 : i32, device_name = ["@0:0"], device_tag = "cuda", hierarchy = [1], op_name = "unet.down_blocks.2.resnets.0.norm1.bias", output_lbns = ["unet.down_blocks.2.resnets.0.norm1.bias/out"], parallel = #sbp.parallel<[] -> [[#sbp.B]]>, scope_symbol_id = 1474 : i64, shape = [640 : si64]} : () -> tensor<640xf16>
    %output_157 = "oneflow.variable"() {data_type = 9 : i32, device_name = ["@0:0"], device_tag = "cuda", hierarchy = [1], op_name = "variable_393", output_lbns = ["variable_393/out"], parallel = #sbp.parallel<[] -> [[#sbp.B]]>, scope_symbol_id = 1486 : i64, shape = [1280 : si64, 3 : si64, 3 : si64, 640 : si64]} : () -> tensor<1280x3x3x640xf16>
    %output_158 = "oneflow.variable"() {data_type = 9 : i32, device_name = ["@0:0"], device_tag = "cuda", hierarchy = [1], op_name = "unet.down_blocks.2.resnets.0.conv1.bias", output_lbns = ["unet.down_blocks.2.resnets.0.conv1.bias/out"], parallel = #sbp.parallel<[] -> [[#sbp.B]]>, scope_symbol_id = 1490 : i64, shape = [1280 : si64]} : () -> tensor<1280xf16>
    %output_159 = "oneflow.variable"() {data_type = 9 : i32, device_name = ["@0:0"], device_tag = "cuda", hierarchy = [1], op_name = "unet.down_blocks.2.resnets.0.time_emb_proj.weight", output_lbns = ["unet.down_blocks.2.resnets.0.time_emb_proj.weight/out"], parallel = #sbp.parallel<[] -> [[#sbp.B]]>, scope_symbol_id = 1501 : i64, shape = [1280 : si64, 1280 : si64]} : () -> tensor<1280x1280xf16>
    %output_160 = "oneflow.variable"() {data_type = 9 : i32, device_name = ["@0:0"], device_tag = "cuda", hierarchy = [1], op_name = "unet.down_blocks.2.resnets.0.time_emb_proj.bias", output_lbns = ["unet.down_blocks.2.resnets.0.time_emb_proj.bias/out"], parallel = #sbp.parallel<[] -> [[#sbp.B]]>, scope_symbol_id = 1508 : i64, shape = [1280 : si64]} : () -> tensor<1280xf16>
    %output_161 = "oneflow.variable"() {data_type = 9 : i32, device_name = ["@0:0"], device_tag = "cuda", hierarchy = [1], op_name = "unet.down_blocks.2.resnets.0.norm2.weight", output_lbns = ["unet.down_blocks.2.resnets.0.norm2.weight/out"], parallel = #sbp.parallel<[] -> [[#sbp.B]]>, scope_symbol_id = 1525 : i64, shape = [1280 : si64]} : () -> tensor<1280xf16>
    %output_162 = "oneflow.variable"() {data_type = 9 : i32, device_name = ["@0:0"], device_tag = "cuda", hierarchy = [1], op_name = "unet.down_blocks.2.resnets.0.norm2.bias", output_lbns = ["unet.down_blocks.2.resnets.0.norm2.bias/out"], parallel = #sbp.parallel<[] -> [[#sbp.B]]>, scope_symbol_id = 1529 : i64, shape = [1280 : si64]} : () -> tensor<1280xf16>
    %output_163 = "oneflow.variable"() {data_type = 9 : i32, device_name = ["@0:0"], device_tag = "cuda", hierarchy = [1], op_name = "variable_392", output_lbns = ["variable_392/out"], parallel = #sbp.parallel<[] -> [[#sbp.B]]>, scope_symbol_id = 1541 : i64, shape = [1280 : si64, 3 : si64, 3 : si64, 1280 : si64]} : () -> tensor<1280x3x3x1280xf16>
    %output_164 = "oneflow.variable"() {data_type = 9 : i32, device_name = ["@0:0"], device_tag = "cuda", hierarchy = [1], op_name = "unet.down_blocks.2.resnets.0.conv2.bias", output_lbns = ["unet.down_blocks.2.resnets.0.conv2.bias/out"], parallel = #sbp.parallel<[] -> [[#sbp.B]]>, scope_symbol_id = 1545 : i64, shape = [1280 : si64]} : () -> tensor<1280xf16>
    %output_165 = "oneflow.variable"() {data_type = 9 : i32, device_name = ["@0:0"], device_tag = "cuda", hierarchy = [1], op_name = "variable_391", output_lbns = ["variable_391/out"], parallel = #sbp.parallel<[] -> [[#sbp.B]]>, scope_symbol_id = 1553 : i64, shape = [1280 : si64, 1 : si64, 1 : si64, 640 : si64]} : () -> tensor<1280x1x1x640xf16>
    %output_166 = "oneflow.variable"() {data_type = 9 : i32, device_name = ["@0:0"], device_tag = "cuda", hierarchy = [1], op_name = "unet.down_blocks.2.resnets.0.conv_shortcut.bias", output_lbns = ["unet.down_blocks.2.resnets.0.conv_shortcut.bias/out"], parallel = #sbp.parallel<[] -> [[#sbp.B]]>, scope_symbol_id = 1557 : i64, shape = [1280 : si64]} : () -> tensor<1280xf16>
    %output_167 = "oneflow.variable"() {data_type = 9 : i32, device_name = ["@0:0"], device_tag = "cuda", hierarchy = [1], op_name = "unet.down_blocks.2.attentions.0.norm.weight", output_lbns = ["unet.down_blocks.2.attentions.0.norm.weight/out"], parallel = #sbp.parallel<[] -> [[#sbp.B]]>, scope_symbol_id = 1572 : i64, shape = [1280 : si64]} : () -> tensor<1280xf16>
    %output_168 = "oneflow.variable"() {data_type = 9 : i32, device_name = ["@0:0"], device_tag = "cuda", hierarchy = [1], op_name = "unet.down_blocks.2.attentions.0.norm.bias", output_lbns = ["unet.down_blocks.2.attentions.0.norm.bias/out"], parallel = #sbp.parallel<[] -> [[#sbp.B]]>, scope_symbol_id = 1576 : i64, shape = [1280 : si64]} : () -> tensor<1280xf16>
    %output_169 = "oneflow.variable"() {data_type = 9 : i32, device_name = ["@0:0"], device_tag = "cuda", hierarchy = [1], op_name = "variable_390", output_lbns = ["variable_390/out"], parallel = #sbp.parallel<[] -> [[#sbp.B]]>, scope_symbol_id = 1584 : i64, shape = [1280 : si64, 1 : si64, 1 : si64, 1280 : si64]} : () -> tensor<1280x1x1x1280xf16>
    %output_170 = "oneflow.variable"() {data_type = 9 : i32, device_name = ["@0:0"], device_tag = "cuda", hierarchy = [1], op_name = "unet.down_blocks.2.attentions.0.proj_in.bias", output_lbns = ["unet.down_blocks.2.attentions.0.proj_in.bias/out"], parallel = #sbp.parallel<[] -> [[#sbp.B]]>, scope_symbol_id = 1588 : i64, shape = [1280 : si64]} : () -> tensor<1280xf16>
    %output_171 = "oneflow.variable"() {data_type = 9 : i32, device_name = ["@0:0"], device_tag = "cuda", hierarchy = [1], op_name = "unet.down_blocks.2.attentions.0.transformer_blocks.0.norm1.weight", output_lbns = ["unet.down_blocks.2.attentions.0.transformer_blocks.0.norm1.weight/out"], parallel = #sbp.parallel<[] -> [[#sbp.B]]>, scope_symbol_id = 1603 : i64, shape = [1280 : si64]} : () -> tensor<1280xf16>
    %output_172 = "oneflow.variable"() {data_type = 9 : i32, device_name = ["@0:0"], device_tag = "cuda", hierarchy = [1], op_name = "unet.down_blocks.2.attentions.0.transformer_blocks.0.norm1.bias", output_lbns = ["unet.down_blocks.2.attentions.0.transformer_blocks.0.norm1.bias/out"], parallel = #sbp.parallel<[] -> [[#sbp.B]]>, scope_symbol_id = 1607 : i64, shape = [1280 : si64]} : () -> tensor<1280xf16>
    %output_173 = "oneflow.variable"() {data_type = 9 : i32, device_name = ["@0:0"], device_tag = "cuda", hierarchy = [1], op_name = "unet.down_blocks.2.attentions.0.transformer_blocks.0.attn1.to_q.weight", output_lbns = ["unet.down_blocks.2.attentions.0.transformer_blocks.0.attn1.to_q.weight/out"], parallel = #sbp.parallel<[] -> [[#sbp.B]]>, scope_symbol_id = 1616 : i64, shape = [1280 : si64, 1280 : si64]} : () -> tensor<1280x1280xf16>
    %output_174 = "oneflow.variable"() {data_type = 9 : i32, device_name = ["@0:0"], device_tag = "cuda", hierarchy = [1], op_name = "unet.down_blocks.2.attentions.0.transformer_blocks.0.attn1.to_k.weight", output_lbns = ["unet.down_blocks.2.attentions.0.transformer_blocks.0.attn1.to_k.weight/out"], parallel = #sbp.parallel<[] -> [[#sbp.B]]>, scope_symbol_id = 1624 : i64, shape = [1280 : si64, 1280 : si64]} : () -> tensor<1280x1280xf16>
    %output_175 = "oneflow.variable"() {data_type = 9 : i32, device_name = ["@0:0"], device_tag = "cuda", hierarchy = [1], op_name = "unet.down_blocks.2.attentions.0.transformer_blocks.0.attn1.to_v.weight", output_lbns = ["unet.down_blocks.2.attentions.0.transformer_blocks.0.attn1.to_v.weight/out"], parallel = #sbp.parallel<[] -> [[#sbp.B]]>, scope_symbol_id = 1632 : i64, shape = [1280 : si64, 1280 : si64]} : () -> tensor<1280x1280xf16>
    %output_176 = "oneflow.variable"() {data_type = 9 : i32, device_name = ["@0:0"], device_tag = "cuda", hierarchy = [1], op_name = "unet.down_blocks.2.attentions.0.transformer_blocks.0.attn1.to_out.0.weight", output_lbns = ["unet.down_blocks.2.attentions.0.transformer_blocks.0.attn1.to_out.0.weight/out"], parallel = #sbp.parallel<[] -> [[#sbp.B]]>, scope_symbol_id = 1644 : i64, shape = [1280 : si64, 1280 : si64]} : () -> tensor<1280x1280xf16>
    %output_177 = "oneflow.variable"() {data_type = 9 : i32, device_name = ["@0:0"], device_tag = "cuda", hierarchy = [1], op_name = "unet.down_blocks.2.attentions.0.transformer_blocks.0.attn1.to_out.0.bias", output_lbns = ["unet.down_blocks.2.attentions.0.transformer_blocks.0.attn1.to_out.0.bias/out"], parallel = #sbp.parallel<[] -> [[#sbp.B]]>, scope_symbol_id = 1651 : i64, shape = [1280 : si64]} : () -> tensor<1280xf16>
    %output_178 = "oneflow.variable"() {data_type = 9 : i32, device_name = ["@0:0"], device_tag = "cuda", hierarchy = [1], op_name = "unet.down_blocks.2.attentions.0.transformer_blocks.0.norm2.weight", output_lbns = ["unet.down_blocks.2.attentions.0.transformer_blocks.0.norm2.weight/out"], parallel = #sbp.parallel<[] -> [[#sbp.B]]>, scope_symbol_id = 1663 : i64, shape = [1280 : si64]} : () -> tensor<1280xf16>
    %output_179 = "oneflow.variable"() {data_type = 9 : i32, device_name = ["@0:0"], device_tag = "cuda", hierarchy = [1], op_name = "unet.down_blocks.2.attentions.0.transformer_blocks.0.norm2.bias", output_lbns = ["unet.down_blocks.2.attentions.0.transformer_blocks.0.norm2.bias/out"], parallel = #sbp.parallel<[] -> [[#sbp.B]]>, scope_symbol_id = 1667 : i64, shape = [1280 : si64]} : () -> tensor<1280xf16>
    %output_180 = "oneflow.variable"() {data_type = 9 : i32, device_name = ["@0:0"], device_tag = "cuda", hierarchy = [1], op_name = "unet.down_blocks.2.attentions.0.transformer_blocks.0.attn2.to_q.weight", output_lbns = ["unet.down_blocks.2.attentions.0.transformer_blocks.0.attn2.to_q.weight/out"], parallel = #sbp.parallel<[] -> [[#sbp.B]]>, scope_symbol_id = 1676 : i64, shape = [1280 : si64, 1280 : si64]} : () -> tensor<1280x1280xf16>
    %output_181 = "oneflow.variable"() {data_type = 9 : i32, device_name = ["@0:0"], device_tag = "cuda", hierarchy = [1], op_name = "unet.down_blocks.2.attentions.0.transformer_blocks.0.attn2.to_k.weight", output_lbns = ["unet.down_blocks.2.attentions.0.transformer_blocks.0.attn2.to_k.weight/out"], parallel = #sbp.parallel<[] -> [[#sbp.B]]>, scope_symbol_id = 1684 : i64, shape = [1280 : si64, 768 : si64]} : () -> tensor<1280x768xf16>
    %output_182 = "oneflow.variable"() {data_type = 9 : i32, device_name = ["@0:0"], device_tag = "cuda", hierarchy = [1], op_name = "unet.down_blocks.2.attentions.0.transformer_blocks.0.attn2.to_v.weight", output_lbns = ["unet.down_blocks.2.attentions.0.transformer_blocks.0.attn2.to_v.weight/out"], parallel = #sbp.parallel<[] -> [[#sbp.B]]>, scope_symbol_id = 1692 : i64, shape = [1280 : si64, 768 : si64]} : () -> tensor<1280x768xf16>
    %output_183 = "oneflow.variable"() {data_type = 9 : i32, device_name = ["@0:0"], device_tag = "cuda", hierarchy = [1], op_name = "unet.down_blocks.2.attentions.0.transformer_blocks.0.attn2.to_out.0.weight", output_lbns = ["unet.down_blocks.2.attentions.0.transformer_blocks.0.attn2.to_out.0.weight/out"], parallel = #sbp.parallel<[] -> [[#sbp.B]]>, scope_symbol_id = 1704 : i64, shape = [1280 : si64, 1280 : si64]} : () -> tensor<1280x1280xf16>
    %output_184 = "oneflow.variable"() {data_type = 9 : i32, device_name = ["@0:0"], device_tag = "cuda", hierarchy = [1], op_name = "unet.down_blocks.2.attentions.0.transformer_blocks.0.attn2.to_out.0.bias", output_lbns = ["unet.down_blocks.2.attentions.0.transformer_blocks.0.attn2.to_out.0.bias/out"], parallel = #sbp.parallel<[] -> [[#sbp.B]]>, scope_symbol_id = 1711 : i64, shape = [1280 : si64]} : () -> tensor<1280xf16>
    %output_185 = "oneflow.variable"() {data_type = 9 : i32, device_name = ["@0:0"], device_tag = "cuda", hierarchy = [1], op_name = "unet.down_blocks.2.attentions.0.transformer_blocks.0.norm3.weight", output_lbns = ["unet.down_blocks.2.attentions.0.transformer_blocks.0.norm3.weight/out"], parallel = #sbp.parallel<[] -> [[#sbp.B]]>, scope_symbol_id = 1723 : i64, shape = [1280 : si64]} : () -> tensor<1280xf16>
    %output_186 = "oneflow.variable"() {data_type = 9 : i32, device_name = ["@0:0"], device_tag = "cuda", hierarchy = [1], op_name = "unet.down_blocks.2.attentions.0.transformer_blocks.0.norm3.bias", output_lbns = ["unet.down_blocks.2.attentions.0.transformer_blocks.0.norm3.bias/out"], parallel = #sbp.parallel<[] -> [[#sbp.B]]>, scope_symbol_id = 1727 : i64, shape = [1280 : si64]} : () -> tensor<1280xf16>
    %output_187 = "oneflow.variable"() {data_type = 9 : i32, device_name = ["@0:0"], device_tag = "cuda", hierarchy = [1], op_name = "unet.down_blocks.2.attentions.0.transformer_blocks.0.ff.net.0.proj.weight", output_lbns = ["unet.down_blocks.2.attentions.0.transformer_blocks.0.ff.net.0.proj.weight/out"], parallel = #sbp.parallel<[] -> [[#sbp.B]]>, scope_symbol_id = 1738 : i64, shape = [10240 : si64, 1280 : si64]} : () -> tensor<10240x1280xf16>
    %output_188 = "oneflow.variable"() {data_type = 9 : i32, device_name = ["@0:0"], device_tag = "cuda", hierarchy = [1], op_name = "unet.down_blocks.2.attentions.0.transformer_blocks.0.ff.net.0.proj.bias", output_lbns = ["unet.down_blocks.2.attentions.0.transformer_blocks.0.ff.net.0.proj.bias/out"], parallel = #sbp.parallel<[] -> [[#sbp.B]]>, scope_symbol_id = 1745 : i64, shape = [10240 : si64]} : () -> tensor<10240xf16>
    %output_189 = "oneflow.variable"() {data_type = 9 : i32, device_name = ["@0:0"], device_tag = "cuda", hierarchy = [1], op_name = "unet.down_blocks.2.attentions.0.transformer_blocks.0.ff.net.2.weight", output_lbns = ["unet.down_blocks.2.attentions.0.transformer_blocks.0.ff.net.2.weight/out"], parallel = #sbp.parallel<[] -> [[#sbp.B]]>, scope_symbol_id = 1766 : i64, shape = [1280 : si64, 5120 : si64]} : () -> tensor<1280x5120xf16>
    %output_190 = "oneflow.variable"() {data_type = 9 : i32, device_name = ["@0:0"], device_tag = "cuda", hierarchy = [1], op_name = "unet.down_blocks.2.attentions.0.transformer_blocks.0.ff.net.2.bias", output_lbns = ["unet.down_blocks.2.attentions.0.transformer_blocks.0.ff.net.2.bias/out"], parallel = #sbp.parallel<[] -> [[#sbp.B]]>, scope_symbol_id = 1773 : i64, shape = [1280 : si64]} : () -> tensor<1280xf16>
    %output_191 = "oneflow.variable"() {data_type = 9 : i32, device_name = ["@0:0"], device_tag = "cuda", hierarchy = [1], op_name = "variable_389", output_lbns = ["variable_389/out"], parallel = #sbp.parallel<[] -> [[#sbp.B]]>, scope_symbol_id = 1790 : i64, shape = [1280 : si64, 1 : si64, 1 : si64, 1280 : si64]} : () -> tensor<1280x1x1x1280xf16>
    %output_192 = "oneflow.variable"() {data_type = 9 : i32, device_name = ["@0:0"], device_tag = "cuda", hierarchy = [1], op_name = "unet.down_blocks.2.attentions.0.proj_out.bias", output_lbns = ["unet.down_blocks.2.attentions.0.proj_out.bias/out"], parallel = #sbp.parallel<[] -> [[#sbp.B]]>, scope_symbol_id = 1794 : i64, shape = [1280 : si64]} : () -> tensor<1280xf16>
    %output_193 = "oneflow.variable"() {data_type = 9 : i32, device_name = ["@0:0"], device_tag = "cuda", hierarchy = [1], op_name = "unet.down_blocks.2.resnets.1.norm1.weight", output_lbns = ["unet.down_blocks.2.resnets.1.norm1.weight/out"], parallel = #sbp.parallel<[] -> [[#sbp.B]]>, scope_symbol_id = 1806 : i64, shape = [1280 : si64]} : () -> tensor<1280xf16>
    %output_194 = "oneflow.variable"() {data_type = 9 : i32, device_name = ["@0:0"], device_tag = "cuda", hierarchy = [1], op_name = "unet.down_blocks.2.resnets.1.norm1.bias", output_lbns = ["unet.down_blocks.2.resnets.1.norm1.bias/out"], parallel = #sbp.parallel<[] -> [[#sbp.B]]>, scope_symbol_id = 1810 : i64, shape = [1280 : si64]} : () -> tensor<1280xf16>
    %output_195 = "oneflow.variable"() {data_type = 9 : i32, device_name = ["@0:0"], device_tag = "cuda", hierarchy = [1], op_name = "variable_388", output_lbns = ["variable_388/out"], parallel = #sbp.parallel<[] -> [[#sbp.B]]>, scope_symbol_id = 1822 : i64, shape = [1280 : si64, 3 : si64, 3 : si64, 1280 : si64]} : () -> tensor<1280x3x3x1280xf16>
    %output_196 = "oneflow.variable"() {data_type = 9 : i32, device_name = ["@0:0"], device_tag = "cuda", hierarchy = [1], op_name = "unet.down_blocks.2.resnets.1.conv1.bias", output_lbns = ["unet.down_blocks.2.resnets.1.conv1.bias/out"], parallel = #sbp.parallel<[] -> [[#sbp.B]]>, scope_symbol_id = 1826 : i64, shape = [1280 : si64]} : () -> tensor<1280xf16>
    %output_197 = "oneflow.variable"() {data_type = 9 : i32, device_name = ["@0:0"], device_tag = "cuda", hierarchy = [1], op_name = "unet.down_blocks.2.resnets.1.time_emb_proj.weight", output_lbns = ["unet.down_blocks.2.resnets.1.time_emb_proj.weight/out"], parallel = #sbp.parallel<[] -> [[#sbp.B]]>, scope_symbol_id = 1837 : i64, shape = [1280 : si64, 1280 : si64]} : () -> tensor<1280x1280xf16>
    %output_198 = "oneflow.variable"() {data_type = 9 : i32, device_name = ["@0:0"], device_tag = "cuda", hierarchy = [1], op_name = "unet.down_blocks.2.resnets.1.time_emb_proj.bias", output_lbns = ["unet.down_blocks.2.resnets.1.time_emb_proj.bias/out"], parallel = #sbp.parallel<[] -> [[#sbp.B]]>, scope_symbol_id = 1844 : i64, shape = [1280 : si64]} : () -> tensor<1280xf16>
    %output_199 = "oneflow.variable"() {data_type = 9 : i32, device_name = ["@0:0"], device_tag = "cuda", hierarchy = [1], op_name = "unet.down_blocks.2.resnets.1.norm2.weight", output_lbns = ["unet.down_blocks.2.resnets.1.norm2.weight/out"], parallel = #sbp.parallel<[] -> [[#sbp.B]]>, scope_symbol_id = 1861 : i64, shape = [1280 : si64]} : () -> tensor<1280xf16>
    %output_200 = "oneflow.variable"() {data_type = 9 : i32, device_name = ["@0:0"], device_tag = "cuda", hierarchy = [1], op_name = "unet.down_blocks.2.resnets.1.norm2.bias", output_lbns = ["unet.down_blocks.2.resnets.1.norm2.bias/out"], parallel = #sbp.parallel<[] -> [[#sbp.B]]>, scope_symbol_id = 1865 : i64, shape = [1280 : si64]} : () -> tensor<1280xf16>
    %output_201 = "oneflow.variable"() {data_type = 9 : i32, device_name = ["@0:0"], device_tag = "cuda", hierarchy = [1], op_name = "variable_387", output_lbns = ["variable_387/out"], parallel = #sbp.parallel<[] -> [[#sbp.B]]>, scope_symbol_id = 1877 : i64, shape = [1280 : si64, 3 : si64, 3 : si64, 1280 : si64]} : () -> tensor<1280x3x3x1280xf16>
    %output_202 = "oneflow.variable"() {data_type = 9 : i32, device_name = ["@0:0"], device_tag = "cuda", hierarchy = [1], op_name = "unet.down_blocks.2.resnets.1.conv2.bias", output_lbns = ["unet.down_blocks.2.resnets.1.conv2.bias/out"], parallel = #sbp.parallel<[] -> [[#sbp.B]]>, scope_symbol_id = 1881 : i64, shape = [1280 : si64]} : () -> tensor<1280xf16>
    %output_203 = "oneflow.variable"() {data_type = 9 : i32, device_name = ["@0:0"], device_tag = "cuda", hierarchy = [1], op_name = "unet.down_blocks.2.attentions.1.norm.weight", output_lbns = ["unet.down_blocks.2.attentions.1.norm.weight/out"], parallel = #sbp.parallel<[] -> [[#sbp.B]]>, scope_symbol_id = 1896 : i64, shape = [1280 : si64]} : () -> tensor<1280xf16>
    %output_204 = "oneflow.variable"() {data_type = 9 : i32, device_name = ["@0:0"], device_tag = "cuda", hierarchy = [1], op_name = "unet.down_blocks.2.attentions.1.norm.bias", output_lbns = ["unet.down_blocks.2.attentions.1.norm.bias/out"], parallel = #sbp.parallel<[] -> [[#sbp.B]]>, scope_symbol_id = 1900 : i64, shape = [1280 : si64]} : () -> tensor<1280xf16>
    %output_205 = "oneflow.variable"() {data_type = 9 : i32, device_name = ["@0:0"], device_tag = "cuda", hierarchy = [1], op_name = "variable_386", output_lbns = ["variable_386/out"], parallel = #sbp.parallel<[] -> [[#sbp.B]]>, scope_symbol_id = 1908 : i64, shape = [1280 : si64, 1 : si64, 1 : si64, 1280 : si64]} : () -> tensor<1280x1x1x1280xf16>
    %output_206 = "oneflow.variable"() {data_type = 9 : i32, device_name = ["@0:0"], device_tag = "cuda", hierarchy = [1], op_name = "unet.down_blocks.2.attentions.1.proj_in.bias", output_lbns = ["unet.down_blocks.2.attentions.1.proj_in.bias/out"], parallel = #sbp.parallel<[] -> [[#sbp.B]]>, scope_symbol_id = 1912 : i64, shape = [1280 : si64]} : () -> tensor<1280xf16>
    %output_207 = "oneflow.variable"() {data_type = 9 : i32, device_name = ["@0:0"], device_tag = "cuda", hierarchy = [1], op_name = "unet.down_blocks.2.attentions.1.transformer_blocks.0.norm1.weight", output_lbns = ["unet.down_blocks.2.attentions.1.transformer_blocks.0.norm1.weight/out"], parallel = #sbp.parallel<[] -> [[#sbp.B]]>, scope_symbol_id = 1927 : i64, shape = [1280 : si64]} : () -> tensor<1280xf16>
    %output_208 = "oneflow.variable"() {data_type = 9 : i32, device_name = ["@0:0"], device_tag = "cuda", hierarchy = [1], op_name = "unet.down_blocks.2.attentions.1.transformer_blocks.0.norm1.bias", output_lbns = ["unet.down_blocks.2.attentions.1.transformer_blocks.0.norm1.bias/out"], parallel = #sbp.parallel<[] -> [[#sbp.B]]>, scope_symbol_id = 1931 : i64, shape = [1280 : si64]} : () -> tensor<1280xf16>
    %output_209 = "oneflow.variable"() {data_type = 9 : i32, device_name = ["@0:0"], device_tag = "cuda", hierarchy = [1], op_name = "unet.down_blocks.2.attentions.1.transformer_blocks.0.attn1.to_q.weight", output_lbns = ["unet.down_blocks.2.attentions.1.transformer_blocks.0.attn1.to_q.weight/out"], parallel = #sbp.parallel<[] -> [[#sbp.B]]>, scope_symbol_id = 1940 : i64, shape = [1280 : si64, 1280 : si64]} : () -> tensor<1280x1280xf16>
    %output_210 = "oneflow.variable"() {data_type = 9 : i32, device_name = ["@0:0"], device_tag = "cuda", hierarchy = [1], op_name = "unet.down_blocks.2.attentions.1.transformer_blocks.0.attn1.to_k.weight", output_lbns = ["unet.down_blocks.2.attentions.1.transformer_blocks.0.attn1.to_k.weight/out"], parallel = #sbp.parallel<[] -> [[#sbp.B]]>, scope_symbol_id = 1948 : i64, shape = [1280 : si64, 1280 : si64]} : () -> tensor<1280x1280xf16>
    %output_211 = "oneflow.variable"() {data_type = 9 : i32, device_name = ["@0:0"], device_tag = "cuda", hierarchy = [1], op_name = "unet.down_blocks.2.attentions.1.transformer_blocks.0.attn1.to_v.weight", output_lbns = ["unet.down_blocks.2.attentions.1.transformer_blocks.0.attn1.to_v.weight/out"], parallel = #sbp.parallel<[] -> [[#sbp.B]]>, scope_symbol_id = 1956 : i64, shape = [1280 : si64, 1280 : si64]} : () -> tensor<1280x1280xf16>
    %output_212 = "oneflow.variable"() {data_type = 9 : i32, device_name = ["@0:0"], device_tag = "cuda", hierarchy = [1], op_name = "unet.down_blocks.2.attentions.1.transformer_blocks.0.attn1.to_out.0.weight", output_lbns = ["unet.down_blocks.2.attentions.1.transformer_blocks.0.attn1.to_out.0.weight/out"], parallel = #sbp.parallel<[] -> [[#sbp.B]]>, scope_symbol_id = 1968 : i64, shape = [1280 : si64, 1280 : si64]} : () -> tensor<1280x1280xf16>
    %output_213 = "oneflow.variable"() {data_type = 9 : i32, device_name = ["@0:0"], device_tag = "cuda", hierarchy = [1], op_name = "unet.down_blocks.2.attentions.1.transformer_blocks.0.attn1.to_out.0.bias", output_lbns = ["unet.down_blocks.2.attentions.1.transformer_blocks.0.attn1.to_out.0.bias/out"], parallel = #sbp.parallel<[] -> [[#sbp.B]]>, scope_symbol_id = 1975 : i64, shape = [1280 : si64]} : () -> tensor<1280xf16>
    %output_214 = "oneflow.variable"() {data_type = 9 : i32, device_name = ["@0:0"], device_tag = "cuda", hierarchy = [1], op_name = "unet.down_blocks.2.attentions.1.transformer_blocks.0.norm2.weight", output_lbns = ["unet.down_blocks.2.attentions.1.transformer_blocks.0.norm2.weight/out"], parallel = #sbp.parallel<[] -> [[#sbp.B]]>, scope_symbol_id = 1987 : i64, shape = [1280 : si64]} : () -> tensor<1280xf16>
    %output_215 = "oneflow.variable"() {data_type = 9 : i32, device_name = ["@0:0"], device_tag = "cuda", hierarchy = [1], op_name = "unet.down_blocks.2.attentions.1.transformer_blocks.0.norm2.bias", output_lbns = ["unet.down_blocks.2.attentions.1.transformer_blocks.0.norm2.bias/out"], parallel = #sbp.parallel<[] -> [[#sbp.B]]>, scope_symbol_id = 1991 : i64, shape = [1280 : si64]} : () -> tensor<1280xf16>
    %output_216 = "oneflow.variable"() {data_type = 9 : i32, device_name = ["@0:0"], device_tag = "cuda", hierarchy = [1], op_name = "unet.down_blocks.2.attentions.1.transformer_blocks.0.attn2.to_q.weight", output_lbns = ["unet.down_blocks.2.attentions.1.transformer_blocks.0.attn2.to_q.weight/out"], parallel = #sbp.parallel<[] -> [[#sbp.B]]>, scope_symbol_id = 2000 : i64, shape = [1280 : si64, 1280 : si64]} : () -> tensor<1280x1280xf16>
    %output_217 = "oneflow.variable"() {data_type = 9 : i32, device_name = ["@0:0"], device_tag = "cuda", hierarchy = [1], op_name = "unet.down_blocks.2.attentions.1.transformer_blocks.0.attn2.to_k.weight", output_lbns = ["unet.down_blocks.2.attentions.1.transformer_blocks.0.attn2.to_k.weight/out"], parallel = #sbp.parallel<[] -> [[#sbp.B]]>, scope_symbol_id = 2008 : i64, shape = [1280 : si64, 768 : si64]} : () -> tensor<1280x768xf16>
    %output_218 = "oneflow.variable"() {data_type = 9 : i32, device_name = ["@0:0"], device_tag = "cuda", hierarchy = [1], op_name = "unet.down_blocks.2.attentions.1.transformer_blocks.0.attn2.to_v.weight", output_lbns = ["unet.down_blocks.2.attentions.1.transformer_blocks.0.attn2.to_v.weight/out"], parallel = #sbp.parallel<[] -> [[#sbp.B]]>, scope_symbol_id = 2016 : i64, shape = [1280 : si64, 768 : si64]} : () -> tensor<1280x768xf16>
    %output_219 = "oneflow.variable"() {data_type = 9 : i32, device_name = ["@0:0"], device_tag = "cuda", hierarchy = [1], op_name = "unet.down_blocks.2.attentions.1.transformer_blocks.0.attn2.to_out.0.weight", output_lbns = ["unet.down_blocks.2.attentions.1.transformer_blocks.0.attn2.to_out.0.weight/out"], parallel = #sbp.parallel<[] -> [[#sbp.B]]>, scope_symbol_id = 2028 : i64, shape = [1280 : si64, 1280 : si64]} : () -> tensor<1280x1280xf16>
    %output_220 = "oneflow.variable"() {data_type = 9 : i32, device_name = ["@0:0"], device_tag = "cuda", hierarchy = [1], op_name = "unet.down_blocks.2.attentions.1.transformer_blocks.0.attn2.to_out.0.bias", output_lbns = ["unet.down_blocks.2.attentions.1.transformer_blocks.0.attn2.to_out.0.bias/out"], parallel = #sbp.parallel<[] -> [[#sbp.B]]>, scope_symbol_id = 2035 : i64, shape = [1280 : si64]} : () -> tensor<1280xf16>
    %output_221 = "oneflow.variable"() {data_type = 9 : i32, device_name = ["@0:0"], device_tag = "cuda", hierarchy = [1], op_name = "unet.down_blocks.2.attentions.1.transformer_blocks.0.norm3.weight", output_lbns = ["unet.down_blocks.2.attentions.1.transformer_blocks.0.norm3.weight/out"], parallel = #sbp.parallel<[] -> [[#sbp.B]]>, scope_symbol_id = 2047 : i64, shape = [1280 : si64]} : () -> tensor<1280xf16>
    %output_222 = "oneflow.variable"() {data_type = 9 : i32, device_name = ["@0:0"], device_tag = "cuda", hierarchy = [1], op_name = "unet.down_blocks.2.attentions.1.transformer_blocks.0.norm3.bias", output_lbns = ["unet.down_blocks.2.attentions.1.transformer_blocks.0.norm3.bias/out"], parallel = #sbp.parallel<[] -> [[#sbp.B]]>, scope_symbol_id = 2051 : i64, shape = [1280 : si64]} : () -> tensor<1280xf16>
    %output_223 = "oneflow.variable"() {data_type = 9 : i32, device_name = ["@0:0"], device_tag = "cuda", hierarchy = [1], op_name = "unet.down_blocks.2.attentions.1.transformer_blocks.0.ff.net.0.proj.weight", output_lbns = ["unet.down_blocks.2.attentions.1.transformer_blocks.0.ff.net.0.proj.weight/out"], parallel = #sbp.parallel<[] -> [[#sbp.B]]>, scope_symbol_id = 2062 : i64, shape = [10240 : si64, 1280 : si64]} : () -> tensor<10240x1280xf16>
    %output_224 = "oneflow.variable"() {data_type = 9 : i32, device_name = ["@0:0"], device_tag = "cuda", hierarchy = [1], op_name = "unet.down_blocks.2.attentions.1.transformer_blocks.0.ff.net.0.proj.bias", output_lbns = ["unet.down_blocks.2.attentions.1.transformer_blocks.0.ff.net.0.proj.bias/out"], parallel = #sbp.parallel<[] -> [[#sbp.B]]>, scope_symbol_id = 2069 : i64, shape = [10240 : si64]} : () -> tensor<10240xf16>
    %output_225 = "oneflow.variable"() {data_type = 9 : i32, device_name = ["@0:0"], device_tag = "cuda", hierarchy = [1], op_name = "unet.down_blocks.2.attentions.1.transformer_blocks.0.ff.net.2.weight", output_lbns = ["unet.down_blocks.2.attentions.1.transformer_blocks.0.ff.net.2.weight/out"], parallel = #sbp.parallel<[] -> [[#sbp.B]]>, scope_symbol_id = 2090 : i64, shape = [1280 : si64, 5120 : si64]} : () -> tensor<1280x5120xf16>
    %output_226 = "oneflow.variable"() {data_type = 9 : i32, device_name = ["@0:0"], device_tag = "cuda", hierarchy = [1], op_name = "unet.down_blocks.2.attentions.1.transformer_blocks.0.ff.net.2.bias", output_lbns = ["unet.down_blocks.2.attentions.1.transformer_blocks.0.ff.net.2.bias/out"], parallel = #sbp.parallel<[] -> [[#sbp.B]]>, scope_symbol_id = 2097 : i64, shape = [1280 : si64]} : () -> tensor<1280xf16>
    %output_227 = "oneflow.variable"() {data_type = 9 : i32, device_name = ["@0:0"], device_tag = "cuda", hierarchy = [1], op_name = "variable_385", output_lbns = ["variable_385/out"], parallel = #sbp.parallel<[] -> [[#sbp.B]]>, scope_symbol_id = 2114 : i64, shape = [1280 : si64, 1 : si64, 1 : si64, 1280 : si64]} : () -> tensor<1280x1x1x1280xf16>
    %output_228 = "oneflow.variable"() {data_type = 9 : i32, device_name = ["@0:0"], device_tag = "cuda", hierarchy = [1], op_name = "unet.down_blocks.2.attentions.1.proj_out.bias", output_lbns = ["unet.down_blocks.2.attentions.1.proj_out.bias/out"], parallel = #sbp.parallel<[] -> [[#sbp.B]]>, scope_symbol_id = 2118 : i64, shape = [1280 : si64]} : () -> tensor<1280xf16>
    %output_229 = "oneflow.variable"() {data_type = 9 : i32, device_name = ["@0:0"], device_tag = "cuda", hierarchy = [1], op_name = "variable_384", output_lbns = ["variable_384/out"], parallel = #sbp.parallel<[] -> [[#sbp.B]]>, scope_symbol_id = 2130 : i64, shape = [1280 : si64, 3 : si64, 3 : si64, 1280 : si64]} : () -> tensor<1280x3x3x1280xf16>
    %output_230 = "oneflow.variable"() {data_type = 9 : i32, device_name = ["@0:0"], device_tag = "cuda", hierarchy = [1], op_name = "unet.down_blocks.2.downsamplers.0.conv.bias", output_lbns = ["unet.down_blocks.2.downsamplers.0.conv.bias/out"], parallel = #sbp.parallel<[] -> [[#sbp.B]]>, scope_symbol_id = 2134 : i64, shape = [1280 : si64]} : () -> tensor<1280xf16>
    %output_231 = "oneflow.variable"() {data_type = 9 : i32, device_name = ["@0:0"], device_tag = "cuda", hierarchy = [1], op_name = "unet.down_blocks.3.resnets.0.norm1.weight", output_lbns = ["unet.down_blocks.3.resnets.0.norm1.weight/out"], parallel = #sbp.parallel<[] -> [[#sbp.B]]>, scope_symbol_id = 2144 : i64, shape = [1280 : si64]} : () -> tensor<1280xf16>
    %output_232 = "oneflow.variable"() {data_type = 9 : i32, device_name = ["@0:0"], device_tag = "cuda", hierarchy = [1], op_name = "unet.down_blocks.3.resnets.0.norm1.bias", output_lbns = ["unet.down_blocks.3.resnets.0.norm1.bias/out"], parallel = #sbp.parallel<[] -> [[#sbp.B]]>, scope_symbol_id = 2148 : i64, shape = [1280 : si64]} : () -> tensor<1280xf16>
    %output_233 = "oneflow.variable"() {data_type = 9 : i32, device_name = ["@0:0"], device_tag = "cuda", hierarchy = [1], op_name = "variable_383", output_lbns = ["variable_383/out"], parallel = #sbp.parallel<[] -> [[#sbp.B]]>, scope_symbol_id = 2160 : i64, shape = [1280 : si64, 3 : si64, 3 : si64, 1280 : si64]} : () -> tensor<1280x3x3x1280xf16>
    %output_234 = "oneflow.variable"() {data_type = 9 : i32, device_name = ["@0:0"], device_tag = "cuda", hierarchy = [1], op_name = "unet.down_blocks.3.resnets.0.conv1.bias", output_lbns = ["unet.down_blocks.3.resnets.0.conv1.bias/out"], parallel = #sbp.parallel<[] -> [[#sbp.B]]>, scope_symbol_id = 2164 : i64, shape = [1280 : si64]} : () -> tensor<1280xf16>
    %output_235 = "oneflow.variable"() {data_type = 9 : i32, device_name = ["@0:0"], device_tag = "cuda", hierarchy = [1], op_name = "unet.down_blocks.3.resnets.0.time_emb_proj.weight", output_lbns = ["unet.down_blocks.3.resnets.0.time_emb_proj.weight/out"], parallel = #sbp.parallel<[] -> [[#sbp.B]]>, scope_symbol_id = 2175 : i64, shape = [1280 : si64, 1280 : si64]} : () -> tensor<1280x1280xf16>
    %output_236 = "oneflow.variable"() {data_type = 9 : i32, device_name = ["@0:0"], device_tag = "cuda", hierarchy = [1], op_name = "unet.down_blocks.3.resnets.0.time_emb_proj.bias", output_lbns = ["unet.down_blocks.3.resnets.0.time_emb_proj.bias/out"], parallel = #sbp.parallel<[] -> [[#sbp.B]]>, scope_symbol_id = 2182 : i64, shape = [1280 : si64]} : () -> tensor<1280xf16>
    %output_237 = "oneflow.variable"() {data_type = 9 : i32, device_name = ["@0:0"], device_tag = "cuda", hierarchy = [1], op_name = "unet.down_blocks.3.resnets.0.norm2.weight", output_lbns = ["unet.down_blocks.3.resnets.0.norm2.weight/out"], parallel = #sbp.parallel<[] -> [[#sbp.B]]>, scope_symbol_id = 2199 : i64, shape = [1280 : si64]} : () -> tensor<1280xf16>
    %output_238 = "oneflow.variable"() {data_type = 9 : i32, device_name = ["@0:0"], device_tag = "cuda", hierarchy = [1], op_name = "unet.down_blocks.3.resnets.0.norm2.bias", output_lbns = ["unet.down_blocks.3.resnets.0.norm2.bias/out"], parallel = #sbp.parallel<[] -> [[#sbp.B]]>, scope_symbol_id = 2203 : i64, shape = [1280 : si64]} : () -> tensor<1280xf16>
    %output_239 = "oneflow.variable"() {data_type = 9 : i32, device_name = ["@0:0"], device_tag = "cuda", hierarchy = [1], op_name = "variable_382", output_lbns = ["variable_382/out"], parallel = #sbp.parallel<[] -> [[#sbp.B]]>, scope_symbol_id = 2215 : i64, shape = [1280 : si64, 3 : si64, 3 : si64, 1280 : si64]} : () -> tensor<1280x3x3x1280xf16>
    %output_240 = "oneflow.variable"() {data_type = 9 : i32, device_name = ["@0:0"], device_tag = "cuda", hierarchy = [1], op_name = "unet.down_blocks.3.resnets.0.conv2.bias", output_lbns = ["unet.down_blocks.3.resnets.0.conv2.bias/out"], parallel = #sbp.parallel<[] -> [[#sbp.B]]>, scope_symbol_id = 2219 : i64, shape = [1280 : si64]} : () -> tensor<1280xf16>
    %output_241 = "oneflow.variable"() {data_type = 9 : i32, device_name = ["@0:0"], device_tag = "cuda", hierarchy = [1], op_name = "unet.down_blocks.3.resnets.1.norm1.weight", output_lbns = ["unet.down_blocks.3.resnets.1.norm1.weight/out"], parallel = #sbp.parallel<[] -> [[#sbp.B]]>, scope_symbol_id = 2234 : i64, shape = [1280 : si64]} : () -> tensor<1280xf16>
    %output_242 = "oneflow.variable"() {data_type = 9 : i32, device_name = ["@0:0"], device_tag = "cuda", hierarchy = [1], op_name = "unet.down_blocks.3.resnets.1.norm1.bias", output_lbns = ["unet.down_blocks.3.resnets.1.norm1.bias/out"], parallel = #sbp.parallel<[] -> [[#sbp.B]]>, scope_symbol_id = 2238 : i64, shape = [1280 : si64]} : () -> tensor<1280xf16>
    %output_243 = "oneflow.variable"() {data_type = 9 : i32, device_name = ["@0:0"], device_tag = "cuda", hierarchy = [1], op_name = "variable_381", output_lbns = ["variable_381/out"], parallel = #sbp.parallel<[] -> [[#sbp.B]]>, scope_symbol_id = 2250 : i64, shape = [1280 : si64, 3 : si64, 3 : si64, 1280 : si64]} : () -> tensor<1280x3x3x1280xf16>
    %output_244 = "oneflow.variable"() {data_type = 9 : i32, device_name = ["@0:0"], device_tag = "cuda", hierarchy = [1], op_name = "unet.down_blocks.3.resnets.1.conv1.bias", output_lbns = ["unet.down_blocks.3.resnets.1.conv1.bias/out"], parallel = #sbp.parallel<[] -> [[#sbp.B]]>, scope_symbol_id = 2254 : i64, shape = [1280 : si64]} : () -> tensor<1280xf16>
    %output_245 = "oneflow.variable"() {data_type = 9 : i32, device_name = ["@0:0"], device_tag = "cuda", hierarchy = [1], op_name = "unet.down_blocks.3.resnets.1.time_emb_proj.weight", output_lbns = ["unet.down_blocks.3.resnets.1.time_emb_proj.weight/out"], parallel = #sbp.parallel<[] -> [[#sbp.B]]>, scope_symbol_id = 2265 : i64, shape = [1280 : si64, 1280 : si64]} : () -> tensor<1280x1280xf16>
    %output_246 = "oneflow.variable"() {data_type = 9 : i32, device_name = ["@0:0"], device_tag = "cuda", hierarchy = [1], op_name = "unet.down_blocks.3.resnets.1.time_emb_proj.bias", output_lbns = ["unet.down_blocks.3.resnets.1.time_emb_proj.bias/out"], parallel = #sbp.parallel<[] -> [[#sbp.B]]>, scope_symbol_id = 2272 : i64, shape = [1280 : si64]} : () -> tensor<1280xf16>
    %output_247 = "oneflow.variable"() {data_type = 9 : i32, device_name = ["@0:0"], device_tag = "cuda", hierarchy = [1], op_name = "unet.down_blocks.3.resnets.1.norm2.weight", output_lbns = ["unet.down_blocks.3.resnets.1.norm2.weight/out"], parallel = #sbp.parallel<[] -> [[#sbp.B]]>, scope_symbol_id = 2289 : i64, shape = [1280 : si64]} : () -> tensor<1280xf16>
    %output_248 = "oneflow.variable"() {data_type = 9 : i32, device_name = ["@0:0"], device_tag = "cuda", hierarchy = [1], op_name = "unet.down_blocks.3.resnets.1.norm2.bias", output_lbns = ["unet.down_blocks.3.resnets.1.norm2.bias/out"], parallel = #sbp.parallel<[] -> [[#sbp.B]]>, scope_symbol_id = 2293 : i64, shape = [1280 : si64]} : () -> tensor<1280xf16>
    %output_249 = "oneflow.variable"() {data_type = 9 : i32, device_name = ["@0:0"], device_tag = "cuda", hierarchy = [1], op_name = "variable_380", output_lbns = ["variable_380/out"], parallel = #sbp.parallel<[] -> [[#sbp.B]]>, scope_symbol_id = 2305 : i64, shape = [1280 : si64, 3 : si64, 3 : si64, 1280 : si64]} : () -> tensor<1280x3x3x1280xf16>
    %output_250 = "oneflow.variable"() {data_type = 9 : i32, device_name = ["@0:0"], device_tag = "cuda", hierarchy = [1], op_name = "unet.down_blocks.3.resnets.1.conv2.bias", output_lbns = ["unet.down_blocks.3.resnets.1.conv2.bias/out"], parallel = #sbp.parallel<[] -> [[#sbp.B]]>, scope_symbol_id = 2309 : i64, shape = [1280 : si64]} : () -> tensor<1280xf16>
    %output_251 = "oneflow.variable"() {data_type = 9 : i32, device_name = ["@0:0"], device_tag = "cuda", hierarchy = [1], op_name = "unet.mid_block.resnets.0.norm1.weight", output_lbns = ["unet.mid_block.resnets.0.norm1.weight/out"], parallel = #sbp.parallel<[] -> [[#sbp.B]]>, scope_symbol_id = 2325 : i64, shape = [1280 : si64]} : () -> tensor<1280xf16>
    %output_252 = "oneflow.variable"() {data_type = 9 : i32, device_name = ["@0:0"], device_tag = "cuda", hierarchy = [1], op_name = "unet.mid_block.resnets.0.norm1.bias", output_lbns = ["unet.mid_block.resnets.0.norm1.bias/out"], parallel = #sbp.parallel<[] -> [[#sbp.B]]>, scope_symbol_id = 2329 : i64, shape = [1280 : si64]} : () -> tensor<1280xf16>
    %output_253 = "oneflow.variable"() {data_type = 9 : i32, device_name = ["@0:0"], device_tag = "cuda", hierarchy = [1], op_name = "variable_379", output_lbns = ["variable_379/out"], parallel = #sbp.parallel<[] -> [[#sbp.B]]>, scope_symbol_id = 2341 : i64, shape = [1280 : si64, 3 : si64, 3 : si64, 1280 : si64]} : () -> tensor<1280x3x3x1280xf16>
    %output_254 = "oneflow.variable"() {data_type = 9 : i32, device_name = ["@0:0"], device_tag = "cuda", hierarchy = [1], op_name = "unet.mid_block.resnets.0.conv1.bias", output_lbns = ["unet.mid_block.resnets.0.conv1.bias/out"], parallel = #sbp.parallel<[] -> [[#sbp.B]]>, scope_symbol_id = 2345 : i64, shape = [1280 : si64]} : () -> tensor<1280xf16>
    %output_255 = "oneflow.variable"() {data_type = 9 : i32, device_name = ["@0:0"], device_tag = "cuda", hierarchy = [1], op_name = "unet.mid_block.resnets.0.time_emb_proj.weight", output_lbns = ["unet.mid_block.resnets.0.time_emb_proj.weight/out"], parallel = #sbp.parallel<[] -> [[#sbp.B]]>, scope_symbol_id = 2356 : i64, shape = [1280 : si64, 1280 : si64]} : () -> tensor<1280x1280xf16>
    %output_256 = "oneflow.variable"() {data_type = 9 : i32, device_name = ["@0:0"], device_tag = "cuda", hierarchy = [1], op_name = "unet.mid_block.resnets.0.time_emb_proj.bias", output_lbns = ["unet.mid_block.resnets.0.time_emb_proj.bias/out"], parallel = #sbp.parallel<[] -> [[#sbp.B]]>, scope_symbol_id = 2363 : i64, shape = [1280 : si64]} : () -> tensor<1280xf16>
    %output_257 = "oneflow.variable"() {data_type = 9 : i32, device_name = ["@0:0"], device_tag = "cuda", hierarchy = [1], op_name = "unet.mid_block.resnets.0.norm2.weight", output_lbns = ["unet.mid_block.resnets.0.norm2.weight/out"], parallel = #sbp.parallel<[] -> [[#sbp.B]]>, scope_symbol_id = 2380 : i64, shape = [1280 : si64]} : () -> tensor<1280xf16>
    %output_258 = "oneflow.variable"() {data_type = 9 : i32, device_name = ["@0:0"], device_tag = "cuda", hierarchy = [1], op_name = "unet.mid_block.resnets.0.norm2.bias", output_lbns = ["unet.mid_block.resnets.0.norm2.bias/out"], parallel = #sbp.parallel<[] -> [[#sbp.B]]>, scope_symbol_id = 2384 : i64, shape = [1280 : si64]} : () -> tensor<1280xf16>
    %output_259 = "oneflow.variable"() {data_type = 9 : i32, device_name = ["@0:0"], device_tag = "cuda", hierarchy = [1], op_name = "variable_378", output_lbns = ["variable_378/out"], parallel = #sbp.parallel<[] -> [[#sbp.B]]>, scope_symbol_id = 2396 : i64, shape = [1280 : si64, 3 : si64, 3 : si64, 1280 : si64]} : () -> tensor<1280x3x3x1280xf16>
    %output_260 = "oneflow.variable"() {data_type = 9 : i32, device_name = ["@0:0"], device_tag = "cuda", hierarchy = [1], op_name = "unet.mid_block.resnets.0.conv2.bias", output_lbns = ["unet.mid_block.resnets.0.conv2.bias/out"], parallel = #sbp.parallel<[] -> [[#sbp.B]]>, scope_symbol_id = 2400 : i64, shape = [1280 : si64]} : () -> tensor<1280xf16>
    %output_261 = "oneflow.variable"() {data_type = 9 : i32, device_name = ["@0:0"], device_tag = "cuda", hierarchy = [1], op_name = "unet.mid_block.attentions.0.norm.weight", output_lbns = ["unet.mid_block.attentions.0.norm.weight/out"], parallel = #sbp.parallel<[] -> [[#sbp.B]]>, scope_symbol_id = 2415 : i64, shape = [1280 : si64]} : () -> tensor<1280xf16>
    %output_262 = "oneflow.variable"() {data_type = 9 : i32, device_name = ["@0:0"], device_tag = "cuda", hierarchy = [1], op_name = "unet.mid_block.attentions.0.norm.bias", output_lbns = ["unet.mid_block.attentions.0.norm.bias/out"], parallel = #sbp.parallel<[] -> [[#sbp.B]]>, scope_symbol_id = 2419 : i64, shape = [1280 : si64]} : () -> tensor<1280xf16>
    %output_263 = "oneflow.variable"() {data_type = 9 : i32, device_name = ["@0:0"], device_tag = "cuda", hierarchy = [1], op_name = "variable_377", output_lbns = ["variable_377/out"], parallel = #sbp.parallel<[] -> [[#sbp.B]]>, scope_symbol_id = 2427 : i64, shape = [1280 : si64, 1 : si64, 1 : si64, 1280 : si64]} : () -> tensor<1280x1x1x1280xf16>
    %output_264 = "oneflow.variable"() {data_type = 9 : i32, device_name = ["@0:0"], device_tag = "cuda", hierarchy = [1], op_name = "unet.mid_block.attentions.0.proj_in.bias", output_lbns = ["unet.mid_block.attentions.0.proj_in.bias/out"], parallel = #sbp.parallel<[] -> [[#sbp.B]]>, scope_symbol_id = 2431 : i64, shape = [1280 : si64]} : () -> tensor<1280xf16>
    %output_265 = "oneflow.variable"() {data_type = 9 : i32, device_name = ["@0:0"], device_tag = "cuda", hierarchy = [1], op_name = "unet.mid_block.attentions.0.transformer_blocks.0.norm1.weight", output_lbns = ["unet.mid_block.attentions.0.transformer_blocks.0.norm1.weight/out"], parallel = #sbp.parallel<[] -> [[#sbp.B]]>, scope_symbol_id = 2446 : i64, shape = [1280 : si64]} : () -> tensor<1280xf16>
    %output_266 = "oneflow.variable"() {data_type = 9 : i32, device_name = ["@0:0"], device_tag = "cuda", hierarchy = [1], op_name = "unet.mid_block.attentions.0.transformer_blocks.0.norm1.bias", output_lbns = ["unet.mid_block.attentions.0.transformer_blocks.0.norm1.bias/out"], parallel = #sbp.parallel<[] -> [[#sbp.B]]>, scope_symbol_id = 2450 : i64, shape = [1280 : si64]} : () -> tensor<1280xf16>
    %output_267 = "oneflow.variable"() {data_type = 9 : i32, device_name = ["@0:0"], device_tag = "cuda", hierarchy = [1], op_name = "unet.mid_block.attentions.0.transformer_blocks.0.attn1.to_q.weight", output_lbns = ["unet.mid_block.attentions.0.transformer_blocks.0.attn1.to_q.weight/out"], parallel = #sbp.parallel<[] -> [[#sbp.B]]>, scope_symbol_id = 2459 : i64, shape = [1280 : si64, 1280 : si64]} : () -> tensor<1280x1280xf16>
    %output_268 = "oneflow.variable"() {data_type = 9 : i32, device_name = ["@0:0"], device_tag = "cuda", hierarchy = [1], op_name = "unet.mid_block.attentions.0.transformer_blocks.0.attn1.to_k.weight", output_lbns = ["unet.mid_block.attentions.0.transformer_blocks.0.attn1.to_k.weight/out"], parallel = #sbp.parallel<[] -> [[#sbp.B]]>, scope_symbol_id = 2467 : i64, shape = [1280 : si64, 1280 : si64]} : () -> tensor<1280x1280xf16>
    %output_269 = "oneflow.variable"() {data_type = 9 : i32, device_name = ["@0:0"], device_tag = "cuda", hierarchy = [1], op_name = "unet.mid_block.attentions.0.transformer_blocks.0.attn1.to_v.weight", output_lbns = ["unet.mid_block.attentions.0.transformer_blocks.0.attn1.to_v.weight/out"], parallel = #sbp.parallel<[] -> [[#sbp.B]]>, scope_symbol_id = 2475 : i64, shape = [1280 : si64, 1280 : si64]} : () -> tensor<1280x1280xf16>
    %output_270 = "oneflow.variable"() {data_type = 9 : i32, device_name = ["@0:0"], device_tag = "cuda", hierarchy = [1], op_name = "unet.mid_block.attentions.0.transformer_blocks.0.attn1.to_out.0.weight", output_lbns = ["unet.mid_block.attentions.0.transformer_blocks.0.attn1.to_out.0.weight/out"], parallel = #sbp.parallel<[] -> [[#sbp.B]]>, scope_symbol_id = 2487 : i64, shape = [1280 : si64, 1280 : si64]} : () -> tensor<1280x1280xf16>
    %output_271 = "oneflow.variable"() {data_type = 9 : i32, device_name = ["@0:0"], device_tag = "cuda", hierarchy = [1], op_name = "unet.mid_block.attentions.0.transformer_blocks.0.attn1.to_out.0.bias", output_lbns = ["unet.mid_block.attentions.0.transformer_blocks.0.attn1.to_out.0.bias/out"], parallel = #sbp.parallel<[] -> [[#sbp.B]]>, scope_symbol_id = 2494 : i64, shape = [1280 : si64]} : () -> tensor<1280xf16>
    %output_272 = "oneflow.variable"() {data_type = 9 : i32, device_name = ["@0:0"], device_tag = "cuda", hierarchy = [1], op_name = "unet.mid_block.attentions.0.transformer_blocks.0.norm2.weight", output_lbns = ["unet.mid_block.attentions.0.transformer_blocks.0.norm2.weight/out"], parallel = #sbp.parallel<[] -> [[#sbp.B]]>, scope_symbol_id = 2506 : i64, shape = [1280 : si64]} : () -> tensor<1280xf16>
    %output_273 = "oneflow.variable"() {data_type = 9 : i32, device_name = ["@0:0"], device_tag = "cuda", hierarchy = [1], op_name = "unet.mid_block.attentions.0.transformer_blocks.0.norm2.bias", output_lbns = ["unet.mid_block.attentions.0.transformer_blocks.0.norm2.bias/out"], parallel = #sbp.parallel<[] -> [[#sbp.B]]>, scope_symbol_id = 2510 : i64, shape = [1280 : si64]} : () -> tensor<1280xf16>
    %output_274 = "oneflow.variable"() {data_type = 9 : i32, device_name = ["@0:0"], device_tag = "cuda", hierarchy = [1], op_name = "unet.mid_block.attentions.0.transformer_blocks.0.attn2.to_q.weight", output_lbns = ["unet.mid_block.attentions.0.transformer_blocks.0.attn2.to_q.weight/out"], parallel = #sbp.parallel<[] -> [[#sbp.B]]>, scope_symbol_id = 2519 : i64, shape = [1280 : si64, 1280 : si64]} : () -> tensor<1280x1280xf16>
    %output_275 = "oneflow.variable"() {data_type = 9 : i32, device_name = ["@0:0"], device_tag = "cuda", hierarchy = [1], op_name = "unet.mid_block.attentions.0.transformer_blocks.0.attn2.to_k.weight", output_lbns = ["unet.mid_block.attentions.0.transformer_blocks.0.attn2.to_k.weight/out"], parallel = #sbp.parallel<[] -> [[#sbp.B]]>, scope_symbol_id = 2527 : i64, shape = [1280 : si64, 768 : si64]} : () -> tensor<1280x768xf16>
    %output_276 = "oneflow.variable"() {data_type = 9 : i32, device_name = ["@0:0"], device_tag = "cuda", hierarchy = [1], op_name = "unet.mid_block.attentions.0.transformer_blocks.0.attn2.to_v.weight", output_lbns = ["unet.mid_block.attentions.0.transformer_blocks.0.attn2.to_v.weight/out"], parallel = #sbp.parallel<[] -> [[#sbp.B]]>, scope_symbol_id = 2535 : i64, shape = [1280 : si64, 768 : si64]} : () -> tensor<1280x768xf16>
    %output_277 = "oneflow.variable"() {data_type = 9 : i32, device_name = ["@0:0"], device_tag = "cuda", hierarchy = [1], op_name = "unet.mid_block.attentions.0.transformer_blocks.0.attn2.to_out.0.weight", output_lbns = ["unet.mid_block.attentions.0.transformer_blocks.0.attn2.to_out.0.weight/out"], parallel = #sbp.parallel<[] -> [[#sbp.B]]>, scope_symbol_id = 2547 : i64, shape = [1280 : si64, 1280 : si64]} : () -> tensor<1280x1280xf16>
    %output_278 = "oneflow.variable"() {data_type = 9 : i32, device_name = ["@0:0"], device_tag = "cuda", hierarchy = [1], op_name = "unet.mid_block.attentions.0.transformer_blocks.0.attn2.to_out.0.bias", output_lbns = ["unet.mid_block.attentions.0.transformer_blocks.0.attn2.to_out.0.bias/out"], parallel = #sbp.parallel<[] -> [[#sbp.B]]>, scope_symbol_id = 2554 : i64, shape = [1280 : si64]} : () -> tensor<1280xf16>
    %output_279 = "oneflow.variable"() {data_type = 9 : i32, device_name = ["@0:0"], device_tag = "cuda", hierarchy = [1], op_name = "unet.mid_block.attentions.0.transformer_blocks.0.norm3.weight", output_lbns = ["unet.mid_block.attentions.0.transformer_blocks.0.norm3.weight/out"], parallel = #sbp.parallel<[] -> [[#sbp.B]]>, scope_symbol_id = 2566 : i64, shape = [1280 : si64]} : () -> tensor<1280xf16>
    %output_280 = "oneflow.variable"() {data_type = 9 : i32, device_name = ["@0:0"], device_tag = "cuda", hierarchy = [1], op_name = "unet.mid_block.attentions.0.transformer_blocks.0.norm3.bias", output_lbns = ["unet.mid_block.attentions.0.transformer_blocks.0.norm3.bias/out"], parallel = #sbp.parallel<[] -> [[#sbp.B]]>, scope_symbol_id = 2570 : i64, shape = [1280 : si64]} : () -> tensor<1280xf16>
    %output_281 = "oneflow.variable"() {data_type = 9 : i32, device_name = ["@0:0"], device_tag = "cuda", hierarchy = [1], op_name = "unet.mid_block.attentions.0.transformer_blocks.0.ff.net.0.proj.weight", output_lbns = ["unet.mid_block.attentions.0.transformer_blocks.0.ff.net.0.proj.weight/out"], parallel = #sbp.parallel<[] -> [[#sbp.B]]>, scope_symbol_id = 2581 : i64, shape = [10240 : si64, 1280 : si64]} : () -> tensor<10240x1280xf16>
    %output_282 = "oneflow.variable"() {data_type = 9 : i32, device_name = ["@0:0"], device_tag = "cuda", hierarchy = [1], op_name = "unet.mid_block.attentions.0.transformer_blocks.0.ff.net.0.proj.bias", output_lbns = ["unet.mid_block.attentions.0.transformer_blocks.0.ff.net.0.proj.bias/out"], parallel = #sbp.parallel<[] -> [[#sbp.B]]>, scope_symbol_id = 2588 : i64, shape = [10240 : si64]} : () -> tensor<10240xf16>
    %output_283 = "oneflow.variable"() {data_type = 9 : i32, device_name = ["@0:0"], device_tag = "cuda", hierarchy = [1], op_name = "unet.mid_block.attentions.0.transformer_blocks.0.ff.net.2.weight", output_lbns = ["unet.mid_block.attentions.0.transformer_blocks.0.ff.net.2.weight/out"], parallel = #sbp.parallel<[] -> [[#sbp.B]]>, scope_symbol_id = 2609 : i64, shape = [1280 : si64, 5120 : si64]} : () -> tensor<1280x5120xf16>
    %output_284 = "oneflow.variable"() {data_type = 9 : i32, device_name = ["@0:0"], device_tag = "cuda", hierarchy = [1], op_name = "unet.mid_block.attentions.0.transformer_blocks.0.ff.net.2.bias", output_lbns = ["unet.mid_block.attentions.0.transformer_blocks.0.ff.net.2.bias/out"], parallel = #sbp.parallel<[] -> [[#sbp.B]]>, scope_symbol_id = 2616 : i64, shape = [1280 : si64]} : () -> tensor<1280xf16>
    %output_285 = "oneflow.variable"() {data_type = 9 : i32, device_name = ["@0:0"], device_tag = "cuda", hierarchy = [1], op_name = "variable_376", output_lbns = ["variable_376/out"], parallel = #sbp.parallel<[] -> [[#sbp.B]]>, scope_symbol_id = 2633 : i64, shape = [1280 : si64, 1 : si64, 1 : si64, 1280 : si64]} : () -> tensor<1280x1x1x1280xf16>
    %output_286 = "oneflow.variable"() {data_type = 9 : i32, device_name = ["@0:0"], device_tag = "cuda", hierarchy = [1], op_name = "unet.mid_block.attentions.0.proj_out.bias", output_lbns = ["unet.mid_block.attentions.0.proj_out.bias/out"], parallel = #sbp.parallel<[] -> [[#sbp.B]]>, scope_symbol_id = 2637 : i64, shape = [1280 : si64]} : () -> tensor<1280xf16>
    %output_287 = "oneflow.variable"() {data_type = 9 : i32, device_name = ["@0:0"], device_tag = "cuda", hierarchy = [1], op_name = "unet.mid_block.resnets.1.norm1.weight", output_lbns = ["unet.mid_block.resnets.1.norm1.weight/out"], parallel = #sbp.parallel<[] -> [[#sbp.B]]>, scope_symbol_id = 2649 : i64, shape = [1280 : si64]} : () -> tensor<1280xf16>
    %output_288 = "oneflow.variable"() {data_type = 9 : i32, device_name = ["@0:0"], device_tag = "cuda", hierarchy = [1], op_name = "unet.mid_block.resnets.1.norm1.bias", output_lbns = ["unet.mid_block.resnets.1.norm1.bias/out"], parallel = #sbp.parallel<[] -> [[#sbp.B]]>, scope_symbol_id = 2653 : i64, shape = [1280 : si64]} : () -> tensor<1280xf16>
    %output_289 = "oneflow.variable"() {data_type = 9 : i32, device_name = ["@0:0"], device_tag = "cuda", hierarchy = [1], op_name = "variable_375", output_lbns = ["variable_375/out"], parallel = #sbp.parallel<[] -> [[#sbp.B]]>, scope_symbol_id = 2665 : i64, shape = [1280 : si64, 3 : si64, 3 : si64, 1280 : si64]} : () -> tensor<1280x3x3x1280xf16>
    %output_290 = "oneflow.variable"() {data_type = 9 : i32, device_name = ["@0:0"], device_tag = "cuda", hierarchy = [1], op_name = "unet.mid_block.resnets.1.conv1.bias", output_lbns = ["unet.mid_block.resnets.1.conv1.bias/out"], parallel = #sbp.parallel<[] -> [[#sbp.B]]>, scope_symbol_id = 2669 : i64, shape = [1280 : si64]} : () -> tensor<1280xf16>
    %output_291 = "oneflow.variable"() {data_type = 9 : i32, device_name = ["@0:0"], device_tag = "cuda", hierarchy = [1], op_name = "unet.mid_block.resnets.1.time_emb_proj.weight", output_lbns = ["unet.mid_block.resnets.1.time_emb_proj.weight/out"], parallel = #sbp.parallel<[] -> [[#sbp.B]]>, scope_symbol_id = 2680 : i64, shape = [1280 : si64, 1280 : si64]} : () -> tensor<1280x1280xf16>
    %output_292 = "oneflow.variable"() {data_type = 9 : i32, device_name = ["@0:0"], device_tag = "cuda", hierarchy = [1], op_name = "unet.mid_block.resnets.1.time_emb_proj.bias", output_lbns = ["unet.mid_block.resnets.1.time_emb_proj.bias/out"], parallel = #sbp.parallel<[] -> [[#sbp.B]]>, scope_symbol_id = 2687 : i64, shape = [1280 : si64]} : () -> tensor<1280xf16>
    %output_293 = "oneflow.variable"() {data_type = 9 : i32, device_name = ["@0:0"], device_tag = "cuda", hierarchy = [1], op_name = "unet.mid_block.resnets.1.norm2.weight", output_lbns = ["unet.mid_block.resnets.1.norm2.weight/out"], parallel = #sbp.parallel<[] -> [[#sbp.B]]>, scope_symbol_id = 2704 : i64, shape = [1280 : si64]} : () -> tensor<1280xf16>
    %output_294 = "oneflow.variable"() {data_type = 9 : i32, device_name = ["@0:0"], device_tag = "cuda", hierarchy = [1], op_name = "unet.mid_block.resnets.1.norm2.bias", output_lbns = ["unet.mid_block.resnets.1.norm2.bias/out"], parallel = #sbp.parallel<[] -> [[#sbp.B]]>, scope_symbol_id = 2708 : i64, shape = [1280 : si64]} : () -> tensor<1280xf16>
    %output_295 = "oneflow.variable"() {data_type = 9 : i32, device_name = ["@0:0"], device_tag = "cuda", hierarchy = [1], op_name = "variable_374", output_lbns = ["variable_374/out"], parallel = #sbp.parallel<[] -> [[#sbp.B]]>, scope_symbol_id = 2720 : i64, shape = [1280 : si64, 3 : si64, 3 : si64, 1280 : si64]} : () -> tensor<1280x3x3x1280xf16>
    %output_296 = "oneflow.variable"() {data_type = 9 : i32, device_name = ["@0:0"], device_tag = "cuda", hierarchy = [1], op_name = "unet.mid_block.resnets.1.conv2.bias", output_lbns = ["unet.mid_block.resnets.1.conv2.bias/out"], parallel = #sbp.parallel<[] -> [[#sbp.B]]>, scope_symbol_id = 2724 : i64, shape = [1280 : si64]} : () -> tensor<1280xf16>
    %output_297 = "oneflow.variable"() {data_type = 9 : i32, device_name = ["@0:0"], device_tag = "cuda", hierarchy = [1], op_name = "unet.up_blocks.0.resnets.0.norm1.weight", output_lbns = ["unet.up_blocks.0.resnets.0.norm1.weight/out"], parallel = #sbp.parallel<[] -> [[#sbp.B]]>, scope_symbol_id = 2743 : i64, shape = [2560 : si64]} : () -> tensor<2560xf16>
    %output_298 = "oneflow.variable"() {data_type = 9 : i32, device_name = ["@0:0"], device_tag = "cuda", hierarchy = [1], op_name = "unet.up_blocks.0.resnets.0.norm1.bias", output_lbns = ["unet.up_blocks.0.resnets.0.norm1.bias/out"], parallel = #sbp.parallel<[] -> [[#sbp.B]]>, scope_symbol_id = 2747 : i64, shape = [2560 : si64]} : () -> tensor<2560xf16>
    %output_299 = "oneflow.variable"() {data_type = 9 : i32, device_name = ["@0:0"], device_tag = "cuda", hierarchy = [1], op_name = "variable_373", output_lbns = ["variable_373/out"], parallel = #sbp.parallel<[] -> [[#sbp.B]]>, scope_symbol_id = 2759 : i64, shape = [1280 : si64, 3 : si64, 3 : si64, 2560 : si64]} : () -> tensor<1280x3x3x2560xf16>
    %output_300 = "oneflow.variable"() {data_type = 9 : i32, device_name = ["@0:0"], device_tag = "cuda", hierarchy = [1], op_name = "unet.up_blocks.0.resnets.0.conv1.bias", output_lbns = ["unet.up_blocks.0.resnets.0.conv1.bias/out"], parallel = #sbp.parallel<[] -> [[#sbp.B]]>, scope_symbol_id = 2763 : i64, shape = [1280 : si64]} : () -> tensor<1280xf16>
    %output_301 = "oneflow.variable"() {data_type = 9 : i32, device_name = ["@0:0"], device_tag = "cuda", hierarchy = [1], op_name = "unet.up_blocks.0.resnets.0.time_emb_proj.weight", output_lbns = ["unet.up_blocks.0.resnets.0.time_emb_proj.weight/out"], parallel = #sbp.parallel<[] -> [[#sbp.B]]>, scope_symbol_id = 2774 : i64, shape = [1280 : si64, 1280 : si64]} : () -> tensor<1280x1280xf16>
    %output_302 = "oneflow.variable"() {data_type = 9 : i32, device_name = ["@0:0"], device_tag = "cuda", hierarchy = [1], op_name = "unet.up_blocks.0.resnets.0.time_emb_proj.bias", output_lbns = ["unet.up_blocks.0.resnets.0.time_emb_proj.bias/out"], parallel = #sbp.parallel<[] -> [[#sbp.B]]>, scope_symbol_id = 2781 : i64, shape = [1280 : si64]} : () -> tensor<1280xf16>
    %output_303 = "oneflow.variable"() {data_type = 9 : i32, device_name = ["@0:0"], device_tag = "cuda", hierarchy = [1], op_name = "unet.up_blocks.0.resnets.0.norm2.weight", output_lbns = ["unet.up_blocks.0.resnets.0.norm2.weight/out"], parallel = #sbp.parallel<[] -> [[#sbp.B]]>, scope_symbol_id = 2798 : i64, shape = [1280 : si64]} : () -> tensor<1280xf16>
    %output_304 = "oneflow.variable"() {data_type = 9 : i32, device_name = ["@0:0"], device_tag = "cuda", hierarchy = [1], op_name = "unet.up_blocks.0.resnets.0.norm2.bias", output_lbns = ["unet.up_blocks.0.resnets.0.norm2.bias/out"], parallel = #sbp.parallel<[] -> [[#sbp.B]]>, scope_symbol_id = 2802 : i64, shape = [1280 : si64]} : () -> tensor<1280xf16>
    %output_305 = "oneflow.variable"() {data_type = 9 : i32, device_name = ["@0:0"], device_tag = "cuda", hierarchy = [1], op_name = "variable_372", output_lbns = ["variable_372/out"], parallel = #sbp.parallel<[] -> [[#sbp.B]]>, scope_symbol_id = 2814 : i64, shape = [1280 : si64, 3 : si64, 3 : si64, 1280 : si64]} : () -> tensor<1280x3x3x1280xf16>
    %output_306 = "oneflow.variable"() {data_type = 9 : i32, device_name = ["@0:0"], device_tag = "cuda", hierarchy = [1], op_name = "unet.up_blocks.0.resnets.0.conv2.bias", output_lbns = ["unet.up_blocks.0.resnets.0.conv2.bias/out"], parallel = #sbp.parallel<[] -> [[#sbp.B]]>, scope_symbol_id = 2818 : i64, shape = [1280 : si64]} : () -> tensor<1280xf16>
    %output_307 = "oneflow.variable"() {data_type = 9 : i32, device_name = ["@0:0"], device_tag = "cuda", hierarchy = [1], op_name = "variable_371", output_lbns = ["variable_371/out"], parallel = #sbp.parallel<[] -> [[#sbp.B]]>, scope_symbol_id = 2826 : i64, shape = [1280 : si64, 1 : si64, 1 : si64, 2560 : si64]} : () -> tensor<1280x1x1x2560xf16>
    %output_308 = "oneflow.variable"() {data_type = 9 : i32, device_name = ["@0:0"], device_tag = "cuda", hierarchy = [1], op_name = "unet.up_blocks.0.resnets.0.conv_shortcut.bias", output_lbns = ["unet.up_blocks.0.resnets.0.conv_shortcut.bias/out"], parallel = #sbp.parallel<[] -> [[#sbp.B]]>, scope_symbol_id = 2830 : i64, shape = [1280 : si64]} : () -> tensor<1280xf16>
    %output_309 = "oneflow.variable"() {data_type = 9 : i32, device_name = ["@0:0"], device_tag = "cuda", hierarchy = [1], op_name = "unet.up_blocks.0.resnets.1.norm1.weight", output_lbns = ["unet.up_blocks.0.resnets.1.norm1.weight/out"], parallel = #sbp.parallel<[] -> [[#sbp.B]]>, scope_symbol_id = 2848 : i64, shape = [2560 : si64]} : () -> tensor<2560xf16>
    %output_310 = "oneflow.variable"() {data_type = 9 : i32, device_name = ["@0:0"], device_tag = "cuda", hierarchy = [1], op_name = "unet.up_blocks.0.resnets.1.norm1.bias", output_lbns = ["unet.up_blocks.0.resnets.1.norm1.bias/out"], parallel = #sbp.parallel<[] -> [[#sbp.B]]>, scope_symbol_id = 2852 : i64, shape = [2560 : si64]} : () -> tensor<2560xf16>
    %output_311 = "oneflow.variable"() {data_type = 9 : i32, device_name = ["@0:0"], device_tag = "cuda", hierarchy = [1], op_name = "variable_370", output_lbns = ["variable_370/out"], parallel = #sbp.parallel<[] -> [[#sbp.B]]>, scope_symbol_id = 2864 : i64, shape = [1280 : si64, 3 : si64, 3 : si64, 2560 : si64]} : () -> tensor<1280x3x3x2560xf16>
    %output_312 = "oneflow.variable"() {data_type = 9 : i32, device_name = ["@0:0"], device_tag = "cuda", hierarchy = [1], op_name = "unet.up_blocks.0.resnets.1.conv1.bias", output_lbns = ["unet.up_blocks.0.resnets.1.conv1.bias/out"], parallel = #sbp.parallel<[] -> [[#sbp.B]]>, scope_symbol_id = 2868 : i64, shape = [1280 : si64]} : () -> tensor<1280xf16>
    %output_313 = "oneflow.variable"() {data_type = 9 : i32, device_name = ["@0:0"], device_tag = "cuda", hierarchy = [1], op_name = "unet.up_blocks.0.resnets.1.time_emb_proj.weight", output_lbns = ["unet.up_blocks.0.resnets.1.time_emb_proj.weight/out"], parallel = #sbp.parallel<[] -> [[#sbp.B]]>, scope_symbol_id = 2879 : i64, shape = [1280 : si64, 1280 : si64]} : () -> tensor<1280x1280xf16>
    %output_314 = "oneflow.variable"() {data_type = 9 : i32, device_name = ["@0:0"], device_tag = "cuda", hierarchy = [1], op_name = "unet.up_blocks.0.resnets.1.time_emb_proj.bias", output_lbns = ["unet.up_blocks.0.resnets.1.time_emb_proj.bias/out"], parallel = #sbp.parallel<[] -> [[#sbp.B]]>, scope_symbol_id = 2886 : i64, shape = [1280 : si64]} : () -> tensor<1280xf16>
    %output_315 = "oneflow.variable"() {data_type = 9 : i32, device_name = ["@0:0"], device_tag = "cuda", hierarchy = [1], op_name = "unet.up_blocks.0.resnets.1.norm2.weight", output_lbns = ["unet.up_blocks.0.resnets.1.norm2.weight/out"], parallel = #sbp.parallel<[] -> [[#sbp.B]]>, scope_symbol_id = 2903 : i64, shape = [1280 : si64]} : () -> tensor<1280xf16>
    %output_316 = "oneflow.variable"() {data_type = 9 : i32, device_name = ["@0:0"], device_tag = "cuda", hierarchy = [1], op_name = "unet.up_blocks.0.resnets.1.norm2.bias", output_lbns = ["unet.up_blocks.0.resnets.1.norm2.bias/out"], parallel = #sbp.parallel<[] -> [[#sbp.B]]>, scope_symbol_id = 2907 : i64, shape = [1280 : si64]} : () -> tensor<1280xf16>
    %output_317 = "oneflow.variable"() {data_type = 9 : i32, device_name = ["@0:0"], device_tag = "cuda", hierarchy = [1], op_name = "variable_369", output_lbns = ["variable_369/out"], parallel = #sbp.parallel<[] -> [[#sbp.B]]>, scope_symbol_id = 2919 : i64, shape = [1280 : si64, 3 : si64, 3 : si64, 1280 : si64]} : () -> tensor<1280x3x3x1280xf16>
    %output_318 = "oneflow.variable"() {data_type = 9 : i32, device_name = ["@0:0"], device_tag = "cuda", hierarchy = [1], op_name = "unet.up_blocks.0.resnets.1.conv2.bias", output_lbns = ["unet.up_blocks.0.resnets.1.conv2.bias/out"], parallel = #sbp.parallel<[] -> [[#sbp.B]]>, scope_symbol_id = 2923 : i64, shape = [1280 : si64]} : () -> tensor<1280xf16>
    %output_319 = "oneflow.variable"() {data_type = 9 : i32, device_name = ["@0:0"], device_tag = "cuda", hierarchy = [1], op_name = "variable_368", output_lbns = ["variable_368/out"], parallel = #sbp.parallel<[] -> [[#sbp.B]]>, scope_symbol_id = 2931 : i64, shape = [1280 : si64, 1 : si64, 1 : si64, 2560 : si64]} : () -> tensor<1280x1x1x2560xf16>
    %output_320 = "oneflow.variable"() {data_type = 9 : i32, device_name = ["@0:0"], device_tag = "cuda", hierarchy = [1], op_name = "unet.up_blocks.0.resnets.1.conv_shortcut.bias", output_lbns = ["unet.up_blocks.0.resnets.1.conv_shortcut.bias/out"], parallel = #sbp.parallel<[] -> [[#sbp.B]]>, scope_symbol_id = 2935 : i64, shape = [1280 : si64]} : () -> tensor<1280xf16>
    %output_321 = "oneflow.variable"() {data_type = 9 : i32, device_name = ["@0:0"], device_tag = "cuda", hierarchy = [1], op_name = "unet.up_blocks.0.resnets.2.norm1.weight", output_lbns = ["unet.up_blocks.0.resnets.2.norm1.weight/out"], parallel = #sbp.parallel<[] -> [[#sbp.B]]>, scope_symbol_id = 2953 : i64, shape = [2560 : si64]} : () -> tensor<2560xf16>
    %output_322 = "oneflow.variable"() {data_type = 9 : i32, device_name = ["@0:0"], device_tag = "cuda", hierarchy = [1], op_name = "unet.up_blocks.0.resnets.2.norm1.bias", output_lbns = ["unet.up_blocks.0.resnets.2.norm1.bias/out"], parallel = #sbp.parallel<[] -> [[#sbp.B]]>, scope_symbol_id = 2957 : i64, shape = [2560 : si64]} : () -> tensor<2560xf16>
    %output_323 = "oneflow.variable"() {data_type = 9 : i32, device_name = ["@0:0"], device_tag = "cuda", hierarchy = [1], op_name = "variable_367", output_lbns = ["variable_367/out"], parallel = #sbp.parallel<[] -> [[#sbp.B]]>, scope_symbol_id = 2969 : i64, shape = [1280 : si64, 3 : si64, 3 : si64, 2560 : si64]} : () -> tensor<1280x3x3x2560xf16>
    %output_324 = "oneflow.variable"() {data_type = 9 : i32, device_name = ["@0:0"], device_tag = "cuda", hierarchy = [1], op_name = "unet.up_blocks.0.resnets.2.conv1.bias", output_lbns = ["unet.up_blocks.0.resnets.2.conv1.bias/out"], parallel = #sbp.parallel<[] -> [[#sbp.B]]>, scope_symbol_id = 2973 : i64, shape = [1280 : si64]} : () -> tensor<1280xf16>
    %output_325 = "oneflow.variable"() {data_type = 9 : i32, device_name = ["@0:0"], device_tag = "cuda", hierarchy = [1], op_name = "unet.up_blocks.0.resnets.2.time_emb_proj.weight", output_lbns = ["unet.up_blocks.0.resnets.2.time_emb_proj.weight/out"], parallel = #sbp.parallel<[] -> [[#sbp.B]]>, scope_symbol_id = 2984 : i64, shape = [1280 : si64, 1280 : si64]} : () -> tensor<1280x1280xf16>
    %output_326 = "oneflow.variable"() {data_type = 9 : i32, device_name = ["@0:0"], device_tag = "cuda", hierarchy = [1], op_name = "unet.up_blocks.0.resnets.2.time_emb_proj.bias", output_lbns = ["unet.up_blocks.0.resnets.2.time_emb_proj.bias/out"], parallel = #sbp.parallel<[] -> [[#sbp.B]]>, scope_symbol_id = 2991 : i64, shape = [1280 : si64]} : () -> tensor<1280xf16>
    %output_327 = "oneflow.variable"() {data_type = 9 : i32, device_name = ["@0:0"], device_tag = "cuda", hierarchy = [1], op_name = "unet.up_blocks.0.resnets.2.norm2.weight", output_lbns = ["unet.up_blocks.0.resnets.2.norm2.weight/out"], parallel = #sbp.parallel<[] -> [[#sbp.B]]>, scope_symbol_id = 3008 : i64, shape = [1280 : si64]} : () -> tensor<1280xf16>
    %output_328 = "oneflow.variable"() {data_type = 9 : i32, device_name = ["@0:0"], device_tag = "cuda", hierarchy = [1], op_name = "unet.up_blocks.0.resnets.2.norm2.bias", output_lbns = ["unet.up_blocks.0.resnets.2.norm2.bias/out"], parallel = #sbp.parallel<[] -> [[#sbp.B]]>, scope_symbol_id = 3012 : i64, shape = [1280 : si64]} : () -> tensor<1280xf16>
    %output_329 = "oneflow.variable"() {data_type = 9 : i32, device_name = ["@0:0"], device_tag = "cuda", hierarchy = [1], op_name = "variable_366", output_lbns = ["variable_366/out"], parallel = #sbp.parallel<[] -> [[#sbp.B]]>, scope_symbol_id = 3024 : i64, shape = [1280 : si64, 3 : si64, 3 : si64, 1280 : si64]} : () -> tensor<1280x3x3x1280xf16>
    %output_330 = "oneflow.variable"() {data_type = 9 : i32, device_name = ["@0:0"], device_tag = "cuda", hierarchy = [1], op_name = "unet.up_blocks.0.resnets.2.conv2.bias", output_lbns = ["unet.up_blocks.0.resnets.2.conv2.bias/out"], parallel = #sbp.parallel<[] -> [[#sbp.B]]>, scope_symbol_id = 3028 : i64, shape = [1280 : si64]} : () -> tensor<1280xf16>
    %output_331 = "oneflow.variable"() {data_type = 9 : i32, device_name = ["@0:0"], device_tag = "cuda", hierarchy = [1], op_name = "variable_365", output_lbns = ["variable_365/out"], parallel = #sbp.parallel<[] -> [[#sbp.B]]>, scope_symbol_id = 3036 : i64, shape = [1280 : si64, 1 : si64, 1 : si64, 2560 : si64]} : () -> tensor<1280x1x1x2560xf16>
    %output_332 = "oneflow.variable"() {data_type = 9 : i32, device_name = ["@0:0"], device_tag = "cuda", hierarchy = [1], op_name = "unet.up_blocks.0.resnets.2.conv_shortcut.bias", output_lbns = ["unet.up_blocks.0.resnets.2.conv_shortcut.bias/out"], parallel = #sbp.parallel<[] -> [[#sbp.B]]>, scope_symbol_id = 3040 : i64, shape = [1280 : si64]} : () -> tensor<1280xf16>
    %output_333 = "oneflow.variable"() {data_type = 9 : i32, device_name = ["@0:0"], device_tag = "cuda", hierarchy = [1], op_name = "variable_364", output_lbns = ["variable_364/out"], parallel = #sbp.parallel<[] -> [[#sbp.B]]>, scope_symbol_id = 3058 : i64, shape = [1280 : si64, 3 : si64, 3 : si64, 1280 : si64]} : () -> tensor<1280x3x3x1280xf16>
    %output_334 = "oneflow.variable"() {data_type = 9 : i32, device_name = ["@0:0"], device_tag = "cuda", hierarchy = [1], op_name = "unet.up_blocks.0.upsamplers.0.conv.bias", output_lbns = ["unet.up_blocks.0.upsamplers.0.conv.bias/out"], parallel = #sbp.parallel<[] -> [[#sbp.B]]>, scope_symbol_id = 3062 : i64, shape = [1280 : si64]} : () -> tensor<1280xf16>
    %output_335 = "oneflow.variable"() {data_type = 9 : i32, device_name = ["@0:0"], device_tag = "cuda", hierarchy = [1], op_name = "unet.up_blocks.1.resnets.0.norm1.weight", output_lbns = ["unet.up_blocks.1.resnets.0.norm1.weight/out"], parallel = #sbp.parallel<[] -> [[#sbp.B]]>, scope_symbol_id = 3075 : i64, shape = [2560 : si64]} : () -> tensor<2560xf16>
    %output_336 = "oneflow.variable"() {data_type = 9 : i32, device_name = ["@0:0"], device_tag = "cuda", hierarchy = [1], op_name = "unet.up_blocks.1.resnets.0.norm1.bias", output_lbns = ["unet.up_blocks.1.resnets.0.norm1.bias/out"], parallel = #sbp.parallel<[] -> [[#sbp.B]]>, scope_symbol_id = 3079 : i64, shape = [2560 : si64]} : () -> tensor<2560xf16>
    %output_337 = "oneflow.variable"() {data_type = 9 : i32, device_name = ["@0:0"], device_tag = "cuda", hierarchy = [1], op_name = "variable_363", output_lbns = ["variable_363/out"], parallel = #sbp.parallel<[] -> [[#sbp.B]]>, scope_symbol_id = 3091 : i64, shape = [1280 : si64, 3 : si64, 3 : si64, 2560 : si64]} : () -> tensor<1280x3x3x2560xf16>
    %output_338 = "oneflow.variable"() {data_type = 9 : i32, device_name = ["@0:0"], device_tag = "cuda", hierarchy = [1], op_name = "unet.up_blocks.1.resnets.0.conv1.bias", output_lbns = ["unet.up_blocks.1.resnets.0.conv1.bias/out"], parallel = #sbp.parallel<[] -> [[#sbp.B]]>, scope_symbol_id = 3095 : i64, shape = [1280 : si64]} : () -> tensor<1280xf16>
    %output_339 = "oneflow.variable"() {data_type = 9 : i32, device_name = ["@0:0"], device_tag = "cuda", hierarchy = [1], op_name = "unet.up_blocks.1.resnets.0.time_emb_proj.weight", output_lbns = ["unet.up_blocks.1.resnets.0.time_emb_proj.weight/out"], parallel = #sbp.parallel<[] -> [[#sbp.B]]>, scope_symbol_id = 3106 : i64, shape = [1280 : si64, 1280 : si64]} : () -> tensor<1280x1280xf16>
    %output_340 = "oneflow.variable"() {data_type = 9 : i32, device_name = ["@0:0"], device_tag = "cuda", hierarchy = [1], op_name = "unet.up_blocks.1.resnets.0.time_emb_proj.bias", output_lbns = ["unet.up_blocks.1.resnets.0.time_emb_proj.bias/out"], parallel = #sbp.parallel<[] -> [[#sbp.B]]>, scope_symbol_id = 3113 : i64, shape = [1280 : si64]} : () -> tensor<1280xf16>
    %output_341 = "oneflow.variable"() {data_type = 9 : i32, device_name = ["@0:0"], device_tag = "cuda", hierarchy = [1], op_name = "unet.up_blocks.1.resnets.0.norm2.weight", output_lbns = ["unet.up_blocks.1.resnets.0.norm2.weight/out"], parallel = #sbp.parallel<[] -> [[#sbp.B]]>, scope_symbol_id = 3130 : i64, shape = [1280 : si64]} : () -> tensor<1280xf16>
    %output_342 = "oneflow.variable"() {data_type = 9 : i32, device_name = ["@0:0"], device_tag = "cuda", hierarchy = [1], op_name = "unet.up_blocks.1.resnets.0.norm2.bias", output_lbns = ["unet.up_blocks.1.resnets.0.norm2.bias/out"], parallel = #sbp.parallel<[] -> [[#sbp.B]]>, scope_symbol_id = 3134 : i64, shape = [1280 : si64]} : () -> tensor<1280xf16>
    %output_343 = "oneflow.variable"() {data_type = 9 : i32, device_name = ["@0:0"], device_tag = "cuda", hierarchy = [1], op_name = "variable_362", output_lbns = ["variable_362/out"], parallel = #sbp.parallel<[] -> [[#sbp.B]]>, scope_symbol_id = 3146 : i64, shape = [1280 : si64, 3 : si64, 3 : si64, 1280 : si64]} : () -> tensor<1280x3x3x1280xf16>
    %output_344 = "oneflow.variable"() {data_type = 9 : i32, device_name = ["@0:0"], device_tag = "cuda", hierarchy = [1], op_name = "unet.up_blocks.1.resnets.0.conv2.bias", output_lbns = ["unet.up_blocks.1.resnets.0.conv2.bias/out"], parallel = #sbp.parallel<[] -> [[#sbp.B]]>, scope_symbol_id = 3150 : i64, shape = [1280 : si64]} : () -> tensor<1280xf16>
    %output_345 = "oneflow.variable"() {data_type = 9 : i32, device_name = ["@0:0"], device_tag = "cuda", hierarchy = [1], op_name = "variable_361", output_lbns = ["variable_361/out"], parallel = #sbp.parallel<[] -> [[#sbp.B]]>, scope_symbol_id = 3158 : i64, shape = [1280 : si64, 1 : si64, 1 : si64, 2560 : si64]} : () -> tensor<1280x1x1x2560xf16>
    %output_346 = "oneflow.variable"() {data_type = 9 : i32, device_name = ["@0:0"], device_tag = "cuda", hierarchy = [1], op_name = "unet.up_blocks.1.resnets.0.conv_shortcut.bias", output_lbns = ["unet.up_blocks.1.resnets.0.conv_shortcut.bias/out"], parallel = #sbp.parallel<[] -> [[#sbp.B]]>, scope_symbol_id = 3162 : i64, shape = [1280 : si64]} : () -> tensor<1280xf16>
    %output_347 = "oneflow.variable"() {data_type = 9 : i32, device_name = ["@0:0"], device_tag = "cuda", hierarchy = [1], op_name = "unet.up_blocks.1.attentions.0.norm.weight", output_lbns = ["unet.up_blocks.1.attentions.0.norm.weight/out"], parallel = #sbp.parallel<[] -> [[#sbp.B]]>, scope_symbol_id = 3177 : i64, shape = [1280 : si64]} : () -> tensor<1280xf16>
    %output_348 = "oneflow.variable"() {data_type = 9 : i32, device_name = ["@0:0"], device_tag = "cuda", hierarchy = [1], op_name = "unet.up_blocks.1.attentions.0.norm.bias", output_lbns = ["unet.up_blocks.1.attentions.0.norm.bias/out"], parallel = #sbp.parallel<[] -> [[#sbp.B]]>, scope_symbol_id = 3181 : i64, shape = [1280 : si64]} : () -> tensor<1280xf16>
    %output_349 = "oneflow.variable"() {data_type = 9 : i32, device_name = ["@0:0"], device_tag = "cuda", hierarchy = [1], op_name = "variable_360", output_lbns = ["variable_360/out"], parallel = #sbp.parallel<[] -> [[#sbp.B]]>, scope_symbol_id = 3189 : i64, shape = [1280 : si64, 1 : si64, 1 : si64, 1280 : si64]} : () -> tensor<1280x1x1x1280xf16>
    %output_350 = "oneflow.variable"() {data_type = 9 : i32, device_name = ["@0:0"], device_tag = "cuda", hierarchy = [1], op_name = "unet.up_blocks.1.attentions.0.proj_in.bias", output_lbns = ["unet.up_blocks.1.attentions.0.proj_in.bias/out"], parallel = #sbp.parallel<[] -> [[#sbp.B]]>, scope_symbol_id = 3193 : i64, shape = [1280 : si64]} : () -> tensor<1280xf16>
    %output_351 = "oneflow.variable"() {data_type = 9 : i32, device_name = ["@0:0"], device_tag = "cuda", hierarchy = [1], op_name = "unet.up_blocks.1.attentions.0.transformer_blocks.0.norm1.weight", output_lbns = ["unet.up_blocks.1.attentions.0.transformer_blocks.0.norm1.weight/out"], parallel = #sbp.parallel<[] -> [[#sbp.B]]>, scope_symbol_id = 3208 : i64, shape = [1280 : si64]} : () -> tensor<1280xf16>
    %output_352 = "oneflow.variable"() {data_type = 9 : i32, device_name = ["@0:0"], device_tag = "cuda", hierarchy = [1], op_name = "unet.up_blocks.1.attentions.0.transformer_blocks.0.norm1.bias", output_lbns = ["unet.up_blocks.1.attentions.0.transformer_blocks.0.norm1.bias/out"], parallel = #sbp.parallel<[] -> [[#sbp.B]]>, scope_symbol_id = 3212 : i64, shape = [1280 : si64]} : () -> tensor<1280xf16>
    %output_353 = "oneflow.variable"() {data_type = 9 : i32, device_name = ["@0:0"], device_tag = "cuda", hierarchy = [1], op_name = "unet.up_blocks.1.attentions.0.transformer_blocks.0.attn1.to_q.weight", output_lbns = ["unet.up_blocks.1.attentions.0.transformer_blocks.0.attn1.to_q.weight/out"], parallel = #sbp.parallel<[] -> [[#sbp.B]]>, scope_symbol_id = 3221 : i64, shape = [1280 : si64, 1280 : si64]} : () -> tensor<1280x1280xf16>
    %output_354 = "oneflow.variable"() {data_type = 9 : i32, device_name = ["@0:0"], device_tag = "cuda", hierarchy = [1], op_name = "unet.up_blocks.1.attentions.0.transformer_blocks.0.attn1.to_k.weight", output_lbns = ["unet.up_blocks.1.attentions.0.transformer_blocks.0.attn1.to_k.weight/out"], parallel = #sbp.parallel<[] -> [[#sbp.B]]>, scope_symbol_id = 3229 : i64, shape = [1280 : si64, 1280 : si64]} : () -> tensor<1280x1280xf16>
    %output_355 = "oneflow.variable"() {data_type = 9 : i32, device_name = ["@0:0"], device_tag = "cuda", hierarchy = [1], op_name = "unet.up_blocks.1.attentions.0.transformer_blocks.0.attn1.to_v.weight", output_lbns = ["unet.up_blocks.1.attentions.0.transformer_blocks.0.attn1.to_v.weight/out"], parallel = #sbp.parallel<[] -> [[#sbp.B]]>, scope_symbol_id = 3237 : i64, shape = [1280 : si64, 1280 : si64]} : () -> tensor<1280x1280xf16>
    %output_356 = "oneflow.variable"() {data_type = 9 : i32, device_name = ["@0:0"], device_tag = "cuda", hierarchy = [1], op_name = "unet.up_blocks.1.attentions.0.transformer_blocks.0.attn1.to_out.0.weight", output_lbns = ["unet.up_blocks.1.attentions.0.transformer_blocks.0.attn1.to_out.0.weight/out"], parallel = #sbp.parallel<[] -> [[#sbp.B]]>, scope_symbol_id = 3249 : i64, shape = [1280 : si64, 1280 : si64]} : () -> tensor<1280x1280xf16>
    %output_357 = "oneflow.variable"() {data_type = 9 : i32, device_name = ["@0:0"], device_tag = "cuda", hierarchy = [1], op_name = "unet.up_blocks.1.attentions.0.transformer_blocks.0.attn1.to_out.0.bias", output_lbns = ["unet.up_blocks.1.attentions.0.transformer_blocks.0.attn1.to_out.0.bias/out"], parallel = #sbp.parallel<[] -> [[#sbp.B]]>, scope_symbol_id = 3256 : i64, shape = [1280 : si64]} : () -> tensor<1280xf16>
    %output_358 = "oneflow.variable"() {data_type = 9 : i32, device_name = ["@0:0"], device_tag = "cuda", hierarchy = [1], op_name = "unet.up_blocks.1.attentions.0.transformer_blocks.0.norm2.weight", output_lbns = ["unet.up_blocks.1.attentions.0.transformer_blocks.0.norm2.weight/out"], parallel = #sbp.parallel<[] -> [[#sbp.B]]>, scope_symbol_id = 3268 : i64, shape = [1280 : si64]} : () -> tensor<1280xf16>
    %output_359 = "oneflow.variable"() {data_type = 9 : i32, device_name = ["@0:0"], device_tag = "cuda", hierarchy = [1], op_name = "unet.up_blocks.1.attentions.0.transformer_blocks.0.norm2.bias", output_lbns = ["unet.up_blocks.1.attentions.0.transformer_blocks.0.norm2.bias/out"], parallel = #sbp.parallel<[] -> [[#sbp.B]]>, scope_symbol_id = 3272 : i64, shape = [1280 : si64]} : () -> tensor<1280xf16>
    %output_360 = "oneflow.variable"() {data_type = 9 : i32, device_name = ["@0:0"], device_tag = "cuda", hierarchy = [1], op_name = "unet.up_blocks.1.attentions.0.transformer_blocks.0.attn2.to_q.weight", output_lbns = ["unet.up_blocks.1.attentions.0.transformer_blocks.0.attn2.to_q.weight/out"], parallel = #sbp.parallel<[] -> [[#sbp.B]]>, scope_symbol_id = 3281 : i64, shape = [1280 : si64, 1280 : si64]} : () -> tensor<1280x1280xf16>
    %output_361 = "oneflow.variable"() {data_type = 9 : i32, device_name = ["@0:0"], device_tag = "cuda", hierarchy = [1], op_name = "unet.up_blocks.1.attentions.0.transformer_blocks.0.attn2.to_k.weight", output_lbns = ["unet.up_blocks.1.attentions.0.transformer_blocks.0.attn2.to_k.weight/out"], parallel = #sbp.parallel<[] -> [[#sbp.B]]>, scope_symbol_id = 3289 : i64, shape = [1280 : si64, 768 : si64]} : () -> tensor<1280x768xf16>
    %output_362 = "oneflow.variable"() {data_type = 9 : i32, device_name = ["@0:0"], device_tag = "cuda", hierarchy = [1], op_name = "unet.up_blocks.1.attentions.0.transformer_blocks.0.attn2.to_v.weight", output_lbns = ["unet.up_blocks.1.attentions.0.transformer_blocks.0.attn2.to_v.weight/out"], parallel = #sbp.parallel<[] -> [[#sbp.B]]>, scope_symbol_id = 3297 : i64, shape = [1280 : si64, 768 : si64]} : () -> tensor<1280x768xf16>
    %output_363 = "oneflow.variable"() {data_type = 9 : i32, device_name = ["@0:0"], device_tag = "cuda", hierarchy = [1], op_name = "unet.up_blocks.1.attentions.0.transformer_blocks.0.attn2.to_out.0.weight", output_lbns = ["unet.up_blocks.1.attentions.0.transformer_blocks.0.attn2.to_out.0.weight/out"], parallel = #sbp.parallel<[] -> [[#sbp.B]]>, scope_symbol_id = 3309 : i64, shape = [1280 : si64, 1280 : si64]} : () -> tensor<1280x1280xf16>
    %output_364 = "oneflow.variable"() {data_type = 9 : i32, device_name = ["@0:0"], device_tag = "cuda", hierarchy = [1], op_name = "unet.up_blocks.1.attentions.0.transformer_blocks.0.attn2.to_out.0.bias", output_lbns = ["unet.up_blocks.1.attentions.0.transformer_blocks.0.attn2.to_out.0.bias/out"], parallel = #sbp.parallel<[] -> [[#sbp.B]]>, scope_symbol_id = 3316 : i64, shape = [1280 : si64]} : () -> tensor<1280xf16>
    %output_365 = "oneflow.variable"() {data_type = 9 : i32, device_name = ["@0:0"], device_tag = "cuda", hierarchy = [1], op_name = "unet.up_blocks.1.attentions.0.transformer_blocks.0.norm3.weight", output_lbns = ["unet.up_blocks.1.attentions.0.transformer_blocks.0.norm3.weight/out"], parallel = #sbp.parallel<[] -> [[#sbp.B]]>, scope_symbol_id = 3328 : i64, shape = [1280 : si64]} : () -> tensor<1280xf16>
    %output_366 = "oneflow.variable"() {data_type = 9 : i32, device_name = ["@0:0"], device_tag = "cuda", hierarchy = [1], op_name = "unet.up_blocks.1.attentions.0.transformer_blocks.0.norm3.bias", output_lbns = ["unet.up_blocks.1.attentions.0.transformer_blocks.0.norm3.bias/out"], parallel = #sbp.parallel<[] -> [[#sbp.B]]>, scope_symbol_id = 3332 : i64, shape = [1280 : si64]} : () -> tensor<1280xf16>
    %output_367 = "oneflow.variable"() {data_type = 9 : i32, device_name = ["@0:0"], device_tag = "cuda", hierarchy = [1], op_name = "unet.up_blocks.1.attentions.0.transformer_blocks.0.ff.net.0.proj.weight", output_lbns = ["unet.up_blocks.1.attentions.0.transformer_blocks.0.ff.net.0.proj.weight/out"], parallel = #sbp.parallel<[] -> [[#sbp.B]]>, scope_symbol_id = 3343 : i64, shape = [10240 : si64, 1280 : si64]} : () -> tensor<10240x1280xf16>
    %output_368 = "oneflow.variable"() {data_type = 9 : i32, device_name = ["@0:0"], device_tag = "cuda", hierarchy = [1], op_name = "unet.up_blocks.1.attentions.0.transformer_blocks.0.ff.net.0.proj.bias", output_lbns = ["unet.up_blocks.1.attentions.0.transformer_blocks.0.ff.net.0.proj.bias/out"], parallel = #sbp.parallel<[] -> [[#sbp.B]]>, scope_symbol_id = 3350 : i64, shape = [10240 : si64]} : () -> tensor<10240xf16>
    %output_369 = "oneflow.variable"() {data_type = 9 : i32, device_name = ["@0:0"], device_tag = "cuda", hierarchy = [1], op_name = "unet.up_blocks.1.attentions.0.transformer_blocks.0.ff.net.2.weight", output_lbns = ["unet.up_blocks.1.attentions.0.transformer_blocks.0.ff.net.2.weight/out"], parallel = #sbp.parallel<[] -> [[#sbp.B]]>, scope_symbol_id = 3371 : i64, shape = [1280 : si64, 5120 : si64]} : () -> tensor<1280x5120xf16>
    %output_370 = "oneflow.variable"() {data_type = 9 : i32, device_name = ["@0:0"], device_tag = "cuda", hierarchy = [1], op_name = "unet.up_blocks.1.attentions.0.transformer_blocks.0.ff.net.2.bias", output_lbns = ["unet.up_blocks.1.attentions.0.transformer_blocks.0.ff.net.2.bias/out"], parallel = #sbp.parallel<[] -> [[#sbp.B]]>, scope_symbol_id = 3378 : i64, shape = [1280 : si64]} : () -> tensor<1280xf16>
    %output_371 = "oneflow.variable"() {data_type = 9 : i32, device_name = ["@0:0"], device_tag = "cuda", hierarchy = [1], op_name = "variable_359", output_lbns = ["variable_359/out"], parallel = #sbp.parallel<[] -> [[#sbp.B]]>, scope_symbol_id = 3395 : i64, shape = [1280 : si64, 1 : si64, 1 : si64, 1280 : si64]} : () -> tensor<1280x1x1x1280xf16>
    %output_372 = "oneflow.variable"() {data_type = 9 : i32, device_name = ["@0:0"], device_tag = "cuda", hierarchy = [1], op_name = "unet.up_blocks.1.attentions.0.proj_out.bias", output_lbns = ["unet.up_blocks.1.attentions.0.proj_out.bias/out"], parallel = #sbp.parallel<[] -> [[#sbp.B]]>, scope_symbol_id = 3399 : i64, shape = [1280 : si64]} : () -> tensor<1280xf16>
    %output_373 = "oneflow.variable"() {data_type = 9 : i32, device_name = ["@0:0"], device_tag = "cuda", hierarchy = [1], op_name = "unet.up_blocks.1.resnets.1.norm1.weight", output_lbns = ["unet.up_blocks.1.resnets.1.norm1.weight/out"], parallel = #sbp.parallel<[] -> [[#sbp.B]]>, scope_symbol_id = 3414 : i64, shape = [2560 : si64]} : () -> tensor<2560xf16>
    %output_374 = "oneflow.variable"() {data_type = 9 : i32, device_name = ["@0:0"], device_tag = "cuda", hierarchy = [1], op_name = "unet.up_blocks.1.resnets.1.norm1.bias", output_lbns = ["unet.up_blocks.1.resnets.1.norm1.bias/out"], parallel = #sbp.parallel<[] -> [[#sbp.B]]>, scope_symbol_id = 3418 : i64, shape = [2560 : si64]} : () -> tensor<2560xf16>
    %output_375 = "oneflow.variable"() {data_type = 9 : i32, device_name = ["@0:0"], device_tag = "cuda", hierarchy = [1], op_name = "variable_358", output_lbns = ["variable_358/out"], parallel = #sbp.parallel<[] -> [[#sbp.B]]>, scope_symbol_id = 3430 : i64, shape = [1280 : si64, 3 : si64, 3 : si64, 2560 : si64]} : () -> tensor<1280x3x3x2560xf16>
    %output_376 = "oneflow.variable"() {data_type = 9 : i32, device_name = ["@0:0"], device_tag = "cuda", hierarchy = [1], op_name = "unet.up_blocks.1.resnets.1.conv1.bias", output_lbns = ["unet.up_blocks.1.resnets.1.conv1.bias/out"], parallel = #sbp.parallel<[] -> [[#sbp.B]]>, scope_symbol_id = 3434 : i64, shape = [1280 : si64]} : () -> tensor<1280xf16>
    %output_377 = "oneflow.variable"() {data_type = 9 : i32, device_name = ["@0:0"], device_tag = "cuda", hierarchy = [1], op_name = "unet.up_blocks.1.resnets.1.time_emb_proj.weight", output_lbns = ["unet.up_blocks.1.resnets.1.time_emb_proj.weight/out"], parallel = #sbp.parallel<[] -> [[#sbp.B]]>, scope_symbol_id = 3445 : i64, shape = [1280 : si64, 1280 : si64]} : () -> tensor<1280x1280xf16>
    %output_378 = "oneflow.variable"() {data_type = 9 : i32, device_name = ["@0:0"], device_tag = "cuda", hierarchy = [1], op_name = "unet.up_blocks.1.resnets.1.time_emb_proj.bias", output_lbns = ["unet.up_blocks.1.resnets.1.time_emb_proj.bias/out"], parallel = #sbp.parallel<[] -> [[#sbp.B]]>, scope_symbol_id = 3452 : i64, shape = [1280 : si64]} : () -> tensor<1280xf16>
    %output_379 = "oneflow.variable"() {data_type = 9 : i32, device_name = ["@0:0"], device_tag = "cuda", hierarchy = [1], op_name = "unet.up_blocks.1.resnets.1.norm2.weight", output_lbns = ["unet.up_blocks.1.resnets.1.norm2.weight/out"], parallel = #sbp.parallel<[] -> [[#sbp.B]]>, scope_symbol_id = 3469 : i64, shape = [1280 : si64]} : () -> tensor<1280xf16>
    %output_380 = "oneflow.variable"() {data_type = 9 : i32, device_name = ["@0:0"], device_tag = "cuda", hierarchy = [1], op_name = "unet.up_blocks.1.resnets.1.norm2.bias", output_lbns = ["unet.up_blocks.1.resnets.1.norm2.bias/out"], parallel = #sbp.parallel<[] -> [[#sbp.B]]>, scope_symbol_id = 3473 : i64, shape = [1280 : si64]} : () -> tensor<1280xf16>
    %output_381 = "oneflow.variable"() {data_type = 9 : i32, device_name = ["@0:0"], device_tag = "cuda", hierarchy = [1], op_name = "variable_357", output_lbns = ["variable_357/out"], parallel = #sbp.parallel<[] -> [[#sbp.B]]>, scope_symbol_id = 3485 : i64, shape = [1280 : si64, 3 : si64, 3 : si64, 1280 : si64]} : () -> tensor<1280x3x3x1280xf16>
    %output_382 = "oneflow.variable"() {data_type = 9 : i32, device_name = ["@0:0"], device_tag = "cuda", hierarchy = [1], op_name = "unet.up_blocks.1.resnets.1.conv2.bias", output_lbns = ["unet.up_blocks.1.resnets.1.conv2.bias/out"], parallel = #sbp.parallel<[] -> [[#sbp.B]]>, scope_symbol_id = 3489 : i64, shape = [1280 : si64]} : () -> tensor<1280xf16>
    %output_383 = "oneflow.variable"() {data_type = 9 : i32, device_name = ["@0:0"], device_tag = "cuda", hierarchy = [1], op_name = "variable_356", output_lbns = ["variable_356/out"], parallel = #sbp.parallel<[] -> [[#sbp.B]]>, scope_symbol_id = 3497 : i64, shape = [1280 : si64, 1 : si64, 1 : si64, 2560 : si64]} : () -> tensor<1280x1x1x2560xf16>
    %output_384 = "oneflow.variable"() {data_type = 9 : i32, device_name = ["@0:0"], device_tag = "cuda", hierarchy = [1], op_name = "unet.up_blocks.1.resnets.1.conv_shortcut.bias", output_lbns = ["unet.up_blocks.1.resnets.1.conv_shortcut.bias/out"], parallel = #sbp.parallel<[] -> [[#sbp.B]]>, scope_symbol_id = 3501 : i64, shape = [1280 : si64]} : () -> tensor<1280xf16>
…
    %669 = "oneflow.add_n2"(%668, %660) {device_name = ["@0:0"], device_tag = "cuda", hierarchy = [1], op_name = "ONEFLOW_ERASE_MAGIC", op_type_name = "add_n", scope_symbol_id = 77777 : i64} : (tensor<2x1024x640xf16>, tensor<2x1024x640xf16>) -> tensor<2x1024x640xf16>
    %670 = "oneflow.reshape"(%669) {device_name = ["@0:0"], device_tag = "cuda", hierarchy = [1], op_name = "ONEFLOW_ERASE_MAGIC", scope_symbol_id = 77777 : i64, shape = [2 : si64, 32 : si64, 32 : si64, 640 : si64]} : (tensor<2x1024x640xf16>) -> tensor<2x32x32x640xf16>
    %671 = "oneflow.conv2d"(%670, %output_563, %output_564) {data_format = "channels_last", device_name = ["@0:0"], device_tag = "cuda", dilation_rate = [1 : si32, 1 : si32], filters = 640 : si32, groups = 1 : si32, hierarchy = [1], kernel_size = [1 : si32, 1 : si32], op_name = "ONEFLOW_ERASE_MAGIC", operand_segment_sizes = dense<[1, 1, 1, 0]> : vector<4xi32>, padding_before = [0 : si32, 0 : si32], scope_symbol_id = 77777 : i64, strides = [1 : si32, 1 : si32]} : (tensor<2x32x32x640xf16>, tensor<640x1x1x640xf16>, tensor<640xf16>) -> tensor<2x32x32x640xf16>
    %672 = "oneflow.add_n2"(%671, %646) {device_name = ["@0:0"], device_tag = "cuda", hierarchy = [1], op_name = "ONEFLOW_ERASE_MAGIC", op_type_name = "add_n", scope_symbol_id = 77777 : i64} : (tensor<2x32x32x640xf16>, tensor<2x32x32x640xf16>) -> tensor<2x32x32x640xf16>
    %673 = "oneflow.transpose"(%672) {device_name = ["@0:0"], device_tag = "cuda", hierarchy = [1], op_name = "ONEFLOW_ERASE_MAGIC", perm = [0 : si32, 3 : si32, 1 : si32, 2 : si32], scope_symbol_id = 77777 : i64} : (tensor<2x32x32x640xf16>) -> tensor<2x640x32x32xf16>
    %674 = "oneflow.upsample_nearest_2d"(%673) {data_format = "channels_first", device_name = ["@0:0"], device_tag = "cuda", height_scale = 2.000000e+00 : f64, hierarchy = [1], op_name = "ONEFLOW_ERASE_MAGIC", output_size = [], scope_symbol_id = 77777 : i64, width_scale = 2.000000e+00 : f64} : (tensor<2x640x32x32xf16>) -> tensor<2x640x64x64xf16>
    %675 = "oneflow.transpose"(%674) {device_name = ["@0:0"], device_tag = "cuda", hierarchy = [1], op_name = "ONEFLOW_ERASE_MAGIC", perm = [0 : si32, 2 : si32, 3 : si32, 1 : si32], scope_symbol_id = 77777 : i64} : (tensor<2x640x64x64xf16>) -> tensor<2x64x64x640xf16>
    %676 = "oneflow.conv2d"(%675, %output_565, %output_566) {data_format = "channels_last", device_name = ["@0:0"], device_tag = "cuda", dilation_rate = [1 : si32, 1 : si32], filters = 640 : si32, groups = 1 : si32, hierarchy = [1], kernel_size = [3 : si32, 3 : si32], op_name = "ONEFLOW_ERASE_MAGIC", operand_segment_sizes = dense<[1, 1, 1, 0]> : vector<4xi32>, padding_before = [1 : si32, 1 : si32], scope_symbol_id = 77777 : i64, strides = [1 : si32, 1 : si32]} : (tensor<2x64x64x640xf16>, tensor<640x3x3x640xf16>, tensor<640xf16>) -> tensor<2x64x64x640xf16>
    %677 = "oneflow.concat"(%676, %236) {axis = 3 : si64, device_name = ["@0:0"], device_tag = "cuda", hierarchy = [1], max_dim_size = 960 : si64, op_name = "ONEFLOW_ERASE_MAGIC", scope_symbol_id = 77777 : i64} : (tensor<2x64x64x640xf16>, tensor<2x64x64x320xf16>) -> tensor<2x64x64x960xf16>
    %y_955, %mean_956, %inv_variance_957 = "oneflow.group_norm"(%677, %output_568, %output_567) {activation = "none", affine = true, data_format = "channels_last", device_name = ["@0:0"], device_tag = "cuda", epsilon = 1.000000e-05 : f64, hierarchy = [1], num_groups = 32 : si32, op_name = "ONEFLOW_ERASE_MAGIC", operand_segment_sizes = dense<1> : vector<3xi32>, scope_symbol_id = 77777 : i64} : (tensor<2x64x64x960xf16>, tensor<960xf16>, tensor<960xf16>) -> (tensor<2x64x64x960xf16>, tensor<2x32xf32>, tensor<2x32xf32>)
    %678 = "oneflow.conv2d"(%677, %output_577, %output_578) {data_format = "channels_last", device_name = ["@0:0"], device_tag = "cuda", dilation_rate = [1 : si32, 1 : si32], filters = 320 : si32, groups = 1 : si32, hierarchy = [1], kernel_size = [1 : si32, 1 : si32], op_name = "ONEFLOW_ERASE_MAGIC", operand_segment_sizes = dense<[1, 1, 1, 0]> : vector<4xi32>, padding_before = [0 : si32, 0 : si32], scope_symbol_id = 77777 : i64, strides = [1 : si32, 1 : si32]} : (tensor<2x64x64x960xf16>, tensor<320x1x1x960xf16>, tensor<320xf16>) -> tensor<2x64x64x320xf16>
    %679 = "oneflow.silu"(%y_955) {device_name = ["@0:0"], device_tag = "cuda", hierarchy = [1], op_name = "ONEFLOW_ERASE_MAGIC", scope_symbol_id = 77777 : i64} : (tensor<2x64x64x960xf16>) -> tensor<2x64x64x960xf16>
    %680 = "oneflow.conv2d"(%679, %output_569, %output_570) {data_format = "channels_last", device_name = ["@0:0"], device_tag = "cuda", dilation_rate = [1 : si32, 1 : si32], filters = 320 : si32, groups = 1 : si32, hierarchy = [1], kernel_size = [3 : si32, 3 : si32], op_name = "ONEFLOW_ERASE_MAGIC", operand_segment_sizes = dense<[1, 1, 1, 0]> : vector<4xi32>, padding_before = [1 : si32, 1 : si32], scope_symbol_id = 77777 : i64, strides = [1 : si32, 1 : si32]} : (tensor<2x64x64x960xf16>, tensor<320x3x3x960xf16>, tensor<320xf16>) -> tensor<2x64x64x320xf16>
    %681 = "oneflow.broadcast_add"(%680, %163) {device_name = ["@0:0"], device_tag = "cuda", hierarchy = [1], op_name = "ONEFLOW_ERASE_MAGIC", scope_symbol_id = 77777 : i64} : (tensor<2x64x64x320xf16>, tensor<2x1x1x320xf16>) -> tensor<2x64x64x320xf16>
    %y_958, %mean_959, %inv_variance_960 = "oneflow.group_norm"(%681, %output_574, %output_573) {activation = "none", affine = true, data_format = "channels_last", device_name = ["@0:0"], device_tag = "cuda", epsilon = 1.000000e-05 : f64, hierarchy = [1], num_groups = 32 : si32, op_name = "ONEFLOW_ERASE_MAGIC", operand_segment_sizes = dense<1> : vector<3xi32>, scope_symbol_id = 77777 : i64} : (tensor<2x64x64x320xf16>, tensor<320xf16>, tensor<320xf16>) -> (tensor<2x64x64x320xf16>, tensor<2x32xf32>, tensor<2x32xf32>)
    %682 = "oneflow.silu"(%y_958) {device_name = ["@0:0"], device_tag = "cuda", hierarchy = [1], op_name = "ONEFLOW_ERASE_MAGIC", scope_symbol_id = 77777 : i64} : (tensor<2x64x64x320xf16>) -> tensor<2x64x64x320xf16>
    %683 = "oneflow.conv2d"(%682, %output_575, %output_576) {data_format = "channels_last", device_name = ["@0:0"], device_tag = "cuda", dilation_rate = [1 : si32, 1 : si32], filters = 320 : si32, groups = 1 : si32, hierarchy = [1], kernel_size = [3 : si32, 3 : si32], op_name = "ONEFLOW_ERASE_MAGIC", operand_segment_sizes = dense<[1, 1, 1, 0]> : vector<4xi32>, padding_before = [1 : si32, 1 : si32], scope_symbol_id = 77777 : i64, strides = [1 : si32, 1 : si32]} : (tensor<2x64x64x320xf16>, tensor<320x3x3x320xf16>, tensor<320xf16>) -> tensor<2x64x64x320xf16>
    %684 = "oneflow.add_n2"(%678, %683) {device_name = ["@0:0"], device_tag = "cuda", hierarchy = [1], op_name = "ONEFLOW_ERASE_MAGIC", op_type_name = "add_n", scope_symbol_id = 77777 : i64} : (tensor<2x64x64x320xf16>, tensor<2x64x64x320xf16>) -> tensor<2x64x64x320xf16>
    %685 = "oneflow.scalar_div"(%684) {device_name = ["@0:0"], device_tag = "cuda", float_operand = 1.000000e+00 : f64, has_float_operand = true, has_int_operand = false, hierarchy = [1], int_operand = 0 : si64, op_name = "ONEFLOW_ERASE_MAGIC", scope_symbol_id = 77777 : i64} : (tensor<2x64x64x320xf16>) -> tensor<2x64x64x320xf16>
    %y_961, %mean_962, %inv_variance_963 = "oneflow.group_norm"(%685, %output_580, %output_579) {activation = "none", affine = true, data_format = "channels_last", device_name = ["@0:0"], device_tag = "cuda", epsilon = 9.9999999999999995E-7 : f64, hierarchy = [1], num_groups = 32 : si32, op_name = "ONEFLOW_ERASE_MAGIC", operand_segment_sizes = dense<1> : vector<3xi32>, scope_symbol_id = 77777 : i64} : (tensor<2x64x64x320xf16>, tensor<320xf16>, tensor<320xf16>) -> (tensor<2x64x64x320xf16>, tensor<2x32xf32>, tensor<2x32xf32>)
    %686 = "oneflow.conv2d"(%y_961, %output_581, %output_582) {data_format = "channels_last", device_name = ["@0:0"], device_tag = "cuda", dilation_rate = [1 : si32, 1 : si32], filters = 320 : si32, groups = 1 : si32, hierarchy = [1], kernel_size = [1 : si32, 1 : si32], op_name = "ONEFLOW_ERASE_MAGIC", operand_segment_sizes = dense<[1, 1, 1, 0]> : vector<4xi32>, padding_before = [0 : si32, 0 : si32], scope_symbol_id = 77777 : i64, strides = [1 : si32, 1 : si32]} : (tensor<2x64x64x320xf16>, tensor<320x1x1x320xf16>, tensor<320xf16>) -> tensor<2x64x64x320xf16>
    %687 = "oneflow.reshape"(%686) {device_name = ["@0:0"], device_tag = "cuda", hierarchy = [1], op_name = "ONEFLOW_ERASE_MAGIC", scope_symbol_id = 77777 : i64, shape = [2 : si64, 4096 : si64, 320 : si64]} : (tensor<2x64x64x320xf16>) -> tensor<2x4096x320xf16>
    %y_964, %mean_965, %inv_variance_966 = "oneflow.layer_norm"(%687, %output_584, %output_583) {begin_norm_axis = 2 : si64, begin_params_axis = 2 : si64, center = true, device_name = ["@0:0"], device_tag = "cuda", epsilon = 1.000000e-05 : f64, hierarchy = [1], op_name = "ONEFLOW_ERASE_MAGIC", operand_segment_sizes = dense<1> : vector<3xi32>, scale = true, scope_symbol_id = 77777 : i64} : (tensor<2x4096x320xf16>, tensor<320xf16>, tensor<320xf16>) -> (tensor<2x4096x320xf16>, tensor<2x4096xf32>, tensor<2x4096xf32>)
    %688 = "oneflow.broadcast_matmul"(%y_964, %output_585) {alpha = 1.000000e+00 : f64, device_name = ["@0:0"], device_tag = "cuda", hierarchy = [1], op_name = "ONEFLOW_ERASE_MAGIC", scope_symbol_id = 77777 : i64, transpose_a = false, transpose_b = true} : (tensor<2x4096x320xf16>, tensor<320x320xf16>) -> tensor<2x4096x320xf16>
    %689 = "oneflow.broadcast_matmul"(%y_964, %output_586) {alpha = 1.000000e+00 : f64, device_name = ["@0:0"], device_tag = "cuda", hierarchy = [1], op_name = "ONEFLOW_ERASE_MAGIC", scope_symbol_id = 77777 : i64, transpose_a = false, transpose_b = true} : (tensor<2x4096x320xf16>, tensor<320x320xf16>) -> tensor<2x4096x320xf16>
    %690 = "oneflow.broadcast_matmul"(%y_964, %output_587) {alpha = 1.000000e+00 : f64, device_name = ["@0:0"], device_tag = "cuda", hierarchy = [1], op_name = "ONEFLOW_ERASE_MAGIC", scope_symbol_id = 77777 : i64, transpose_a = false, transpose_b = true} : (tensor<2x4096x320xf16>, tensor<320x320xf16>) -> tensor<2x4096x320xf16>
    %691 = "oneflow.fused_multi_head_attention_inference"(%688, %689, %690) {causal = false, device_name = ["@0:0"], device_tag = "cuda", hierarchy = [1], key_hidden_slice_end = -1 : si64, key_hidden_slice_start = 0 : si64, num_heads = 8 : si64, op_name = "ONEFLOW_ERASE_MAGIC", query_hidden_slice_end = -1 : si64, query_hidden_slice_start = 0 : si64, scope_symbol_id = 77777 : i64, value_hidden_slice_end = -1 : si64, value_hidden_slice_start = 0 : si64} : (tensor<2x4096x320xf16>, tensor<2x4096x320xf16>, tensor<2x4096x320xf16>) -> tensor<2x4096x320xf16>
    %692 = "oneflow.broadcast_matmul"(%691, %output_588) {alpha = 1.000000e+00 : f64, device_name = ["@0:0"], device_tag = "cuda", hierarchy = [1], op_name = "ONEFLOW_ERASE_MAGIC", scope_symbol_id = 77777 : i64, transpose_a = false, transpose_b = true} : (tensor<2x4096x320xf16>, tensor<320x320xf16>) -> tensor<2x4096x320xf16>
    %693 = "oneflow.broadcast_add"(%692, %output_589) {device_name = ["@0:0"], device_tag = "cuda", hierarchy = [1], op_name = "ONEFLOW_ERASE_MAGIC", scope_symbol_id = 77777 : i64} : (tensor<2x4096x320xf16>, tensor<320xf16>) -> tensor<2x4096x320xf16>
    %694 = "oneflow.add_n2"(%693, %687) {device_name = ["@0:0"], device_tag = "cuda", hierarchy = [1], op_name = "ONEFLOW_ERASE_MAGIC", op_type_name = "add_n", scope_symbol_id = 77777 : i64} : (tensor<2x4096x320xf16>, tensor<2x4096x320xf16>) -> tensor<2x4096x320xf16>
    %y_967, %mean_968, %inv_variance_969 = "oneflow.layer_norm"(%694, %output_591, %output_590) {begin_norm_axis = 2 : si64, begin_params_axis = 2 : si64, center = true, device_name = ["@0:0"], device_tag = "cuda", epsilon = 1.000000e-05 : f64, hierarchy = [1], op_name = "ONEFLOW_ERASE_MAGIC", operand_segment_sizes = dense<1> : vector<3xi32>, scale = true, scope_symbol_id = 77777 : i64} : (tensor<2x4096x320xf16>, tensor<320xf16>, tensor<320xf16>) -> (tensor<2x4096x320xf16>, tensor<2x4096xf32>, tensor<2x4096xf32>)
    %695 = "oneflow.broadcast_matmul"(%y_967, %output_592) {alpha = 1.000000e+00 : f64, device_name = ["@0:0"], device_tag = "cuda", hierarchy = [1], op_name = "ONEFLOW_ERASE_MAGIC", scope_symbol_id = 77777 : i64, transpose_a = false, transpose_b = true} : (tensor<2x4096x320xf16>, tensor<320x320xf16>) -> tensor<2x4096x320xf16>
    %696 = "oneflow.fused_multi_head_attention_inference"(%695, %36, %37) {causal = false, device_name = ["@0:0"], device_tag = "cuda", hierarchy = [1], key_hidden_slice_end = -1 : si64, key_hidden_slice_start = 0 : si64, num_heads = 8 : si64, op_name = "ONEFLOW_ERASE_MAGIC", query_hidden_slice_end = -1 : si64, query_hidden_slice_start = 0 : si64, scope_symbol_id = 77777 : i64, value_hidden_slice_end = -1 : si64, value_hidden_slice_start = 0 : si64} : (tensor<2x4096x320xf16>, tensor<2x77x320xf16>, tensor<2x77x320xf16>) -> tensor<2x4096x320xf16>
    %697 = "oneflow.broadcast_matmul"(%696, %output_595) {alpha = 1.000000e+00 : f64, device_name = ["@0:0"], device_tag = "cuda", hierarchy = [1], op_name = "ONEFLOW_ERASE_MAGIC", scope_symbol_id = 77777 : i64, transpose_a = false, transpose_b = true} : (tensor<2x4096x320xf16>, tensor<320x320xf16>) -> tensor<2x4096x320xf16>
    %698 = "oneflow.broadcast_add"(%697, %output_596) {device_name = ["@0:0"], device_tag = "cuda", hierarchy = [1], op_name = "ONEFLOW_ERASE_MAGIC", scope_symbol_id = 77777 : i64} : (tensor<2x4096x320xf16>, tensor<320xf16>) -> tensor<2x4096x320xf16>
    %699 = "oneflow.add_n2"(%698, %694) {device_name = ["@0:0"], device_tag = "cuda", hierarchy = [1], op_name = "ONEFLOW_ERASE_MAGIC", op_type_name = "add_n", scope_symbol_id = 77777 : i64} : (tensor<2x4096x320xf16>, tensor<2x4096x320xf16>) -> tensor<2x4096x320xf16>
    %y_970, %mean_971, %inv_variance_972 = "oneflow.layer_norm"(%699, %output_598, %output_597) {begin_norm_axis = 2 : si64, begin_params_axis = 2 : si64, center = true, device_name = ["@0:0"], device_tag = "cuda", epsilon = 1.000000e-05 : f64, hierarchy = [1], op_name = "ONEFLOW_ERASE_MAGIC", operand_segment_sizes = dense<1> : vector<3xi32>, scale = true, scope_symbol_id = 77777 : i64} : (tensor<2x4096x320xf16>, tensor<320xf16>, tensor<320xf16>) -> (tensor<2x4096x320xf16>, tensor<2x4096xf32>, tensor<2x4096xf32>)
    %700 = "oneflow.broadcast_matmul"(%y_970, %output_599) {alpha = 1.000000e+00 : f64, device_name = ["@0:0"], device_tag = "cuda", hierarchy = [1], op_name = "ONEFLOW_ERASE_MAGIC", scope_symbol_id = 77777 : i64, transpose_a = false, transpose_b = true} : (tensor<2x4096x320xf16>, tensor<2560x320xf16>) -> tensor<2x4096x2560xf16>
    %701 = "oneflow.broadcast_add"(%700, %output_600) {device_name = ["@0:0"], device_tag = "cuda", hierarchy = [1], op_name = "ONEFLOW_ERASE_MAGIC", scope_symbol_id = 77777 : i64} : (tensor<2x4096x2560xf16>, tensor<2560xf16>) -> tensor<2x4096x2560xf16>
    %702 = "oneflow.narrow"(%701) {device_name = ["@0:0"], device_tag = "cuda", dim = 2 : si64, hierarchy = [1], length = 1280 : si64, op_name = "ONEFLOW_ERASE_MAGIC", scope_symbol_id = 77777 : i64, start = 0 : si64} : (tensor<2x4096x2560xf16>) -> tensor<2x4096x1280xf16>
    %703 = "oneflow.narrow"(%701) {device_name = ["@0:0"], device_tag = "cuda", dim = 2 : si64, hierarchy = [1], length = 1280 : si64, op_name = "ONEFLOW_ERASE_MAGIC", scope_symbol_id = 77777 : i64, start = 1280 : si64} : (tensor<2x4096x2560xf16>) -> tensor<2x4096x1280xf16>
    %704 = "oneflow.gelu"(%703) {device_name = ["@0:0"], device_tag = "cuda", hierarchy = [1], op_name = "ONEFLOW_ERASE_MAGIC", scope_symbol_id = 77777 : i64} : (tensor<2x4096x1280xf16>) -> tensor<2x4096x1280xf16>
    %705 = "oneflow.broadcast_mul"(%702, %704) {device_name = ["@0:0"], device_tag = "cuda", hierarchy = [1], op_name = "ONEFLOW_ERASE_MAGIC", scope_symbol_id = 77777 : i64} : (tensor<2x4096x1280xf16>, tensor<2x4096x1280xf16>) -> tensor<2x4096x1280xf16>
    %706 = "oneflow.broadcast_matmul"(%705, %output_601) {alpha = 1.000000e+00 : f64, device_name = ["@0:0"], device_tag = "cuda", hierarchy = [1], op_name = "ONEFLOW_ERASE_MAGIC", scope_symbol_id = 77777 : i64, transpose_a = false, transpose_b = true} : (tensor<2x4096x1280xf16>, tensor<320x1280xf16>) -> tensor<2x4096x320xf16>
    %707 = "oneflow.broadcast_add"(%706, %output_602) {device_name = ["@0:0"], device_tag = "cuda", hierarchy = [1], op_name = "ONEFLOW_ERASE_MAGIC", scope_symbol_id = 77777 : i64} : (tensor<2x4096x320xf16>, tensor<320xf16>) -> tensor<2x4096x320xf16>
    %708 = "oneflow.add_n2"(%707, %699) {device_name = ["@0:0"], device_tag = "cuda", hierarchy = [1], op_name = "ONEFLOW_ERASE_MAGIC", op_type_name = "add_n", scope_symbol_id = 77777 : i64} : (tensor<2x4096x320xf16>, tensor<2x4096x320xf16>) -> tensor<2x4096x320xf16>
    %709 = "oneflow.reshape"(%708) {device_name = ["@0:0"], device_tag = "cuda", hierarchy = [1], op_name = "ONEFLOW_ERASE_MAGIC", scope_symbol_id = 77777 : i64, shape = [2 : si64, 64 : si64, 64 : si64, 320 : si64]} : (tensor<2x4096x320xf16>) -> tensor<2x64x64x320xf16>
    %710 = "oneflow.conv2d"(%709, %output_603, %output_604) {data_format = "channels_last", device_name = ["@0:0"], device_tag = "cuda", dilation_rate = [1 : si32, 1 : si32], filters = 320 : si32, groups = 1 : si32, hierarchy = [1], kernel_size = [1 : si32, 1 : si32], op_name = "ONEFLOW_ERASE_MAGIC", operand_segment_sizes = dense<[1, 1, 1, 0]> : vector<4xi32>, padding_before = [0 : si32, 0 : si32], scope_symbol_id = 77777 : i64, strides = [1 : si32, 1 : si32]} : (tensor<2x64x64x320xf16>, tensor<320x1x1x320xf16>, tensor<320xf16>) -> tensor<2x64x64x320xf16>
    %711 = "oneflow.add_n2"(%710, %685) {device_name = ["@0:0"], device_tag = "cuda", hierarchy = [1], op_name = "ONEFLOW_ERASE_MAGIC", op_type_name = "add_n", scope_symbol_id = 77777 : i64} : (tensor<2x64x64x320xf16>, tensor<2x64x64x320xf16>) -> tensor<2x64x64x320xf16>
    %712 = "oneflow.concat"(%711, %203) {axis = 3 : si64, device_name = ["@0:0"], device_tag = "cuda", hierarchy = [1], max_dim_size = 640 : si64, op_name = "ONEFLOW_ERASE_MAGIC", scope_symbol_id = 77777 : i64} : (tensor<2x64x64x320xf16>, tensor<2x64x64x320xf16>) -> tensor<2x64x64x640xf16>
    %y_973, %mean_974, %inv_variance_975 = "oneflow.group_norm"(%712, %output_606, %output_605) {activation = "none", affine = true, data_format = "channels_last", device_name = ["@0:0"], device_tag = "cuda", epsilon = 1.000000e-05 : f64, hierarchy = [1], num_groups = 32 : si32, op_name = "ONEFLOW_ERASE_MAGIC", operand_segment_sizes = dense<1> : vector<3xi32>, scope_symbol_id = 77777 : i64} : (tensor<2x64x64x640xf16>, tensor<640xf16>, tensor<640xf16>) -> (tensor<2x64x64x640xf16>, tensor<2x32xf32>, tensor<2x32xf32>)
    %713 = "oneflow.conv2d"(%712, %output_615, %output_616) {data_format = "channels_last", device_name = ["@0:0"], device_tag = "cuda", dilation_rate = [1 : si32, 1 : si32], filters = 320 : si32, groups = 1 : si32, hierarchy = [1], kernel_size = [1 : si32, 1 : si32], op_name = "ONEFLOW_ERASE_MAGIC", operand_segment_sizes = dense<[1, 1, 1, 0]> : vector<4xi32>, padding_before = [0 : si32, 0 : si32], scope_symbol_id = 77777 : i64, strides = [1 : si32, 1 : si32]} : (tensor<2x64x64x640xf16>, tensor<320x1x1x640xf16>, tensor<320xf16>) -> tensor<2x64x64x320xf16>
    %714 = "oneflow.silu"(%y_973) {device_name = ["@0:0"], device_tag = "cuda", hierarchy = [1], op_name = "ONEFLOW_ERASE_MAGIC", scope_symbol_id = 77777 : i64} : (tensor<2x64x64x640xf16>) -> tensor<2x64x64x640xf16>
    %715 = "oneflow.conv2d"(%714, %output_607, %output_608) {data_format = "channels_last", device_name = ["@0:0"], device_tag = "cuda", dilation_rate = [1 : si32, 1 : si32], filters = 320 : si32, groups = 1 : si32, hierarchy = [1], kernel_size = [3 : si32, 3 : si32], op_name = "ONEFLOW_ERASE_MAGIC", operand_segment_sizes = dense<[1, 1, 1, 0]> : vector<4xi32>, padding_before = [1 : si32, 1 : si32], scope_symbol_id = 77777 : i64, strides = [1 : si32, 1 : si32]} : (tensor<2x64x64x640xf16>, tensor<320x3x3x640xf16>, tensor<320xf16>) -> tensor<2x64x64x320xf16>
    %716 = "oneflow.broadcast_add"(%715, %158) {device_name = ["@0:0"], device_tag = "cuda", hierarchy = [1], op_name = "ONEFLOW_ERASE_MAGIC", scope_symbol_id = 77777 : i64} : (tensor<2x64x64x320xf16>, tensor<2x1x1x320xf16>) -> tensor<2x64x64x320xf16>
    %y_976, %mean_977, %inv_variance_978 = "oneflow.group_norm"(%716, %output_612, %output_611) {activation = "none", affine = true, data_format = "channels_last", device_name = ["@0:0"], device_tag = "cuda", epsilon = 1.000000e-05 : f64, hierarchy = [1], num_groups = 32 : si32, op_name = "ONEFLOW_ERASE_MAGIC", operand_segment_sizes = dense<1> : vector<3xi32>, scope_symbol_id = 77777 : i64} : (tensor<2x64x64x320xf16>, tensor<320xf16>, tensor<320xf16>) -> (tensor<2x64x64x320xf16>, tensor<2x32xf32>, tensor<2x32xf32>)
    %717 = "oneflow.silu"(%y_976) {device_name = ["@0:0"], device_tag = "cuda", hierarchy = [1], op_name = "ONEFLOW_ERASE_MAGIC", scope_symbol_id = 77777 : i64} : (tensor<2x64x64x320xf16>) -> tensor<2x64x64x320xf16>
    %718 = "oneflow.conv2d"(%717, %output_613, %output_614) {data_format = "channels_last", device_name = ["@0:0"], device_tag = "cuda", dilation_rate = [1 : si32, 1 : si32], filters = 320 : si32, groups = 1 : si32, hierarchy = [1], kernel_size = [3 : si32, 3 : si32], op_name = "ONEFLOW_ERASE_MAGIC", operand_segment_sizes = dense<[1, 1, 1, 0]> : vector<4xi32>, padding_before = [1 : si32, 1 : si32], scope_symbol_id = 77777 : i64, strides = [1 : si32, 1 : si32]} : (tensor<2x64x64x320xf16>, tensor<320x3x3x320xf16>, tensor<320xf16>) -> tensor<2x64x64x320xf16>
    %719 = "oneflow.add_n2"(%713, %718) {device_name = ["@0:0"], device_tag = "cuda", hierarchy = [1], op_name = "ONEFLOW_ERASE_MAGIC", op_type_name = "add_n", scope_symbol_id = 77777 : i64} : (tensor<2x64x64x320xf16>, tensor<2x64x64x320xf16>) -> tensor<2x64x64x320xf16>
    %720 = "oneflow.scalar_div"(%719) {device_name = ["@0:0"], device_tag = "cuda", float_operand = 1.000000e+00 : f64, has_float_operand = true, has_int_operand = false, hierarchy = [1], int_operand = 0 : si64, op_name = "ONEFLOW_ERASE_MAGIC", scope_symbol_id = 77777 : i64} : (tensor<2x64x64x320xf16>) -> tensor<2x64x64x320xf16>
    %y_979, %mean_980, %inv_variance_981 = "oneflow.group_norm"(%720, %output_618, %output_617) {activation = "none", affine = true, data_format = "channels_last", device_name = ["@0:0"], device_tag = "cuda", epsilon = 9.9999999999999995E-7 : f64, hierarchy = [1], num_groups = 32 : si32, op_name = "ONEFLOW_ERASE_MAGIC", operand_segment_sizes = dense<1> : vector<3xi32>, scope_symbol_id = 77777 : i64} : (tensor<2x64x64x320xf16>, tensor<320xf16>, tensor<320xf16>) -> (tensor<2x64x64x320xf16>, tensor<2x32xf32>, tensor<2x32xf32>)
    %721 = "oneflow.conv2d"(%y_979, %output_619, %output_620) {data_format = "channels_last", device_name = ["@0:0"], device_tag = "cuda", dilation_rate = [1 : si32, 1 : si32], filters = 320 : si32, groups = 1 : si32, hierarchy = [1], kernel_size = [1 : si32, 1 : si32], op_name = "ONEFLOW_ERASE_MAGIC", operand_segment_sizes = dense<[1, 1, 1, 0]> : vector<4xi32>, padding_before = [0 : si32, 0 : si32], scope_symbol_id = 77777 : i64, strides = [1 : si32, 1 : si32]} : (tensor<2x64x64x320xf16>, tensor<320x1x1x320xf16>, tensor<320xf16>) -> tensor<2x64x64x320xf16>
    %722 = "oneflow.reshape"(%721) {device_name = ["@0:0"], device_tag = "cuda", hierarchy = [1], op_name = "ONEFLOW_ERASE_MAGIC", scope_symbol_id = 77777 : i64, shape = [2 : si64, 4096 : si64, 320 : si64]} : (tensor<2x64x64x320xf16>) -> tensor<2x4096x320xf16>
    %y_982, %mean_983, %inv_variance_984 = "oneflow.layer_norm"(%722, %output_622, %output_621) {begin_norm_axis = 2 : si64, begin_params_axis = 2 : si64, center = true, device_name = ["@0:0"], device_tag = "cuda", epsilon = 1.000000e-05 : f64, hierarchy = [1], op_name = "ONEFLOW_ERASE_MAGIC", operand_segment_sizes = dense<1> : vector<3xi32>, scale = true, scope_symbol_id = 77777 : i64} : (tensor<2x4096x320xf16>, tensor<320xf16>, tensor<320xf16>) -> (tensor<2x4096x320xf16>, tensor<2x4096xf32>, tensor<2x4096xf32>)
    %723 = "oneflow.broadcast_matmul"(%y_982, %output_625) {alpha = 1.000000e+00 : f64, device_name = ["@0:0"], device_tag = "cuda", hierarchy = [1], op_name = "ONEFLOW_ERASE_MAGIC", scope_symbol_id = 77777 : i64, transpose_a = false, transpose_b = true} : (tensor<2x4096x320xf16>, tensor<320x320xf16>) -> tensor<2x4096x320xf16>
    %724 = "oneflow.broadcast_matmul"(%y_982, %output_623) {alpha = 1.000000e+00 : f64, device_name = ["@0:0"], device_tag = "cuda", hierarchy = [1], op_name = "ONEFLOW_ERASE_MAGIC", scope_symbol_id = 77777 : i64, transpose_a = false, transpose_b = true} : (tensor<2x4096x320xf16>, tensor<320x320xf16>) -> tensor<2x4096x320xf16>
    %725 = "oneflow.broadcast_matmul"(%y_982, %output_624) {alpha = 1.000000e+00 : f64, device_name = ["@0:0"], device_tag = "cuda", hierarchy = [1], op_name = "ONEFLOW_ERASE_MAGIC", scope_symbol_id = 77777 : i64, transpose_a = false, transpose_b = true} : (tensor<2x4096x320xf16>, tensor<320x320xf16>) -> tensor<2x4096x320xf16>
    %726 = "oneflow.fused_multi_head_attention_inference"(%724, %725, %723) {causal = false, device_name = ["@0:0"], device_tag = "cuda", hierarchy = [1], key_hidden_slice_end = -1 : si64, key_hidden_slice_start = 0 : si64, num_heads = 8 : si64, op_name = "ONEFLOW_ERASE_MAGIC", query_hidden_slice_end = -1 : si64, query_hidden_slice_start = 0 : si64, scope_symbol_id = 77777 : i64, value_hidden_slice_end = -1 : si64, value_hidden_slice_start = 0 : si64} : (tensor<2x4096x320xf16>, tensor<2x4096x320xf16>, tensor<2x4096x320xf16>) -> tensor<2x4096x320xf16>
    %727 = "oneflow.broadcast_matmul"(%726, %output_626) {alpha = 1.000000e+00 : f64, device_name = ["@0:0"], device_tag = "cuda", hierarchy = [1], op_name = "ONEFLOW_ERASE_MAGIC", scope_symbol_id = 77777 : i64, transpose_a = false, transpose_b = true} : (tensor<2x4096x320xf16>, tensor<320x320xf16>) -> tensor<2x4096x320xf16>
    %728 = "oneflow.broadcast_add"(%727, %output_627) {device_name = ["@0:0"], device_tag = "cuda", hierarchy = [1], op_name = "ONEFLOW_ERASE_MAGIC", scope_symbol_id = 77777 : i64} : (tensor<2x4096x320xf16>, tensor<320xf16>) -> tensor<2x4096x320xf16>
    %729 = "oneflow.add_n2"(%728, %722) {device_name = ["@0:0"], device_tag = "cuda", hierarchy = [1], op_name = "ONEFLOW_ERASE_MAGIC", op_type_name = "add_n", scope_symbol_id = 77777 : i64} : (tensor<2x4096x320xf16>, tensor<2x4096x320xf16>) -> tensor<2x4096x320xf16>
    %y_985, %mean_986, %inv_variance_987 = "oneflow.layer_norm"(%729, %output_629, %output_628) {begin_norm_axis = 2 : si64, begin_params_axis = 2 : si64, center = true, device_name = ["@0:0"], device_tag = "cuda", epsilon = 1.000000e-05 : f64, hierarchy = [1], op_name = "ONEFLOW_ERASE_MAGIC", operand_segment_sizes = dense<1> : vector<3xi32>, scale = true, scope_symbol_id = 77777 : i64} : (tensor<2x4096x320xf16>, tensor<320xf16>, tensor<320xf16>) -> (tensor<2x4096x320xf16>, tensor<2x4096xf32>, tensor<2x4096xf32>)
    %730 = "oneflow.broadcast_matmul"(%y_985, %output_630) {alpha = 1.000000e+00 : f64, device_name = ["@0:0"], device_tag = "cuda", hierarchy = [1], op_name = "ONEFLOW_ERASE_MAGIC", scope_symbol_id = 77777 : i64, transpose_a = false, transpose_b = true} : (tensor<2x4096x320xf16>, tensor<320x320xf16>) -> tensor<2x4096x320xf16>
    %731 = "oneflow.fused_multi_head_attention_inference"(%730, %32, %7) {causal = false, device_name = ["@0:0"], device_tag = "cuda", hierarchy = [1], key_hidden_slice_end = -1 : si64, key_hidden_slice_start = 0 : si64, num_heads = 8 : si64, op_name = "ONEFLOW_ERASE_MAGIC", query_hidden_slice_end = -1 : si64, query_hidden_slice_start = 0 : si64, scope_symbol_id = 77777 : i64, value_hidden_slice_end = -1 : si64, value_hidden_slice_start = 0 : si64} : (tensor<2x4096x320xf16>, tensor<2x77x320xf16>, tensor<2x77x320xf16>) -> tensor<2x4096x320xf16>
    %732 = "oneflow.broadcast_matmul"(%731, %output_633) {alpha = 1.000000e+00 : f64, device_name = ["@0:0"], device_tag = "cuda", hierarchy = [1], op_name = "ONEFLOW_ERASE_MAGIC", scope_symbol_id = 77777 : i64, transpose_a = false, transpose_b = true} : (tensor<2x4096x320xf16>, tensor<320x320xf16>) -> tensor<2x4096x320xf16>
    %733 = "oneflow.broadcast_add"(%732, %output_634) {device_name = ["@0:0"], device_tag = "cuda", hierarchy = [1], op_name = "ONEFLOW_ERASE_MAGIC", scope_symbol_id = 77777 : i64} : (tensor<2x4096x320xf16>, tensor<320xf16>) -> tensor<2x4096x320xf16>
    %734 = "oneflow.add_n2"(%733, %729) {device_name = ["@0:0"], device_tag = "cuda", hierarchy = [1], op_name = "ONEFLOW_ERASE_MAGIC", op_type_name = "add_n", scope_symbol_id = 77777 : i64} : (tensor<2x4096x320xf16>, tensor<2x4096x320xf16>) -> tensor<2x4096x320xf16>
    %y_988, %mean_989, %inv_variance_990 = "oneflow.layer_norm"(%734, %output_636, %output_635) {begin_norm_axis = 2 : si64, begin_params_axis = 2 : si64, center = true, device_name = ["@0:0"], device_tag = "cuda", epsilon = 1.000000e-05 : f64, hierarchy = [1], op_name = "ONEFLOW_ERASE_MAGIC", operand_segment_sizes = dense<1> : vector<3xi32>, scale = true, scope_symbol_id = 77777 : i64} : (tensor<2x4096x320xf16>, tensor<320xf16>, tensor<320xf16>) -> (tensor<2x4096x320xf16>, tensor<2x4096xf32>, tensor<2x4096xf32>)
    %735 = "oneflow.broadcast_matmul"(%y_988, %output_637) {alpha = 1.000000e+00 : f64, device_name = ["@0:0"], device_tag = "cuda", hierarchy = [1], op_name = "ONEFLOW_ERASE_MAGIC", scope_symbol_id = 77777 : i64, transpose_a = false, transpose_b = true} : (tensor<2x4096x320xf16>, tensor<2560x320xf16>) -> tensor<2x4096x2560xf16>
    %736 = "oneflow.broadcast_add"(%735, %output_638) {device_name = ["@0:0"], device_tag = "cuda", hierarchy = [1], op_name = "ONEFLOW_ERASE_MAGIC", scope_symbol_id = 77777 : i64} : (tensor<2x4096x2560xf16>, tensor<2560xf16>) -> tensor<2x4096x2560xf16>
    %737 = "oneflow.narrow"(%736) {device_name = ["@0:0"], device_tag = "cuda", dim = 2 : si64, hierarchy = [1], length = 1280 : si64, op_name = "ONEFLOW_ERASE_MAGIC", scope_symbol_id = 77777 : i64, start = 0 : si64} : (tensor<2x4096x2560xf16>) -> tensor<2x4096x1280xf16>
    %738 = "oneflow.narrow"(%736) {device_name = ["@0:0"], device_tag = "cuda", dim = 2 : si64, hierarchy = [1], length = 1280 : si64, op_name = "ONEFLOW_ERASE_MAGIC", scope_symbol_id = 77777 : i64, start = 1280 : si64} : (tensor<2x4096x2560xf16>) -> tensor<2x4096x1280xf16>
    %739 = "oneflow.gelu"(%738) {device_name = ["@0:0"], device_tag = "cuda", hierarchy = [1], op_name = "ONEFLOW_ERASE_MAGIC", scope_symbol_id = 77777 : i64} : (tensor<2x4096x1280xf16>) -> tensor<2x4096x1280xf16>
    %740 = "oneflow.broadcast_mul"(%737, %739) {device_name = ["@0:0"], device_tag = "cuda", hierarchy = [1], op_name = "ONEFLOW_ERASE_MAGIC", scope_symbol_id = 77777 : i64} : (tensor<2x4096x1280xf16>, tensor<2x4096x1280xf16>) -> tensor<2x4096x1280xf16>
    %741 = "oneflow.broadcast_matmul"(%740, %output_639) {alpha = 1.000000e+00 : f64, device_name = ["@0:0"], device_tag = "cuda", hierarchy = [1], op_name = "ONEFLOW_ERASE_MAGIC", scope_symbol_id = 77777 : i64, transpose_a = false, transpose_b = true} : (tensor<2x4096x1280xf16>, tensor<320x1280xf16>) -> tensor<2x4096x320xf16>
    %742 = "oneflow.broadcast_add"(%741, %output_640) {device_name = ["@0:0"], device_tag = "cuda", hierarchy = [1], op_name = "ONEFLOW_ERASE_MAGIC", scope_symbol_id = 77777 : i64} : (tensor<2x4096x320xf16>, tensor<320xf16>) -> tensor<2x4096x320xf16>
    %743 = "oneflow.add_n2"(%742, %734) {device_name = ["@0:0"], device_tag = "cuda", hierarchy = [1], op_name = "ONEFLOW_ERASE_MAGIC", op_type_name = "add_n", scope_symbol_id = 77777 : i64} : (tensor<2x4096x320xf16>, tensor<2x4096x320xf16>) -> tensor<2x4096x320xf16>
    %744 = "oneflow.reshape"(%743) {device_name = ["@0:0"], device_tag = "cuda", hierarchy = [1], op_name = "ONEFLOW_ERASE_MAGIC", scope_symbol_id = 77777 : i64, shape = [2 : si64, 64 : si64, 64 : si64, 320 : si64]} : (tensor<2x4096x320xf16>) -> tensor<2x64x64x320xf16>
    %745 = "oneflow.conv2d"(%744, %output_641, %output_642) {data_format = "channels_last", device_name = ["@0:0"], device_tag = "cuda", dilation_rate = [1 : si32, 1 : si32], filters = 320 : si32, groups = 1 : si32, hierarchy = [1], kernel_size = [1 : si32, 1 : si32], op_name = "ONEFLOW_ERASE_MAGIC", operand_segment_sizes = dense<[1, 1, 1, 0]> : vector<4xi32>, padding_before = [0 : si32, 0 : si32], scope_symbol_id = 77777 : i64, strides = [1 : si32, 1 : si32]} : (tensor<2x64x64x320xf16>, tensor<320x1x1x320xf16>, tensor<320xf16>) -> tensor<2x64x64x320xf16>
    %746 = "oneflow.add_n2"(%745, %720) {device_name = ["@0:0"], device_tag = "cuda", hierarchy = [1], op_name = "ONEFLOW_ERASE_MAGIC", op_type_name = "add_n", scope_symbol_id = 77777 : i64} : (tensor<2x64x64x320xf16>, tensor<2x64x64x320xf16>) -> tensor<2x64x64x320xf16>
    %747 = "oneflow.concat"(%746, %42) {axis = 3 : si64, device_name = ["@0:0"], device_tag = "cuda", hierarchy = [1], max_dim_size = 640 : si64, op_name = "ONEFLOW_ERASE_MAGIC", scope_symbol_id = 77777 : i64} : (tensor<2x64x64x320xf16>, tensor<2x64x64x320xf16>) -> tensor<2x64x64x640xf16>
    %y_991, %mean_992, %inv_variance_993 = "oneflow.group_norm"(%747, %output_644, %output_643) {activation = "none", affine = true, data_format = "channels_last", device_name = ["@0:0"], device_tag = "cuda", epsilon = 1.000000e-05 : f64, hierarchy = [1], num_groups = 32 : si32, op_name = "ONEFLOW_ERASE_MAGIC", operand_segment_sizes = dense<1> : vector<3xi32>, scope_symbol_id = 77777 : i64} : (tensor<2x64x64x640xf16>, tensor<640xf16>, tensor<640xf16>) -> (tensor<2x64x64x640xf16>, tensor<2x32xf32>, tensor<2x32xf32>)
    %748 = "oneflow.conv2d"(%747, %output_653, %output_654) {data_format = "channels_last", device_name = ["@0:0"], device_tag = "cuda", dilation_rate = [1 : si32, 1 : si32], filters = 320 : si32, groups = 1 : si32, hierarchy = [1], kernel_size = [1 : si32, 1 : si32], op_name = "ONEFLOW_ERASE_MAGIC", operand_segment_sizes = dense<[1, 1, 1, 0]> : vector<4xi32>, padding_before = [0 : si32, 0 : si32], scope_symbol_id = 77777 : i64, strides = [1 : si32, 1 : si32]} : (tensor<2x64x64x640xf16>, tensor<320x1x1x640xf16>, tensor<320xf16>) -> tensor<2x64x64x320xf16>
    %749 = "oneflow.silu"(%y_991) {device_name = ["@0:0"], device_tag = "cuda", hierarchy = [1], op_name = "ONEFLOW_ERASE_MAGIC", scope_symbol_id = 77777 : i64} : (tensor<2x64x64x640xf16>) -> tensor<2x64x64x640xf16>
    %750 = "oneflow.conv2d"(%749, %output_645, %output_646) {data_format = "channels_last", device_name = ["@0:0"], device_tag = "cuda", dilation_rate = [1 : si32, 1 : si32], filters = 320 : si32, groups = 1 : si32, hierarchy = [1], kernel_size = [3 : si32, 3 : si32], op_name = "ONEFLOW_ERASE_MAGIC", operand_segment_sizes = dense<[1, 1, 1, 0]> : vector<4xi32>, padding_before = [1 : si32, 1 : si32], scope_symbol_id = 77777 : i64, strides = [1 : si32, 1 : si32]} : (tensor<2x64x64x640xf16>, tensor<320x3x3x640xf16>, tensor<320xf16>) -> tensor<2x64x64x320xf16>
    %751 = "oneflow.broadcast_add"(%750, %157) {device_name = ["@0:0"], device_tag = "cuda", hierarchy = [1], op_name = "ONEFLOW_ERASE_MAGIC", scope_symbol_id = 77777 : i64} : (tensor<2x64x64x320xf16>, tensor<2x1x1x320xf16>) -> tensor<2x64x64x320xf16>
    %y_994, %mean_995, %inv_variance_996 = "oneflow.group_norm"(%751, %output_650, %output_649) {activation = "none", affine = true, data_format = "channels_last", device_name = ["@0:0"], device_tag = "cuda", epsilon = 1.000000e-05 : f64, hierarchy = [1], num_groups = 32 : si32, op_name = "ONEFLOW_ERASE_MAGIC", operand_segment_sizes = dense<1> : vector<3xi32>, scope_symbol_id = 77777 : i64} : (tensor<2x64x64x320xf16>, tensor<320xf16>, tensor<320xf16>) -> (tensor<2x64x64x320xf16>, tensor<2x32xf32>, tensor<2x32xf32>)
    %752 = "oneflow.silu"(%y_994) {device_name = ["@0:0"], device_tag = "cuda", hierarchy = [1], op_name = "ONEFLOW_ERASE_MAGIC", scope_symbol_id = 77777 : i64} : (tensor<2x64x64x320xf16>) -> tensor<2x64x64x320xf16>
    %753 = "oneflow.conv2d"(%752, %output_651, %output_652) {data_format = "channels_last", device_name = ["@0:0"], device_tag = "cuda", dilation_rate = [1 : si32, 1 : si32], filters = 320 : si32, groups = 1 : si32, hierarchy = [1], kernel_size = [3 : si32, 3 : si32], op_name = "ONEFLOW_ERASE_MAGIC", operand_segment_sizes = dense<[1, 1, 1, 0]> : vector<4xi32>, padding_before = [1 : si32, 1 : si32], scope_symbol_id = 77777 : i64, strides = [1 : si32, 1 : si32]} : (tensor<2x64x64x320xf16>, tensor<320x3x3x320xf16>, tensor<320xf16>) -> tensor<2x64x64x320xf16>
    %754 = "oneflow.add_n2"(%748, %753) {device_name = ["@0:0"], device_tag = "cuda", hierarchy = [1], op_name = "ONEFLOW_ERASE_MAGIC", op_type_name = "add_n", scope_symbol_id = 77777 : i64} : (tensor<2x64x64x320xf16>, tensor<2x64x64x320xf16>) -> tensor<2x64x64x320xf16>
    %755 = "oneflow.scalar_div"(%754) {device_name = ["@0:0"], device_tag = "cuda", float_operand = 1.000000e+00 : f64, has_float_operand = true, has_int_operand = false, hierarchy = [1], int_operand = 0 : si64, op_name = "ONEFLOW_ERASE_MAGIC", scope_symbol_id = 77777 : i64} : (tensor<2x64x64x320xf16>) -> tensor<2x64x64x320xf16>
    %y_997, %mean_998, %inv_variance_999 = "oneflow.group_norm"(%755, %output_656, %output_655) {activation = "none", affine = true, data_format = "channels_last", device_name = ["@0:0"], device_tag = "cuda", epsilon = 9.9999999999999995E-7 : f64, hierarchy = [1], num_groups = 32 : si32, op_name = "ONEFLOW_ERASE_MAGIC", operand_segment_sizes = dense<1> : vector<3xi32>, scope_symbol_id = 77777 : i64} : (tensor<2x64x64x320xf16>, tensor<320xf16>, tensor<320xf16>) -> (tensor<2x64x64x320xf16>, tensor<2x32xf32>, tensor<2x32xf32>)
    %756 = "oneflow.conv2d"(%y_997, %output_657, %output_658) {data_format = "channels_last", device_name = ["@0:0"], device_tag = "cuda", dilation_rate = [1 : si32, 1 : si32], filters = 320 : si32, groups = 1 : si32, hierarchy = [1], kernel_size = [1 : si32, 1 : si32], op_name = "ONEFLOW_ERASE_MAGIC", operand_segment_sizes = dense<[1, 1, 1, 0]> : vector<4xi32>, padding_before = [0 : si32, 0 : si32], scope_symbol_id = 77777 : i64, strides = [1 : si32, 1 : si32]} : (tensor<2x64x64x320xf16>, tensor<320x1x1x320xf16>, tensor<320xf16>) -> tensor<2x64x64x320xf16>
    %757 = "oneflow.reshape"(%756) {device_name = ["@0:0"], device_tag = "cuda", hierarchy = [1], op_name = "ONEFLOW_ERASE_MAGIC", scope_symbol_id = 77777 : i64, shape = [2 : si64, 4096 : si64, 320 : si64]} : (tensor<2x64x64x320xf16>) -> tensor<2x4096x320xf16>
    %y_1000, %mean_1001, %inv_variance_1002 = "oneflow.layer_norm"(%757, %output_660, %output_659) {begin_norm_axis = 2 : si64, begin_params_axis = 2 : si64, center = true, device_name = ["@0:0"], device_tag = "cuda", epsilon = 1.000000e-05 : f64, hierarchy = [1], op_name = "ONEFLOW_ERASE_MAGIC", operand_segment_sizes = dense<1> : vector<3xi32>, scale = true, scope_symbol_id = 77777 : i64} : (tensor<2x4096x320xf16>, tensor<320xf16>, tensor<320xf16>) -> (tensor<2x4096x320xf16>, tensor<2x4096xf32>, tensor<2x4096xf32>)
    %758 = "oneflow.broadcast_matmul"(%y_1000, %output_663) {alpha = 1.000000e+00 : f64, device_name = ["@0:0"], device_tag = "cuda", hierarchy = [1], op_name = "ONEFLOW_ERASE_MAGIC", scope_symbol_id = 77777 : i64, transpose_a = false, transpose_b = true} : (tensor<2x4096x320xf16>, tensor<320x320xf16>) -> tensor<2x4096x320xf16>
    %759 = "oneflow.broadcast_matmul"(%y_1000, %output_661) {alpha = 1.000000e+00 : f64, device_name = ["@0:0"], device_tag = "cuda", hierarchy = [1], op_name = "ONEFLOW_ERASE_MAGIC", scope_symbol_id = 77777 : i64, transpose_a = false, transpose_b = true} : (tensor<2x4096x320xf16>, tensor<320x320xf16>) -> tensor<2x4096x320xf16>
    %760 = "oneflow.broadcast_matmul"(%y_1000, %output_662) {alpha = 1.000000e+00 : f64, device_name = ["@0:0"], device_tag = "cuda", hierarchy = [1], op_name = "ONEFLOW_ERASE_MAGIC", scope_symbol_id = 77777 : i64, transpose_a = false, transpose_b = true} : (tensor<2x4096x320xf16>, tensor<320x320xf16>) -> tensor<2x4096x320xf16>
    %761 = "oneflow.fused_multi_head_attention_inference"(%759, %760, %758) {causal = false, device_name = ["@0:0"], device_tag = "cuda", hierarchy = [1], key_hidden_slice_end = -1 : si64, key_hidden_slice_start = 0 : si64, num_heads = 8 : si64, op_name = "ONEFLOW_ERASE_MAGIC", query_hidden_slice_end = -1 : si64, query_hidden_slice_start = 0 : si64, scope_symbol_id = 77777 : i64, value_hidden_slice_end = -1 : si64, value_hidden_slice_start = 0 : si64} : (tensor<2x4096x320xf16>, tensor<2x4096x320xf16>, tensor<2x4096x320xf16>) -> tensor<2x4096x320xf16>
    %762 = "oneflow.broadcast_matmul"(%761, %output_664) {alpha = 1.000000e+00 : f64, device_name = ["@0:0"], device_tag = "cuda", hierarchy = [1], op_name = "ONEFLOW_ERASE_MAGIC", scope_symbol_id = 77777 : i64, transpose_a = false, transpose_b = true} : (tensor<2x4096x320xf16>, tensor<320x320xf16>) -> tensor<2x4096x320xf16>
    %763 = "oneflow.broadcast_add"(%762, %output_665) {device_name = ["@0:0"], device_tag = "cuda", hierarchy = [1], op_name = "ONEFLOW_ERASE_MAGIC", scope_symbol_id = 77777 : i64} : (tensor<2x4096x320xf16>, tensor<320xf16>) -> tensor<2x4096x320xf16>
    %764 = "oneflow.add_n2"(%763, %757) {device_name = ["@0:0"], device_tag = "cuda", hierarchy = [1], op_name = "ONEFLOW_ERASE_MAGIC", op_type_name = "add_n", scope_symbol_id = 77777 : i64} : (tensor<2x4096x320xf16>, tensor<2x4096x320xf16>) -> tensor<2x4096x320xf16>
    %y_1003, %mean_1004, %inv_variance_1005 = "oneflow.layer_norm"(%764, %output_667, %output_666) {begin_norm_axis = 2 : si64, begin_params_axis = 2 : si64, center = true, device_name = ["@0:0"], device_tag = "cuda", epsilon = 1.000000e-05 : f64, hierarchy = [1], op_name = "ONEFLOW_ERASE_MAGIC", operand_segment_sizes = dense<1> : vector<3xi32>, scale = true, scope_symbol_id = 77777 : i64} : (tensor<2x4096x320xf16>, tensor<320xf16>, tensor<320xf16>) -> (tensor<2x4096x320xf16>, tensor<2x4096xf32>, tensor<2x4096xf32>)
    %765 = "oneflow.broadcast_matmul"(%y_1003, %output_668) {alpha = 1.000000e+00 : f64, device_name = ["@0:0"], device_tag = "cuda", hierarchy = [1], op_name = "ONEFLOW_ERASE_MAGIC", scope_symbol_id = 77777 : i64, transpose_a = false, transpose_b = true} : (tensor<2x4096x320xf16>, tensor<320x320xf16>) -> tensor<2x4096x320xf16>
    %766 = "oneflow.fused_multi_head_attention_inference"(%765, %6, %11) {causal = false, device_name = ["@0:0"], device_tag = "cuda", hierarchy = [1], key_hidden_slice_end = -1 : si64, key_hidden_slice_start = 0 : si64, num_heads = 8 : si64, op_name = "ONEFLOW_ERASE_MAGIC", query_hidden_slice_end = -1 : si64, query_hidden_slice_start = 0 : si64, scope_symbol_id = 77777 : i64, value_hidden_slice_end = -1 : si64, value_hidden_slice_start = 0 : si64} : (tensor<2x4096x320xf16>, tensor<2x77x320xf16>, tensor<2x77x320xf16>) -> tensor<2x4096x320xf16>
    %767 = "oneflow.broadcast_matmul"(%766, %output_671) {alpha = 1.000000e+00 : f64, device_name = ["@0:0"], device_tag = "cuda", hierarchy = [1], op_name = "ONEFLOW_ERASE_MAGIC", scope_symbol_id = 77777 : i64, transpose_a = false, transpose_b = true} : (tensor<2x4096x320xf16>, tensor<320x320xf16>) -> tensor<2x4096x320xf16>
    %768 = "oneflow.broadcast_add"(%767, %output_672) {device_name = ["@0:0"], device_tag = "cuda", hierarchy = [1], op_name = "ONEFLOW_ERASE_MAGIC", scope_symbol_id = 77777 : i64} : (tensor<2x4096x320xf16>, tensor<320xf16>) -> tensor<2x4096x320xf16>
    %769 = "oneflow.add_n2"(%768, %764) {device_name = ["@0:0"], device_tag = "cuda", hierarchy = [1], op_name = "ONEFLOW_ERASE_MAGIC", op_type_name = "add_n", scope_symbol_id = 77777 : i64} : (tensor<2x4096x320xf16>, tensor<2x4096x320xf16>) -> tensor<2x4096x320xf16>
    %y_1006, %mean_1007, %inv_variance_1008 = "oneflow.layer_norm"(%769, %output_674, %output_673) {begin_norm_axis = 2 : si64, begin_params_axis = 2 : si64, center = true, device_name = ["@0:0"], device_tag = "cuda", epsilon = 1.000000e-05 : f64, hierarchy = [1], op_name = "ONEFLOW_ERASE_MAGIC", operand_segment_sizes = dense<1> : vector<3xi32>, scale = true, scope_symbol_id = 77777 : i64} : (tensor<2x4096x320xf16>, tensor<320xf16>, tensor<320xf16>) -> (tensor<2x4096x320xf16>, tensor<2x4096xf32>, tensor<2x4096xf32>)
    %770 = "oneflow.broadcast_matmul"(%y_1006, %output_675) {alpha = 1.000000e+00 : f64, device_name = ["@0:0"], device_tag = "cuda", hierarchy = [1], op_name = "ONEFLOW_ERASE_MAGIC", scope_symbol_id = 77777 : i64, transpose_a = false, transpose_b = true} : (tensor<2x4096x320xf16>, tensor<2560x320xf16>) -> tensor<2x4096x2560xf16>
    %771 = "oneflow.broadcast_add"(%770, %output_676) {device_name = ["@0:0"], device_tag = "cuda", hierarchy = [1], op_name = "ONEFLOW_ERASE_MAGIC", scope_symbol_id = 77777 : i64} : (tensor<2x4096x2560xf16>, tensor<2560xf16>) -> tensor<2x4096x2560xf16>
    %772 = "oneflow.narrow"(%771) {device_name = ["@0:0"], device_tag = "cuda", dim = 2 : si64, hierarchy = [1], length = 1280 : si64, op_name = "ONEFLOW_ERASE_MAGIC", scope_symbol_id = 77777 : i64, start = 0 : si64} : (tensor<2x4096x2560xf16>) -> tensor<2x4096x1280xf16>
    %773 = "oneflow.narrow"(%771) {device_name = ["@0:0"], device_tag = "cuda", dim = 2 : si64, hierarchy = [1], length = 1280 : si64, op_name = "ONEFLOW_ERASE_MAGIC", scope_symbol_id = 77777 : i64, start = 1280 : si64} : (tensor<2x4096x2560xf16>) -> tensor<2x4096x1280xf16>
    %774 = "oneflow.gelu"(%773) {device_name = ["@0:0"], device_tag = "cuda", hierarchy = [1], op_name = "ONEFLOW_ERASE_MAGIC", scope_symbol_id = 77777 : i64} : (tensor<2x4096x1280xf16>) -> tensor<2x4096x1280xf16>
    %775 = "oneflow.broadcast_mul"(%772, %774) {device_name = ["@0:0"], device_tag = "cuda", hierarchy = [1], op_name = "ONEFLOW_ERASE_MAGIC", scope_symbol_id = 77777 : i64} : (tensor<2x4096x1280xf16>, tensor<2x4096x1280xf16>) -> tensor<2x4096x1280xf16>
    %776 = "oneflow.broadcast_matmul"(%775, %output_677) {alpha = 1.000000e+00 : f64, device_name = ["@0:0"], device_tag = "cuda", hierarchy = [1], op_name = "ONEFLOW_ERASE_MAGIC", scope_symbol_id = 77777 : i64, transpose_a = false, transpose_b = true} : (tensor<2x4096x1280xf16>, tensor<320x1280xf16>) -> tensor<2x4096x320xf16>
    %777 = "oneflow.broadcast_add"(%776, %output_678) {device_name = ["@0:0"], device_tag = "cuda", hierarchy = [1], op_name = "ONEFLOW_ERASE_MAGIC", scope_symbol_id = 77777 : i64} : (tensor<2x4096x320xf16>, tensor<320xf16>) -> tensor<2x4096x320xf16>
    %778 = "oneflow.add_n2"(%777, %769) {device_name = ["@0:0"], device_tag = "cuda", hierarchy = [1], op_name = "ONEFLOW_ERASE_MAGIC", op_type_name = "add_n", scope_symbol_id = 77777 : i64} : (tensor<2x4096x320xf16>, tensor<2x4096x320xf16>) -> tensor<2x4096x320xf16>
    %779 = "oneflow.reshape"(%778) {device_name = ["@0:0"], device_tag = "cuda", hierarchy = [1], op_name = "ONEFLOW_ERASE_MAGIC", scope_symbol_id = 77777 : i64, shape = [2 : si64, 64 : si64, 64 : si64, 320 : si64]} : (tensor<2x4096x320xf16>) -> tensor<2x64x64x320xf16>
    %780 = "oneflow.conv2d"(%779, %output_679, %output_680) {data_format = "channels_last", device_name = ["@0:0"], device_tag = "cuda", dilation_rate = [1 : si32, 1 : si32], filters = 320 : si32, groups = 1 : si32, hierarchy = [1], kernel_size = [1 : si32, 1 : si32], op_name = "ONEFLOW_ERASE_MAGIC", operand_segment_sizes = dense<[1, 1, 1, 0]> : vector<4xi32>, padding_before = [0 : si32, 0 : si32], scope_symbol_id = 77777 : i64, strides = [1 : si32, 1 : si32]} : (tensor<2x64x64x320xf16>, tensor<320x1x1x320xf16>, tensor<320xf16>) -> tensor<2x64x64x320xf16>
    %781 = "oneflow.add_n2"(%780, %755) {device_name = ["@0:0"], device_tag = "cuda", hierarchy = [1], op_name = "ONEFLOW_ERASE_MAGIC", op_type_name = "add_n", scope_symbol_id = 77777 : i64} : (tensor<2x64x64x320xf16>, tensor<2x64x64x320xf16>) -> tensor<2x64x64x320xf16>
    %782 = "oneflow.cast"(%781) {device_name = ["@0:0"], device_tag = "cuda", dtype = 2 : i32, hierarchy = [1], op_name = "ONEFLOW_ERASE_MAGIC", pin_memory = false, scope_symbol_id = 77777 : i64} : (tensor<2x64x64x320xf16>) -> tensor<2x64x64x320xf32>
    %783 = "oneflow.cast"(%782) {device_name = ["@0:0"], device_tag = "cuda", dtype = 2 : i32, hierarchy = [1], op_name = "ONEFLOW_ERASE_MAGIC", pin_memory = false, scope_symbol_id = 77777 : i64} : (tensor<2x64x64x320xf32>) -> tensor<2x64x64x320xf32>
    %y_1009, %mean_1010, %inv_variance_1011 = "oneflow.group_norm"(%783, %2, %1) {activation = "none", affine = true, data_format = "channels_last", device_name = ["@0:0"], device_tag = "cuda", epsilon = 1.000000e-05 : f64, hierarchy = [1], num_groups = 32 : si32, op_name = "ONEFLOW_ERASE_MAGIC", operand_segment_sizes = dense<1> : vector<3xi32>, scope_symbol_id = 77777 : i64} : (tensor<2x64x64x320xf32>, tensor<320xf32>, tensor<320xf32>) -> (tensor<2x64x64x320xf32>, tensor<2x32xf32>, tensor<2x32xf32>)
    %784 = "oneflow.cast"(%y_1009) {device_name = ["@0:0"], device_tag = "cuda", dtype = 9 : i32, hierarchy = [1], op_name = "ONEFLOW_ERASE_MAGIC", pin_memory = false, scope_symbol_id = 77777 : i64} : (tensor<2x64x64x320xf32>) -> tensor<2x64x64x320xf16>
    %785 = "oneflow.silu"(%784) {device_name = ["@0:0"], device_tag = "cuda", hierarchy = [1], op_name = "ONEFLOW_ERASE_MAGIC", scope_symbol_id = 77777 : i64} : (tensor<2x64x64x320xf16>) -> tensor<2x64x64x320xf16>
    %786 = "oneflow.conv2d"(%785, %output_683, %output_684) {data_format = "channels_last", device_name = ["@0:0"], device_tag = "cuda", dilation_rate = [1 : si32, 1 : si32], filters = 4 : si32, groups = 1 : si32, hierarchy = [1], kernel_size = [3 : si32, 3 : si32], op_name = "ONEFLOW_ERASE_MAGIC", operand_segment_sizes = dense<[1, 1, 1, 0]> : vector<4xi32>, padding_before = [1 : si32, 1 : si32], scope_symbol_id = 77777 : i64, strides = [1 : si32, 1 : si32]} : (tensor<2x64x64x320xf16>, tensor<4x3x3x320xf16>, tensor<4xf16>) -> tensor<2x64x64x4xf16>
    %787 = "oneflow.transpose"(%786) {device_name = ["@0:0"], device_tag = "cuda", hierarchy = [1], op_name = "ONEFLOW_ERASE_MAGIC", perm = [0 : si32, 3 : si32, 1 : si32, 2 : si32], scope_symbol_id = 77777 : i64} : (tensor<2x64x64x4xf16>) -> tensor<2x4x64x64xf16>
    %output_1012 = "oneflow.output"(%787) {data_type = 9 : i32, device_name = ["@0:0"], device_tag = "cuda", hierarchy = [1], is_dynamic = false, nd_sbp = ["B"], op_name = "_UNetGraph_0_output.0.0_2", output_lbns = ["_UNetGraph_0_output.0.0_2/out"], scope_symbol_id = 12 : i64, shape = [2 : si64, 4 : si64, 64 : si64, 64 : si64]} : (tensor<2x4x64x64xf16>) -> tensor<2x4x64x64xf16>
    oneflow.return %output_1012 : tensor<2x4x64x64xf16>
  }
}

