module {
  oneflow.job @UNetGraph_0(%V: tensor<2x4x64x64xf16>, %V: tensor<si64>, %V: tensor<2x77x768xf16>) -> tensor<2x4x64x64xf16> {
    %V = "oneflow.variable"() {data_type = 9 : i32, device_name = ["@0:0"], device_tag = "cuda", hierarchy = [1], op_name = "unet.time_embedding.linear_1.weight", output_lbns = ["unet.time_embedding.linear_1.weight/out"], parallel = #sbp.parallel<[] -> [[#sbp.B]]>, scope_symbol_id = 83 : i64, shape = [1280 : si64, 320 : si64]} : () -> tensor<1280x320xf16>
    %V = "oneflow.variable"() {data_type = 9 : i32, device_name = ["@0:0"], device_tag = "cuda", hierarchy = [1], op_name = "unet.time_embedding.linear_1.bias", output_lbns = ["unet.time_embedding.linear_1.bias/out"], parallel = #sbp.parallel<[] -> [[#sbp.B]]>, scope_symbol_id = 90 : i64, shape = [1280 : si64]} : () -> tensor<1280xf16>
    %V = "oneflow.variable"() {data_type = 9 : i32, device_name = ["@0:0"], device_tag = "cuda", hierarchy = [1], op_name = "unet.time_embedding.linear_2.weight", output_lbns = ["unet.time_embedding.linear_2.weight/out"], parallel = #sbp.parallel<[] -> [[#sbp.B]]>, scope_symbol_id = 102 : i64, shape = [1280 : si64, 1280 : si64]} : () -> tensor<1280x1280xf16>
    %V = "oneflow.variable"() {data_type = 9 : i32, device_name = ["@0:0"], device_tag = "cuda", hierarchy = [1], op_name = "unet.time_embedding.linear_2.bias", output_lbns = ["unet.time_embedding.linear_2.bias/out"], parallel = #sbp.parallel<[] -> [[#sbp.B]]>, scope_symbol_id = 109 : i64, shape = [1280 : si64]} : () -> tensor<1280xf16>
    %V = "oneflow.variable"() {data_type = 9 : i32, device_name = ["@0:0"], device_tag = "cuda", hierarchy = [1], op_name = "variable_415", output_lbns = ["variable_415/out"], parallel = #sbp.parallel<[] -> [[#sbp.B]]>, scope_symbol_id = 117 : i64, shape = [320 : si64, 3 : si64, 3 : si64, 4 : si64]} : () -> tensor<320x3x3x4xf16>
    %V = "oneflow.variable"() {data_type = 9 : i32, device_name = ["@0:0"], device_tag = "cuda", hierarchy = [1], op_name = "unet.conv_in.bias", output_lbns = ["unet.conv_in.bias/out"], parallel = #sbp.parallel<[] -> [[#sbp.B]]>, scope_symbol_id = 121 : i64, shape = [320 : si64]} : () -> tensor<320xf16>
    %V = "oneflow.variable"() {data_type = 9 : i32, device_name = ["@0:0"], device_tag = "cuda", hierarchy = [1], op_name = "unet.down_blocks.0.resnets.0.norm1.weight", output_lbns = ["unet.down_blocks.0.resnets.0.norm1.weight/out"], parallel = #sbp.parallel<[] -> [[#sbp.B]]>, scope_symbol_id = 131 : i64, shape = [320 : si64]} : () -> tensor<320xf16>
    %V = "oneflow.variable"() {data_type = 9 : i32, device_name = ["@0:0"], device_tag = "cuda", hierarchy = [1], op_name = "unet.down_blocks.0.resnets.0.norm1.bias", output_lbns = ["unet.down_blocks.0.resnets.0.norm1.bias/out"], parallel = #sbp.parallel<[] -> [[#sbp.B]]>, scope_symbol_id = 135 : i64, shape = [320 : si64]} : () -> tensor<320xf16>
    %V = "oneflow.variable"() {data_type = 9 : i32, device_name = ["@0:0"], device_tag = "cuda", hierarchy = [1], op_name = "variable_414", output_lbns = ["variable_414/out"], parallel = #sbp.parallel<[] -> [[#sbp.B]]>, scope_symbol_id = 147 : i64, shape = [320 : si64, 3 : si64, 3 : si64, 320 : si64]} : () -> tensor<320x3x3x320xf16>
    %V = "oneflow.variable"() {data_type = 9 : i32, device_name = ["@0:0"], device_tag = "cuda", hierarchy = [1], op_name = "unet.down_blocks.0.resnets.0.conv1.bias", output_lbns = ["unet.down_blocks.0.resnets.0.conv1.bias/out"], parallel = #sbp.parallel<[] -> [[#sbp.B]]>, scope_symbol_id = 151 : i64, shape = [320 : si64]} : () -> tensor<320xf16>
    %V = "oneflow.variable"() {data_type = 9 : i32, device_name = ["@0:0"], device_tag = "cuda", hierarchy = [1], op_name = "unet.down_blocks.0.resnets.0.time_emb_proj.weight", output_lbns = ["unet.down_blocks.0.resnets.0.time_emb_proj.weight/out"], parallel = #sbp.parallel<[] -> [[#sbp.B]]>, scope_symbol_id = 162 : i64, shape = [320 : si64, 1280 : si64]} : () -> tensor<320x1280xf16>
    %V = "oneflow.variable"() {data_type = 9 : i32, device_name = ["@0:0"], device_tag = "cuda", hierarchy = [1], op_name = "unet.down_blocks.0.resnets.0.time_emb_proj.bias", output_lbns = ["unet.down_blocks.0.resnets.0.time_emb_proj.bias/out"], parallel = #sbp.parallel<[] -> [[#sbp.B]]>, scope_symbol_id = 169 : i64, shape = [320 : si64]} : () -> tensor<320xf16>
    %V = "oneflow.variable"() {data_type = 9 : i32, device_name = ["@0:0"], device_tag = "cuda", hierarchy = [1], op_name = "unet.down_blocks.0.resnets.0.norm2.weight", output_lbns = ["unet.down_blocks.0.resnets.0.norm2.weight/out"], parallel = #sbp.parallel<[] -> [[#sbp.B]]>, scope_symbol_id = 186 : i64, shape = [320 : si64]} : () -> tensor<320xf16>
    %V = "oneflow.variable"() {data_type = 9 : i32, device_name = ["@0:0"], device_tag = "cuda", hierarchy = [1], op_name = "unet.down_blocks.0.resnets.0.norm2.bias", output_lbns = ["unet.down_blocks.0.resnets.0.norm2.bias/out"], parallel = #sbp.parallel<[] -> [[#sbp.B]]>, scope_symbol_id = 190 : i64, shape = [320 : si64]} : () -> tensor<320xf16>
    %V = "oneflow.variable"() {data_type = 9 : i32, device_name = ["@0:0"], device_tag = "cuda", hierarchy = [1], op_name = "variable_413", output_lbns = ["variable_413/out"], parallel = #sbp.parallel<[] -> [[#sbp.B]]>, scope_symbol_id = 202 : i64, shape = [320 : si64, 3 : si64, 3 : si64, 320 : si64]} : () -> tensor<320x3x3x320xf16>
    %V = "oneflow.variable"() {data_type = 9 : i32, device_name = ["@0:0"], device_tag = "cuda", hierarchy = [1], op_name = "unet.down_blocks.0.resnets.0.conv2.bias", output_lbns = ["unet.down_blocks.0.resnets.0.conv2.bias/out"], parallel = #sbp.parallel<[] -> [[#sbp.B]]>, scope_symbol_id = 206 : i64, shape = [320 : si64]} : () -> tensor<320xf16>
    %V = "oneflow.variable"() {data_type = 9 : i32, device_name = ["@0:0"], device_tag = "cuda", hierarchy = [1], op_name = "unet.down_blocks.0.attentions.0.norm.weight", output_lbns = ["unet.down_blocks.0.attentions.0.norm.weight/out"], parallel = #sbp.parallel<[] -> [[#sbp.B]]>, scope_symbol_id = 221 : i64, shape = [320 : si64]} : () -> tensor<320xf16>
    %V = "oneflow.variable"() {data_type = 9 : i32, device_name = ["@0:0"], device_tag = "cuda", hierarchy = [1], op_name = "unet.down_blocks.0.attentions.0.norm.bias", output_lbns = ["unet.down_blocks.0.attentions.0.norm.bias/out"], parallel = #sbp.parallel<[] -> [[#sbp.B]]>, scope_symbol_id = 225 : i64, shape = [320 : si64]} : () -> tensor<320xf16>
    %V = "oneflow.variable"() {data_type = 9 : i32, device_name = ["@0:0"], device_tag = "cuda", hierarchy = [1], op_name = "variable_412", output_lbns = ["variable_412/out"], parallel = #sbp.parallel<[] -> [[#sbp.B]]>, scope_symbol_id = 233 : i64, shape = [320 : si64, 1 : si64, 1 : si64, 320 : si64]} : () -> tensor<320x1x1x320xf16>
    %V = "oneflow.variable"() {data_type = 9 : i32, device_name = ["@0:0"], device_tag = "cuda", hierarchy = [1], op_name = "unet.down_blocks.0.attentions.0.proj_in.bias", output_lbns = ["unet.down_blocks.0.attentions.0.proj_in.bias/out"], parallel = #sbp.parallel<[] -> [[#sbp.B]]>, scope_symbol_id = 237 : i64, shape = [320 : si64]} : () -> tensor<320xf16>
    %V = "oneflow.variable"() {data_type = 9 : i32, device_name = ["@0:0"], device_tag = "cuda", hierarchy = [1], op_name = "unet.down_blocks.0.attentions.0.transformer_blocks.0.norm1.weight", output_lbns = ["unet.down_blocks.0.attentions.0.transformer_blocks.0.norm1.weight/out"], parallel = #sbp.parallel<[] -> [[#sbp.B]]>, scope_symbol_id = 252 : i64, shape = [320 : si64]} : () -> tensor<320xf16>
    %V = "oneflow.variable"() {data_type = 9 : i32, device_name = ["@0:0"], device_tag = "cuda", hierarchy = [1], op_name = "unet.down_blocks.0.attentions.0.transformer_blocks.0.norm1.bias", output_lbns = ["unet.down_blocks.0.attentions.0.transformer_blocks.0.norm1.bias/out"], parallel = #sbp.parallel<[] -> [[#sbp.B]]>, scope_symbol_id = 256 : i64, shape = [320 : si64]} : () -> tensor<320xf16>
    %V = "oneflow.variable"() {data_type = 9 : i32, device_name = ["@0:0"], device_tag = "cuda", hierarchy = [1], op_name = "unet.down_blocks.0.attentions.0.transformer_blocks.0.attn1.to_q.weight", output_lbns = ["unet.down_blocks.0.attentions.0.transformer_blocks.0.attn1.to_q.weight/out"], parallel = #sbp.parallel<[] -> [[#sbp.B]]>, scope_symbol_id = 265 : i64, shape = [320 : si64, 320 : si64]} : () -> tensor<320x320xf16>
    %V = "oneflow.variable"() {data_type = 9 : i32, device_name = ["@0:0"], device_tag = "cuda", hierarchy = [1], op_name = "unet.down_blocks.0.attentions.0.transformer_blocks.0.attn1.to_k.weight", output_lbns = ["unet.down_blocks.0.attentions.0.transformer_blocks.0.attn1.to_k.weight/out"], parallel = #sbp.parallel<[] -> [[#sbp.B]]>, scope_symbol_id = 273 : i64, shape = [320 : si64, 320 : si64]} : () -> tensor<320x320xf16>
    %V = "oneflow.variable"() {data_type = 9 : i32, device_name = ["@0:0"], device_tag = "cuda", hierarchy = [1], op_name = "unet.down_blocks.0.attentions.0.transformer_blocks.0.attn1.to_v.weight", output_lbns = ["unet.down_blocks.0.attentions.0.transformer_blocks.0.attn1.to_v.weight/out"], parallel = #sbp.parallel<[] -> [[#sbp.B]]>, scope_symbol_id = 281 : i64, shape = [320 : si64, 320 : si64]} : () -> tensor<320x320xf16>
    %V = "oneflow.variable"() {data_type = 9 : i32, device_name = ["@0:0"], device_tag = "cuda", hierarchy = [1], op_name = "unet.down_blocks.0.attentions.0.transformer_blocks.0.attn1.to_out.0.weight", output_lbns = ["unet.down_blocks.0.attentions.0.transformer_blocks.0.attn1.to_out.0.weight/out"], parallel = #sbp.parallel<[] -> [[#sbp.B]]>, scope_symbol_id = 292 : i64, shape = [320 : si64, 320 : si64]} : () -> tensor<320x320xf16>
    %V = "oneflow.variable"() {data_type = 9 : i32, device_name = ["@0:0"], device_tag = "cuda", hierarchy = [1], op_name = "unet.down_blocks.0.attentions.0.transformer_blocks.0.attn1.to_out.0.bias", output_lbns = ["unet.down_blocks.0.attentions.0.transformer_blocks.0.attn1.to_out.0.bias/out"], parallel = #sbp.parallel<[] -> [[#sbp.B]]>, scope_symbol_id = 299 : i64, shape = [320 : si64]} : () -> tensor<320xf16>
    %V = "oneflow.variable"() {data_type = 9 : i32, device_name = ["@0:0"], device_tag = "cuda", hierarchy = [1], op_name = "unet.down_blocks.0.attentions.0.transformer_blocks.0.norm2.weight", output_lbns = ["unet.down_blocks.0.attentions.0.transformer_blocks.0.norm2.weight/out"], parallel = #sbp.parallel<[] -> [[#sbp.B]]>, scope_symbol_id = 311 : i64, shape = [320 : si64]} : () -> tensor<320xf16>
    %V = "oneflow.variable"() {data_type = 9 : i32, device_name = ["@0:0"], device_tag = "cuda", hierarchy = [1], op_name = "unet.down_blocks.0.attentions.0.transformer_blocks.0.norm2.bias", output_lbns = ["unet.down_blocks.0.attentions.0.transformer_blocks.0.norm2.bias/out"], parallel = #sbp.parallel<[] -> [[#sbp.B]]>, scope_symbol_id = 315 : i64, shape = [320 : si64]} : () -> tensor<320xf16>
    %V = "oneflow.variable"() {data_type = 9 : i32, device_name = ["@0:0"], device_tag = "cuda", hierarchy = [1], op_name = "unet.down_blocks.0.attentions.0.transformer_blocks.0.attn2.to_q.weight", output_lbns = ["unet.down_blocks.0.attentions.0.transformer_blocks.0.attn2.to_q.weight/out"], parallel = #sbp.parallel<[] -> [[#sbp.B]]>, scope_symbol_id = 324 : i64, shape = [320 : si64, 320 : si64]} : () -> tensor<320x320xf16>
    %V = "oneflow.variable"() {data_type = 9 : i32, device_name = ["@0:0"], device_tag = "cuda", hierarchy = [1], op_name = "unet.down_blocks.0.attentions.0.transformer_blocks.0.attn2.to_k.weight", output_lbns = ["unet.down_blocks.0.attentions.0.transformer_blocks.0.attn2.to_k.weight/out"], parallel = #sbp.parallel<[] -> [[#sbp.B]]>, scope_symbol_id = 332 : i64, shape = [320 : si64, 768 : si64]} : () -> tensor<320x768xf16>
    %V = "oneflow.variable"() {data_type = 9 : i32, device_name = ["@0:0"], device_tag = "cuda", hierarchy = [1], op_name = "unet.down_blocks.0.attentions.0.transformer_blocks.0.attn2.to_v.weight", output_lbns = ["unet.down_blocks.0.attentions.0.transformer_blocks.0.attn2.to_v.weight/out"], parallel = #sbp.parallel<[] -> [[#sbp.B]]>, scope_symbol_id = 340 : i64, shape = [320 : si64, 768 : si64]} : () -> tensor<320x768xf16>
    %V = "oneflow.variable"() {data_type = 9 : i32, device_name = ["@0:0"], device_tag = "cuda", hierarchy = [1], op_name = "unet.down_blocks.0.attentions.0.transformer_blocks.0.attn2.to_out.0.weight", output_lbns = ["unet.down_blocks.0.attentions.0.transformer_blocks.0.attn2.to_out.0.weight/out"], parallel = #sbp.parallel<[] -> [[#sbp.B]]>, scope_symbol_id = 351 : i64, shape = [320 : si64, 320 : si64]} : () -> tensor<320x320xf16>
    %V = "oneflow.variable"() {data_type = 9 : i32, device_name = ["@0:0"], device_tag = "cuda", hierarchy = [1], op_name = "unet.down_blocks.0.attentions.0.transformer_blocks.0.attn2.to_out.0.bias", output_lbns = ["unet.down_blocks.0.attentions.0.transformer_blocks.0.attn2.to_out.0.bias/out"], parallel = #sbp.parallel<[] -> [[#sbp.B]]>, scope_symbol_id = 358 : i64, shape = [320 : si64]} : () -> tensor<320xf16>
    %V = "oneflow.variable"() {data_type = 9 : i32, device_name = ["@0:0"], device_tag = "cuda", hierarchy = [1], op_name = "unet.down_blocks.0.attentions.0.transformer_blocks.0.norm3.weight", output_lbns = ["unet.down_blocks.0.attentions.0.transformer_blocks.0.norm3.weight/out"], parallel = #sbp.parallel<[] -> [[#sbp.B]]>, scope_symbol_id = 370 : i64, shape = [320 : si64]} : () -> tensor<320xf16>
    %V = "oneflow.variable"() {data_type = 9 : i32, device_name = ["@0:0"], device_tag = "cuda", hierarchy = [1], op_name = "unet.down_blocks.0.attentions.0.transformer_blocks.0.norm3.bias", output_lbns = ["unet.down_blocks.0.attentions.0.transformer_blocks.0.norm3.bias/out"], parallel = #sbp.parallel<[] -> [[#sbp.B]]>, scope_symbol_id = 374 : i64, shape = [320 : si64]} : () -> tensor<320xf16>
    %V = "oneflow.variable"() {data_type = 9 : i32, device_name = ["@0:0"], device_tag = "cuda", hierarchy = [1], op_name = "unet.down_blocks.0.attentions.0.transformer_blocks.0.ff.net.0.proj.weight", output_lbns = ["unet.down_blocks.0.attentions.0.transformer_blocks.0.ff.net.0.proj.weight/out"], parallel = #sbp.parallel<[] -> [[#sbp.B]]>, scope_symbol_id = 384 : i64, shape = [2560 : si64, 320 : si64]} : () -> tensor<2560x320xf16>
    %V = "oneflow.variable"() {data_type = 9 : i32, device_name = ["@0:0"], device_tag = "cuda", hierarchy = [1], op_name = "unet.down_blocks.0.attentions.0.transformer_blocks.0.ff.net.0.proj.bias", output_lbns = ["unet.down_blocks.0.attentions.0.transformer_blocks.0.ff.net.0.proj.bias/out"], parallel = #sbp.parallel<[] -> [[#sbp.B]]>, scope_symbol_id = 391 : i64, shape = [2560 : si64]} : () -> tensor<2560xf16>
    %V = "oneflow.variable"() {data_type = 9 : i32, device_name = ["@0:0"], device_tag = "cuda", hierarchy = [1], op_name = "unet.down_blocks.0.attentions.0.transformer_blocks.0.ff.net.2.weight", output_lbns = ["unet.down_blocks.0.attentions.0.transformer_blocks.0.ff.net.2.weight/out"], parallel = #sbp.parallel<[] -> [[#sbp.B]]>, scope_symbol_id = 412 : i64, shape = [320 : si64, 1280 : si64]} : () -> tensor<320x1280xf16>
    %V = "oneflow.variable"() {data_type = 9 : i32, device_name = ["@0:0"], device_tag = "cuda", hierarchy = [1], op_name = "unet.down_blocks.0.attentions.0.transformer_blocks.0.ff.net.2.bias", output_lbns = ["unet.down_blocks.0.attentions.0.transformer_blocks.0.ff.net.2.bias/out"], parallel = #sbp.parallel<[] -> [[#sbp.B]]>, scope_symbol_id = 419 : i64, shape = [320 : si64]} : () -> tensor<320xf16>
    %V = "oneflow.variable"() {data_type = 9 : i32, device_name = ["@0:0"], device_tag = "cuda", hierarchy = [1], op_name = "variable_411", output_lbns = ["variable_411/out"], parallel = #sbp.parallel<[] -> [[#sbp.B]]>, scope_symbol_id = 436 : i64, shape = [320 : si64, 1 : si64, 1 : si64, 320 : si64]} : () -> tensor<320x1x1x320xf16>
    %V = "oneflow.variable"() {data_type = 9 : i32, device_name = ["@0:0"], device_tag = "cuda", hierarchy = [1], op_name = "unet.down_blocks.0.attentions.0.proj_out.bias", output_lbns = ["unet.down_blocks.0.attentions.0.proj_out.bias/out"], parallel = #sbp.parallel<[] -> [[#sbp.B]]>, scope_symbol_id = 440 : i64, shape = [320 : si64]} : () -> tensor<320xf16>
    %V = "oneflow.variable"() {data_type = 9 : i32, device_name = ["@0:0"], device_tag = "cuda", hierarchy = [1], op_name = "unet.down_blocks.0.resnets.1.norm1.weight", output_lbns = ["unet.down_blocks.0.resnets.1.norm1.weight/out"], parallel = #sbp.parallel<[] -> [[#sbp.B]]>, scope_symbol_id = 452 : i64, shape = [320 : si64]} : () -> tensor<320xf16>
    %V = "oneflow.variable"() {data_type = 9 : i32, device_name = ["@0:0"], device_tag = "cuda", hierarchy = [1], op_name = "unet.down_blocks.0.resnets.1.norm1.bias", output_lbns = ["unet.down_blocks.0.resnets.1.norm1.bias/out"], parallel = #sbp.parallel<[] -> [[#sbp.B]]>, scope_symbol_id = 456 : i64, shape = [320 : si64]} : () -> tensor<320xf16>
    %V = "oneflow.variable"() {data_type = 9 : i32, device_name = ["@0:0"], device_tag = "cuda", hierarchy = [1], op_name = "variable_410", output_lbns = ["variable_410/out"], parallel = #sbp.parallel<[] -> [[#sbp.B]]>, scope_symbol_id = 468 : i64, shape = [320 : si64, 3 : si64, 3 : si64, 320 : si64]} : () -> tensor<320x3x3x320xf16>
    %V = "oneflow.variable"() {data_type = 9 : i32, device_name = ["@0:0"], device_tag = "cuda", hierarchy = [1], op_name = "unet.down_blocks.0.resnets.1.conv1.bias", output_lbns = ["unet.down_blocks.0.resnets.1.conv1.bias/out"], parallel = #sbp.parallel<[] -> [[#sbp.B]]>, scope_symbol_id = 472 : i64, shape = [320 : si64]} : () -> tensor<320xf16>
    %V = "oneflow.variable"() {data_type = 9 : i32, device_name = ["@0:0"], device_tag = "cuda", hierarchy = [1], op_name = "unet.down_blocks.0.resnets.1.time_emb_proj.weight", output_lbns = ["unet.down_blocks.0.resnets.1.time_emb_proj.weight/out"], parallel = #sbp.parallel<[] -> [[#sbp.B]]>, scope_symbol_id = 483 : i64, shape = [320 : si64, 1280 : si64]} : () -> tensor<320x1280xf16>
    %V = "oneflow.variable"() {data_type = 9 : i32, device_name = ["@0:0"], device_tag = "cuda", hierarchy = [1], op_name = "unet.down_blocks.0.resnets.1.time_emb_proj.bias", output_lbns = ["unet.down_blocks.0.resnets.1.time_emb_proj.bias/out"], parallel = #sbp.parallel<[] -> [[#sbp.B]]>, scope_symbol_id = 490 : i64, shape = [320 : si64]} : () -> tensor<320xf16>
    %V = "oneflow.variable"() {data_type = 9 : i32, device_name = ["@0:0"], device_tag = "cuda", hierarchy = [1], op_name = "unet.down_blocks.0.resnets.1.norm2.weight", output_lbns = ["unet.down_blocks.0.resnets.1.norm2.weight/out"], parallel = #sbp.parallel<[] -> [[#sbp.B]]>, scope_symbol_id = 507 : i64, shape = [320 : si64]} : () -> tensor<320xf16>
    %V = "oneflow.variable"() {data_type = 9 : i32, device_name = ["@0:0"], device_tag = "cuda", hierarchy = [1], op_name = "unet.down_blocks.0.resnets.1.norm2.bias", output_lbns = ["unet.down_blocks.0.resnets.1.norm2.bias/out"], parallel = #sbp.parallel<[] -> [[#sbp.B]]>, scope_symbol_id = 511 : i64, shape = [320 : si64]} : () -> tensor<320xf16>
    %V = "oneflow.variable"() {data_type = 9 : i32, device_name = ["@0:0"], device_tag = "cuda", hierarchy = [1], op_name = "variable_409", output_lbns = ["variable_409/out"], parallel = #sbp.parallel<[] -> [[#sbp.B]]>, scope_symbol_id = 523 : i64, shape = [320 : si64, 3 : si64, 3 : si64, 320 : si64]} : () -> tensor<320x3x3x320xf16>
    %V = "oneflow.variable"() {data_type = 9 : i32, device_name = ["@0:0"], device_tag = "cuda", hierarchy = [1], op_name = "unet.down_blocks.0.resnets.1.conv2.bias", output_lbns = ["unet.down_blocks.0.resnets.1.conv2.bias/out"], parallel = #sbp.parallel<[] -> [[#sbp.B]]>, scope_symbol_id = 527 : i64, shape = [320 : si64]} : () -> tensor<320xf16>
    %V = "oneflow.variable"() {data_type = 9 : i32, device_name = ["@0:0"], device_tag = "cuda", hierarchy = [1], op_name = "unet.down_blocks.0.attentions.1.norm.weight", output_lbns = ["unet.down_blocks.0.attentions.1.norm.weight/out"], parallel = #sbp.parallel<[] -> [[#sbp.B]]>, scope_symbol_id = 542 : i64, shape = [320 : si64]} : () -> tensor<320xf16>
    %V = "oneflow.variable"() {data_type = 9 : i32, device_name = ["@0:0"], device_tag = "cuda", hierarchy = [1], op_name = "unet.down_blocks.0.attentions.1.norm.bias", output_lbns = ["unet.down_blocks.0.attentions.1.norm.bias/out"], parallel = #sbp.parallel<[] -> [[#sbp.B]]>, scope_symbol_id = 546 : i64, shape = [320 : si64]} : () -> tensor<320xf16>
    %V = "oneflow.variable"() {data_type = 9 : i32, device_name = ["@0:0"], device_tag = "cuda", hierarchy = [1], op_name = "variable_408", output_lbns = ["variable_408/out"], parallel = #sbp.parallel<[] -> [[#sbp.B]]>, scope_symbol_id = 554 : i64, shape = [320 : si64, 1 : si64, 1 : si64, 320 : si64]} : () -> tensor<320x1x1x320xf16>
    %V = "oneflow.variable"() {data_type = 9 : i32, device_name = ["@0:0"], device_tag = "cuda", hierarchy = [1], op_name = "unet.down_blocks.0.attentions.1.proj_in.bias", output_lbns = ["unet.down_blocks.0.attentions.1.proj_in.bias/out"], parallel = #sbp.parallel<[] -> [[#sbp.B]]>, scope_symbol_id = 558 : i64, shape = [320 : si64]} : () -> tensor<320xf16>
    %V = "oneflow.variable"() {data_type = 9 : i32, device_name = ["@0:0"], device_tag = "cuda", hierarchy = [1], op_name = "unet.down_blocks.0.attentions.1.transformer_blocks.0.norm1.weight", output_lbns = ["unet.down_blocks.0.attentions.1.transformer_blocks.0.norm1.weight/out"], parallel = #sbp.parallel<[] -> [[#sbp.B]]>, scope_symbol_id = 573 : i64, shape = [320 : si64]} : () -> tensor<320xf16>
    %V = "oneflow.variable"() {data_type = 9 : i32, device_name = ["@0:0"], device_tag = "cuda", hierarchy = [1], op_name = "unet.down_blocks.0.attentions.1.transformer_blocks.0.norm1.bias", output_lbns = ["unet.down_blocks.0.attentions.1.transformer_blocks.0.norm1.bias/out"], parallel = #sbp.parallel<[] -> [[#sbp.B]]>, scope_symbol_id = 577 : i64, shape = [320 : si64]} : () -> tensor<320xf16>
    %V = "oneflow.variable"() {data_type = 9 : i32, device_name = ["@0:0"], device_tag = "cuda", hierarchy = [1], op_name = "unet.down_blocks.0.attentions.1.transformer_blocks.0.attn1.to_q.weight", output_lbns = ["unet.down_blocks.0.attentions.1.transformer_blocks.0.attn1.to_q.weight/out"], parallel = #sbp.parallel<[] -> [[#sbp.B]]>, scope_symbol_id = 586 : i64, shape = [320 : si64, 320 : si64]} : () -> tensor<320x320xf16>
    %V = "oneflow.variable"() {data_type = 9 : i32, device_name = ["@0:0"], device_tag = "cuda", hierarchy = [1], op_name = "unet.down_blocks.0.attentions.1.transformer_blocks.0.attn1.to_k.weight", output_lbns = ["unet.down_blocks.0.attentions.1.transformer_blocks.0.attn1.to_k.weight/out"], parallel = #sbp.parallel<[] -> [[#sbp.B]]>, scope_symbol_id = 594 : i64, shape = [320 : si64, 320 : si64]} : () -> tensor<320x320xf16>
    %V = "oneflow.variable"() {data_type = 9 : i32, device_name = ["@0:0"], device_tag = "cuda", hierarchy = [1], op_name = "unet.down_blocks.0.attentions.1.transformer_blocks.0.attn1.to_v.weight", output_lbns = ["unet.down_blocks.0.attentions.1.transformer_blocks.0.attn1.to_v.weight/out"], parallel = #sbp.parallel<[] -> [[#sbp.B]]>, scope_symbol_id = 602 : i64, shape = [320 : si64, 320 : si64]} : () -> tensor<320x320xf16>
    %V = "oneflow.variable"() {data_type = 9 : i32, device_name = ["@0:0"], device_tag = "cuda", hierarchy = [1], op_name = "unet.down_blocks.0.attentions.1.transformer_blocks.0.attn1.to_out.0.weight", output_lbns = ["unet.down_blocks.0.attentions.1.transformer_blocks.0.attn1.to_out.0.weight/out"], parallel = #sbp.parallel<[] -> [[#sbp.B]]>, scope_symbol_id = 613 : i64, shape = [320 : si64, 320 : si64]} : () -> tensor<320x320xf16>
    %V = "oneflow.variable"() {data_type = 9 : i32, device_name = ["@0:0"], device_tag = "cuda", hierarchy = [1], op_name = "unet.down_blocks.0.attentions.1.transformer_blocks.0.attn1.to_out.0.bias", output_lbns = ["unet.down_blocks.0.attentions.1.transformer_blocks.0.attn1.to_out.0.bias/out"], parallel = #sbp.parallel<[] -> [[#sbp.B]]>, scope_symbol_id = 620 : i64, shape = [320 : si64]} : () -> tensor<320xf16>
    %V = "oneflow.variable"() {data_type = 9 : i32, device_name = ["@0:0"], device_tag = "cuda", hierarchy = [1], op_name = "unet.down_blocks.0.attentions.1.transformer_blocks.0.norm2.weight", output_lbns = ["unet.down_blocks.0.attentions.1.transformer_blocks.0.norm2.weight/out"], parallel = #sbp.parallel<[] -> [[#sbp.B]]>, scope_symbol_id = 632 : i64, shape = [320 : si64]} : () -> tensor<320xf16>
    %V = "oneflow.variable"() {data_type = 9 : i32, device_name = ["@0:0"], device_tag = "cuda", hierarchy = [1], op_name = "unet.down_blocks.0.attentions.1.transformer_blocks.0.norm2.bias", output_lbns = ["unet.down_blocks.0.attentions.1.transformer_blocks.0.norm2.bias/out"], parallel = #sbp.parallel<[] -> [[#sbp.B]]>, scope_symbol_id = 636 : i64, shape = [320 : si64]} : () -> tensor<320xf16>
    %V = "oneflow.variable"() {data_type = 9 : i32, device_name = ["@0:0"], device_tag = "cuda", hierarchy = [1], op_name = "unet.down_blocks.0.attentions.1.transformer_blocks.0.attn2.to_q.weight", output_lbns = ["unet.down_blocks.0.attentions.1.transformer_blocks.0.attn2.to_q.weight/out"], parallel = #sbp.parallel<[] -> [[#sbp.B]]>, scope_symbol_id = 645 : i64, shape = [320 : si64, 320 : si64]} : () -> tensor<320x320xf16>
    %V = "oneflow.variable"() {data_type = 9 : i32, device_name = ["@0:0"], device_tag = "cuda", hierarchy = [1], op_name = "unet.down_blocks.0.attentions.1.transformer_blocks.0.attn2.to_k.weight", output_lbns = ["unet.down_blocks.0.attentions.1.transformer_blocks.0.attn2.to_k.weight/out"], parallel = #sbp.parallel<[] -> [[#sbp.B]]>, scope_symbol_id = 653 : i64, shape = [320 : si64, 768 : si64]} : () -> tensor<320x768xf16>
    %V = "oneflow.variable"() {data_type = 9 : i32, device_name = ["@0:0"], device_tag = "cuda", hierarchy = [1], op_name = "unet.down_blocks.0.attentions.1.transformer_blocks.0.attn2.to_v.weight", output_lbns = ["unet.down_blocks.0.attentions.1.transformer_blocks.0.attn2.to_v.weight/out"], parallel = #sbp.parallel<[] -> [[#sbp.B]]>, scope_symbol_id = 661 : i64, shape = [320 : si64, 768 : si64]} : () -> tensor<320x768xf16>
    %V = "oneflow.variable"() {data_type = 9 : i32, device_name = ["@0:0"], device_tag = "cuda", hierarchy = [1], op_name = "unet.down_blocks.0.attentions.1.transformer_blocks.0.attn2.to_out.0.weight", output_lbns = ["unet.down_blocks.0.attentions.1.transformer_blocks.0.attn2.to_out.0.weight/out"], parallel = #sbp.parallel<[] -> [[#sbp.B]]>, scope_symbol_id = 672 : i64, shape = [320 : si64, 320 : si64]} : () -> tensor<320x320xf16>
    %V = "oneflow.variable"() {data_type = 9 : i32, device_name = ["@0:0"], device_tag = "cuda", hierarchy = [1], op_name = "unet.down_blocks.0.attentions.1.transformer_blocks.0.attn2.to_out.0.bias", output_lbns = ["unet.down_blocks.0.attentions.1.transformer_blocks.0.attn2.to_out.0.bias/out"], parallel = #sbp.parallel<[] -> [[#sbp.B]]>, scope_symbol_id = 679 : i64, shape = [320 : si64]} : () -> tensor<320xf16>
    %V = "oneflow.variable"() {data_type = 9 : i32, device_name = ["@0:0"], device_tag = "cuda", hierarchy = [1], op_name = "unet.down_blocks.0.attentions.1.transformer_blocks.0.norm3.weight", output_lbns = ["unet.down_blocks.0.attentions.1.transformer_blocks.0.norm3.weight/out"], parallel = #sbp.parallel<[] -> [[#sbp.B]]>, scope_symbol_id = 691 : i64, shape = [320 : si64]} : () -> tensor<320xf16>
    %V = "oneflow.variable"() {data_type = 9 : i32, device_name = ["@0:0"], device_tag = "cuda", hierarchy = [1], op_name = "unet.down_blocks.0.attentions.1.transformer_blocks.0.norm3.bias", output_lbns = ["unet.down_blocks.0.attentions.1.transformer_blocks.0.norm3.bias/out"], parallel = #sbp.parallel<[] -> [[#sbp.B]]>, scope_symbol_id = 695 : i64, shape = [320 : si64]} : () -> tensor<320xf16>
    %V = "oneflow.variable"() {data_type = 9 : i32, device_name = ["@0:0"], device_tag = "cuda", hierarchy = [1], op_name = "unet.down_blocks.0.attentions.1.transformer_blocks.0.ff.net.0.proj.weight", output_lbns = ["unet.down_blocks.0.attentions.1.transformer_blocks.0.ff.net.0.proj.weight/out"], parallel = #sbp.parallel<[] -> [[#sbp.B]]>, scope_symbol_id = 705 : i64, shape = [2560 : si64, 320 : si64]} : () -> tensor<2560x320xf16>
    %V = "oneflow.variable"() {data_type = 9 : i32, device_name = ["@0:0"], device_tag = "cuda", hierarchy = [1], op_name = "unet.down_blocks.0.attentions.1.transformer_blocks.0.ff.net.0.proj.bias", output_lbns = ["unet.down_blocks.0.attentions.1.transformer_blocks.0.ff.net.0.proj.bias/out"], parallel = #sbp.parallel<[] -> [[#sbp.B]]>, scope_symbol_id = 712 : i64, shape = [2560 : si64]} : () -> tensor<2560xf16>
    %V = "oneflow.variable"() {data_type = 9 : i32, device_name = ["@0:0"], device_tag = "cuda", hierarchy = [1], op_name = "unet.down_blocks.0.attentions.1.transformer_blocks.0.ff.net.2.weight", output_lbns = ["unet.down_blocks.0.attentions.1.transformer_blocks.0.ff.net.2.weight/out"], parallel = #sbp.parallel<[] -> [[#sbp.B]]>, scope_symbol_id = 733 : i64, shape = [320 : si64, 1280 : si64]} : () -> tensor<320x1280xf16>
    %V = "oneflow.variable"() {data_type = 9 : i32, device_name = ["@0:0"], device_tag = "cuda", hierarchy = [1], op_name = "unet.down_blocks.0.attentions.1.transformer_blocks.0.ff.net.2.bias", output_lbns = ["unet.down_blocks.0.attentions.1.transformer_blocks.0.ff.net.2.bias/out"], parallel = #sbp.parallel<[] -> [[#sbp.B]]>, scope_symbol_id = 740 : i64, shape = [320 : si64]} : () -> tensor<320xf16>
    %V = "oneflow.variable"() {data_type = 9 : i32, device_name = ["@0:0"], device_tag = "cuda", hierarchy = [1], op_name = "variable_407", output_lbns = ["variable_407/out"], parallel = #sbp.parallel<[] -> [[#sbp.B]]>, scope_symbol_id = 757 : i64, shape = [320 : si64, 1 : si64, 1 : si64, 320 : si64]} : () -> tensor<320x1x1x320xf16>
    %V = "oneflow.variable"() {data_type = 9 : i32, device_name = ["@0:0"], device_tag = "cuda", hierarchy = [1], op_name = "unet.down_blocks.0.attentions.1.proj_out.bias", output_lbns = ["unet.down_blocks.0.attentions.1.proj_out.bias/out"], parallel = #sbp.parallel<[] -> [[#sbp.B]]>, scope_symbol_id = 761 : i64, shape = [320 : si64]} : () -> tensor<320xf16>
    %V = "oneflow.variable"() {data_type = 9 : i32, device_name = ["@0:0"], device_tag = "cuda", hierarchy = [1], op_name = "variable_406", output_lbns = ["variable_406/out"], parallel = #sbp.parallel<[] -> [[#sbp.B]]>, scope_symbol_id = 773 : i64, shape = [320 : si64, 3 : si64, 3 : si64, 320 : si64]} : () -> tensor<320x3x3x320xf16>
    %V = "oneflow.variable"() {data_type = 9 : i32, device_name = ["@0:0"], device_tag = "cuda", hierarchy = [1], op_name = "unet.down_blocks.0.downsamplers.0.conv.bias", output_lbns = ["unet.down_blocks.0.downsamplers.0.conv.bias/out"], parallel = #sbp.parallel<[] -> [[#sbp.B]]>, scope_symbol_id = 777 : i64, shape = [320 : si64]} : () -> tensor<320xf16>
    %V = "oneflow.variable"() {data_type = 9 : i32, device_name = ["@0:0"], device_tag = "cuda", hierarchy = [1], op_name = "unet.down_blocks.1.resnets.0.norm1.weight", output_lbns = ["unet.down_blocks.1.resnets.0.norm1.weight/out"], parallel = #sbp.parallel<[] -> [[#sbp.B]]>, scope_symbol_id = 787 : i64, shape = [320 : si64]} : () -> tensor<320xf16>
    %V = "oneflow.variable"() {data_type = 9 : i32, device_name = ["@0:0"], device_tag = "cuda", hierarchy = [1], op_name = "unet.down_blocks.1.resnets.0.norm1.bias", output_lbns = ["unet.down_blocks.1.resnets.0.norm1.bias/out"], parallel = #sbp.parallel<[] -> [[#sbp.B]]>, scope_symbol_id = 791 : i64, shape = [320 : si64]} : () -> tensor<320xf16>
    %V = "oneflow.variable"() {data_type = 9 : i32, device_name = ["@0:0"], device_tag = "cuda", hierarchy = [1], op_name = "variable_405", output_lbns = ["variable_405/out"], parallel = #sbp.parallel<[] -> [[#sbp.B]]>, scope_symbol_id = 803 : i64, shape = [640 : si64, 3 : si64, 3 : si64, 320 : si64]} : () -> tensor<640x3x3x320xf16>
    %V = "oneflow.variable"() {data_type = 9 : i32, device_name = ["@0:0"], device_tag = "cuda", hierarchy = [1], op_name = "unet.down_blocks.1.resnets.0.conv1.bias", output_lbns = ["unet.down_blocks.1.resnets.0.conv1.bias/out"], parallel = #sbp.parallel<[] -> [[#sbp.B]]>, scope_symbol_id = 807 : i64, shape = [640 : si64]} : () -> tensor<640xf16>
    %V = "oneflow.variable"() {data_type = 9 : i32, device_name = ["@0:0"], device_tag = "cuda", hierarchy = [1], op_name = "unet.down_blocks.1.resnets.0.time_emb_proj.weight", output_lbns = ["unet.down_blocks.1.resnets.0.time_emb_proj.weight/out"], parallel = #sbp.parallel<[] -> [[#sbp.B]]>, scope_symbol_id = 818 : i64, shape = [640 : si64, 1280 : si64]} : () -> tensor<640x1280xf16>
    %V = "oneflow.variable"() {data_type = 9 : i32, device_name = ["@0:0"], device_tag = "cuda", hierarchy = [1], op_name = "unet.down_blocks.1.resnets.0.time_emb_proj.bias", output_lbns = ["unet.down_blocks.1.resnets.0.time_emb_proj.bias/out"], parallel = #sbp.parallel<[] -> [[#sbp.B]]>, scope_symbol_id = 825 : i64, shape = [640 : si64]} : () -> tensor<640xf16>
    %V = "oneflow.variable"() {data_type = 9 : i32, device_name = ["@0:0"], device_tag = "cuda", hierarchy = [1], op_name = "unet.down_blocks.1.resnets.0.norm2.weight", output_lbns = ["unet.down_blocks.1.resnets.0.norm2.weight/out"], parallel = #sbp.parallel<[] -> [[#sbp.B]]>, scope_symbol_id = 842 : i64, shape = [640 : si64]} : () -> tensor<640xf16>
    %V = "oneflow.variable"() {data_type = 9 : i32, device_name = ["@0:0"], device_tag = "cuda", hierarchy = [1], op_name = "unet.down_blocks.1.resnets.0.norm2.bias", output_lbns = ["unet.down_blocks.1.resnets.0.norm2.bias/out"], parallel = #sbp.parallel<[] -> [[#sbp.B]]>, scope_symbol_id = 846 : i64, shape = [640 : si64]} : () -> tensor<640xf16>
    %V = "oneflow.variable"() {data_type = 9 : i32, device_name = ["@0:0"], device_tag = "cuda", hierarchy = [1], op_name = "variable_404", output_lbns = ["variable_404/out"], parallel = #sbp.parallel<[] -> [[#sbp.B]]>, scope_symbol_id = 858 : i64, shape = [640 : si64, 3 : si64, 3 : si64, 640 : si64]} : () -> tensor<640x3x3x640xf16>
    %V = "oneflow.variable"() {data_type = 9 : i32, device_name = ["@0:0"], device_tag = "cuda", hierarchy = [1], op_name = "unet.down_blocks.1.resnets.0.conv2.bias", output_lbns = ["unet.down_blocks.1.resnets.0.conv2.bias/out"], parallel = #sbp.parallel<[] -> [[#sbp.B]]>, scope_symbol_id = 862 : i64, shape = [640 : si64]} : () -> tensor<640xf16>
    %V = "oneflow.variable"() {data_type = 9 : i32, device_name = ["@0:0"], device_tag = "cuda", hierarchy = [1], op_name = "variable_403", output_lbns = ["variable_403/out"], parallel = #sbp.parallel<[] -> [[#sbp.B]]>, scope_symbol_id = 870 : i64, shape = [640 : si64, 1 : si64, 1 : si64, 320 : si64]} : () -> tensor<640x1x1x320xf16>
    %V = "oneflow.variable"() {data_type = 9 : i32, device_name = ["@0:0"], device_tag = "cuda", hierarchy = [1], op_name = "unet.down_blocks.1.resnets.0.conv_shortcut.bias", output_lbns = ["unet.down_blocks.1.resnets.0.conv_shortcut.bias/out"], parallel = #sbp.parallel<[] -> [[#sbp.B]]>, scope_symbol_id = 874 : i64, shape = [640 : si64]} : () -> tensor<640xf16>
    %V = "oneflow.variable"() {data_type = 9 : i32, device_name = ["@0:0"], device_tag = "cuda", hierarchy = [1], op_name = "unet.down_blocks.1.attentions.0.norm.weight", output_lbns = ["unet.down_blocks.1.attentions.0.norm.weight/out"], parallel = #sbp.parallel<[] -> [[#sbp.B]]>, scope_symbol_id = 889 : i64, shape = [640 : si64]} : () -> tensor<640xf16>
    %V = "oneflow.variable"() {data_type = 9 : i32, device_name = ["@0:0"], device_tag = "cuda", hierarchy = [1], op_name = "unet.down_blocks.1.attentions.0.norm.bias", output_lbns = ["unet.down_blocks.1.attentions.0.norm.bias/out"], parallel = #sbp.parallel<[] -> [[#sbp.B]]>, scope_symbol_id = 893 : i64, shape = [640 : si64]} : () -> tensor<640xf16>
    %V = "oneflow.variable"() {data_type = 9 : i32, device_name = ["@0:0"], device_tag = "cuda", hierarchy = [1], op_name = "variable_402", output_lbns = ["variable_402/out"], parallel = #sbp.parallel<[] -> [[#sbp.B]]>, scope_symbol_id = 901 : i64, shape = [640 : si64, 1 : si64, 1 : si64, 640 : si64]} : () -> tensor<640x1x1x640xf16>
    %V = "oneflow.variable"() {data_type = 9 : i32, device_name = ["@0:0"], device_tag = "cuda", hierarchy = [1], op_name = "unet.down_blocks.1.attentions.0.proj_in.bias", output_lbns = ["unet.down_blocks.1.attentions.0.proj_in.bias/out"], parallel = #sbp.parallel<[] -> [[#sbp.B]]>, scope_symbol_id = 905 : i64, shape = [640 : si64]} : () -> tensor<640xf16>
    %V = "oneflow.variable"() {data_type = 9 : i32, device_name = ["@0:0"], device_tag = "cuda", hierarchy = [1], op_name = "unet.down_blocks.1.attentions.0.transformer_blocks.0.norm1.weight", output_lbns = ["unet.down_blocks.1.attentions.0.transformer_blocks.0.norm1.weight/out"], parallel = #sbp.parallel<[] -> [[#sbp.B]]>, scope_symbol_id = 920 : i64, shape = [640 : si64]} : () -> tensor<640xf16>
    %V = "oneflow.variable"() {data_type = 9 : i32, device_name = ["@0:0"], device_tag = "cuda", hierarchy = [1], op_name = "unet.down_blocks.1.attentions.0.transformer_blocks.0.norm1.bias", output_lbns = ["unet.down_blocks.1.attentions.0.transformer_blocks.0.norm1.bias/out"], parallel = #sbp.parallel<[] -> [[#sbp.B]]>, scope_symbol_id = 924 : i64, shape = [640 : si64]} : () -> tensor<640xf16>
    %V = "oneflow.variable"() {data_type = 9 : i32, device_name = ["@0:0"], device_tag = "cuda", hierarchy = [1], op_name = "unet.down_blocks.1.attentions.0.transformer_blocks.0.attn1.to_q.weight", output_lbns = ["unet.down_blocks.1.attentions.0.transformer_blocks.0.attn1.to_q.weight/out"], parallel = #sbp.parallel<[] -> [[#sbp.B]]>, scope_symbol_id = 933 : i64, shape = [640 : si64, 640 : si64]} : () -> tensor<640x640xf16>
    %V = "oneflow.variable"() {data_type = 9 : i32, device_name = ["@0:0"], device_tag = "cuda", hierarchy = [1], op_name = "unet.down_blocks.1.attentions.0.transformer_blocks.0.attn1.to_k.weight", output_lbns = ["unet.down_blocks.1.attentions.0.transformer_blocks.0.attn1.to_k.weight/out"], parallel = #sbp.parallel<[] -> [[#sbp.B]]>, scope_symbol_id = 941 : i64, shape = [640 : si64, 640 : si64]} : () -> tensor<640x640xf16>
    %V = "oneflow.variable"() {data_type = 9 : i32, device_name = ["@0:0"], device_tag = "cuda", hierarchy = [1], op_name = "unet.down_blocks.1.attentions.0.transformer_blocks.0.attn1.to_v.weight", output_lbns = ["unet.down_blocks.1.attentions.0.transformer_blocks.0.attn1.to_v.weight/out"], parallel = #sbp.parallel<[] -> [[#sbp.B]]>, scope_symbol_id = 949 : i64, shape = [640 : si64, 640 : si64]} : () -> tensor<640x640xf16>
    %V = "oneflow.variable"() {data_type = 9 : i32, device_name = ["@0:0"], device_tag = "cuda", hierarchy = [1], op_name = "unet.down_blocks.1.attentions.0.transformer_blocks.0.attn1.to_out.0.weight", output_lbns = ["unet.down_blocks.1.attentions.0.transformer_blocks.0.attn1.to_out.0.weight/out"], parallel = #sbp.parallel<[] -> [[#sbp.B]]>, scope_symbol_id = 960 : i64, shape = [640 : si64, 640 : si64]} : () -> tensor<640x640xf16>
    %V = "oneflow.variable"() {data_type = 9 : i32, device_name = ["@0:0"], device_tag = "cuda", hierarchy = [1], op_name = "unet.down_blocks.1.attentions.0.transformer_blocks.0.attn1.to_out.0.bias", output_lbns = ["unet.down_blocks.1.attentions.0.transformer_blocks.0.attn1.to_out.0.bias/out"], parallel = #sbp.parallel<[] -> [[#sbp.B]]>, scope_symbol_id = 967 : i64, shape = [640 : si64]} : () -> tensor<640xf16>
    %V = "oneflow.variable"() {data_type = 9 : i32, device_name = ["@0:0"], device_tag = "cuda", hierarchy = [1], op_name = "unet.down_blocks.1.attentions.0.transformer_blocks.0.norm2.weight", output_lbns = ["unet.down_blocks.1.attentions.0.transformer_blocks.0.norm2.weight/out"], parallel = #sbp.parallel<[] -> [[#sbp.B]]>, scope_symbol_id = 979 : i64, shape = [640 : si64]} : () -> tensor<640xf16>
    %V = "oneflow.variable"() {data_type = 9 : i32, device_name = ["@0:0"], device_tag = "cuda", hierarchy = [1], op_name = "unet.down_blocks.1.attentions.0.transformer_blocks.0.norm2.bias", output_lbns = ["unet.down_blocks.1.attentions.0.transformer_blocks.0.norm2.bias/out"], parallel = #sbp.parallel<[] -> [[#sbp.B]]>, scope_symbol_id = 983 : i64, shape = [640 : si64]} : () -> tensor<640xf16>
    %V = "oneflow.variable"() {data_type = 9 : i32, device_name = ["@0:0"], device_tag = "cuda", hierarchy = [1], op_name = "unet.down_blocks.1.attentions.0.transformer_blocks.0.attn2.to_q.weight", output_lbns = ["unet.down_blocks.1.attentions.0.transformer_blocks.0.attn2.to_q.weight/out"], parallel = #sbp.parallel<[] -> [[#sbp.B]]>, scope_symbol_id = 992 : i64, shape = [640 : si64, 640 : si64]} : () -> tensor<640x640xf16>
    %V = "oneflow.variable"() {data_type = 9 : i32, device_name = ["@0:0"], device_tag = "cuda", hierarchy = [1], op_name = "unet.down_blocks.1.attentions.0.transformer_blocks.0.attn2.to_k.weight", output_lbns = ["unet.down_blocks.1.attentions.0.transformer_blocks.0.attn2.to_k.weight/out"], parallel = #sbp.parallel<[] -> [[#sbp.B]]>, scope_symbol_id = 1000 : i64, shape = [640 : si64, 768 : si64]} : () -> tensor<640x768xf16>
    %V = "oneflow.variable"() {data_type = 9 : i32, device_name = ["@0:0"], device_tag = "cuda", hierarchy = [1], op_name = "unet.down_blocks.1.attentions.0.transformer_blocks.0.attn2.to_v.weight", output_lbns = ["unet.down_blocks.1.attentions.0.transformer_blocks.0.attn2.to_v.weight/out"], parallel = #sbp.parallel<[] -> [[#sbp.B]]>, scope_symbol_id = 1008 : i64, shape = [640 : si64, 768 : si64]} : () -> tensor<640x768xf16>
    %V = "oneflow.variable"() {data_type = 9 : i32, device_name = ["@0:0"], device_tag = "cuda", hierarchy = [1], op_name = "unet.down_blocks.1.attentions.0.transformer_blocks.0.attn2.to_out.0.weight", output_lbns = ["unet.down_blocks.1.attentions.0.transformer_blocks.0.attn2.to_out.0.weight/out"], parallel = #sbp.parallel<[] -> [[#sbp.B]]>, scope_symbol_id = 1019 : i64, shape = [640 : si64, 640 : si64]} : () -> tensor<640x640xf16>
    %V = "oneflow.variable"() {data_type = 9 : i32, device_name = ["@0:0"], device_tag = "cuda", hierarchy = [1], op_name = "unet.down_blocks.1.attentions.0.transformer_blocks.0.attn2.to_out.0.bias", output_lbns = ["unet.down_blocks.1.attentions.0.transformer_blocks.0.attn2.to_out.0.bias/out"], parallel = #sbp.parallel<[] -> [[#sbp.B]]>, scope_symbol_id = 1026 : i64, shape = [640 : si64]} : () -> tensor<640xf16>
    %V = "oneflow.variable"() {data_type = 9 : i32, device_name = ["@0:0"], device_tag = "cuda", hierarchy = [1], op_name = "unet.down_blocks.1.attentions.0.transformer_blocks.0.norm3.weight", output_lbns = ["unet.down_blocks.1.attentions.0.transformer_blocks.0.norm3.weight/out"], parallel = #sbp.parallel<[] -> [[#sbp.B]]>, scope_symbol_id = 1038 : i64, shape = [640 : si64]} : () -> tensor<640xf16>
    %V = "oneflow.variable"() {data_type = 9 : i32, device_name = ["@0:0"], device_tag = "cuda", hierarchy = [1], op_name = "unet.down_blocks.1.attentions.0.transformer_blocks.0.norm3.bias", output_lbns = ["unet.down_blocks.1.attentions.0.transformer_blocks.0.norm3.bias/out"], parallel = #sbp.parallel<[] -> [[#sbp.B]]>, scope_symbol_id = 1042 : i64, shape = [640 : si64]} : () -> tensor<640xf16>
    %V = "oneflow.variable"() {data_type = 9 : i32, device_name = ["@0:0"], device_tag = "cuda", hierarchy = [1], op_name = "unet.down_blocks.1.attentions.0.transformer_blocks.0.ff.net.0.proj.weight", output_lbns = ["unet.down_blocks.1.attentions.0.transformer_blocks.0.ff.net.0.proj.weight/out"], parallel = #sbp.parallel<[] -> [[#sbp.B]]>, scope_symbol_id = 1052 : i64, shape = [5120 : si64, 640 : si64]} : () -> tensor<5120x640xf16>
    %V = "oneflow.variable"() {data_type = 9 : i32, device_name = ["@0:0"], device_tag = "cuda", hierarchy = [1], op_name = "unet.down_blocks.1.attentions.0.transformer_blocks.0.ff.net.0.proj.bias", output_lbns = ["unet.down_blocks.1.attentions.0.transformer_blocks.0.ff.net.0.proj.bias/out"], parallel = #sbp.parallel<[] -> [[#sbp.B]]>, scope_symbol_id = 1059 : i64, shape = [5120 : si64]} : () -> tensor<5120xf16>
    %V = "oneflow.variable"() {data_type = 9 : i32, device_name = ["@0:0"], device_tag = "cuda", hierarchy = [1], op_name = "unet.down_blocks.1.attentions.0.transformer_blocks.0.ff.net.2.weight", output_lbns = ["unet.down_blocks.1.attentions.0.transformer_blocks.0.ff.net.2.weight/out"], parallel = #sbp.parallel<[] -> [[#sbp.B]]>, scope_symbol_id = 1080 : i64, shape = [640 : si64, 2560 : si64]} : () -> tensor<640x2560xf16>
    %V = "oneflow.variable"() {data_type = 9 : i32, device_name = ["@0:0"], device_tag = "cuda", hierarchy = [1], op_name = "unet.down_blocks.1.attentions.0.transformer_blocks.0.ff.net.2.bias", output_lbns = ["unet.down_blocks.1.attentions.0.transformer_blocks.0.ff.net.2.bias/out"], parallel = #sbp.parallel<[] -> [[#sbp.B]]>, scope_symbol_id = 1087 : i64, shape = [640 : si64]} : () -> tensor<640xf16>
    %V = "oneflow.variable"() {data_type = 9 : i32, device_name = ["@0:0"], device_tag = "cuda", hierarchy = [1], op_name = "variable_401", output_lbns = ["variable_401/out"], parallel = #sbp.parallel<[] -> [[#sbp.B]]>, scope_symbol_id = 1104 : i64, shape = [640 : si64, 1 : si64, 1 : si64, 640 : si64]} : () -> tensor<640x1x1x640xf16>
    %V = "oneflow.variable"() {data_type = 9 : i32, device_name = ["@0:0"], device_tag = "cuda", hierarchy = [1], op_name = "unet.down_blocks.1.attentions.0.proj_out.bias", output_lbns = ["unet.down_blocks.1.attentions.0.proj_out.bias/out"], parallel = #sbp.parallel<[] -> [[#sbp.B]]>, scope_symbol_id = 1108 : i64, shape = [640 : si64]} : () -> tensor<640xf16>
    %V = "oneflow.variable"() {data_type = 9 : i32, device_name = ["@0:0"], device_tag = "cuda", hierarchy = [1], op_name = "unet.down_blocks.1.resnets.1.norm1.weight", output_lbns = ["unet.down_blocks.1.resnets.1.norm1.weight/out"], parallel = #sbp.parallel<[] -> [[#sbp.B]]>, scope_symbol_id = 1120 : i64, shape = [640 : si64]} : () -> tensor<640xf16>
    %V = "oneflow.variable"() {data_type = 9 : i32, device_name = ["@0:0"], device_tag = "cuda", hierarchy = [1], op_name = "unet.down_blocks.1.resnets.1.norm1.bias", output_lbns = ["unet.down_blocks.1.resnets.1.norm1.bias/out"], parallel = #sbp.parallel<[] -> [[#sbp.B]]>, scope_symbol_id = 1124 : i64, shape = [640 : si64]} : () -> tensor<640xf16>
    %V = "oneflow.variable"() {data_type = 9 : i32, device_name = ["@0:0"], device_tag = "cuda", hierarchy = [1], op_name = "variable_400", output_lbns = ["variable_400/out"], parallel = #sbp.parallel<[] -> [[#sbp.B]]>, scope_symbol_id = 1136 : i64, shape = [640 : si64, 3 : si64, 3 : si64, 640 : si64]} : () -> tensor<640x3x3x640xf16>
    %V = "oneflow.variable"() {data_type = 9 : i32, device_name = ["@0:0"], device_tag = "cuda", hierarchy = [1], op_name = "unet.down_blocks.1.resnets.1.conv1.bias", output_lbns = ["unet.down_blocks.1.resnets.1.conv1.bias/out"], parallel = #sbp.parallel<[] -> [[#sbp.B]]>, scope_symbol_id = 1140 : i64, shape = [640 : si64]} : () -> tensor<640xf16>
    %V = "oneflow.variable"() {data_type = 9 : i32, device_name = ["@0:0"], device_tag = "cuda", hierarchy = [1], op_name = "unet.down_blocks.1.resnets.1.time_emb_proj.weight", output_lbns = ["unet.down_blocks.1.resnets.1.time_emb_proj.weight/out"], parallel = #sbp.parallel<[] -> [[#sbp.B]]>, scope_symbol_id = 1151 : i64, shape = [640 : si64, 1280 : si64]} : () -> tensor<640x1280xf16>
    %V = "oneflow.variable"() {data_type = 9 : i32, device_name = ["@0:0"], device_tag = "cuda", hierarchy = [1], op_name = "unet.down_blocks.1.resnets.1.time_emb_proj.bias", output_lbns = ["unet.down_blocks.1.resnets.1.time_emb_proj.bias/out"], parallel = #sbp.parallel<[] -> [[#sbp.B]]>, scope_symbol_id = 1158 : i64, shape = [640 : si64]} : () -> tensor<640xf16>
    %V = "oneflow.variable"() {data_type = 9 : i32, device_name = ["@0:0"], device_tag = "cuda", hierarchy = [1], op_name = "unet.down_blocks.1.resnets.1.norm2.weight", output_lbns = ["unet.down_blocks.1.resnets.1.norm2.weight/out"], parallel = #sbp.parallel<[] -> [[#sbp.B]]>, scope_symbol_id = 1175 : i64, shape = [640 : si64]} : () -> tensor<640xf16>
    %V = "oneflow.variable"() {data_type = 9 : i32, device_name = ["@0:0"], device_tag = "cuda", hierarchy = [1], op_name = "unet.down_blocks.1.resnets.1.norm2.bias", output_lbns = ["unet.down_blocks.1.resnets.1.norm2.bias/out"], parallel = #sbp.parallel<[] -> [[#sbp.B]]>, scope_symbol_id = 1179 : i64, shape = [640 : si64]} : () -> tensor<640xf16>
    %V = "oneflow.variable"() {data_type = 9 : i32, device_name = ["@0:0"], device_tag = "cuda", hierarchy = [1], op_name = "variable_399", output_lbns = ["variable_399/out"], parallel = #sbp.parallel<[] -> [[#sbp.B]]>, scope_symbol_id = 1191 : i64, shape = [640 : si64, 3 : si64, 3 : si64, 640 : si64]} : () -> tensor<640x3x3x640xf16>
    %V = "oneflow.variable"() {data_type = 9 : i32, device_name = ["@0:0"], device_tag = "cuda", hierarchy = [1], op_name = "unet.down_blocks.1.resnets.1.conv2.bias", output_lbns = ["unet.down_blocks.1.resnets.1.conv2.bias/out"], parallel = #sbp.parallel<[] -> [[#sbp.B]]>, scope_symbol_id = 1195 : i64, shape = [640 : si64]} : () -> tensor<640xf16>
    %V = "oneflow.variable"() {data_type = 9 : i32, device_name = ["@0:0"], device_tag = "cuda", hierarchy = [1], op_name = "unet.down_blocks.1.attentions.1.norm.weight", output_lbns = ["unet.down_blocks.1.attentions.1.norm.weight/out"], parallel = #sbp.parallel<[] -> [[#sbp.B]]>, scope_symbol_id = 1210 : i64, shape = [640 : si64]} : () -> tensor<640xf16>
    %V = "oneflow.variable"() {data_type = 9 : i32, device_name = ["@0:0"], device_tag = "cuda", hierarchy = [1], op_name = "unet.down_blocks.1.attentions.1.norm.bias", output_lbns = ["unet.down_blocks.1.attentions.1.norm.bias/out"], parallel = #sbp.parallel<[] -> [[#sbp.B]]>, scope_symbol_id = 1214 : i64, shape = [640 : si64]} : () -> tensor<640xf16>
    %V = "oneflow.variable"() {data_type = 9 : i32, device_name = ["@0:0"], device_tag = "cuda", hierarchy = [1], op_name = "variable_398", output_lbns = ["variable_398/out"], parallel = #sbp.parallel<[] -> [[#sbp.B]]>, scope_symbol_id = 1222 : i64, shape = [640 : si64, 1 : si64, 1 : si64, 640 : si64]} : () -> tensor<640x1x1x640xf16>
    %V = "oneflow.variable"() {data_type = 9 : i32, device_name = ["@0:0"], device_tag = "cuda", hierarchy = [1], op_name = "unet.down_blocks.1.attentions.1.proj_in.bias", output_lbns = ["unet.down_blocks.1.attentions.1.proj_in.bias/out"], parallel = #sbp.parallel<[] -> [[#sbp.B]]>, scope_symbol_id = 1226 : i64, shape = [640 : si64]} : () -> tensor<640xf16>
    %V = "oneflow.variable"() {data_type = 9 : i32, device_name = ["@0:0"], device_tag = "cuda", hierarchy = [1], op_name = "unet.down_blocks.1.attentions.1.transformer_blocks.0.norm1.weight", output_lbns = ["unet.down_blocks.1.attentions.1.transformer_blocks.0.norm1.weight/out"], parallel = #sbp.parallel<[] -> [[#sbp.B]]>, scope_symbol_id = 1241 : i64, shape = [640 : si64]} : () -> tensor<640xf16>
    %V = "oneflow.variable"() {data_type = 9 : i32, device_name = ["@0:0"], device_tag = "cuda", hierarchy = [1], op_name = "unet.down_blocks.1.attentions.1.transformer_blocks.0.norm1.bias", output_lbns = ["unet.down_blocks.1.attentions.1.transformer_blocks.0.norm1.bias/out"], parallel = #sbp.parallel<[] -> [[#sbp.B]]>, scope_symbol_id = 1245 : i64, shape = [640 : si64]} : () -> tensor<640xf16>
    %V = "oneflow.variable"() {data_type = 9 : i32, device_name = ["@0:0"], device_tag = "cuda", hierarchy = [1], op_name = "unet.down_blocks.1.attentions.1.transformer_blocks.0.attn1.to_q.weight", output_lbns = ["unet.down_blocks.1.attentions.1.transformer_blocks.0.attn1.to_q.weight/out"], parallel = #sbp.parallel<[] -> [[#sbp.B]]>, scope_symbol_id = 1254 : i64, shape = [640 : si64, 640 : si64]} : () -> tensor<640x640xf16>
    %V = "oneflow.variable"() {data_type = 9 : i32, device_name = ["@0:0"], device_tag = "cuda", hierarchy = [1], op_name = "unet.down_blocks.1.attentions.1.transformer_blocks.0.attn1.to_k.weight", output_lbns = ["unet.down_blocks.1.attentions.1.transformer_blocks.0.attn1.to_k.weight/out"], parallel = #sbp.parallel<[] -> [[#sbp.B]]>, scope_symbol_id = 1262 : i64, shape = [640 : si64, 640 : si64]} : () -> tensor<640x640xf16>
    %V = "oneflow.variable"() {data_type = 9 : i32, device_name = ["@0:0"], device_tag = "cuda", hierarchy = [1], op_name = "unet.down_blocks.1.attentions.1.transformer_blocks.0.attn1.to_v.weight", output_lbns = ["unet.down_blocks.1.attentions.1.transformer_blocks.0.attn1.to_v.weight/out"], parallel = #sbp.parallel<[] -> [[#sbp.B]]>, scope_symbol_id = 1270 : i64, shape = [640 : si64, 640 : si64]} : () -> tensor<640x640xf16>
    %V = "oneflow.variable"() {data_type = 9 : i32, device_name = ["@0:0"], device_tag = "cuda", hierarchy = [1], op_name = "unet.down_blocks.1.attentions.1.transformer_blocks.0.attn1.to_out.0.weight", output_lbns = ["unet.down_blocks.1.attentions.1.transformer_blocks.0.attn1.to_out.0.weight/out"], parallel = #sbp.parallel<[] -> [[#sbp.B]]>, scope_symbol_id = 1281 : i64, shape = [640 : si64, 640 : si64]} : () -> tensor<640x640xf16>
    %V = "oneflow.variable"() {data_type = 9 : i32, device_name = ["@0:0"], device_tag = "cuda", hierarchy = [1], op_name = "unet.down_blocks.1.attentions.1.transformer_blocks.0.attn1.to_out.0.bias", output_lbns = ["unet.down_blocks.1.attentions.1.transformer_blocks.0.attn1.to_out.0.bias/out"], parallel = #sbp.parallel<[] -> [[#sbp.B]]>, scope_symbol_id = 1288 : i64, shape = [640 : si64]} : () -> tensor<640xf16>
    %V = "oneflow.variable"() {data_type = 9 : i32, device_name = ["@0:0"], device_tag = "cuda", hierarchy = [1], op_name = "unet.down_blocks.1.attentions.1.transformer_blocks.0.norm2.weight", output_lbns = ["unet.down_blocks.1.attentions.1.transformer_blocks.0.norm2.weight/out"], parallel = #sbp.parallel<[] -> [[#sbp.B]]>, scope_symbol_id = 1300 : i64, shape = [640 : si64]} : () -> tensor<640xf16>
    %V = "oneflow.variable"() {data_type = 9 : i32, device_name = ["@0:0"], device_tag = "cuda", hierarchy = [1], op_name = "unet.down_blocks.1.attentions.1.transformer_blocks.0.norm2.bias", output_lbns = ["unet.down_blocks.1.attentions.1.transformer_blocks.0.norm2.bias/out"], parallel = #sbp.parallel<[] -> [[#sbp.B]]>, scope_symbol_id = 1304 : i64, shape = [640 : si64]} : () -> tensor<640xf16>
    %V = "oneflow.variable"() {data_type = 9 : i32, device_name = ["@0:0"], device_tag = "cuda", hierarchy = [1], op_name = "unet.down_blocks.1.attentions.1.transformer_blocks.0.attn2.to_q.weight", output_lbns = ["unet.down_blocks.1.attentions.1.transformer_blocks.0.attn2.to_q.weight/out"], parallel = #sbp.parallel<[] -> [[#sbp.B]]>, scope_symbol_id = 1313 : i64, shape = [640 : si64, 640 : si64]} : () -> tensor<640x640xf16>
    %V = "oneflow.variable"() {data_type = 9 : i32, device_name = ["@0:0"], device_tag = "cuda", hierarchy = [1], op_name = "unet.down_blocks.1.attentions.1.transformer_blocks.0.attn2.to_k.weight", output_lbns = ["unet.down_blocks.1.attentions.1.transformer_blocks.0.attn2.to_k.weight/out"], parallel = #sbp.parallel<[] -> [[#sbp.B]]>, scope_symbol_id = 1321 : i64, shape = [640 : si64, 768 : si64]} : () -> tensor<640x768xf16>
    %V = "oneflow.variable"() {data_type = 9 : i32, device_name = ["@0:0"], device_tag = "cuda", hierarchy = [1], op_name = "unet.down_blocks.1.attentions.1.transformer_blocks.0.attn2.to_v.weight", output_lbns = ["unet.down_blocks.1.attentions.1.transformer_blocks.0.attn2.to_v.weight/out"], parallel = #sbp.parallel<[] -> [[#sbp.B]]>, scope_symbol_id = 1329 : i64, shape = [640 : si64, 768 : si64]} : () -> tensor<640x768xf16>
    %V = "oneflow.variable"() {data_type = 9 : i32, device_name = ["@0:0"], device_tag = "cuda", hierarchy = [1], op_name = "unet.down_blocks.1.attentions.1.transformer_blocks.0.attn2.to_out.0.weight", output_lbns = ["unet.down_blocks.1.attentions.1.transformer_blocks.0.attn2.to_out.0.weight/out"], parallel = #sbp.parallel<[] -> [[#sbp.B]]>, scope_symbol_id = 1340 : i64, shape = [640 : si64, 640 : si64]} : () -> tensor<640x640xf16>
    %V = "oneflow.variable"() {data_type = 9 : i32, device_name = ["@0:0"], device_tag = "cuda", hierarchy = [1], op_name = "unet.down_blocks.1.attentions.1.transformer_blocks.0.attn2.to_out.0.bias", output_lbns = ["unet.down_blocks.1.attentions.1.transformer_blocks.0.attn2.to_out.0.bias/out"], parallel = #sbp.parallel<[] -> [[#sbp.B]]>, scope_symbol_id = 1347 : i64, shape = [640 : si64]} : () -> tensor<640xf16>
    %V = "oneflow.variable"() {data_type = 9 : i32, device_name = ["@0:0"], device_tag = "cuda", hierarchy = [1], op_name = "unet.down_blocks.1.attentions.1.transformer_blocks.0.norm3.weight", output_lbns = ["unet.down_blocks.1.attentions.1.transformer_blocks.0.norm3.weight/out"], parallel = #sbp.parallel<[] -> [[#sbp.B]]>, scope_symbol_id = 1359 : i64, shape = [640 : si64]} : () -> tensor<640xf16>
    %V = "oneflow.variable"() {data_type = 9 : i32, device_name = ["@0:0"], device_tag = "cuda", hierarchy = [1], op_name = "unet.down_blocks.1.attentions.1.transformer_blocks.0.norm3.bias", output_lbns = ["unet.down_blocks.1.attentions.1.transformer_blocks.0.norm3.bias/out"], parallel = #sbp.parallel<[] -> [[#sbp.B]]>, scope_symbol_id = 1363 : i64, shape = [640 : si64]} : () -> tensor<640xf16>
    %V = "oneflow.variable"() {data_type = 9 : i32, device_name = ["@0:0"], device_tag = "cuda", hierarchy = [1], op_name = "unet.down_blocks.1.attentions.1.transformer_blocks.0.ff.net.0.proj.weight", output_lbns = ["unet.down_blocks.1.attentions.1.transformer_blocks.0.ff.net.0.proj.weight/out"], parallel = #sbp.parallel<[] -> [[#sbp.B]]>, scope_symbol_id = 1373 : i64, shape = [5120 : si64, 640 : si64]} : () -> tensor<5120x640xf16>
    %V = "oneflow.variable"() {data_type = 9 : i32, device_name = ["@0:0"], device_tag = "cuda", hierarchy = [1], op_name = "unet.down_blocks.1.attentions.1.transformer_blocks.0.ff.net.0.proj.bias", output_lbns = ["unet.down_blocks.1.attentions.1.transformer_blocks.0.ff.net.0.proj.bias/out"], parallel = #sbp.parallel<[] -> [[#sbp.B]]>, scope_symbol_id = 1380 : i64, shape = [5120 : si64]} : () -> tensor<5120xf16>
    %V = "oneflow.variable"() {data_type = 9 : i32, device_name = ["@0:0"], device_tag = "cuda", hierarchy = [1], op_name = "unet.down_blocks.1.attentions.1.transformer_blocks.0.ff.net.2.weight", output_lbns = ["unet.down_blocks.1.attentions.1.transformer_blocks.0.ff.net.2.weight/out"], parallel = #sbp.parallel<[] -> [[#sbp.B]]>, scope_symbol_id = 1401 : i64, shape = [640 : si64, 2560 : si64]} : () -> tensor<640x2560xf16>
    %V = "oneflow.variable"() {data_type = 9 : i32, device_name = ["@0:0"], device_tag = "cuda", hierarchy = [1], op_name = "unet.down_blocks.1.attentions.1.transformer_blocks.0.ff.net.2.bias", output_lbns = ["unet.down_blocks.1.attentions.1.transformer_blocks.0.ff.net.2.bias/out"], parallel = #sbp.parallel<[] -> [[#sbp.B]]>, scope_symbol_id = 1408 : i64, shape = [640 : si64]} : () -> tensor<640xf16>
    %V = "oneflow.variable"() {data_type = 9 : i32, device_name = ["@0:0"], device_tag = "cuda", hierarchy = [1], op_name = "variable_397", output_lbns = ["variable_397/out"], parallel = #sbp.parallel<[] -> [[#sbp.B]]>, scope_symbol_id = 1425 : i64, shape = [640 : si64, 1 : si64, 1 : si64, 640 : si64]} : () -> tensor<640x1x1x640xf16>
    %V = "oneflow.variable"() {data_type = 9 : i32, device_name = ["@0:0"], device_tag = "cuda", hierarchy = [1], op_name = "unet.down_blocks.1.attentions.1.proj_out.bias", output_lbns = ["unet.down_blocks.1.attentions.1.proj_out.bias/out"], parallel = #sbp.parallel<[] -> [[#sbp.B]]>, scope_symbol_id = 1429 : i64, shape = [640 : si64]} : () -> tensor<640xf16>
    %V = "oneflow.variable"() {data_type = 9 : i32, device_name = ["@0:0"], device_tag = "cuda", hierarchy = [1], op_name = "variable_396", output_lbns = ["variable_396/out"], parallel = #sbp.parallel<[] -> [[#sbp.B]]>, scope_symbol_id = 1441 : i64, shape = [640 : si64, 3 : si64, 3 : si64, 640 : si64]} : () -> tensor<640x3x3x640xf16>
    %V = "oneflow.variable"() {data_type = 9 : i32, device_name = ["@0:0"], device_tag = "cuda", hierarchy = [1], op_name = "unet.down_blocks.1.downsamplers.0.conv.bias", output_lbns = ["unet.down_blocks.1.downsamplers.0.conv.bias/out"], parallel = #sbp.parallel<[] -> [[#sbp.B]]>, scope_symbol_id = 1445 : i64, shape = [640 : si64]} : () -> tensor<640xf16>
    %V = "oneflow.variable"() {data_type = 9 : i32, device_name = ["@0:0"], device_tag = "cuda", hierarchy = [1], op_name = "unet.down_blocks.2.resnets.0.norm1.weight", output_lbns = ["unet.down_blocks.2.resnets.0.norm1.weight/out"], parallel = #sbp.parallel<[] -> [[#sbp.B]]>, scope_symbol_id = 1455 : i64, shape = [640 : si64]} : () -> tensor<640xf16>
    %V = "oneflow.variable"() {data_type = 9 : i32, device_name = ["@0:0"], device_tag = "cuda", hierarchy = [1], op_name = "unet.down_blocks.2.resnets.0.norm1.bias", output_lbns = ["unet.down_blocks.2.resnets.0.norm1.bias/out"], parallel = #sbp.parallel<[] -> [[#sbp.B]]>, scope_symbol_id = 1459 : i64, shape = [640 : si64]} : () -> tensor<640xf16>
    %V = "oneflow.variable"() {data_type = 9 : i32, device_name = ["@0:0"], device_tag = "cuda", hierarchy = [1], op_name = "variable_395", output_lbns = ["variable_395/out"], parallel = #sbp.parallel<[] -> [[#sbp.B]]>, scope_symbol_id = 1471 : i64, shape = [1280 : si64, 3 : si64, 3 : si64, 640 : si64]} : () -> tensor<1280x3x3x640xf16>
    %V = "oneflow.variable"() {data_type = 9 : i32, device_name = ["@0:0"], device_tag = "cuda", hierarchy = [1], op_name = "unet.down_blocks.2.resnets.0.conv1.bias", output_lbns = ["unet.down_blocks.2.resnets.0.conv1.bias/out"], parallel = #sbp.parallel<[] -> [[#sbp.B]]>, scope_symbol_id = 1475 : i64, shape = [1280 : si64]} : () -> tensor<1280xf16>
    %V = "oneflow.variable"() {data_type = 9 : i32, device_name = ["@0:0"], device_tag = "cuda", hierarchy = [1], op_name = "unet.down_blocks.2.resnets.0.time_emb_proj.weight", output_lbns = ["unet.down_blocks.2.resnets.0.time_emb_proj.weight/out"], parallel = #sbp.parallel<[] -> [[#sbp.B]]>, scope_symbol_id = 1486 : i64, shape = [1280 : si64, 1280 : si64]} : () -> tensor<1280x1280xf16>
    %V = "oneflow.variable"() {data_type = 9 : i32, device_name = ["@0:0"], device_tag = "cuda", hierarchy = [1], op_name = "unet.down_blocks.2.resnets.0.time_emb_proj.bias", output_lbns = ["unet.down_blocks.2.resnets.0.time_emb_proj.bias/out"], parallel = #sbp.parallel<[] -> [[#sbp.B]]>, scope_symbol_id = 1493 : i64, shape = [1280 : si64]} : () -> tensor<1280xf16>
    %V = "oneflow.variable"() {data_type = 9 : i32, device_name = ["@0:0"], device_tag = "cuda", hierarchy = [1], op_name = "unet.down_blocks.2.resnets.0.norm2.weight", output_lbns = ["unet.down_blocks.2.resnets.0.norm2.weight/out"], parallel = #sbp.parallel<[] -> [[#sbp.B]]>, scope_symbol_id = 1510 : i64, shape = [1280 : si64]} : () -> tensor<1280xf16>
    %V = "oneflow.variable"() {data_type = 9 : i32, device_name = ["@0:0"], device_tag = "cuda", hierarchy = [1], op_name = "unet.down_blocks.2.resnets.0.norm2.bias", output_lbns = ["unet.down_blocks.2.resnets.0.norm2.bias/out"], parallel = #sbp.parallel<[] -> [[#sbp.B]]>, scope_symbol_id = 1514 : i64, shape = [1280 : si64]} : () -> tensor<1280xf16>
    %V = "oneflow.variable"() {data_type = 9 : i32, device_name = ["@0:0"], device_tag = "cuda", hierarchy = [1], op_name = "variable_394", output_lbns = ["variable_394/out"], parallel = #sbp.parallel<[] -> [[#sbp.B]]>, scope_symbol_id = 1526 : i64, shape = [1280 : si64, 3 : si64, 3 : si64, 1280 : si64]} : () -> tensor<1280x3x3x1280xf16>
    %V = "oneflow.variable"() {data_type = 9 : i32, device_name = ["@0:0"], device_tag = "cuda", hierarchy = [1], op_name = "unet.down_blocks.2.resnets.0.conv2.bias", output_lbns = ["unet.down_blocks.2.resnets.0.conv2.bias/out"], parallel = #sbp.parallel<[] -> [[#sbp.B]]>, scope_symbol_id = 1530 : i64, shape = [1280 : si64]} : () -> tensor<1280xf16>
    %V = "oneflow.variable"() {data_type = 9 : i32, device_name = ["@0:0"], device_tag = "cuda", hierarchy = [1], op_name = "variable_393", output_lbns = ["variable_393/out"], parallel = #sbp.parallel<[] -> [[#sbp.B]]>, scope_symbol_id = 1538 : i64, shape = [1280 : si64, 1 : si64, 1 : si64, 640 : si64]} : () -> tensor<1280x1x1x640xf16>
    %V = "oneflow.variable"() {data_type = 9 : i32, device_name = ["@0:0"], device_tag = "cuda", hierarchy = [1], op_name = "unet.down_blocks.2.resnets.0.conv_shortcut.bias", output_lbns = ["unet.down_blocks.2.resnets.0.conv_shortcut.bias/out"], parallel = #sbp.parallel<[] -> [[#sbp.B]]>, scope_symbol_id = 1542 : i64, shape = [1280 : si64]} : () -> tensor<1280xf16>
    %V = "oneflow.variable"() {data_type = 9 : i32, device_name = ["@0:0"], device_tag = "cuda", hierarchy = [1], op_name = "unet.down_blocks.2.attentions.0.norm.weight", output_lbns = ["unet.down_blocks.2.attentions.0.norm.weight/out"], parallel = #sbp.parallel<[] -> [[#sbp.B]]>, scope_symbol_id = 1557 : i64, shape = [1280 : si64]} : () -> tensor<1280xf16>
    %V = "oneflow.variable"() {data_type = 9 : i32, device_name = ["@0:0"], device_tag = "cuda", hierarchy = [1], op_name = "unet.down_blocks.2.attentions.0.norm.bias", output_lbns = ["unet.down_blocks.2.attentions.0.norm.bias/out"], parallel = #sbp.parallel<[] -> [[#sbp.B]]>, scope_symbol_id = 1561 : i64, shape = [1280 : si64]} : () -> tensor<1280xf16>
    %V = "oneflow.variable"() {data_type = 9 : i32, device_name = ["@0:0"], device_tag = "cuda", hierarchy = [1], op_name = "variable_392", output_lbns = ["variable_392/out"], parallel = #sbp.parallel<[] -> [[#sbp.B]]>, scope_symbol_id = 1569 : i64, shape = [1280 : si64, 1 : si64, 1 : si64, 1280 : si64]} : () -> tensor<1280x1x1x1280xf16>
    %V = "oneflow.variable"() {data_type = 9 : i32, device_name = ["@0:0"], device_tag = "cuda", hierarchy = [1], op_name = "unet.down_blocks.2.attentions.0.proj_in.bias", output_lbns = ["unet.down_blocks.2.attentions.0.proj_in.bias/out"], parallel = #sbp.parallel<[] -> [[#sbp.B]]>, scope_symbol_id = 1573 : i64, shape = [1280 : si64]} : () -> tensor<1280xf16>
    %V = "oneflow.variable"() {data_type = 9 : i32, device_name = ["@0:0"], device_tag = "cuda", hierarchy = [1], op_name = "unet.down_blocks.2.attentions.0.transformer_blocks.0.norm1.weight", output_lbns = ["unet.down_blocks.2.attentions.0.transformer_blocks.0.norm1.weight/out"], parallel = #sbp.parallel<[] -> [[#sbp.B]]>, scope_symbol_id = 1588 : i64, shape = [1280 : si64]} : () -> tensor<1280xf16>
    %V = "oneflow.variable"() {data_type = 9 : i32, device_name = ["@0:0"], device_tag = "cuda", hierarchy = [1], op_name = "unet.down_blocks.2.attentions.0.transformer_blocks.0.norm1.bias", output_lbns = ["unet.down_blocks.2.attentions.0.transformer_blocks.0.norm1.bias/out"], parallel = #sbp.parallel<[] -> [[#sbp.B]]>, scope_symbol_id = 1592 : i64, shape = [1280 : si64]} : () -> tensor<1280xf16>
    %V = "oneflow.variable"() {data_type = 9 : i32, device_name = ["@0:0"], device_tag = "cuda", hierarchy = [1], op_name = "unet.down_blocks.2.attentions.0.transformer_blocks.0.attn1.to_q.weight", output_lbns = ["unet.down_blocks.2.attentions.0.transformer_blocks.0.attn1.to_q.weight/out"], parallel = #sbp.parallel<[] -> [[#sbp.B]]>, scope_symbol_id = 1601 : i64, shape = [1280 : si64, 1280 : si64]} : () -> tensor<1280x1280xf16>
    %V = "oneflow.variable"() {data_type = 9 : i32, device_name = ["@0:0"], device_tag = "cuda", hierarchy = [1], op_name = "unet.down_blocks.2.attentions.0.transformer_blocks.0.attn1.to_k.weight", output_lbns = ["unet.down_blocks.2.attentions.0.transformer_blocks.0.attn1.to_k.weight/out"], parallel = #sbp.parallel<[] -> [[#sbp.B]]>, scope_symbol_id = 1609 : i64, shape = [1280 : si64, 1280 : si64]} : () -> tensor<1280x1280xf16>
    %V = "oneflow.variable"() {data_type = 9 : i32, device_name = ["@0:0"], device_tag = "cuda", hierarchy = [1], op_name = "unet.down_blocks.2.attentions.0.transformer_blocks.0.attn1.to_v.weight", output_lbns = ["unet.down_blocks.2.attentions.0.transformer_blocks.0.attn1.to_v.weight/out"], parallel = #sbp.parallel<[] -> [[#sbp.B]]>, scope_symbol_id = 1617 : i64, shape = [1280 : si64, 1280 : si64]} : () -> tensor<1280x1280xf16>
    %V = "oneflow.variable"() {data_type = 9 : i32, device_name = ["@0:0"], device_tag = "cuda", hierarchy = [1], op_name = "unet.down_blocks.2.attentions.0.transformer_blocks.0.attn1.to_out.0.weight", output_lbns = ["unet.down_blocks.2.attentions.0.transformer_blocks.0.attn1.to_out.0.weight/out"], parallel = #sbp.parallel<[] -> [[#sbp.B]]>, scope_symbol_id = 1628 : i64, shape = [1280 : si64, 1280 : si64]} : () -> tensor<1280x1280xf16>
    %V = "oneflow.variable"() {data_type = 9 : i32, device_name = ["@0:0"], device_tag = "cuda", hierarchy = [1], op_name = "unet.down_blocks.2.attentions.0.transformer_blocks.0.attn1.to_out.0.bias", output_lbns = ["unet.down_blocks.2.attentions.0.transformer_blocks.0.attn1.to_out.0.bias/out"], parallel = #sbp.parallel<[] -> [[#sbp.B]]>, scope_symbol_id = 1635 : i64, shape = [1280 : si64]} : () -> tensor<1280xf16>
    %V = "oneflow.variable"() {data_type = 9 : i32, device_name = ["@0:0"], device_tag = "cuda", hierarchy = [1], op_name = "unet.down_blocks.2.attentions.0.transformer_blocks.0.norm2.weight", output_lbns = ["unet.down_blocks.2.attentions.0.transformer_blocks.0.norm2.weight/out"], parallel = #sbp.parallel<[] -> [[#sbp.B]]>, scope_symbol_id = 1647 : i64, shape = [1280 : si64]} : () -> tensor<1280xf16>
    %V = "oneflow.variable"() {data_type = 9 : i32, device_name = ["@0:0"], device_tag = "cuda", hierarchy = [1], op_name = "unet.down_blocks.2.attentions.0.transformer_blocks.0.norm2.bias", output_lbns = ["unet.down_blocks.2.attentions.0.transformer_blocks.0.norm2.bias/out"], parallel = #sbp.parallel<[] -> [[#sbp.B]]>, scope_symbol_id = 1651 : i64, shape = [1280 : si64]} : () -> tensor<1280xf16>
    %V = "oneflow.variable"() {data_type = 9 : i32, device_name = ["@0:0"], device_tag = "cuda", hierarchy = [1], op_name = "unet.down_blocks.2.attentions.0.transformer_blocks.0.attn2.to_q.weight", output_lbns = ["unet.down_blocks.2.attentions.0.transformer_blocks.0.attn2.to_q.weight/out"], parallel = #sbp.parallel<[] -> [[#sbp.B]]>, scope_symbol_id = 1660 : i64, shape = [1280 : si64, 1280 : si64]} : () -> tensor<1280x1280xf16>
    %V = "oneflow.variable"() {data_type = 9 : i32, device_name = ["@0:0"], device_tag = "cuda", hierarchy = [1], op_name = "unet.down_blocks.2.attentions.0.transformer_blocks.0.attn2.to_k.weight", output_lbns = ["unet.down_blocks.2.attentions.0.transformer_blocks.0.attn2.to_k.weight/out"], parallel = #sbp.parallel<[] -> [[#sbp.B]]>, scope_symbol_id = 1668 : i64, shape = [1280 : si64, 768 : si64]} : () -> tensor<1280x768xf16>
    %V = "oneflow.variable"() {data_type = 9 : i32, device_name = ["@0:0"], device_tag = "cuda", hierarchy = [1], op_name = "unet.down_blocks.2.attentions.0.transformer_blocks.0.attn2.to_v.weight", output_lbns = ["unet.down_blocks.2.attentions.0.transformer_blocks.0.attn2.to_v.weight/out"], parallel = #sbp.parallel<[] -> [[#sbp.B]]>, scope_symbol_id = 1676 : i64, shape = [1280 : si64, 768 : si64]} : () -> tensor<1280x768xf16>
    %V = "oneflow.variable"() {data_type = 9 : i32, device_name = ["@0:0"], device_tag = "cuda", hierarchy = [1], op_name = "unet.down_blocks.2.attentions.0.transformer_blocks.0.attn2.to_out.0.weight", output_lbns = ["unet.down_blocks.2.attentions.0.transformer_blocks.0.attn2.to_out.0.weight/out"], parallel = #sbp.parallel<[] -> [[#sbp.B]]>, scope_symbol_id = 1687 : i64, shape = [1280 : si64, 1280 : si64]} : () -> tensor<1280x1280xf16>
    %V = "oneflow.variable"() {data_type = 9 : i32, device_name = ["@0:0"], device_tag = "cuda", hierarchy = [1], op_name = "unet.down_blocks.2.attentions.0.transformer_blocks.0.attn2.to_out.0.bias", output_lbns = ["unet.down_blocks.2.attentions.0.transformer_blocks.0.attn2.to_out.0.bias/out"], parallel = #sbp.parallel<[] -> [[#sbp.B]]>, scope_symbol_id = 1694 : i64, shape = [1280 : si64]} : () -> tensor<1280xf16>
    %V = "oneflow.variable"() {data_type = 9 : i32, device_name = ["@0:0"], device_tag = "cuda", hierarchy = [1], op_name = "unet.down_blocks.2.attentions.0.transformer_blocks.0.norm3.weight", output_lbns = ["unet.down_blocks.2.attentions.0.transformer_blocks.0.norm3.weight/out"], parallel = #sbp.parallel<[] -> [[#sbp.B]]>, scope_symbol_id = 1706 : i64, shape = [1280 : si64]} : () -> tensor<1280xf16>
    %V = "oneflow.variable"() {data_type = 9 : i32, device_name = ["@0:0"], device_tag = "cuda", hierarchy = [1], op_name = "unet.down_blocks.2.attentions.0.transformer_blocks.0.norm3.bias", output_lbns = ["unet.down_blocks.2.attentions.0.transformer_blocks.0.norm3.bias/out"], parallel = #sbp.parallel<[] -> [[#sbp.B]]>, scope_symbol_id = 1710 : i64, shape = [1280 : si64]} : () -> tensor<1280xf16>
    %V = "oneflow.variable"() {data_type = 9 : i32, device_name = ["@0:0"], device_tag = "cuda", hierarchy = [1], op_name = "unet.down_blocks.2.attentions.0.transformer_blocks.0.ff.net.0.proj.weight", output_lbns = ["unet.down_blocks.2.attentions.0.transformer_blocks.0.ff.net.0.proj.weight/out"], parallel = #sbp.parallel<[] -> [[#sbp.B]]>, scope_symbol_id = 1720 : i64, shape = [10240 : si64, 1280 : si64]} : () -> tensor<10240x1280xf16>
    %V = "oneflow.variable"() {data_type = 9 : i32, device_name = ["@0:0"], device_tag = "cuda", hierarchy = [1], op_name = "unet.down_blocks.2.attentions.0.transformer_blocks.0.ff.net.0.proj.bias", output_lbns = ["unet.down_blocks.2.attentions.0.transformer_blocks.0.ff.net.0.proj.bias/out"], parallel = #sbp.parallel<[] -> [[#sbp.B]]>, scope_symbol_id = 1727 : i64, shape = [10240 : si64]} : () -> tensor<10240xf16>
    %V = "oneflow.variable"() {data_type = 9 : i32, device_name = ["@0:0"], device_tag = "cuda", hierarchy = [1], op_name = "unet.down_blocks.2.attentions.0.transformer_blocks.0.ff.net.2.weight", output_lbns = ["unet.down_blocks.2.attentions.0.transformer_blocks.0.ff.net.2.weight/out"], parallel = #sbp.parallel<[] -> [[#sbp.B]]>, scope_symbol_id = 1748 : i64, shape = [1280 : si64, 5120 : si64]} : () -> tensor<1280x5120xf16>
    %V = "oneflow.variable"() {data_type = 9 : i32, device_name = ["@0:0"], device_tag = "cuda", hierarchy = [1], op_name = "unet.down_blocks.2.attentions.0.transformer_blocks.0.ff.net.2.bias", output_lbns = ["unet.down_blocks.2.attentions.0.transformer_blocks.0.ff.net.2.bias/out"], parallel = #sbp.parallel<[] -> [[#sbp.B]]>, scope_symbol_id = 1755 : i64, shape = [1280 : si64]} : () -> tensor<1280xf16>
    %V = "oneflow.variable"() {data_type = 9 : i32, device_name = ["@0:0"], device_tag = "cuda", hierarchy = [1], op_name = "variable_391", output_lbns = ["variable_391/out"], parallel = #sbp.parallel<[] -> [[#sbp.B]]>, scope_symbol_id = 1772 : i64, shape = [1280 : si64, 1 : si64, 1 : si64, 1280 : si64]} : () -> tensor<1280x1x1x1280xf16>
    %V = "oneflow.variable"() {data_type = 9 : i32, device_name = ["@0:0"], device_tag = "cuda", hierarchy = [1], op_name = "unet.down_blocks.2.attentions.0.proj_out.bias", output_lbns = ["unet.down_blocks.2.attentions.0.proj_out.bias/out"], parallel = #sbp.parallel<[] -> [[#sbp.B]]>, scope_symbol_id = 1776 : i64, shape = [1280 : si64]} : () -> tensor<1280xf16>
    %V = "oneflow.variable"() {data_type = 9 : i32, device_name = ["@0:0"], device_tag = "cuda", hierarchy = [1], op_name = "unet.down_blocks.2.resnets.1.norm1.weight", output_lbns = ["unet.down_blocks.2.resnets.1.norm1.weight/out"], parallel = #sbp.parallel<[] -> [[#sbp.B]]>, scope_symbol_id = 1788 : i64, shape = [1280 : si64]} : () -> tensor<1280xf16>
    %V = "oneflow.variable"() {data_type = 9 : i32, device_name = ["@0:0"], device_tag = "cuda", hierarchy = [1], op_name = "unet.down_blocks.2.resnets.1.norm1.bias", output_lbns = ["unet.down_blocks.2.resnets.1.norm1.bias/out"], parallel = #sbp.parallel<[] -> [[#sbp.B]]>, scope_symbol_id = 1792 : i64, shape = [1280 : si64]} : () -> tensor<1280xf16>
    %V = "oneflow.variable"() {data_type = 9 : i32, device_name = ["@0:0"], device_tag = "cuda", hierarchy = [1], op_name = "variable_390", output_lbns = ["variable_390/out"], parallel = #sbp.parallel<[] -> [[#sbp.B]]>, scope_symbol_id = 1804 : i64, shape = [1280 : si64, 3 : si64, 3 : si64, 1280 : si64]} : () -> tensor<1280x3x3x1280xf16>
    %V = "oneflow.variable"() {data_type = 9 : i32, device_name = ["@0:0"], device_tag = "cuda", hierarchy = [1], op_name = "unet.down_blocks.2.resnets.1.conv1.bias", output_lbns = ["unet.down_blocks.2.resnets.1.conv1.bias/out"], parallel = #sbp.parallel<[] -> [[#sbp.B]]>, scope_symbol_id = 1808 : i64, shape = [1280 : si64]} : () -> tensor<1280xf16>
    %V = "oneflow.variable"() {data_type = 9 : i32, device_name = ["@0:0"], device_tag = "cuda", hierarchy = [1], op_name = "unet.down_blocks.2.resnets.1.time_emb_proj.weight", output_lbns = ["unet.down_blocks.2.resnets.1.time_emb_proj.weight/out"], parallel = #sbp.parallel<[] -> [[#sbp.B]]>, scope_symbol_id = 1819 : i64, shape = [1280 : si64, 1280 : si64]} : () -> tensor<1280x1280xf16>
    %V = "oneflow.variable"() {data_type = 9 : i32, device_name = ["@0:0"], device_tag = "cuda", hierarchy = [1], op_name = "unet.down_blocks.2.resnets.1.time_emb_proj.bias", output_lbns = ["unet.down_blocks.2.resnets.1.time_emb_proj.bias/out"], parallel = #sbp.parallel<[] -> [[#sbp.B]]>, scope_symbol_id = 1826 : i64, shape = [1280 : si64]} : () -> tensor<1280xf16>
    %V = "oneflow.variable"() {data_type = 9 : i32, device_name = ["@0:0"], device_tag = "cuda", hierarchy = [1], op_name = "unet.down_blocks.2.resnets.1.norm2.weight", output_lbns = ["unet.down_blocks.2.resnets.1.norm2.weight/out"], parallel = #sbp.parallel<[] -> [[#sbp.B]]>, scope_symbol_id = 1843 : i64, shape = [1280 : si64]} : () -> tensor<1280xf16>
    %V = "oneflow.variable"() {data_type = 9 : i32, device_name = ["@0:0"], device_tag = "cuda", hierarchy = [1], op_name = "unet.down_blocks.2.resnets.1.norm2.bias", output_lbns = ["unet.down_blocks.2.resnets.1.norm2.bias/out"], parallel = #sbp.parallel<[] -> [[#sbp.B]]>, scope_symbol_id = 1847 : i64, shape = [1280 : si64]} : () -> tensor<1280xf16>
    %V = "oneflow.variable"() {data_type = 9 : i32, device_name = ["@0:0"], device_tag = "cuda", hierarchy = [1], op_name = "variable_389", output_lbns = ["variable_389/out"], parallel = #sbp.parallel<[] -> [[#sbp.B]]>, scope_symbol_id = 1859 : i64, shape = [1280 : si64, 3 : si64, 3 : si64, 1280 : si64]} : () -> tensor<1280x3x3x1280xf16>
    %V = "oneflow.variable"() {data_type = 9 : i32, device_name = ["@0:0"], device_tag = "cuda", hierarchy = [1], op_name = "unet.down_blocks.2.resnets.1.conv2.bias", output_lbns = ["unet.down_blocks.2.resnets.1.conv2.bias/out"], parallel = #sbp.parallel<[] -> [[#sbp.B]]>, scope_symbol_id = 1863 : i64, shape = [1280 : si64]} : () -> tensor<1280xf16>
    %V = "oneflow.variable"() {data_type = 9 : i32, device_name = ["@0:0"], device_tag = "cuda", hierarchy = [1], op_name = "unet.down_blocks.2.attentions.1.norm.weight", output_lbns = ["unet.down_blocks.2.attentions.1.norm.weight/out"], parallel = #sbp.parallel<[] -> [[#sbp.B]]>, scope_symbol_id = 1878 : i64, shape = [1280 : si64]} : () -> tensor<1280xf16>
    %V = "oneflow.variable"() {data_type = 9 : i32, device_name = ["@0:0"], device_tag = "cuda", hierarchy = [1], op_name = "unet.down_blocks.2.attentions.1.norm.bias", output_lbns = ["unet.down_blocks.2.attentions.1.norm.bias/out"], parallel = #sbp.parallel<[] -> [[#sbp.B]]>, scope_symbol_id = 1882 : i64, shape = [1280 : si64]} : () -> tensor<1280xf16>
    %V = "oneflow.variable"() {data_type = 9 : i32, device_name = ["@0:0"], device_tag = "cuda", hierarchy = [1], op_name = "variable_388", output_lbns = ["variable_388/out"], parallel = #sbp.parallel<[] -> [[#sbp.B]]>, scope_symbol_id = 1890 : i64, shape = [1280 : si64, 1 : si64, 1 : si64, 1280 : si64]} : () -> tensor<1280x1x1x1280xf16>
    %V = "oneflow.variable"() {data_type = 9 : i32, device_name = ["@0:0"], device_tag = "cuda", hierarchy = [1], op_name = "unet.down_blocks.2.attentions.1.proj_in.bias", output_lbns = ["unet.down_blocks.2.attentions.1.proj_in.bias/out"], parallel = #sbp.parallel<[] -> [[#sbp.B]]>, scope_symbol_id = 1894 : i64, shape = [1280 : si64]} : () -> tensor<1280xf16>
    %V = "oneflow.variable"() {data_type = 9 : i32, device_name = ["@0:0"], device_tag = "cuda", hierarchy = [1], op_name = "unet.down_blocks.2.attentions.1.transformer_blocks.0.norm1.weight", output_lbns = ["unet.down_blocks.2.attentions.1.transformer_blocks.0.norm1.weight/out"], parallel = #sbp.parallel<[] -> [[#sbp.B]]>, scope_symbol_id = 1909 : i64, shape = [1280 : si64]} : () -> tensor<1280xf16>
    %V = "oneflow.variable"() {data_type = 9 : i32, device_name = ["@0:0"], device_tag = "cuda", hierarchy = [1], op_name = "unet.down_blocks.2.attentions.1.transformer_blocks.0.norm1.bias", output_lbns = ["unet.down_blocks.2.attentions.1.transformer_blocks.0.norm1.bias/out"], parallel = #sbp.parallel<[] -> [[#sbp.B]]>, scope_symbol_id = 1913 : i64, shape = [1280 : si64]} : () -> tensor<1280xf16>
    %V = "oneflow.variable"() {data_type = 9 : i32, device_name = ["@0:0"], device_tag = "cuda", hierarchy = [1], op_name = "unet.down_blocks.2.attentions.1.transformer_blocks.0.attn1.to_q.weight", output_lbns = ["unet.down_blocks.2.attentions.1.transformer_blocks.0.attn1.to_q.weight/out"], parallel = #sbp.parallel<[] -> [[#sbp.B]]>, scope_symbol_id = 1922 : i64, shape = [1280 : si64, 1280 : si64]} : () -> tensor<1280x1280xf16>
    %V = "oneflow.variable"() {data_type = 9 : i32, device_name = ["@0:0"], device_tag = "cuda", hierarchy = [1], op_name = "unet.down_blocks.2.attentions.1.transformer_blocks.0.attn1.to_k.weight", output_lbns = ["unet.down_blocks.2.attentions.1.transformer_blocks.0.attn1.to_k.weight/out"], parallel = #sbp.parallel<[] -> [[#sbp.B]]>, scope_symbol_id = 1930 : i64, shape = [1280 : si64, 1280 : si64]} : () -> tensor<1280x1280xf16>
    %V = "oneflow.variable"() {data_type = 9 : i32, device_name = ["@0:0"], device_tag = "cuda", hierarchy = [1], op_name = "unet.down_blocks.2.attentions.1.transformer_blocks.0.attn1.to_v.weight", output_lbns = ["unet.down_blocks.2.attentions.1.transformer_blocks.0.attn1.to_v.weight/out"], parallel = #sbp.parallel<[] -> [[#sbp.B]]>, scope_symbol_id = 1938 : i64, shape = [1280 : si64, 1280 : si64]} : () -> tensor<1280x1280xf16>
    %V = "oneflow.variable"() {data_type = 9 : i32, device_name = ["@0:0"], device_tag = "cuda", hierarchy = [1], op_name = "unet.down_blocks.2.attentions.1.transformer_blocks.0.attn1.to_out.0.weight", output_lbns = ["unet.down_blocks.2.attentions.1.transformer_blocks.0.attn1.to_out.0.weight/out"], parallel = #sbp.parallel<[] -> [[#sbp.B]]>, scope_symbol_id = 1949 : i64, shape = [1280 : si64, 1280 : si64]} : () -> tensor<1280x1280xf16>
    %V = "oneflow.variable"() {data_type = 9 : i32, device_name = ["@0:0"], device_tag = "cuda", hierarchy = [1], op_name = "unet.down_blocks.2.attentions.1.transformer_blocks.0.attn1.to_out.0.bias", output_lbns = ["unet.down_blocks.2.attentions.1.transformer_blocks.0.attn1.to_out.0.bias/out"], parallel = #sbp.parallel<[] -> [[#sbp.B]]>, scope_symbol_id = 1956 : i64, shape = [1280 : si64]} : () -> tensor<1280xf16>
    %V = "oneflow.variable"() {data_type = 9 : i32, device_name = ["@0:0"], device_tag = "cuda", hierarchy = [1], op_name = "unet.down_blocks.2.attentions.1.transformer_blocks.0.norm2.weight", output_lbns = ["unet.down_blocks.2.attentions.1.transformer_blocks.0.norm2.weight/out"], parallel = #sbp.parallel<[] -> [[#sbp.B]]>, scope_symbol_id = 1968 : i64, shape = [1280 : si64]} : () -> tensor<1280xf16>
    %V = "oneflow.variable"() {data_type = 9 : i32, device_name = ["@0:0"], device_tag = "cuda", hierarchy = [1], op_name = "unet.down_blocks.2.attentions.1.transformer_blocks.0.norm2.bias", output_lbns = ["unet.down_blocks.2.attentions.1.transformer_blocks.0.norm2.bias/out"], parallel = #sbp.parallel<[] -> [[#sbp.B]]>, scope_symbol_id = 1972 : i64, shape = [1280 : si64]} : () -> tensor<1280xf16>
    %V = "oneflow.variable"() {data_type = 9 : i32, device_name = ["@0:0"], device_tag = "cuda", hierarchy = [1], op_name = "unet.down_blocks.2.attentions.1.transformer_blocks.0.attn2.to_q.weight", output_lbns = ["unet.down_blocks.2.attentions.1.transformer_blocks.0.attn2.to_q.weight/out"], parallel = #sbp.parallel<[] -> [[#sbp.B]]>, scope_symbol_id = 1981 : i64, shape = [1280 : si64, 1280 : si64]} : () -> tensor<1280x1280xf16>
    %V = "oneflow.variable"() {data_type = 9 : i32, device_name = ["@0:0"], device_tag = "cuda", hierarchy = [1], op_name = "unet.down_blocks.2.attentions.1.transformer_blocks.0.attn2.to_k.weight", output_lbns = ["unet.down_blocks.2.attentions.1.transformer_blocks.0.attn2.to_k.weight/out"], parallel = #sbp.parallel<[] -> [[#sbp.B]]>, scope_symbol_id = 1989 : i64, shape = [1280 : si64, 768 : si64]} : () -> tensor<1280x768xf16>
    %V = "oneflow.variable"() {data_type = 9 : i32, device_name = ["@0:0"], device_tag = "cuda", hierarchy = [1], op_name = "unet.down_blocks.2.attentions.1.transformer_blocks.0.attn2.to_v.weight", output_lbns = ["unet.down_blocks.2.attentions.1.transformer_blocks.0.attn2.to_v.weight/out"], parallel = #sbp.parallel<[] -> [[#sbp.B]]>, scope_symbol_id = 1997 : i64, shape = [1280 : si64, 768 : si64]} : () -> tensor<1280x768xf16>
    %V = "oneflow.variable"() {data_type = 9 : i32, device_name = ["@0:0"], device_tag = "cuda", hierarchy = [1], op_name = "unet.down_blocks.2.attentions.1.transformer_blocks.0.attn2.to_out.0.weight", output_lbns = ["unet.down_blocks.2.attentions.1.transformer_blocks.0.attn2.to_out.0.weight/out"], parallel = #sbp.parallel<[] -> [[#sbp.B]]>, scope_symbol_id = 2008 : i64, shape = [1280 : si64, 1280 : si64]} : () -> tensor<1280x1280xf16>
    %V = "oneflow.variable"() {data_type = 9 : i32, device_name = ["@0:0"], device_tag = "cuda", hierarchy = [1], op_name = "unet.down_blocks.2.attentions.1.transformer_blocks.0.attn2.to_out.0.bias", output_lbns = ["unet.down_blocks.2.attentions.1.transformer_blocks.0.attn2.to_out.0.bias/out"], parallel = #sbp.parallel<[] -> [[#sbp.B]]>, scope_symbol_id = 2015 : i64, shape = [1280 : si64]} : () -> tensor<1280xf16>
    %V = "oneflow.variable"() {data_type = 9 : i32, device_name = ["@0:0"], device_tag = "cuda", hierarchy = [1], op_name = "unet.down_blocks.2.attentions.1.transformer_blocks.0.norm3.weight", output_lbns = ["unet.down_blocks.2.attentions.1.transformer_blocks.0.norm3.weight/out"], parallel = #sbp.parallel<[] -> [[#sbp.B]]>, scope_symbol_id = 2027 : i64, shape = [1280 : si64]} : () -> tensor<1280xf16>
    %V = "oneflow.variable"() {data_type = 9 : i32, device_name = ["@0:0"], device_tag = "cuda", hierarchy = [1], op_name = "unet.down_blocks.2.attentions.1.transformer_blocks.0.norm3.bias", output_lbns = ["unet.down_blocks.2.attentions.1.transformer_blocks.0.norm3.bias/out"], parallel = #sbp.parallel<[] -> [[#sbp.B]]>, scope_symbol_id = 2031 : i64, shape = [1280 : si64]} : () -> tensor<1280xf16>
    %V = "oneflow.variable"() {data_type = 9 : i32, device_name = ["@0:0"], device_tag = "cuda", hierarchy = [1], op_name = "unet.down_blocks.2.attentions.1.transformer_blocks.0.ff.net.0.proj.weight", output_lbns = ["unet.down_blocks.2.attentions.1.transformer_blocks.0.ff.net.0.proj.weight/out"], parallel = #sbp.parallel<[] -> [[#sbp.B]]>, scope_symbol_id = 2041 : i64, shape = [10240 : si64, 1280 : si64]} : () -> tensor<10240x1280xf16>
    %V = "oneflow.variable"() {data_type = 9 : i32, device_name = ["@0:0"], device_tag = "cuda", hierarchy = [1], op_name = "unet.down_blocks.2.attentions.1.transformer_blocks.0.ff.net.0.proj.bias", output_lbns = ["unet.down_blocks.2.attentions.1.transformer_blocks.0.ff.net.0.proj.bias/out"], parallel = #sbp.parallel<[] -> [[#sbp.B]]>, scope_symbol_id = 2048 : i64, shape = [10240 : si64]} : () -> tensor<10240xf16>
    %V = "oneflow.variable"() {data_type = 9 : i32, device_name = ["@0:0"], device_tag = "cuda", hierarchy = [1], op_name = "unet.down_blocks.2.attentions.1.transformer_blocks.0.ff.net.2.weight", output_lbns = ["unet.down_blocks.2.attentions.1.transformer_blocks.0.ff.net.2.weight/out"], parallel = #sbp.parallel<[] -> [[#sbp.B]]>, scope_symbol_id = 2069 : i64, shape = [1280 : si64, 5120 : si64]} : () -> tensor<1280x5120xf16>
    %V = "oneflow.variable"() {data_type = 9 : i32, device_name = ["@0:0"], device_tag = "cuda", hierarchy = [1], op_name = "unet.down_blocks.2.attentions.1.transformer_blocks.0.ff.net.2.bias", output_lbns = ["unet.down_blocks.2.attentions.1.transformer_blocks.0.ff.net.2.bias/out"], parallel = #sbp.parallel<[] -> [[#sbp.B]]>, scope_symbol_id = 2076 : i64, shape = [1280 : si64]} : () -> tensor<1280xf16>
    %V = "oneflow.variable"() {data_type = 9 : i32, device_name = ["@0:0"], device_tag = "cuda", hierarchy = [1], op_name = "variable_387", output_lbns = ["variable_387/out"], parallel = #sbp.parallel<[] -> [[#sbp.B]]>, scope_symbol_id = 2093 : i64, shape = [1280 : si64, 1 : si64, 1 : si64, 1280 : si64]} : () -> tensor<1280x1x1x1280xf16>
    %V = "oneflow.variable"() {data_type = 9 : i32, device_name = ["@0:0"], device_tag = "cuda", hierarchy = [1], op_name = "unet.down_blocks.2.attentions.1.proj_out.bias", output_lbns = ["unet.down_blocks.2.attentions.1.proj_out.bias/out"], parallel = #sbp.parallel<[] -> [[#sbp.B]]>, scope_symbol_id = 2097 : i64, shape = [1280 : si64]} : () -> tensor<1280xf16>
    %V = "oneflow.variable"() {data_type = 9 : i32, device_name = ["@0:0"], device_tag = "cuda", hierarchy = [1], op_name = "variable_386", output_lbns = ["variable_386/out"], parallel = #sbp.parallel<[] -> [[#sbp.B]]>, scope_symbol_id = 2109 : i64, shape = [1280 : si64, 3 : si64, 3 : si64, 1280 : si64]} : () -> tensor<1280x3x3x1280xf16>
    %V = "oneflow.variable"() {data_type = 9 : i32, device_name = ["@0:0"], device_tag = "cuda", hierarchy = [1], op_name = "unet.down_blocks.2.downsamplers.0.conv.bias", output_lbns = ["unet.down_blocks.2.downsamplers.0.conv.bias/out"], parallel = #sbp.parallel<[] -> [[#sbp.B]]>, scope_symbol_id = 2113 : i64, shape = [1280 : si64]} : () -> tensor<1280xf16>
    %V = "oneflow.variable"() {data_type = 9 : i32, device_name = ["@0:0"], device_tag = "cuda", hierarchy = [1], op_name = "unet.down_blocks.3.resnets.0.norm1.weight", output_lbns = ["unet.down_blocks.3.resnets.0.norm1.weight/out"], parallel = #sbp.parallel<[] -> [[#sbp.B]]>, scope_symbol_id = 2123 : i64, shape = [1280 : si64]} : () -> tensor<1280xf16>
    %V = "oneflow.variable"() {data_type = 9 : i32, device_name = ["@0:0"], device_tag = "cuda", hierarchy = [1], op_name = "unet.down_blocks.3.resnets.0.norm1.bias", output_lbns = ["unet.down_blocks.3.resnets.0.norm1.bias/out"], parallel = #sbp.parallel<[] -> [[#sbp.B]]>, scope_symbol_id = 2127 : i64, shape = [1280 : si64]} : () -> tensor<1280xf16>
    %V = "oneflow.variable"() {data_type = 9 : i32, device_name = ["@0:0"], device_tag = "cuda", hierarchy = [1], op_name = "variable_385", output_lbns = ["variable_385/out"], parallel = #sbp.parallel<[] -> [[#sbp.B]]>, scope_symbol_id = 2139 : i64, shape = [1280 : si64, 3 : si64, 3 : si64, 1280 : si64]} : () -> tensor<1280x3x3x1280xf16>
    %V = "oneflow.variable"() {data_type = 9 : i32, device_name = ["@0:0"], device_tag = "cuda", hierarchy = [1], op_name = "unet.down_blocks.3.resnets.0.conv1.bias", output_lbns = ["unet.down_blocks.3.resnets.0.conv1.bias/out"], parallel = #sbp.parallel<[] -> [[#sbp.B]]>, scope_symbol_id = 2143 : i64, shape = [1280 : si64]} : () -> tensor<1280xf16>
    %V = "oneflow.variable"() {data_type = 9 : i32, device_name = ["@0:0"], device_tag = "cuda", hierarchy = [1], op_name = "unet.down_blocks.3.resnets.0.time_emb_proj.weight", output_lbns = ["unet.down_blocks.3.resnets.0.time_emb_proj.weight/out"], parallel = #sbp.parallel<[] -> [[#sbp.B]]>, scope_symbol_id = 2154 : i64, shape = [1280 : si64, 1280 : si64]} : () -> tensor<1280x1280xf16>
    %V = "oneflow.variable"() {data_type = 9 : i32, device_name = ["@0:0"], device_tag = "cuda", hierarchy = [1], op_name = "unet.down_blocks.3.resnets.0.time_emb_proj.bias", output_lbns = ["unet.down_blocks.3.resnets.0.time_emb_proj.bias/out"], parallel = #sbp.parallel<[] -> [[#sbp.B]]>, scope_symbol_id = 2161 : i64, shape = [1280 : si64]} : () -> tensor<1280xf16>
    %V = "oneflow.variable"() {data_type = 9 : i32, device_name = ["@0:0"], device_tag = "cuda", hierarchy = [1], op_name = "unet.down_blocks.3.resnets.0.norm2.weight", output_lbns = ["unet.down_blocks.3.resnets.0.norm2.weight/out"], parallel = #sbp.parallel<[] -> [[#sbp.B]]>, scope_symbol_id = 2178 : i64, shape = [1280 : si64]} : () -> tensor<1280xf16>
    %V = "oneflow.variable"() {data_type = 9 : i32, device_name = ["@0:0"], device_tag = "cuda", hierarchy = [1], op_name = "unet.down_blocks.3.resnets.0.norm2.bias", output_lbns = ["unet.down_blocks.3.resnets.0.norm2.bias/out"], parallel = #sbp.parallel<[] -> [[#sbp.B]]>, scope_symbol_id = 2182 : i64, shape = [1280 : si64]} : () -> tensor<1280xf16>
    %V = "oneflow.variable"() {data_type = 9 : i32, device_name = ["@0:0"], device_tag = "cuda", hierarchy = [1], op_name = "variable_384", output_lbns = ["variable_384/out"], parallel = #sbp.parallel<[] -> [[#sbp.B]]>, scope_symbol_id = 2194 : i64, shape = [1280 : si64, 3 : si64, 3 : si64, 1280 : si64]} : () -> tensor<1280x3x3x1280xf16>
    %V = "oneflow.variable"() {data_type = 9 : i32, device_name = ["@0:0"], device_tag = "cuda", hierarchy = [1], op_name = "unet.down_blocks.3.resnets.0.conv2.bias", output_lbns = ["unet.down_blocks.3.resnets.0.conv2.bias/out"], parallel = #sbp.parallel<[] -> [[#sbp.B]]>, scope_symbol_id = 2198 : i64, shape = [1280 : si64]} : () -> tensor<1280xf16>
    %V = "oneflow.variable"() {data_type = 9 : i32, device_name = ["@0:0"], device_tag = "cuda", hierarchy = [1], op_name = "unet.down_blocks.3.resnets.1.norm1.weight", output_lbns = ["unet.down_blocks.3.resnets.1.norm1.weight/out"], parallel = #sbp.parallel<[] -> [[#sbp.B]]>, scope_symbol_id = 2213 : i64, shape = [1280 : si64]} : () -> tensor<1280xf16>
    %V = "oneflow.variable"() {data_type = 9 : i32, device_name = ["@0:0"], device_tag = "cuda", hierarchy = [1], op_name = "unet.down_blocks.3.resnets.1.norm1.bias", output_lbns = ["unet.down_blocks.3.resnets.1.norm1.bias/out"], parallel = #sbp.parallel<[] -> [[#sbp.B]]>, scope_symbol_id = 2217 : i64, shape = [1280 : si64]} : () -> tensor<1280xf16>
    %V = "oneflow.variable"() {data_type = 9 : i32, device_name = ["@0:0"], device_tag = "cuda", hierarchy = [1], op_name = "variable_383", output_lbns = ["variable_383/out"], parallel = #sbp.parallel<[] -> [[#sbp.B]]>, scope_symbol_id = 2229 : i64, shape = [1280 : si64, 3 : si64, 3 : si64, 1280 : si64]} : () -> tensor<1280x3x3x1280xf16>
    %V = "oneflow.variable"() {data_type = 9 : i32, device_name = ["@0:0"], device_tag = "cuda", hierarchy = [1], op_name = "unet.down_blocks.3.resnets.1.conv1.bias", output_lbns = ["unet.down_blocks.3.resnets.1.conv1.bias/out"], parallel = #sbp.parallel<[] -> [[#sbp.B]]>, scope_symbol_id = 2233 : i64, shape = [1280 : si64]} : () -> tensor<1280xf16>
    %V = "oneflow.variable"() {data_type = 9 : i32, device_name = ["@0:0"], device_tag = "cuda", hierarchy = [1], op_name = "unet.down_blocks.3.resnets.1.time_emb_proj.weight", output_lbns = ["unet.down_blocks.3.resnets.1.time_emb_proj.weight/out"], parallel = #sbp.parallel<[] -> [[#sbp.B]]>, scope_symbol_id = 2244 : i64, shape = [1280 : si64, 1280 : si64]} : () -> tensor<1280x1280xf16>
    %V = "oneflow.variable"() {data_type = 9 : i32, device_name = ["@0:0"], device_tag = "cuda", hierarchy = [1], op_name = "unet.down_blocks.3.resnets.1.time_emb_proj.bias", output_lbns = ["unet.down_blocks.3.resnets.1.time_emb_proj.bias/out"], parallel = #sbp.parallel<[] -> [[#sbp.B]]>, scope_symbol_id = 2251 : i64, shape = [1280 : si64]} : () -> tensor<1280xf16>
    %V = "oneflow.variable"() {data_type = 9 : i32, device_name = ["@0:0"], device_tag = "cuda", hierarchy = [1], op_name = "unet.down_blocks.3.resnets.1.norm2.weight", output_lbns = ["unet.down_blocks.3.resnets.1.norm2.weight/out"], parallel = #sbp.parallel<[] -> [[#sbp.B]]>, scope_symbol_id = 2268 : i64, shape = [1280 : si64]} : () -> tensor<1280xf16>
    %V = "oneflow.variable"() {data_type = 9 : i32, device_name = ["@0:0"], device_tag = "cuda", hierarchy = [1], op_name = "unet.down_blocks.3.resnets.1.norm2.bias", output_lbns = ["unet.down_blocks.3.resnets.1.norm2.bias/out"], parallel = #sbp.parallel<[] -> [[#sbp.B]]>, scope_symbol_id = 2272 : i64, shape = [1280 : si64]} : () -> tensor<1280xf16>
    %V = "oneflow.variable"() {data_type = 9 : i32, device_name = ["@0:0"], device_tag = "cuda", hierarchy = [1], op_name = "variable_382", output_lbns = ["variable_382/out"], parallel = #sbp.parallel<[] -> [[#sbp.B]]>, scope_symbol_id = 2284 : i64, shape = [1280 : si64, 3 : si64, 3 : si64, 1280 : si64]} : () -> tensor<1280x3x3x1280xf16>
    %V = "oneflow.variable"() {data_type = 9 : i32, device_name = ["@0:0"], device_tag = "cuda", hierarchy = [1], op_name = "unet.down_blocks.3.resnets.1.conv2.bias", output_lbns = ["unet.down_blocks.3.resnets.1.conv2.bias/out"], parallel = #sbp.parallel<[] -> [[#sbp.B]]>, scope_symbol_id = 2288 : i64, shape = [1280 : si64]} : () -> tensor<1280xf16>
    %V = "oneflow.variable"() {data_type = 9 : i32, device_name = ["@0:0"], device_tag = "cuda", hierarchy = [1], op_name = "unet.mid_block.resnets.0.norm1.weight", output_lbns = ["unet.mid_block.resnets.0.norm1.weight/out"], parallel = #sbp.parallel<[] -> [[#sbp.B]]>, scope_symbol_id = 2304 : i64, shape = [1280 : si64]} : () -> tensor<1280xf16>
    %V = "oneflow.variable"() {data_type = 9 : i32, device_name = ["@0:0"], device_tag = "cuda", hierarchy = [1], op_name = "unet.mid_block.resnets.0.norm1.bias", output_lbns = ["unet.mid_block.resnets.0.norm1.bias/out"], parallel = #sbp.parallel<[] -> [[#sbp.B]]>, scope_symbol_id = 2308 : i64, shape = [1280 : si64]} : () -> tensor<1280xf16>
    %V = "oneflow.variable"() {data_type = 9 : i32, device_name = ["@0:0"], device_tag = "cuda", hierarchy = [1], op_name = "variable_381", output_lbns = ["variable_381/out"], parallel = #sbp.parallel<[] -> [[#sbp.B]]>, scope_symbol_id = 2320 : i64, shape = [1280 : si64, 3 : si64, 3 : si64, 1280 : si64]} : () -> tensor<1280x3x3x1280xf16>
    %V = "oneflow.variable"() {data_type = 9 : i32, device_name = ["@0:0"], device_tag = "cuda", hierarchy = [1], op_name = "unet.mid_block.resnets.0.conv1.bias", output_lbns = ["unet.mid_block.resnets.0.conv1.bias/out"], parallel = #sbp.parallel<[] -> [[#sbp.B]]>, scope_symbol_id = 2324 : i64, shape = [1280 : si64]} : () -> tensor<1280xf16>
    %V = "oneflow.variable"() {data_type = 9 : i32, device_name = ["@0:0"], device_tag = "cuda", hierarchy = [1], op_name = "unet.mid_block.resnets.0.time_emb_proj.weight", output_lbns = ["unet.mid_block.resnets.0.time_emb_proj.weight/out"], parallel = #sbp.parallel<[] -> [[#sbp.B]]>, scope_symbol_id = 2335 : i64, shape = [1280 : si64, 1280 : si64]} : () -> tensor<1280x1280xf16>
    %V = "oneflow.variable"() {data_type = 9 : i32, device_name = ["@0:0"], device_tag = "cuda", hierarchy = [1], op_name = "unet.mid_block.resnets.0.time_emb_proj.bias", output_lbns = ["unet.mid_block.resnets.0.time_emb_proj.bias/out"], parallel = #sbp.parallel<[] -> [[#sbp.B]]>, scope_symbol_id = 2342 : i64, shape = [1280 : si64]} : () -> tensor<1280xf16>
    %V = "oneflow.variable"() {data_type = 9 : i32, device_name = ["@0:0"], device_tag = "cuda", hierarchy = [1], op_name = "unet.mid_block.resnets.0.norm2.weight", output_lbns = ["unet.mid_block.resnets.0.norm2.weight/out"], parallel = #sbp.parallel<[] -> [[#sbp.B]]>, scope_symbol_id = 2359 : i64, shape = [1280 : si64]} : () -> tensor<1280xf16>
    %V = "oneflow.variable"() {data_type = 9 : i32, device_name = ["@0:0"], device_tag = "cuda", hierarchy = [1], op_name = "unet.mid_block.resnets.0.norm2.bias", output_lbns = ["unet.mid_block.resnets.0.norm2.bias/out"], parallel = #sbp.parallel<[] -> [[#sbp.B]]>, scope_symbol_id = 2363 : i64, shape = [1280 : si64]} : () -> tensor<1280xf16>
    %V = "oneflow.variable"() {data_type = 9 : i32, device_name = ["@0:0"], device_tag = "cuda", hierarchy = [1], op_name = "variable_380", output_lbns = ["variable_380/out"], parallel = #sbp.parallel<[] -> [[#sbp.B]]>, scope_symbol_id = 2375 : i64, shape = [1280 : si64, 3 : si64, 3 : si64, 1280 : si64]} : () -> tensor<1280x3x3x1280xf16>
    %V = "oneflow.variable"() {data_type = 9 : i32, device_name = ["@0:0"], device_tag = "cuda", hierarchy = [1], op_name = "unet.mid_block.resnets.0.conv2.bias", output_lbns = ["unet.mid_block.resnets.0.conv2.bias/out"], parallel = #sbp.parallel<[] -> [[#sbp.B]]>, scope_symbol_id = 2379 : i64, shape = [1280 : si64]} : () -> tensor<1280xf16>
    %V = "oneflow.variable"() {data_type = 9 : i32, device_name = ["@0:0"], device_tag = "cuda", hierarchy = [1], op_name = "unet.mid_block.attentions.0.norm.weight", output_lbns = ["unet.mid_block.attentions.0.norm.weight/out"], parallel = #sbp.parallel<[] -> [[#sbp.B]]>, scope_symbol_id = 2394 : i64, shape = [1280 : si64]} : () -> tensor<1280xf16>
    %V = "oneflow.variable"() {data_type = 9 : i32, device_name = ["@0:0"], device_tag = "cuda", hierarchy = [1], op_name = "unet.mid_block.attentions.0.norm.bias", output_lbns = ["unet.mid_block.attentions.0.norm.bias/out"], parallel = #sbp.parallel<[] -> [[#sbp.B]]>, scope_symbol_id = 2398 : i64, shape = [1280 : si64]} : () -> tensor<1280xf16>
    %V = "oneflow.variable"() {data_type = 9 : i32, device_name = ["@0:0"], device_tag = "cuda", hierarchy = [1], op_name = "variable_379", output_lbns = ["variable_379/out"], parallel = #sbp.parallel<[] -> [[#sbp.B]]>, scope_symbol_id = 2406 : i64, shape = [1280 : si64, 1 : si64, 1 : si64, 1280 : si64]} : () -> tensor<1280x1x1x1280xf16>
    %V = "oneflow.variable"() {data_type = 9 : i32, device_name = ["@0:0"], device_tag = "cuda", hierarchy = [1], op_name = "unet.mid_block.attentions.0.proj_in.bias", output_lbns = ["unet.mid_block.attentions.0.proj_in.bias/out"], parallel = #sbp.parallel<[] -> [[#sbp.B]]>, scope_symbol_id = 2410 : i64, shape = [1280 : si64]} : () -> tensor<1280xf16>
    %V = "oneflow.variable"() {data_type = 9 : i32, device_name = ["@0:0"], device_tag = "cuda", hierarchy = [1], op_name = "unet.mid_block.attentions.0.transformer_blocks.0.norm1.weight", output_lbns = ["unet.mid_block.attentions.0.transformer_blocks.0.norm1.weight/out"], parallel = #sbp.parallel<[] -> [[#sbp.B]]>, scope_symbol_id = 2425 : i64, shape = [1280 : si64]} : () -> tensor<1280xf16>
    %V = "oneflow.variable"() {data_type = 9 : i32, device_name = ["@0:0"], device_tag = "cuda", hierarchy = [1], op_name = "unet.mid_block.attentions.0.transformer_blocks.0.norm1.bias", output_lbns = ["unet.mid_block.attentions.0.transformer_blocks.0.norm1.bias/out"], parallel = #sbp.parallel<[] -> [[#sbp.B]]>, scope_symbol_id = 2429 : i64, shape = [1280 : si64]} : () -> tensor<1280xf16>
    %V = "oneflow.variable"() {data_type = 9 : i32, device_name = ["@0:0"], device_tag = "cuda", hierarchy = [1], op_name = "unet.mid_block.attentions.0.transformer_blocks.0.attn1.to_q.weight", output_lbns = ["unet.mid_block.attentions.0.transformer_blocks.0.attn1.to_q.weight/out"], parallel = #sbp.parallel<[] -> [[#sbp.B]]>, scope_symbol_id = 2438 : i64, shape = [1280 : si64, 1280 : si64]} : () -> tensor<1280x1280xf16>
    %V = "oneflow.variable"() {data_type = 9 : i32, device_name = ["@0:0"], device_tag = "cuda", hierarchy = [1], op_name = "unet.mid_block.attentions.0.transformer_blocks.0.attn1.to_k.weight", output_lbns = ["unet.mid_block.attentions.0.transformer_blocks.0.attn1.to_k.weight/out"], parallel = #sbp.parallel<[] -> [[#sbp.B]]>, scope_symbol_id = 2446 : i64, shape = [1280 : si64, 1280 : si64]} : () -> tensor<1280x1280xf16>
    %V = "oneflow.variable"() {data_type = 9 : i32, device_name = ["@0:0"], device_tag = "cuda", hierarchy = [1], op_name = "unet.mid_block.attentions.0.transformer_blocks.0.attn1.to_v.weight", output_lbns = ["unet.mid_block.attentions.0.transformer_blocks.0.attn1.to_v.weight/out"], parallel = #sbp.parallel<[] -> [[#sbp.B]]>, scope_symbol_id = 2454 : i64, shape = [1280 : si64, 1280 : si64]} : () -> tensor<1280x1280xf16>
    %V = "oneflow.variable"() {data_type = 9 : i32, device_name = ["@0:0"], device_tag = "cuda", hierarchy = [1], op_name = "unet.mid_block.attentions.0.transformer_blocks.0.attn1.to_out.0.weight", output_lbns = ["unet.mid_block.attentions.0.transformer_blocks.0.attn1.to_out.0.weight/out"], parallel = #sbp.parallel<[] -> [[#sbp.B]]>, scope_symbol_id = 2465 : i64, shape = [1280 : si64, 1280 : si64]} : () -> tensor<1280x1280xf16>
    %V = "oneflow.variable"() {data_type = 9 : i32, device_name = ["@0:0"], device_tag = "cuda", hierarchy = [1], op_name = "unet.mid_block.attentions.0.transformer_blocks.0.attn1.to_out.0.bias", output_lbns = ["unet.mid_block.attentions.0.transformer_blocks.0.attn1.to_out.0.bias/out"], parallel = #sbp.parallel<[] -> [[#sbp.B]]>, scope_symbol_id = 2472 : i64, shape = [1280 : si64]} : () -> tensor<1280xf16>
    %V = "oneflow.variable"() {data_type = 9 : i32, device_name = ["@0:0"], device_tag = "cuda", hierarchy = [1], op_name = "unet.mid_block.attentions.0.transformer_blocks.0.norm2.weight", output_lbns = ["unet.mid_block.attentions.0.transformer_blocks.0.norm2.weight/out"], parallel = #sbp.parallel<[] -> [[#sbp.B]]>, scope_symbol_id = 2484 : i64, shape = [1280 : si64]} : () -> tensor<1280xf16>
    %V = "oneflow.variable"() {data_type = 9 : i32, device_name = ["@0:0"], device_tag = "cuda", hierarchy = [1], op_name = "unet.mid_block.attentions.0.transformer_blocks.0.norm2.bias", output_lbns = ["unet.mid_block.attentions.0.transformer_blocks.0.norm2.bias/out"], parallel = #sbp.parallel<[] -> [[#sbp.B]]>, scope_symbol_id = 2488 : i64, shape = [1280 : si64]} : () -> tensor<1280xf16>
    %V = "oneflow.variable"() {data_type = 9 : i32, device_name = ["@0:0"], device_tag = "cuda", hierarchy = [1], op_name = "unet.mid_block.attentions.0.transformer_blocks.0.attn2.to_q.weight", output_lbns = ["unet.mid_block.attentions.0.transformer_blocks.0.attn2.to_q.weight/out"], parallel = #sbp.parallel<[] -> [[#sbp.B]]>, scope_symbol_id = 2497 : i64, shape = [1280 : si64, 1280 : si64]} : () -> tensor<1280x1280xf16>
    %V = "oneflow.variable"() {data_type = 9 : i32, device_name = ["@0:0"], device_tag = "cuda", hierarchy = [1], op_name = "unet.mid_block.attentions.0.transformer_blocks.0.attn2.to_k.weight", output_lbns = ["unet.mid_block.attentions.0.transformer_blocks.0.attn2.to_k.weight/out"], parallel = #sbp.parallel<[] -> [[#sbp.B]]>, scope_symbol_id = 2505 : i64, shape = [1280 : si64, 768 : si64]} : () -> tensor<1280x768xf16>
    %V = "oneflow.variable"() {data_type = 9 : i32, device_name = ["@0:0"], device_tag = "cuda", hierarchy = [1], op_name = "unet.mid_block.attentions.0.transformer_blocks.0.attn2.to_v.weight", output_lbns = ["unet.mid_block.attentions.0.transformer_blocks.0.attn2.to_v.weight/out"], parallel = #sbp.parallel<[] -> [[#sbp.B]]>, scope_symbol_id = 2513 : i64, shape = [1280 : si64, 768 : si64]} : () -> tensor<1280x768xf16>
    %V = "oneflow.variable"() {data_type = 9 : i32, device_name = ["@0:0"], device_tag = "cuda", hierarchy = [1], op_name = "unet.mid_block.attentions.0.transformer_blocks.0.attn2.to_out.0.weight", output_lbns = ["unet.mid_block.attentions.0.transformer_blocks.0.attn2.to_out.0.weight/out"], parallel = #sbp.parallel<[] -> [[#sbp.B]]>, scope_symbol_id = 2524 : i64, shape = [1280 : si64, 1280 : si64]} : () -> tensor<1280x1280xf16>
    %V = "oneflow.variable"() {data_type = 9 : i32, device_name = ["@0:0"], device_tag = "cuda", hierarchy = [1], op_name = "unet.mid_block.attentions.0.transformer_blocks.0.attn2.to_out.0.bias", output_lbns = ["unet.mid_block.attentions.0.transformer_blocks.0.attn2.to_out.0.bias/out"], parallel = #sbp.parallel<[] -> [[#sbp.B]]>, scope_symbol_id = 2531 : i64, shape = [1280 : si64]} : () -> tensor<1280xf16>
    %V = "oneflow.variable"() {data_type = 9 : i32, device_name = ["@0:0"], device_tag = "cuda", hierarchy = [1], op_name = "unet.mid_block.attentions.0.transformer_blocks.0.norm3.weight", output_lbns = ["unet.mid_block.attentions.0.transformer_blocks.0.norm3.weight/out"], parallel = #sbp.parallel<[] -> [[#sbp.B]]>, scope_symbol_id = 2543 : i64, shape = [1280 : si64]} : () -> tensor<1280xf16>
    %V = "oneflow.variable"() {data_type = 9 : i32, device_name = ["@0:0"], device_tag = "cuda", hierarchy = [1], op_name = "unet.mid_block.attentions.0.transformer_blocks.0.norm3.bias", output_lbns = ["unet.mid_block.attentions.0.transformer_blocks.0.norm3.bias/out"], parallel = #sbp.parallel<[] -> [[#sbp.B]]>, scope_symbol_id = 2547 : i64, shape = [1280 : si64]} : () -> tensor<1280xf16>
    %V = "oneflow.variable"() {data_type = 9 : i32, device_name = ["@0:0"], device_tag = "cuda", hierarchy = [1], op_name = "unet.mid_block.attentions.0.transformer_blocks.0.ff.net.0.proj.weight", output_lbns = ["unet.mid_block.attentions.0.transformer_blocks.0.ff.net.0.proj.weight/out"], parallel = #sbp.parallel<[] -> [[#sbp.B]]>, scope_symbol_id = 2557 : i64, shape = [10240 : si64, 1280 : si64]} : () -> tensor<10240x1280xf16>
    %V = "oneflow.variable"() {data_type = 9 : i32, device_name = ["@0:0"], device_tag = "cuda", hierarchy = [1], op_name = "unet.mid_block.attentions.0.transformer_blocks.0.ff.net.0.proj.bias", output_lbns = ["unet.mid_block.attentions.0.transformer_blocks.0.ff.net.0.proj.bias/out"], parallel = #sbp.parallel<[] -> [[#sbp.B]]>, scope_symbol_id = 2564 : i64, shape = [10240 : si64]} : () -> tensor<10240xf16>
    %V = "oneflow.variable"() {data_type = 9 : i32, device_name = ["@0:0"], device_tag = "cuda", hierarchy = [1], op_name = "unet.mid_block.attentions.0.transformer_blocks.0.ff.net.2.weight", output_lbns = ["unet.mid_block.attentions.0.transformer_blocks.0.ff.net.2.weight/out"], parallel = #sbp.parallel<[] -> [[#sbp.B]]>, scope_symbol_id = 2585 : i64, shape = [1280 : si64, 5120 : si64]} : () -> tensor<1280x5120xf16>
    %V = "oneflow.variable"() {data_type = 9 : i32, device_name = ["@0:0"], device_tag = "cuda", hierarchy = [1], op_name = "unet.mid_block.attentions.0.transformer_blocks.0.ff.net.2.bias", output_lbns = ["unet.mid_block.attentions.0.transformer_blocks.0.ff.net.2.bias/out"], parallel = #sbp.parallel<[] -> [[#sbp.B]]>, scope_symbol_id = 2592 : i64, shape = [1280 : si64]} : () -> tensor<1280xf16>
    %V = "oneflow.variable"() {data_type = 9 : i32, device_name = ["@0:0"], device_tag = "cuda", hierarchy = [1], op_name = "variable_378", output_lbns = ["variable_378/out"], parallel = #sbp.parallel<[] -> [[#sbp.B]]>, scope_symbol_id = 2609 : i64, shape = [1280 : si64, 1 : si64, 1 : si64, 1280 : si64]} : () -> tensor<1280x1x1x1280xf16>
    %V = "oneflow.variable"() {data_type = 9 : i32, device_name = ["@0:0"], device_tag = "cuda", hierarchy = [1], op_name = "unet.mid_block.attentions.0.proj_out.bias", output_lbns = ["unet.mid_block.attentions.0.proj_out.bias/out"], parallel = #sbp.parallel<[] -> [[#sbp.B]]>, scope_symbol_id = 2613 : i64, shape = [1280 : si64]} : () -> tensor<1280xf16>
    %V = "oneflow.variable"() {data_type = 9 : i32, device_name = ["@0:0"], device_tag = "cuda", hierarchy = [1], op_name = "unet.mid_block.resnets.1.norm1.weight", output_lbns = ["unet.mid_block.resnets.1.norm1.weight/out"], parallel = #sbp.parallel<[] -> [[#sbp.B]]>, scope_symbol_id = 2625 : i64, shape = [1280 : si64]} : () -> tensor<1280xf16>
    %V = "oneflow.variable"() {data_type = 9 : i32, device_name = ["@0:0"], device_tag = "cuda", hierarchy = [1], op_name = "unet.mid_block.resnets.1.norm1.bias", output_lbns = ["unet.mid_block.resnets.1.norm1.bias/out"], parallel = #sbp.parallel<[] -> [[#sbp.B]]>, scope_symbol_id = 2629 : i64, shape = [1280 : si64]} : () -> tensor<1280xf16>
    %V = "oneflow.variable"() {data_type = 9 : i32, device_name = ["@0:0"], device_tag = "cuda", hierarchy = [1], op_name = "variable_377", output_lbns = ["variable_377/out"], parallel = #sbp.parallel<[] -> [[#sbp.B]]>, scope_symbol_id = 2641 : i64, shape = [1280 : si64, 3 : si64, 3 : si64, 1280 : si64]} : () -> tensor<1280x3x3x1280xf16>
    %V = "oneflow.variable"() {data_type = 9 : i32, device_name = ["@0:0"], device_tag = "cuda", hierarchy = [1], op_name = "unet.mid_block.resnets.1.conv1.bias", output_lbns = ["unet.mid_block.resnets.1.conv1.bias/out"], parallel = #sbp.parallel<[] -> [[#sbp.B]]>, scope_symbol_id = 2645 : i64, shape = [1280 : si64]} : () -> tensor<1280xf16>
    %V = "oneflow.variable"() {data_type = 9 : i32, device_name = ["@0:0"], device_tag = "cuda", hierarchy = [1], op_name = "unet.mid_block.resnets.1.time_emb_proj.weight", output_lbns = ["unet.mid_block.resnets.1.time_emb_proj.weight/out"], parallel = #sbp.parallel<[] -> [[#sbp.B]]>, scope_symbol_id = 2656 : i64, shape = [1280 : si64, 1280 : si64]} : () -> tensor<1280x1280xf16>
    %V = "oneflow.variable"() {data_type = 9 : i32, device_name = ["@0:0"], device_tag = "cuda", hierarchy = [1], op_name = "unet.mid_block.resnets.1.time_emb_proj.bias", output_lbns = ["unet.mid_block.resnets.1.time_emb_proj.bias/out"], parallel = #sbp.parallel<[] -> [[#sbp.B]]>, scope_symbol_id = 2663 : i64, shape = [1280 : si64]} : () -> tensor<1280xf16>
    %V = "oneflow.variable"() {data_type = 9 : i32, device_name = ["@0:0"], device_tag = "cuda", hierarchy = [1], op_name = "unet.mid_block.resnets.1.norm2.weight", output_lbns = ["unet.mid_block.resnets.1.norm2.weight/out"], parallel = #sbp.parallel<[] -> [[#sbp.B]]>, scope_symbol_id = 2680 : i64, shape = [1280 : si64]} : () -> tensor<1280xf16>
    %V = "oneflow.variable"() {data_type = 9 : i32, device_name = ["@0:0"], device_tag = "cuda", hierarchy = [1], op_name = "unet.mid_block.resnets.1.norm2.bias", output_lbns = ["unet.mid_block.resnets.1.norm2.bias/out"], parallel = #sbp.parallel<[] -> [[#sbp.B]]>, scope_symbol_id = 2684 : i64, shape = [1280 : si64]} : () -> tensor<1280xf16>
    %V = "oneflow.variable"() {data_type = 9 : i32, device_name = ["@0:0"], device_tag = "cuda", hierarchy = [1], op_name = "variable_376", output_lbns = ["variable_376/out"], parallel = #sbp.parallel<[] -> [[#sbp.B]]>, scope_symbol_id = 2696 : i64, shape = [1280 : si64, 3 : si64, 3 : si64, 1280 : si64]} : () -> tensor<1280x3x3x1280xf16>
    %V = "oneflow.variable"() {data_type = 9 : i32, device_name = ["@0:0"], device_tag = "cuda", hierarchy = [1], op_name = "unet.mid_block.resnets.1.conv2.bias", output_lbns = ["unet.mid_block.resnets.1.conv2.bias/out"], parallel = #sbp.parallel<[] -> [[#sbp.B]]>, scope_symbol_id = 2700 : i64, shape = [1280 : si64]} : () -> tensor<1280xf16>
    %V = "oneflow.variable"() {data_type = 9 : i32, device_name = ["@0:0"], device_tag = "cuda", hierarchy = [1], op_name = "unet.up_blocks.0.resnets.0.norm1.weight", output_lbns = ["unet.up_blocks.0.resnets.0.norm1.weight/out"], parallel = #sbp.parallel<[] -> [[#sbp.B]]>, scope_symbol_id = 2719 : i64, shape = [2560 : si64]} : () -> tensor<2560xf16>
    %V = "oneflow.variable"() {data_type = 9 : i32, device_name = ["@0:0"], device_tag = "cuda", hierarchy = [1], op_name = "unet.up_blocks.0.resnets.0.norm1.bias", output_lbns = ["unet.up_blocks.0.resnets.0.norm1.bias/out"], parallel = #sbp.parallel<[] -> [[#sbp.B]]>, scope_symbol_id = 2723 : i64, shape = [2560 : si64]} : () -> tensor<2560xf16>
    %V = "oneflow.variable"() {data_type = 9 : i32, device_name = ["@0:0"], device_tag = "cuda", hierarchy = [1], op_name = "variable_375", output_lbns = ["variable_375/out"], parallel = #sbp.parallel<[] -> [[#sbp.B]]>, scope_symbol_id = 2735 : i64, shape = [1280 : si64, 3 : si64, 3 : si64, 2560 : si64]} : () -> tensor<1280x3x3x2560xf16>
    %V = "oneflow.variable"() {data_type = 9 : i32, device_name = ["@0:0"], device_tag = "cuda", hierarchy = [1], op_name = "unet.up_blocks.0.resnets.0.conv1.bias", output_lbns = ["unet.up_blocks.0.resnets.0.conv1.bias/out"], parallel = #sbp.parallel<[] -> [[#sbp.B]]>, scope_symbol_id = 2739 : i64, shape = [1280 : si64]} : () -> tensor<1280xf16>
    %V = "oneflow.variable"() {data_type = 9 : i32, device_name = ["@0:0"], device_tag = "cuda", hierarchy = [1], op_name = "unet.up_blocks.0.resnets.0.time_emb_proj.weight", output_lbns = ["unet.up_blocks.0.resnets.0.time_emb_proj.weight/out"], parallel = #sbp.parallel<[] -> [[#sbp.B]]>, scope_symbol_id = 2750 : i64, shape = [1280 : si64, 1280 : si64]} : () -> tensor<1280x1280xf16>
    %V = "oneflow.variable"() {data_type = 9 : i32, device_name = ["@0:0"], device_tag = "cuda", hierarchy = [1], op_name = "unet.up_blocks.0.resnets.0.time_emb_proj.bias", output_lbns = ["unet.up_blocks.0.resnets.0.time_emb_proj.bias/out"], parallel = #sbp.parallel<[] -> [[#sbp.B]]>, scope_symbol_id = 2757 : i64, shape = [1280 : si64]} : () -> tensor<1280xf16>
    %V = "oneflow.variable"() {data_type = 9 : i32, device_name = ["@0:0"], device_tag = "cuda", hierarchy = [1], op_name = "unet.up_blocks.0.resnets.0.norm2.weight", output_lbns = ["unet.up_blocks.0.resnets.0.norm2.weight/out"], parallel = #sbp.parallel<[] -> [[#sbp.B]]>, scope_symbol_id = 2774 : i64, shape = [1280 : si64]} : () -> tensor<1280xf16>
    %V = "oneflow.variable"() {data_type = 9 : i32, device_name = ["@0:0"], device_tag = "cuda", hierarchy = [1], op_name = "unet.up_blocks.0.resnets.0.norm2.bias", output_lbns = ["unet.up_blocks.0.resnets.0.norm2.bias/out"], parallel = #sbp.parallel<[] -> [[#sbp.B]]>, scope_symbol_id = 2778 : i64, shape = [1280 : si64]} : () -> tensor<1280xf16>
    %V = "oneflow.variable"() {data_type = 9 : i32, device_name = ["@0:0"], device_tag = "cuda", hierarchy = [1], op_name = "variable_374", output_lbns = ["variable_374/out"], parallel = #sbp.parallel<[] -> [[#sbp.B]]>, scope_symbol_id = 2790 : i64, shape = [1280 : si64, 3 : si64, 3 : si64, 1280 : si64]} : () -> tensor<1280x3x3x1280xf16>
    %V = "oneflow.variable"() {data_type = 9 : i32, device_name = ["@0:0"], device_tag = "cuda", hierarchy = [1], op_name = "unet.up_blocks.0.resnets.0.conv2.bias", output_lbns = ["unet.up_blocks.0.resnets.0.conv2.bias/out"], parallel = #sbp.parallel<[] -> [[#sbp.B]]>, scope_symbol_id = 2794 : i64, shape = [1280 : si64]} : () -> tensor<1280xf16>
    %V = "oneflow.variable"() {data_type = 9 : i32, device_name = ["@0:0"], device_tag = "cuda", hierarchy = [1], op_name = "variable_373", output_lbns = ["variable_373/out"], parallel = #sbp.parallel<[] -> [[#sbp.B]]>, scope_symbol_id = 2802 : i64, shape = [1280 : si64, 1 : si64, 1 : si64, 2560 : si64]} : () -> tensor<1280x1x1x2560xf16>
    %V = "oneflow.variable"() {data_type = 9 : i32, device_name = ["@0:0"], device_tag = "cuda", hierarchy = [1], op_name = "unet.up_blocks.0.resnets.0.conv_shortcut.bias", output_lbns = ["unet.up_blocks.0.resnets.0.conv_shortcut.bias/out"], parallel = #sbp.parallel<[] -> [[#sbp.B]]>, scope_symbol_id = 2806 : i64, shape = [1280 : si64]} : () -> tensor<1280xf16>
    %V = "oneflow.variable"() {data_type = 9 : i32, device_name = ["@0:0"], device_tag = "cuda", hierarchy = [1], op_name = "unet.up_blocks.0.resnets.1.norm1.weight", output_lbns = ["unet.up_blocks.0.resnets.1.norm1.weight/out"], parallel = #sbp.parallel<[] -> [[#sbp.B]]>, scope_symbol_id = 2824 : i64, shape = [2560 : si64]} : () -> tensor<2560xf16>
    %V = "oneflow.variable"() {data_type = 9 : i32, device_name = ["@0:0"], device_tag = "cuda", hierarchy = [1], op_name = "unet.up_blocks.0.resnets.1.norm1.bias", output_lbns = ["unet.up_blocks.0.resnets.1.norm1.bias/out"], parallel = #sbp.parallel<[] -> [[#sbp.B]]>, scope_symbol_id = 2828 : i64, shape = [2560 : si64]} : () -> tensor<2560xf16>
    %V = "oneflow.variable"() {data_type = 9 : i32, device_name = ["@0:0"], device_tag = "cuda", hierarchy = [1], op_name = "variable_372", output_lbns = ["variable_372/out"], parallel = #sbp.parallel<[] -> [[#sbp.B]]>, scope_symbol_id = 2840 : i64, shape = [1280 : si64, 3 : si64, 3 : si64, 2560 : si64]} : () -> tensor<1280x3x3x2560xf16>
    %V = "oneflow.variable"() {data_type = 9 : i32, device_name = ["@0:0"], device_tag = "cuda", hierarchy = [1], op_name = "unet.up_blocks.0.resnets.1.conv1.bias", output_lbns = ["unet.up_blocks.0.resnets.1.conv1.bias/out"], parallel = #sbp.parallel<[] -> [[#sbp.B]]>, scope_symbol_id = 2844 : i64, shape = [1280 : si64]} : () -> tensor<1280xf16>
    %V = "oneflow.variable"() {data_type = 9 : i32, device_name = ["@0:0"], device_tag = "cuda", hierarchy = [1], op_name = "unet.up_blocks.0.resnets.1.time_emb_proj.weight", output_lbns = ["unet.up_blocks.0.resnets.1.time_emb_proj.weight/out"], parallel = #sbp.parallel<[] -> [[#sbp.B]]>, scope_symbol_id = 2855 : i64, shape = [1280 : si64, 1280 : si64]} : () -> tensor<1280x1280xf16>
    %V = "oneflow.variable"() {data_type = 9 : i32, device_name = ["@0:0"], device_tag = "cuda", hierarchy = [1], op_name = "unet.up_blocks.0.resnets.1.time_emb_proj.bias", output_lbns = ["unet.up_blocks.0.resnets.1.time_emb_proj.bias/out"], parallel = #sbp.parallel<[] -> [[#sbp.B]]>, scope_symbol_id = 2862 : i64, shape = [1280 : si64]} : () -> tensor<1280xf16>
    %V = "oneflow.variable"() {data_type = 9 : i32, device_name = ["@0:0"], device_tag = "cuda", hierarchy = [1], op_name = "unet.up_blocks.0.resnets.1.norm2.weight", output_lbns = ["unet.up_blocks.0.resnets.1.norm2.weight/out"], parallel = #sbp.parallel<[] -> [[#sbp.B]]>, scope_symbol_id = 2879 : i64, shape = [1280 : si64]} : () -> tensor<1280xf16>
    %V = "oneflow.variable"() {data_type = 9 : i32, device_name = ["@0:0"], device_tag = "cuda", hierarchy = [1], op_name = "unet.up_blocks.0.resnets.1.norm2.bias", output_lbns = ["unet.up_blocks.0.resnets.1.norm2.bias/out"], parallel = #sbp.parallel<[] -> [[#sbp.B]]>, scope_symbol_id = 2883 : i64, shape = [1280 : si64]} : () -> tensor<1280xf16>
    %V = "oneflow.variable"() {data_type = 9 : i32, device_name = ["@0:0"], device_tag = "cuda", hierarchy = [1], op_name = "variable_371", output_lbns = ["variable_371/out"], parallel = #sbp.parallel<[] -> [[#sbp.B]]>, scope_symbol_id = 2895 : i64, shape = [1280 : si64, 3 : si64, 3 : si64, 1280 : si64]} : () -> tensor<1280x3x3x1280xf16>
    %V = "oneflow.variable"() {data_type = 9 : i32, device_name = ["@0:0"], device_tag = "cuda", hierarchy = [1], op_name = "unet.up_blocks.0.resnets.1.conv2.bias", output_lbns = ["unet.up_blocks.0.resnets.1.conv2.bias/out"], parallel = #sbp.parallel<[] -> [[#sbp.B]]>, scope_symbol_id = 2899 : i64, shape = [1280 : si64]} : () -> tensor<1280xf16>
    %V = "oneflow.variable"() {data_type = 9 : i32, device_name = ["@0:0"], device_tag = "cuda", hierarchy = [1], op_name = "variable_370", output_lbns = ["variable_370/out"], parallel = #sbp.parallel<[] -> [[#sbp.B]]>, scope_symbol_id = 2907 : i64, shape = [1280 : si64, 1 : si64, 1 : si64, 2560 : si64]} : () -> tensor<1280x1x1x2560xf16>
    %V = "oneflow.variable"() {data_type = 9 : i32, device_name = ["@0:0"], device_tag = "cuda", hierarchy = [1], op_name = "unet.up_blocks.0.resnets.1.conv_shortcut.bias", output_lbns = ["unet.up_blocks.0.resnets.1.conv_shortcut.bias/out"], parallel = #sbp.parallel<[] -> [[#sbp.B]]>, scope_symbol_id = 2911 : i64, shape = [1280 : si64]} : () -> tensor<1280xf16>
    %V = "oneflow.variable"() {data_type = 9 : i32, device_name = ["@0:0"], device_tag = "cuda", hierarchy = [1], op_name = "unet.up_blocks.0.resnets.2.norm1.weight", output_lbns = ["unet.up_blocks.0.resnets.2.norm1.weight/out"], parallel = #sbp.parallel<[] -> [[#sbp.B]]>, scope_symbol_id = 2929 : i64, shape = [2560 : si64]} : () -> tensor<2560xf16>
    %V = "oneflow.variable"() {data_type = 9 : i32, device_name = ["@0:0"], device_tag = "cuda", hierarchy = [1], op_name = "unet.up_blocks.0.resnets.2.norm1.bias", output_lbns = ["unet.up_blocks.0.resnets.2.norm1.bias/out"], parallel = #sbp.parallel<[] -> [[#sbp.B]]>, scope_symbol_id = 2933 : i64, shape = [2560 : si64]} : () -> tensor<2560xf16>
    %V = "oneflow.variable"() {data_type = 9 : i32, device_name = ["@0:0"], device_tag = "cuda", hierarchy = [1], op_name = "variable_369", output_lbns = ["variable_369/out"], parallel = #sbp.parallel<[] -> [[#sbp.B]]>, scope_symbol_id = 2945 : i64, shape = [1280 : si64, 3 : si64, 3 : si64, 2560 : si64]} : () -> tensor<1280x3x3x2560xf16>
    %V = "oneflow.variable"() {data_type = 9 : i32, device_name = ["@0:0"], device_tag = "cuda", hierarchy = [1], op_name = "unet.up_blocks.0.resnets.2.conv1.bias", output_lbns = ["unet.up_blocks.0.resnets.2.conv1.bias/out"], parallel = #sbp.parallel<[] -> [[#sbp.B]]>, scope_symbol_id = 2949 : i64, shape = [1280 : si64]} : () -> tensor<1280xf16>
    %V = "oneflow.variable"() {data_type = 9 : i32, device_name = ["@0:0"], device_tag = "cuda", hierarchy = [1], op_name = "unet.up_blocks.0.resnets.2.time_emb_proj.weight", output_lbns = ["unet.up_blocks.0.resnets.2.time_emb_proj.weight/out"], parallel = #sbp.parallel<[] -> [[#sbp.B]]>, scope_symbol_id = 2960 : i64, shape = [1280 : si64, 1280 : si64]} : () -> tensor<1280x1280xf16>
    %V = "oneflow.variable"() {data_type = 9 : i32, device_name = ["@0:0"], device_tag = "cuda", hierarchy = [1], op_name = "unet.up_blocks.0.resnets.2.time_emb_proj.bias", output_lbns = ["unet.up_blocks.0.resnets.2.time_emb_proj.bias/out"], parallel = #sbp.parallel<[] -> [[#sbp.B]]>, scope_symbol_id = 2967 : i64, shape = [1280 : si64]} : () -> tensor<1280xf16>
    %V = "oneflow.variable"() {data_type = 9 : i32, device_name = ["@0:0"], device_tag = "cuda", hierarchy = [1], op_name = "unet.up_blocks.0.resnets.2.norm2.weight", output_lbns = ["unet.up_blocks.0.resnets.2.norm2.weight/out"], parallel = #sbp.parallel<[] -> [[#sbp.B]]>, scope_symbol_id = 2984 : i64, shape = [1280 : si64]} : () -> tensor<1280xf16>
    %V = "oneflow.variable"() {data_type = 9 : i32, device_name = ["@0:0"], device_tag = "cuda", hierarchy = [1], op_name = "unet.up_blocks.0.resnets.2.norm2.bias", output_lbns = ["unet.up_blocks.0.resnets.2.norm2.bias/out"], parallel = #sbp.parallel<[] -> [[#sbp.B]]>, scope_symbol_id = 2988 : i64, shape = [1280 : si64]} : () -> tensor<1280xf16>
    %V = "oneflow.variable"() {data_type = 9 : i32, device_name = ["@0:0"], device_tag = "cuda", hierarchy = [1], op_name = "variable_368", output_lbns = ["variable_368/out"], parallel = #sbp.parallel<[] -> [[#sbp.B]]>, scope_symbol_id = 3000 : i64, shape = [1280 : si64, 3 : si64, 3 : si64, 1280 : si64]} : () -> tensor<1280x3x3x1280xf16>
    %V = "oneflow.variable"() {data_type = 9 : i32, device_name = ["@0:0"], device_tag = "cuda", hierarchy = [1], op_name = "unet.up_blocks.0.resnets.2.conv2.bias", output_lbns = ["unet.up_blocks.0.resnets.2.conv2.bias/out"], parallel = #sbp.parallel<[] -> [[#sbp.B]]>, scope_symbol_id = 3004 : i64, shape = [1280 : si64]} : () -> tensor<1280xf16>
    %V = "oneflow.variable"() {data_type = 9 : i32, device_name = ["@0:0"], device_tag = "cuda", hierarchy = [1], op_name = "variable_367", output_lbns = ["variable_367/out"], parallel = #sbp.parallel<[] -> [[#sbp.B]]>, scope_symbol_id = 3012 : i64, shape = [1280 : si64, 1 : si64, 1 : si64, 2560 : si64]} : () -> tensor<1280x1x1x2560xf16>
    %V = "oneflow.variable"() {data_type = 9 : i32, device_name = ["@0:0"], device_tag = "cuda", hierarchy = [1], op_name = "unet.up_blocks.0.resnets.2.conv_shortcut.bias", output_lbns = ["unet.up_blocks.0.resnets.2.conv_shortcut.bias/out"], parallel = #sbp.parallel<[] -> [[#sbp.B]]>, scope_symbol_id = 3016 : i64, shape = [1280 : si64]} : () -> tensor<1280xf16>
    %V = "oneflow.variable"() {data_type = 9 : i32, device_name = ["@0:0"], device_tag = "cuda", hierarchy = [1], op_name = "variable_366", output_lbns = ["variable_366/out"], parallel = #sbp.parallel<[] -> [[#sbp.B]]>, scope_symbol_id = 3034 : i64, shape = [1280 : si64, 3 : si64, 3 : si64, 1280 : si64]} : () -> tensor<1280x3x3x1280xf16>
    %V = "oneflow.variable"() {data_type = 9 : i32, device_name = ["@0:0"], device_tag = "cuda", hierarchy = [1], op_name = "unet.up_blocks.0.upsamplers.0.conv.bias", output_lbns = ["unet.up_blocks.0.upsamplers.0.conv.bias/out"], parallel = #sbp.parallel<[] -> [[#sbp.B]]>, scope_symbol_id = 3038 : i64, shape = [1280 : si64]} : () -> tensor<1280xf16>
    %V = "oneflow.variable"() {data_type = 9 : i32, device_name = ["@0:0"], device_tag = "cuda", hierarchy = [1], op_name = "unet.up_blocks.1.resnets.0.norm1.weight", output_lbns = ["unet.up_blocks.1.resnets.0.norm1.weight/out"], parallel = #sbp.parallel<[] -> [[#sbp.B]]>, scope_symbol_id = 3051 : i64, shape = [2560 : si64]} : () -> tensor<2560xf16>
    %V = "oneflow.variable"() {data_type = 9 : i32, device_name = ["@0:0"], device_tag = "cuda", hierarchy = [1], op_name = "unet.up_blocks.1.resnets.0.norm1.bias", output_lbns = ["unet.up_blocks.1.resnets.0.norm1.bias/out"], parallel = #sbp.parallel<[] -> [[#sbp.B]]>, scope_symbol_id = 3055 : i64, shape = [2560 : si64]} : () -> tensor<2560xf16>
    %V = "oneflow.variable"() {data_type = 9 : i32, device_name = ["@0:0"], device_tag = "cuda", hierarchy = [1], op_name = "variable_365", output_lbns = ["variable_365/out"], parallel = #sbp.parallel<[] -> [[#sbp.B]]>, scope_symbol_id = 3067 : i64, shape = [1280 : si64, 3 : si64, 3 : si64, 2560 : si64]} : () -> tensor<1280x3x3x2560xf16>
    %V = "oneflow.variable"() {data_type = 9 : i32, device_name = ["@0:0"], device_tag = "cuda", hierarchy = [1], op_name = "unet.up_blocks.1.resnets.0.conv1.bias", output_lbns = ["unet.up_blocks.1.resnets.0.conv1.bias/out"], parallel = #sbp.parallel<[] -> [[#sbp.B]]>, scope_symbol_id = 3071 : i64, shape = [1280 : si64]} : () -> tensor<1280xf16>
    %V = "oneflow.variable"() {data_type = 9 : i32, device_name = ["@0:0"], device_tag = "cuda", hierarchy = [1], op_name = "unet.up_blocks.1.resnets.0.time_emb_proj.weight", output_lbns = ["unet.up_blocks.1.resnets.0.time_emb_proj.weight/out"], parallel = #sbp.parallel<[] -> [[#sbp.B]]>, scope_symbol_id = 3082 : i64, shape = [1280 : si64, 1280 : si64]} : () -> tensor<1280x1280xf16>
    %V = "oneflow.variable"() {data_type = 9 : i32, device_name = ["@0:0"], device_tag = "cuda", hierarchy = [1], op_name = "unet.up_blocks.1.resnets.0.time_emb_proj.bias", output_lbns = ["unet.up_blocks.1.resnets.0.time_emb_proj.bias/out"], parallel = #sbp.parallel<[] -> [[#sbp.B]]>, scope_symbol_id = 3089 : i64, shape = [1280 : si64]} : () -> tensor<1280xf16>
    %V = "oneflow.variable"() {data_type = 9 : i32, device_name = ["@0:0"], device_tag = "cuda", hierarchy = [1], op_name = "unet.up_blocks.1.resnets.0.norm2.weight", output_lbns = ["unet.up_blocks.1.resnets.0.norm2.weight/out"], parallel = #sbp.parallel<[] -> [[#sbp.B]]>, scope_symbol_id = 3106 : i64, shape = [1280 : si64]} : () -> tensor<1280xf16>
    %V = "oneflow.variable"() {data_type = 9 : i32, device_name = ["@0:0"], device_tag = "cuda", hierarchy = [1], op_name = "unet.up_blocks.1.resnets.0.norm2.bias", output_lbns = ["unet.up_blocks.1.resnets.0.norm2.bias/out"], parallel = #sbp.parallel<[] -> [[#sbp.B]]>, scope_symbol_id = 3110 : i64, shape = [1280 : si64]} : () -> tensor<1280xf16>
    %V = "oneflow.variable"() {data_type = 9 : i32, device_name = ["@0:0"], device_tag = "cuda", hierarchy = [1], op_name = "variable_364", output_lbns = ["variable_364/out"], parallel = #sbp.parallel<[] -> [[#sbp.B]]>, scope_symbol_id = 3122 : i64, shape = [1280 : si64, 3 : si64, 3 : si64, 1280 : si64]} : () -> tensor<1280x3x3x1280xf16>
    %V = "oneflow.variable"() {data_type = 9 : i32, device_name = ["@0:0"], device_tag = "cuda", hierarchy = [1], op_name = "unet.up_blocks.1.resnets.0.conv2.bias", output_lbns = ["unet.up_blocks.1.resnets.0.conv2.bias/out"], parallel = #sbp.parallel<[] -> [[#sbp.B]]>, scope_symbol_id = 3126 : i64, shape = [1280 : si64]} : () -> tensor<1280xf16>
    %V = "oneflow.variable"() {data_type = 9 : i32, device_name = ["@0:0"], device_tag = "cuda", hierarchy = [1], op_name = "variable_363", output_lbns = ["variable_363/out"], parallel = #sbp.parallel<[] -> [[#sbp.B]]>, scope_symbol_id = 3134 : i64, shape = [1280 : si64, 1 : si64, 1 : si64, 2560 : si64]} : () -> tensor<1280x1x1x2560xf16>
    %V = "oneflow.variable"() {data_type = 9 : i32, device_name = ["@0:0"], device_tag = "cuda", hierarchy = [1], op_name = "unet.up_blocks.1.resnets.0.conv_shortcut.bias", output_lbns = ["unet.up_blocks.1.resnets.0.conv_shortcut.bias/out"], parallel = #sbp.parallel<[] -> [[#sbp.B]]>, scope_symbol_id = 3138 : i64, shape = [1280 : si64]} : () -> tensor<1280xf16>
    %V = "oneflow.variable"() {data_type = 9 : i32, device_name = ["@0:0"], device_tag = "cuda", hierarchy = [1], op_name = "unet.up_blocks.1.attentions.0.norm.weight", output_lbns = ["unet.up_blocks.1.attentions.0.norm.weight/out"], parallel = #sbp.parallel<[] -> [[#sbp.B]]>, scope_symbol_id = 3153 : i64, shape = [1280 : si64]} : () -> tensor<1280xf16>
    %V = "oneflow.variable"() {data_type = 9 : i32, device_name = ["@0:0"], device_tag = "cuda", hierarchy = [1], op_name = "unet.up_blocks.1.attentions.0.norm.bias", output_lbns = ["unet.up_blocks.1.attentions.0.norm.bias/out"], parallel = #sbp.parallel<[] -> [[#sbp.B]]>, scope_symbol_id = 3157 : i64, shape = [1280 : si64]} : () -> tensor<1280xf16>
    %V = "oneflow.variable"() {data_type = 9 : i32, device_name = ["@0:0"], device_tag = "cuda", hierarchy = [1], op_name = "variable_362", output_lbns = ["variable_362/out"], parallel = #sbp.parallel<[] -> [[#sbp.B]]>, scope_symbol_id = 3165 : i64, shape = [1280 : si64, 1 : si64, 1 : si64, 1280 : si64]} : () -> tensor<1280x1x1x1280xf16>
    %V = "oneflow.variable"() {data_type = 9 : i32, device_name = ["@0:0"], device_tag = "cuda", hierarchy = [1], op_name = "unet.up_blocks.1.attentions.0.proj_in.bias", output_lbns = ["unet.up_blocks.1.attentions.0.proj_in.bias/out"], parallel = #sbp.parallel<[] -> [[#sbp.B]]>, scope_symbol_id = 3169 : i64, shape = [1280 : si64]} : () -> tensor<1280xf16>
    %V = "oneflow.variable"() {data_type = 9 : i32, device_name = ["@0:0"], device_tag = "cuda", hierarchy = [1], op_name = "unet.up_blocks.1.attentions.0.transformer_blocks.0.norm1.weight", output_lbns = ["unet.up_blocks.1.attentions.0.transformer_blocks.0.norm1.weight/out"], parallel = #sbp.parallel<[] -> [[#sbp.B]]>, scope_symbol_id = 3184 : i64, shape = [1280 : si64]} : () -> tensor<1280xf16>
    %V = "oneflow.variable"() {data_type = 9 : i32, device_name = ["@0:0"], device_tag = "cuda", hierarchy = [1], op_name = "unet.up_blocks.1.attentions.0.transformer_blocks.0.norm1.bias", output_lbns = ["unet.up_blocks.1.attentions.0.transformer_blocks.0.norm1.bias/out"], parallel = #sbp.parallel<[] -> [[#sbp.B]]>, scope_symbol_id = 3188 : i64, shape = [1280 : si64]} : () -> tensor<1280xf16>
    %V = "oneflow.variable"() {data_type = 9 : i32, device_name = ["@0:0"], device_tag = "cuda", hierarchy = [1], op_name = "unet.up_blocks.1.attentions.0.transformer_blocks.0.attn1.to_q.weight", output_lbns = ["unet.up_blocks.1.attentions.0.transformer_blocks.0.attn1.to_q.weight/out"], parallel = #sbp.parallel<[] -> [[#sbp.B]]>, scope_symbol_id = 3197 : i64, shape = [1280 : si64, 1280 : si64]} : () -> tensor<1280x1280xf16>
    %V = "oneflow.variable"() {data_type = 9 : i32, device_name = ["@0:0"], device_tag = "cuda", hierarchy = [1], op_name = "unet.up_blocks.1.attentions.0.transformer_blocks.0.attn1.to_k.weight", output_lbns = ["unet.up_blocks.1.attentions.0.transformer_blocks.0.attn1.to_k.weight/out"], parallel = #sbp.parallel<[] -> [[#sbp.B]]>, scope_symbol_id = 3205 : i64, shape = [1280 : si64, 1280 : si64]} : () -> tensor<1280x1280xf16>
    %V = "oneflow.variable"() {data_type = 9 : i32, device_name = ["@0:0"], device_tag = "cuda", hierarchy = [1], op_name = "unet.up_blocks.1.attentions.0.transformer_blocks.0.attn1.to_v.weight", output_lbns = ["unet.up_blocks.1.attentions.0.transformer_blocks.0.attn1.to_v.weight/out"], parallel = #sbp.parallel<[] -> [[#sbp.B]]>, scope_symbol_id = 3213 : i64, shape = [1280 : si64, 1280 : si64]} : () -> tensor<1280x1280xf16>
    %V = "oneflow.variable"() {data_type = 9 : i32, device_name = ["@0:0"], device_tag = "cuda", hierarchy = [1], op_name = "unet.up_blocks.1.attentions.0.transformer_blocks.0.attn1.to_out.0.weight", output_lbns = ["unet.up_blocks.1.attentions.0.transformer_blocks.0.attn1.to_out.0.weight/out"], parallel = #sbp.parallel<[] -> [[#sbp.B]]>, scope_symbol_id = 3224 : i64, shape = [1280 : si64, 1280 : si64]} : () -> tensor<1280x1280xf16>
    %V = "oneflow.variable"() {data_type = 9 : i32, device_name = ["@0:0"], device_tag = "cuda", hierarchy = [1], op_name = "unet.up_blocks.1.attentions.0.transformer_blocks.0.attn1.to_out.0.bias", output_lbns = ["unet.up_blocks.1.attentions.0.transformer_blocks.0.attn1.to_out.0.bias/out"], parallel = #sbp.parallel<[] -> [[#sbp.B]]>, scope_symbol_id = 3231 : i64, shape = [1280 : si64]} : () -> tensor<1280xf16>
    %V = "oneflow.variable"() {data_type = 9 : i32, device_name = ["@0:0"], device_tag = "cuda", hierarchy = [1], op_name = "unet.up_blocks.1.attentions.0.transformer_blocks.0.norm2.weight", output_lbns = ["unet.up_blocks.1.attentions.0.transformer_blocks.0.norm2.weight/out"], parallel = #sbp.parallel<[] -> [[#sbp.B]]>, scope_symbol_id = 3243 : i64, shape = [1280 : si64]} : () -> tensor<1280xf16>
    %V = "oneflow.variable"() {data_type = 9 : i32, device_name = ["@0:0"], device_tag = "cuda", hierarchy = [1], op_name = "unet.up_blocks.1.attentions.0.transformer_blocks.0.norm2.bias", output_lbns = ["unet.up_blocks.1.attentions.0.transformer_blocks.0.norm2.bias/out"], parallel = #sbp.parallel<[] -> [[#sbp.B]]>, scope_symbol_id = 3247 : i64, shape = [1280 : si64]} : () -> tensor<1280xf16>
    %V = "oneflow.variable"() {data_type = 9 : i32, device_name = ["@0:0"], device_tag = "cuda", hierarchy = [1], op_name = "unet.up_blocks.1.attentions.0.transformer_blocks.0.attn2.to_q.weight", output_lbns = ["unet.up_blocks.1.attentions.0.transformer_blocks.0.attn2.to_q.weight/out"], parallel = #sbp.parallel<[] -> [[#sbp.B]]>, scope_symbol_id = 3256 : i64, shape = [1280 : si64, 1280 : si64]} : () -> tensor<1280x1280xf16>
    %V = "oneflow.variable"() {data_type = 9 : i32, device_name = ["@0:0"], device_tag = "cuda", hierarchy = [1], op_name = "unet.up_blocks.1.attentions.0.transformer_blocks.0.attn2.to_k.weight", output_lbns = ["unet.up_blocks.1.attentions.0.transformer_blocks.0.attn2.to_k.weight/out"], parallel = #sbp.parallel<[] -> [[#sbp.B]]>, scope_symbol_id = 3264 : i64, shape = [1280 : si64, 768 : si64]} : () -> tensor<1280x768xf16>
    %V = "oneflow.variable"() {data_type = 9 : i32, device_name = ["@0:0"], device_tag = "cuda", hierarchy = [1], op_name = "unet.up_blocks.1.attentions.0.transformer_blocks.0.attn2.to_v.weight", output_lbns = ["unet.up_blocks.1.attentions.0.transformer_blocks.0.attn2.to_v.weight/out"], parallel = #sbp.parallel<[] -> [[#sbp.B]]>, scope_symbol_id = 3272 : i64, shape = [1280 : si64, 768 : si64]} : () -> tensor<1280x768xf16>
    %V = "oneflow.variable"() {data_type = 9 : i32, device_name = ["@0:0"], device_tag = "cuda", hierarchy = [1], op_name = "unet.up_blocks.1.attentions.0.transformer_blocks.0.attn2.to_out.0.weight", output_lbns = ["unet.up_blocks.1.attentions.0.transformer_blocks.0.attn2.to_out.0.weight/out"], parallel = #sbp.parallel<[] -> [[#sbp.B]]>, scope_symbol_id = 3283 : i64, shape = [1280 : si64, 1280 : si64]} : () -> tensor<1280x1280xf16>
    %V = "oneflow.variable"() {data_type = 9 : i32, device_name = ["@0:0"], device_tag = "cuda", hierarchy = [1], op_name = "unet.up_blocks.1.attentions.0.transformer_blocks.0.attn2.to_out.0.bias", output_lbns = ["unet.up_blocks.1.attentions.0.transformer_blocks.0.attn2.to_out.0.bias/out"], parallel = #sbp.parallel<[] -> [[#sbp.B]]>, scope_symbol_id = 3290 : i64, shape = [1280 : si64]} : () -> tensor<1280xf16>
    %V = "oneflow.variable"() {data_type = 9 : i32, device_name = ["@0:0"], device_tag = "cuda", hierarchy = [1], op_name = "unet.up_blocks.1.attentions.0.transformer_blocks.0.norm3.weight", output_lbns = ["unet.up_blocks.1.attentions.0.transformer_blocks.0.norm3.weight/out"], parallel = #sbp.parallel<[] -> [[#sbp.B]]>, scope_symbol_id = 3302 : i64, shape = [1280 : si64]} : () -> tensor<1280xf16>
    %V = "oneflow.variable"() {data_type = 9 : i32, device_name = ["@0:0"], device_tag = "cuda", hierarchy = [1], op_name = "unet.up_blocks.1.attentions.0.transformer_blocks.0.norm3.bias", output_lbns = ["unet.up_blocks.1.attentions.0.transformer_blocks.0.norm3.bias/out"], parallel = #sbp.parallel<[] -> [[#sbp.B]]>, scope_symbol_id = 3306 : i64, shape = [1280 : si64]} : () -> tensor<1280xf16>
    %V = "oneflow.variable"() {data_type = 9 : i32, device_name = ["@0:0"], device_tag = "cuda", hierarchy = [1], op_name = "unet.up_blocks.1.attentions.0.transformer_blocks.0.ff.net.0.proj.weight", output_lbns = ["unet.up_blocks.1.attentions.0.transformer_blocks.0.ff.net.0.proj.weight/out"], parallel = #sbp.parallel<[] -> [[#sbp.B]]>, scope_symbol_id = 3316 : i64, shape = [10240 : si64, 1280 : si64]} : () -> tensor<10240x1280xf16>
    %V = "oneflow.variable"() {data_type = 9 : i32, device_name = ["@0:0"], device_tag = "cuda", hierarchy = [1], op_name = "unet.up_blocks.1.attentions.0.transformer_blocks.0.ff.net.0.proj.bias", output_lbns = ["unet.up_blocks.1.attentions.0.transformer_blocks.0.ff.net.0.proj.bias/out"], parallel = #sbp.parallel<[] -> [[#sbp.B]]>, scope_symbol_id = 3323 : i64, shape = [10240 : si64]} : () -> tensor<10240xf16>
    %V = "oneflow.variable"() {data_type = 9 : i32, device_name = ["@0:0"], device_tag = "cuda", hierarchy = [1], op_name = "unet.up_blocks.1.attentions.0.transformer_blocks.0.ff.net.2.weight", output_lbns = ["unet.up_blocks.1.attentions.0.transformer_blocks.0.ff.net.2.weight/out"], parallel = #sbp.parallel<[] -> [[#sbp.B]]>, scope_symbol_id = 3344 : i64, shape = [1280 : si64, 5120 : si64]} : () -> tensor<1280x5120xf16>
    %V = "oneflow.variable"() {data_type = 9 : i32, device_name = ["@0:0"], device_tag = "cuda", hierarchy = [1], op_name = "unet.up_blocks.1.attentions.0.transformer_blocks.0.ff.net.2.bias", output_lbns = ["unet.up_blocks.1.attentions.0.transformer_blocks.0.ff.net.2.bias/out"], parallel = #sbp.parallel<[] -> [[#sbp.B]]>, scope_symbol_id = 3351 : i64, shape = [1280 : si64]} : () -> tensor<1280xf16>
    %V = "oneflow.variable"() {data_type = 9 : i32, device_name = ["@0:0"], device_tag = "cuda", hierarchy = [1], op_name = "variable_361", output_lbns = ["variable_361/out"], parallel = #sbp.parallel<[] -> [[#sbp.B]]>, scope_symbol_id = 3368 : i64, shape = [1280 : si64, 1 : si64, 1 : si64, 1280 : si64]} : () -> tensor<1280x1x1x1280xf16>
    %V = "oneflow.variable"() {data_type = 9 : i32, device_name = ["@0:0"], device_tag = "cuda", hierarchy = [1], op_name = "unet.up_blocks.1.attentions.0.proj_out.bias", output_lbns = ["unet.up_blocks.1.attentions.0.proj_out.bias/out"], parallel = #sbp.parallel<[] -> [[#sbp.B]]>, scope_symbol_id = 3372 : i64, shape = [1280 : si64]} : () -> tensor<1280xf16>
    %V = "oneflow.variable"() {data_type = 9 : i32, device_name = ["@0:0"], device_tag = "cuda", hierarchy = [1], op_name = "unet.up_blocks.1.resnets.1.norm1.weight", output_lbns = ["unet.up_blocks.1.resnets.1.norm1.weight/out"], parallel = #sbp.parallel<[] -> [[#sbp.B]]>, scope_symbol_id = 3387 : i64, shape = [2560 : si64]} : () -> tensor<2560xf16>
    %V = "oneflow.variable"() {data_type = 9 : i32, device_name = ["@0:0"], device_tag = "cuda", hierarchy = [1], op_name = "unet.up_blocks.1.resnets.1.norm1.bias", output_lbns = ["unet.up_blocks.1.resnets.1.norm1.bias/out"], parallel = #sbp.parallel<[] -> [[#sbp.B]]>, scope_symbol_id = 3391 : i64, shape = [2560 : si64]} : () -> tensor<2560xf16>
    %V = "oneflow.variable"() {data_type = 9 : i32, device_name = ["@0:0"], device_tag = "cuda", hierarchy = [1], op_name = "variable_360", output_lbns = ["variable_360/out"], parallel = #sbp.parallel<[] -> [[#sbp.B]]>, scope_symbol_id = 3403 : i64, shape = [1280 : si64, 3 : si64, 3 : si64, 2560 : si64]} : () -> tensor<1280x3x3x2560xf16>
    %V = "oneflow.variable"() {data_type = 9 : i32, device_name = ["@0:0"], device_tag = "cuda", hierarchy = [1], op_name = "unet.up_blocks.1.resnets.1.conv1.bias", output_lbns = ["unet.up_blocks.1.resnets.1.conv1.bias/out"], parallel = #sbp.parallel<[] -> [[#sbp.B]]>, scope_symbol_id = 3407 : i64, shape = [1280 : si64]} : () -> tensor<1280xf16>
    %V = "oneflow.variable"() {data_type = 9 : i32, device_name = ["@0:0"], device_tag = "cuda", hierarchy = [1], op_name = "unet.up_blocks.1.resnets.1.time_emb_proj.weight", output_lbns = ["unet.up_blocks.1.resnets.1.time_emb_proj.weight/out"], parallel = #sbp.parallel<[] -> [[#sbp.B]]>, scope_symbol_id = 3418 : i64, shape = [1280 : si64, 1280 : si64]} : () -> tensor<1280x1280xf16>
    %V = "oneflow.variable"() {data_type = 9 : i32, device_name = ["@0:0"], device_tag = "cuda", hierarchy = [1], op_name = "unet.up_blocks.1.resnets.1.time_emb_proj.bias", output_lbns = ["unet.up_blocks.1.resnets.1.time_emb_proj.bias/out"], parallel = #sbp.parallel<[] -> [[#sbp.B]]>, scope_symbol_id = 3425 : i64, shape = [1280 : si64]} : () -> tensor<1280xf16>
    %V = "oneflow.variable"() {data_type = 9 : i32, device_name = ["@0:0"], device_tag = "cuda", hierarchy = [1], op_name = "unet.up_blocks.1.resnets.1.norm2.weight", output_lbns = ["unet.up_blocks.1.resnets.1.norm2.weight/out"], parallel = #sbp.parallel<[] -> [[#sbp.B]]>, scope_symbol_id = 3442 : i64, shape = [1280 : si64]} : () -> tensor<1280xf16>
    %V = "oneflow.variable"() {data_type = 9 : i32, device_name = ["@0:0"], device_tag = "cuda", hierarchy = [1], op_name = "unet.up_blocks.1.resnets.1.norm2.bias", output_lbns = ["unet.up_blocks.1.resnets.1.norm2.bias/out"], parallel = #sbp.parallel<[] -> [[#sbp.B]]>, scope_symbol_id = 3446 : i64, shape = [1280 : si64]} : () -> tensor<1280xf16>
    %V = "oneflow.variable"() {data_type = 9 : i32, device_name = ["@0:0"], device_tag = "cuda", hierarchy = [1], op_name = "variable_359", output_lbns = ["variable_359/out"], parallel = #sbp.parallel<[] -> [[#sbp.B]]>, scope_symbol_id = 3458 : i64, shape = [1280 : si64, 3 : si64, 3 : si64, 1280 : si64]} : () -> tensor<1280x3x3x1280xf16>
    %V = "oneflow.variable"() {data_type = 9 : i32, device_name = ["@0:0"], device_tag = "cuda", hierarchy = [1], op_name = "unet.up_blocks.1.resnets.1.conv2.bias", output_lbns = ["unet.up_blocks.1.resnets.1.conv2.bias/out"], parallel = #sbp.parallel<[] -> [[#sbp.B]]>, scope_symbol_id = 3462 : i64, shape = [1280 : si64]} : () -> tensor<1280xf16>
    %V = "oneflow.variable"() {data_type = 9 : i32, device_name = ["@0:0"], device_tag = "cuda", hierarchy = [1], op_name = "variable_358", output_lbns = ["variable_358/out"], parallel = #sbp.parallel<[] -> [[#sbp.B]]>, scope_symbol_id = 3470 : i64, shape = [1280 : si64, 1 : si64, 1 : si64, 2560 : si64]} : () -> tensor<1280x1x1x2560xf16>
    %V = "oneflow.variable"() {data_type = 9 : i32, device_name = ["@0:0"], device_tag = "cuda", hierarchy = [1], op_name = "unet.up_blocks.1.resnets.1.conv_shortcut.bias", output_lbns = ["unet.up_blocks.1.resnets.1.conv_shortcut.bias/out"], parallel = #sbp.parallel<[] -> [[#sbp.B]]>, scope_symbol_id = 3474 : i64, shape = [1280 : si64]} : () -> tensor<1280xf16>
    %V = "oneflow.variable"() {data_type = 9 : i32, device_name = ["@0:0"], device_tag = "cuda", hierarchy = [1], op_name = "unet.up_blocks.1.attentions.1.norm.weight", output_lbns = ["unet.up_blocks.1.attentions.1.norm.weight/out"], parallel = #sbp.parallel<[] -> [[#sbp.B]]>, scope_symbol_id = 3489 : i64, shape = [1280 : si64]} : () -> tensor<1280xf16>
    %V = "oneflow.variable"() {data_type = 9 : i32, device_name = ["@0:0"], device_tag = "cuda", hierarchy = [1], op_name = "unet.up_blocks.1.attentions.1.norm.bias", output_lbns = ["unet.up_blocks.1.attentions.1.norm.bias/out"], parallel = #sbp.parallel<[] -> [[#sbp.B]]>, scope_symbol_id = 3493 : i64, shape = [1280 : si64]} : () -> tensor<1280xf16>
    %V = "oneflow.variable"() {data_type = 9 : i32, device_name = ["@0:0"], device_tag = "cuda", hierarchy = [1], op_name = "variable_357", output_lbns = ["variable_357/out"], parallel = #sbp.parallel<[] -> [[#sbp.B]]>, scope_symbol_id = 3501 : i64, shape = [1280 : si64, 1 : si64, 1 : si64, 1280 : si64]} : () -> tensor<1280x1x1x1280xf16>
    %V = "oneflow.variable"() {data_type = 9 : i32, device_name = ["@0:0"], device_tag = "cuda", hierarchy = [1], op_name = "unet.up_blocks.1.attentions.1.proj_in.bias", output_lbns = ["unet.up_blocks.1.attentions.1.proj_in.bias/out"], parallel = #sbp.parallel<[] -> [[#sbp.B]]>, scope_symbol_id = 3505 : i64, shape = [1280 : si64]} : () -> tensor<1280xf16>
    %V = "oneflow.variable"() {data_type = 9 : i32, device_name = ["@0:0"], device_tag = "cuda", hierarchy = [1], op_name = "unet.up_blocks.1.attentions.1.transformer_blocks.0.norm1.weight", output_lbns = ["unet.up_blocks.1.attentions.1.transformer_blocks.0.norm1.weight/out"], parallel = #sbp.parallel<[] -> [[#sbp.B]]>, scope_symbol_id = 3520 : i64, shape = [1280 : si64]} : () -> tensor<1280xf16>
    %V = "oneflow.variable"() {data_type = 9 : i32, device_name = ["@0:0"], device_tag = "cuda", hierarchy = [1], op_name = "unet.up_blocks.1.attentions.1.transformer_blocks.0.norm1.bias", output_lbns = ["unet.up_blocks.1.attentions.1.transformer_blocks.0.norm1.bias/out"], parallel = #sbp.parallel<[] -> [[#sbp.B]]>, scope_symbol_id = 3524 : i64, shape = [1280 : si64]} : () -> tensor<1280xf16>
    %V = "oneflow.variable"() {data_type = 9 : i32, device_name = ["@0:0"], device_tag = "cuda", hierarchy = [1], op_name = "unet.up_blocks.1.attentions.1.transformer_blocks.0.attn1.to_q.weight", output_lbns = ["unet.up_blocks.1.attentions.1.transformer_blocks.0.attn1.to_q.weight/out"], parallel = #sbp.parallel<[] -> [[#sbp.B]]>, scope_symbol_id = 3533 : i64, shape = [1280 : si64, 1280 : si64]} : () -> tensor<1280x1280xf16>
    %V = "oneflow.variable"() {data_type = 9 : i32, device_name = ["@0:0"], device_tag = "cuda", hierarchy = [1], op_name = "unet.up_blocks.1.attentions.1.transformer_blocks.0.attn1.to_k.weight", output_lbns = ["unet.up_blocks.1.attentions.1.transformer_blocks.0.attn1.to_k.weight/out"], parallel = #sbp.parallel<[] -> [[#sbp.B]]>, scope_symbol_id = 3541 : i64, shape = [1280 : si64, 1280 : si64]} : () -> tensor<1280x1280xf16>
    %V = "oneflow.variable"() {data_type = 9 : i32, device_name = ["@0:0"], device_tag = "cuda", hierarchy = [1], op_name = "unet.up_blocks.1.attentions.1.transformer_blocks.0.attn1.to_v.weight", output_lbns = ["unet.up_blocks.1.attentions.1.transformer_blocks.0.attn1.to_v.weight/out"], parallel = #sbp.parallel<[] -> [[#sbp.B]]>, scope_symbol_id = 3549 : i64, shape = [1280 : si64, 1280 : si64]} : () -> tensor<1280x1280xf16>
…
 tensor<2x1024x640xf16>
    %V = "oneflow.broadcast_matmul"(%V, %V) {alpha = 1.000000e+00 : f64, device_name = ["@0:0"], device_tag = "cuda", hierarchy = [1], op_name = "ONEFLOW_ERASE_MAGIC", scope_symbol_id = 77777 : i64, transpose_a = false, transpose_b = true} : (tensor<2x1024x640xf16>, tensor<640x640xf16>) -> tensor<2x1024x640xf16>
    %V = "oneflow.broadcast_add"(%V, %V) {device_name = ["@0:0"], device_tag = "cuda", hierarchy = [1], op_name = "ONEFLOW_ERASE_MAGIC", scope_symbol_id = 77777 : i64} : (tensor<2x1024x640xf16>, tensor<640xf16>) -> tensor<2x1024x640xf16>
    %V = "oneflow.add_n2"(%V, %V) {device_name = ["@0:0"], device_tag = "cuda", hierarchy = [1], op_name = "ONEFLOW_ERASE_MAGIC", op_type_name = "add_n", scope_symbol_id = 77777 : i64} : (tensor<2x1024x640xf16>, tensor<2x1024x640xf16>) -> tensor<2x1024x640xf16>
    %V, %V, %V = "oneflow.layer_norm"(%V, %V, %V) {begin_norm_axis = 2 : si64, begin_params_axis = 2 : si64, center = true, device_name = ["@0:0"], device_tag = "cuda", epsilon = 1.000000e-05 : f64, hierarchy = [1], op_name = "ONEFLOW_ERASE_MAGIC", operand_segment_sizes = dense<1> : vector<3xi32>, scale = true, scope_symbol_id = 77777 : i64} : (tensor<2x1024x640xf16>, tensor<640xf16>, tensor<640xf16>) -> (tensor<2x1024x640xf16>, tensor<2x1024xf32>, tensor<2x1024xf32>)
    %V = "oneflow.broadcast_matmul"(%V, %V) {alpha = 1.000000e+00 : f64, device_name = ["@0:0"], device_tag = "cuda", hierarchy = [1], op_name = "ONEFLOW_ERASE_MAGIC", scope_symbol_id = 77777 : i64, transpose_a = false, transpose_b = true} : (tensor<2x1024x640xf16>, tensor<640x640xf16>) -> tensor<2x1024x640xf16>
    %V = "oneflow.fused_multi_head_attention_inference"(%V, %V, %V) {causal = false, device_name = ["@0:0"], device_tag = "cuda", hierarchy = [1], key_hidden_slice_end = -1 : si64, key_hidden_slice_start = 0 : si64, num_heads = 8 : si64, op_name = "ONEFLOW_ERASE_MAGIC", query_hidden_slice_end = -1 : si64, query_hidden_slice_start = 0 : si64, scope_symbol_id = 77777 : i64, value_hidden_slice_end = -1 : si64, value_hidden_slice_start = 0 : si64} : (tensor<2x1024x640xf16>, tensor<2x77x640xf16>, tensor<2x77x640xf16>) -> tensor<2x1024x640xf16>
    %V = "oneflow.broadcast_matmul"(%V, %V) {alpha = 1.000000e+00 : f64, device_name = ["@0:0"], device_tag = "cuda", hierarchy = [1], op_name = "ONEFLOW_ERASE_MAGIC", scope_symbol_id = 77777 : i64, transpose_a = false, transpose_b = true} : (tensor<2x1024x640xf16>, tensor<640x640xf16>) -> tensor<2x1024x640xf16>
    %V = "oneflow.broadcast_add"(%V, %V) {device_name = ["@0:0"], device_tag = "cuda", hierarchy = [1], op_name = "ONEFLOW_ERASE_MAGIC", scope_symbol_id = 77777 : i64} : (tensor<2x1024x640xf16>, tensor<640xf16>) -> tensor<2x1024x640xf16>
    %V = "oneflow.add_n2"(%V, %V) {device_name = ["@0:0"], device_tag = "cuda", hierarchy = [1], op_name = "ONEFLOW_ERASE_MAGIC", op_type_name = "add_n", scope_symbol_id = 77777 : i64} : (tensor<2x1024x640xf16>, tensor<2x1024x640xf16>) -> tensor<2x1024x640xf16>
    %V, %V, %V = "oneflow.layer_norm"(%V, %V, %V) {begin_norm_axis = 2 : si64, begin_params_axis = 2 : si64, center = true, device_name = ["@0:0"], device_tag = "cuda", epsilon = 1.000000e-05 : f64, hierarchy = [1], op_name = "ONEFLOW_ERASE_MAGIC", operand_segment_sizes = dense<1> : vector<3xi32>, scale = true, scope_symbol_id = 77777 : i64} : (tensor<2x1024x640xf16>, tensor<640xf16>, tensor<640xf16>) -> (tensor<2x1024x640xf16>, tensor<2x1024xf32>, tensor<2x1024xf32>)
    %V = "oneflow.broadcast_matmul"(%V, %V) {alpha = 1.000000e+00 : f64, device_name = ["@0:0"], device_tag = "cuda", hierarchy = [1], op_name = "ONEFLOW_ERASE_MAGIC", scope_symbol_id = 77777 : i64, transpose_a = false, transpose_b = true} : (tensor<2x1024x640xf16>, tensor<5120x640xf16>) -> tensor<2x1024x5120xf16>
    %V = "oneflow.broadcast_add"(%V, %V) {device_name = ["@0:0"], device_tag = "cuda", hierarchy = [1], op_name = "ONEFLOW_ERASE_MAGIC", scope_symbol_id = 77777 : i64} : (tensor<2x1024x5120xf16>, tensor<5120xf16>) -> tensor<2x1024x5120xf16>
    %V = "oneflow.narrow"(%V) {device_name = ["@0:0"], device_tag = "cuda", dim = 2 : si64, hierarchy = [1], length = 2560 : si64, op_name = "ONEFLOW_ERASE_MAGIC", scope_symbol_id = 77777 : i64, start = 0 : si64} : (tensor<2x1024x5120xf16>) -> tensor<2x1024x2560xf16>
    %V = "oneflow.narrow"(%V) {device_name = ["@0:0"], device_tag = "cuda", dim = 2 : si64, hierarchy = [1], length = 2560 : si64, op_name = "ONEFLOW_ERASE_MAGIC", scope_symbol_id = 77777 : i64, start = 2560 : si64} : (tensor<2x1024x5120xf16>) -> tensor<2x1024x2560xf16>
    %V = "oneflow.gelu"(%V) {device_name = ["@0:0"], device_tag = "cuda", hierarchy = [1], op_name = "ONEFLOW_ERASE_MAGIC", scope_symbol_id = 77777 : i64} : (tensor<2x1024x2560xf16>) -> tensor<2x1024x2560xf16>
    %V = "oneflow.broadcast_mul"(%V, %V) {device_name = ["@0:0"], device_tag = "cuda", hierarchy = [1], op_name = "ONEFLOW_ERASE_MAGIC", scope_symbol_id = 77777 : i64} : (tensor<2x1024x2560xf16>, tensor<2x1024x2560xf16>) -> tensor<2x1024x2560xf16>
    %V = "oneflow.broadcast_matmul"(%V, %V) {alpha = 1.000000e+00 : f64, device_name = ["@0:0"], device_tag = "cuda", hierarchy = [1], op_name = "ONEFLOW_ERASE_MAGIC", scope_symbol_id = 77777 : i64, transpose_a = false, transpose_b = true} : (tensor<2x1024x2560xf16>, tensor<640x2560xf16>) -> tensor<2x1024x640xf16>
    %V = "oneflow.broadcast_add"(%V, %V) {device_name = ["@0:0"], device_tag = "cuda", hierarchy = [1], op_name = "ONEFLOW_ERASE_MAGIC", scope_symbol_id = 77777 : i64} : (tensor<2x1024x640xf16>, tensor<640xf16>) -> tensor<2x1024x640xf16>
    %V = "oneflow.add_n2"(%V, %V) {device_name = ["@0:0"], device_tag = "cuda", hierarchy = [1], op_name = "ONEFLOW_ERASE_MAGIC", op_type_name = "add_n", scope_symbol_id = 77777 : i64} : (tensor<2x1024x640xf16>, tensor<2x1024x640xf16>) -> tensor<2x1024x640xf16>
    %V = "oneflow.reshape"(%V) {device_name = ["@0:0"], device_tag = "cuda", hierarchy = [1], op_name = "ONEFLOW_ERASE_MAGIC", scope_symbol_id = 77777 : i64, shape = [2 : si64, 32 : si64, 32 : si64, 640 : si64]} : (tensor<2x1024x640xf16>) -> tensor<2x32x32x640xf16>
    %V = "oneflow.conv2d"(%V, %V, %V) {data_format = "channels_last", device_name = ["@0:0"], device_tag = "cuda", dilation_rate = [1 : si32, 1 : si32], filters = 640 : si32, groups = 1 : si32, hierarchy = [1], kernel_size = [1 : si32, 1 : si32], op_name = "ONEFLOW_ERASE_MAGIC", operand_segment_sizes = dense<[1, 1, 1, 0]> : vector<4xi32>, padding_before = [0 : si32, 0 : si32], scope_symbol_id = 77777 : i64, strides = [1 : si32, 1 : si32]} : (tensor<2x32x32x640xf16>, tensor<640x1x1x640xf16>, tensor<640xf16>) -> tensor<2x32x32x640xf16>
    %V = "oneflow.add_n2"(%V, %V) {device_name = ["@0:0"], device_tag = "cuda", hierarchy = [1], op_name = "ONEFLOW_ERASE_MAGIC", op_type_name = "add_n", scope_symbol_id = 77777 : i64} : (tensor<2x32x32x640xf16>, tensor<2x32x32x640xf16>) -> tensor<2x32x32x640xf16>
    %V = "oneflow.transpose"(%V) {device_name = ["@0:0"], device_tag = "cuda", hierarchy = [1], op_name = "ONEFLOW_ERASE_MAGIC", perm = [0 : si32, 3 : si32, 1 : si32, 2 : si32], scope_symbol_id = 77777 : i64} : (tensor<2x32x32x640xf16>) -> tensor<2x640x32x32xf16>
    %V = "oneflow.upsample_nearest_2d"(%V) {data_format = "channels_first", device_name = ["@0:0"], device_tag = "cuda", height_scale = 2.000000e+00 : f64, hierarchy = [1], op_name = "ONEFLOW_ERASE_MAGIC", output_size = [], scope_symbol_id = 77777 : i64, width_scale = 2.000000e+00 : f64} : (tensor<2x640x32x32xf16>) -> tensor<2x640x64x64xf16>
    %V = "oneflow.transpose"(%V) {device_name = ["@0:0"], device_tag = "cuda", hierarchy = [1], op_name = "ONEFLOW_ERASE_MAGIC", perm = [0 : si32, 2 : si32, 3 : si32, 1 : si32], scope_symbol_id = 77777 : i64} : (tensor<2x640x64x64xf16>) -> tensor<2x64x64x640xf16>
    %V = "oneflow.conv2d"(%V, %V, %V) {data_format = "channels_last", device_name = ["@0:0"], device_tag = "cuda", dilation_rate = [1 : si32, 1 : si32], filters = 640 : si32, groups = 1 : si32, hierarchy = [1], kernel_size = [3 : si32, 3 : si32], op_name = "ONEFLOW_ERASE_MAGIC", operand_segment_sizes = dense<[1, 1, 1, 0]> : vector<4xi32>, padding_before = [1 : si32, 1 : si32], scope_symbol_id = 77777 : i64, strides = [1 : si32, 1 : si32]} : (tensor<2x64x64x640xf16>, tensor<640x3x3x640xf16>, tensor<640xf16>) -> tensor<2x64x64x640xf16>
    %V = "oneflow.concat"(%V, %V) {axis = 3 : si64, device_name = ["@0:0"], device_tag = "cuda", hierarchy = [1], max_dim_size = 960 : si64, op_name = "ONEFLOW_ERASE_MAGIC", scope_symbol_id = 77777 : i64} : (tensor<2x64x64x640xf16>, tensor<2x64x64x320xf16>) -> tensor<2x64x64x960xf16>
    %V, %V, %V = "oneflow.group_norm"(%V, %V, %V) {activation = "silu", affine = true, data_format = "channels_last", device_name = ["@0:0"], device_tag = "cuda", epsilon = 1.000000e-05 : f64, hierarchy = [1], num_groups = 32 : si32, op_name = "ONEFLOW_ERASE_MAGIC", operand_segment_sizes = dense<1> : vector<3xi32>, scope_symbol_id = 77777 : i64} : (tensor<2x64x64x960xf16>, tensor<960xf16>, tensor<960xf16>) -> (tensor<2x64x64x960xf16>, tensor<2x32xf32>, tensor<2x32xf32>)
    %V = "oneflow.conv2d"(%V, %V, %V) {data_format = "channels_last", device_name = ["@0:0"], device_tag = "cuda", dilation_rate = [1 : si32, 1 : si32], filters = 320 : si32, groups = 1 : si32, hierarchy = [1], kernel_size = [1 : si32, 1 : si32], op_name = "ONEFLOW_ERASE_MAGIC", operand_segment_sizes = dense<[1, 1, 1, 0]> : vector<4xi32>, padding_before = [0 : si32, 0 : si32], scope_symbol_id = 77777 : i64, strides = [1 : si32, 1 : si32]} : (tensor<2x64x64x960xf16>, tensor<320x1x1x960xf16>, tensor<320xf16>) -> tensor<2x64x64x320xf16>
    %V = "oneflow.conv2d"(%V, %V, %V) {data_format = "channels_last", device_name = ["@0:0"], device_tag = "cuda", dilation_rate = [1 : si32, 1 : si32], filters = 320 : si32, groups = 1 : si32, hierarchy = [1], kernel_size = [3 : si32, 3 : si32], op_name = "ONEFLOW_ERASE_MAGIC", operand_segment_sizes = dense<[1, 1, 1, 0]> : vector<4xi32>, padding_before = [1 : si32, 1 : si32], scope_symbol_id = 77777 : i64, strides = [1 : si32, 1 : si32]} : (tensor<2x64x64x960xf16>, tensor<320x3x3x960xf16>, tensor<320xf16>) -> tensor<2x64x64x320xf16>
    %V = "oneflow.broadcast_add"(%V, %V) {device_name = ["@0:0"], device_tag = "cuda", hierarchy = [1], op_name = "ONEFLOW_ERASE_MAGIC", scope_symbol_id = 77777 : i64} : (tensor<2x64x64x320xf16>, tensor<2x1x1x320xf16>) -> tensor<2x64x64x320xf16>
    %V, %V, %V = "oneflow.group_norm"(%V, %V, %V) {activation = "silu", affine = true, data_format = "channels_last", device_name = ["@0:0"], device_tag = "cuda", epsilon = 1.000000e-05 : f64, hierarchy = [1], num_groups = 32 : si32, op_name = "ONEFLOW_ERASE_MAGIC", operand_segment_sizes = dense<1> : vector<3xi32>, scope_symbol_id = 77777 : i64} : (tensor<2x64x64x320xf16>, tensor<320xf16>, tensor<320xf16>) -> (tensor<2x64x64x320xf16>, tensor<2x32xf32>, tensor<2x32xf32>)
    %V = "oneflow.conv2d"(%V, %V, %V) {data_format = "channels_last", device_name = ["@0:0"], device_tag = "cuda", dilation_rate = [1 : si32, 1 : si32], filters = 320 : si32, groups = 1 : si32, hierarchy = [1], kernel_size = [3 : si32, 3 : si32], op_name = "ONEFLOW_ERASE_MAGIC", operand_segment_sizes = dense<[1, 1, 1, 0]> : vector<4xi32>, padding_before = [1 : si32, 1 : si32], scope_symbol_id = 77777 : i64, strides = [1 : si32, 1 : si32]} : (tensor<2x64x64x320xf16>, tensor<320x3x3x320xf16>, tensor<320xf16>) -> tensor<2x64x64x320xf16>
    %V = "oneflow.add_n2"(%V, %V) {device_name = ["@0:0"], device_tag = "cuda", hierarchy = [1], op_name = "ONEFLOW_ERASE_MAGIC", op_type_name = "add_n", scope_symbol_id = 77777 : i64} : (tensor<2x64x64x320xf16>, tensor<2x64x64x320xf16>) -> tensor<2x64x64x320xf16>
    %V = "oneflow.scalar_div"(%V) {device_name = ["@0:0"], device_tag = "cuda", float_operand = 1.000000e+00 : f64, has_float_operand = true, has_int_operand = false, hierarchy = [1], int_operand = 0 : si64, op_name = "ONEFLOW_ERASE_MAGIC", scope_symbol_id = 77777 : i64} : (tensor<2x64x64x320xf16>) -> tensor<2x64x64x320xf16>
    %V, %V, %V = "oneflow.group_norm"(%V, %V, %V) {activation = "none", affine = true, data_format = "channels_last", device_name = ["@0:0"], device_tag = "cuda", epsilon = 9.9999999999999995E-7 : f64, hierarchy = [1], num_groups = 32 : si32, op_name = "ONEFLOW_ERASE_MAGIC", operand_segment_sizes = dense<1> : vector<3xi32>, scope_symbol_id = 77777 : i64} : (tensor<2x64x64x320xf16>, tensor<320xf16>, tensor<320xf16>) -> (tensor<2x64x64x320xf16>, tensor<2x32xf32>, tensor<2x32xf32>)
    %V = "oneflow.conv2d"(%V, %V, %V) {data_format = "channels_last", device_name = ["@0:0"], device_tag = "cuda", dilation_rate = [1 : si32, 1 : si32], filters = 320 : si32, groups = 1 : si32, hierarchy = [1], kernel_size = [1 : si32, 1 : si32], op_name = "ONEFLOW_ERASE_MAGIC", operand_segment_sizes = dense<[1, 1, 1, 0]> : vector<4xi32>, padding_before = [0 : si32, 0 : si32], scope_symbol_id = 77777 : i64, strides = [1 : si32, 1 : si32]} : (tensor<2x64x64x320xf16>, tensor<320x1x1x320xf16>, tensor<320xf16>) -> tensor<2x64x64x320xf16>
    %V = "oneflow.reshape"(%V) {device_name = ["@0:0"], device_tag = "cuda", hierarchy = [1], op_name = "ONEFLOW_ERASE_MAGIC", scope_symbol_id = 77777 : i64, shape = [2 : si64, 4096 : si64, 320 : si64]} : (tensor<2x64x64x320xf16>) -> tensor<2x4096x320xf16>
    %V, %V, %V = "oneflow.layer_norm"(%V, %V, %V) {begin_norm_axis = 2 : si64, begin_params_axis = 2 : si64, center = true, device_name = ["@0:0"], device_tag = "cuda", epsilon = 1.000000e-05 : f64, hierarchy = [1], op_name = "ONEFLOW_ERASE_MAGIC", operand_segment_sizes = dense<1> : vector<3xi32>, scale = true, scope_symbol_id = 77777 : i64} : (tensor<2x4096x320xf16>, tensor<320xf16>, tensor<320xf16>) -> (tensor<2x4096x320xf16>, tensor<2x4096xf32>, tensor<2x4096xf32>)
    %V:3 = "oneflow.grouped_matmul_bias"(%V, %V, %V, %V, %V, %V) {device_name = ["@0:0"], device_tag = "cuda", hierarchy = [1], op_name = "ONEFLOW_ERASE_MAGIC", operand_segment_sizes = dense<[3, 3, 0]> : vector<3xi32>, scope_symbol_id = 77777 : i64} : (tensor<2x4096x320xf16>, tensor<2x4096x320xf16>, tensor<2x4096x320xf16>, tensor<320x320xf16>, tensor<320x320xf16>, tensor<320x320xf16>) -> (tensor<2x4096x320xf16>, tensor<2x4096x320xf16>, tensor<2x4096x320xf16>)
    %V = "oneflow.fused_multi_head_attention_inference"(%V, %V, %V) {causal = false, device_name = ["@0:0"], device_tag = "cuda", hierarchy = [1], key_hidden_slice_end = -1 : si64, key_hidden_slice_start = 0 : si64, num_heads = 8 : si64, op_name = "ONEFLOW_ERASE_MAGIC", query_hidden_slice_end = -1 : si64, query_hidden_slice_start = 0 : si64, scope_symbol_id = 77777 : i64, value_hidden_slice_end = -1 : si64, value_hidden_slice_start = 0 : si64} : (tensor<2x4096x320xf16>, tensor<2x4096x320xf16>, tensor<2x4096x320xf16>) -> tensor<2x4096x320xf16>
    %V = "oneflow.broadcast_matmul"(%V, %V) {alpha = 1.000000e+00 : f64, device_name = ["@0:0"], device_tag = "cuda", hierarchy = [1], op_name = "ONEFLOW_ERASE_MAGIC", scope_symbol_id = 77777 : i64, transpose_a = false, transpose_b = true} : (tensor<2x4096x320xf16>, tensor<320x320xf16>) -> tensor<2x4096x320xf16>
    %V = "oneflow.broadcast_add"(%V, %V) {device_name = ["@0:0"], device_tag = "cuda", hierarchy = [1], op_name = "ONEFLOW_ERASE_MAGIC", scope_symbol_id = 77777 : i64} : (tensor<2x4096x320xf16>, tensor<320xf16>) -> tensor<2x4096x320xf16>
    %V = "oneflow.add_n2"(%V, %V) {device_name = ["@0:0"], device_tag = "cuda", hierarchy = [1], op_name = "ONEFLOW_ERASE_MAGIC", op_type_name = "add_n", scope_symbol_id = 77777 : i64} : (tensor<2x4096x320xf16>, tensor<2x4096x320xf16>) -> tensor<2x4096x320xf16>
    %V, %V, %V = "oneflow.layer_norm"(%V, %V, %V) {begin_norm_axis = 2 : si64, begin_params_axis = 2 : si64, center = true, device_name = ["@0:0"], device_tag = "cuda", epsilon = 1.000000e-05 : f64, hierarchy = [1], op_name = "ONEFLOW_ERASE_MAGIC", operand_segment_sizes = dense<1> : vector<3xi32>, scale = true, scope_symbol_id = 77777 : i64} : (tensor<2x4096x320xf16>, tensor<320xf16>, tensor<320xf16>) -> (tensor<2x4096x320xf16>, tensor<2x4096xf32>, tensor<2x4096xf32>)
    %V = "oneflow.broadcast_matmul"(%V, %V) {alpha = 1.000000e+00 : f64, device_name = ["@0:0"], device_tag = "cuda", hierarchy = [1], op_name = "ONEFLOW_ERASE_MAGIC", scope_symbol_id = 77777 : i64, transpose_a = false, transpose_b = true} : (tensor<2x4096x320xf16>, tensor<320x320xf16>) -> tensor<2x4096x320xf16>
    %V = "oneflow.fused_multi_head_attention_inference"(%V, %V, %V) {causal = false, device_name = ["@0:0"], device_tag = "cuda", hierarchy = [1], key_hidden_slice_end = -1 : si64, key_hidden_slice_start = 0 : si64, num_heads = 8 : si64, op_name = "ONEFLOW_ERASE_MAGIC", query_hidden_slice_end = -1 : si64, query_hidden_slice_start = 0 : si64, scope_symbol_id = 77777 : i64, value_hidden_slice_end = -1 : si64, value_hidden_slice_start = 0 : si64} : (tensor<2x4096x320xf16>, tensor<2x77x320xf16>, tensor<2x77x320xf16>) -> tensor<2x4096x320xf16>
    %V = "oneflow.broadcast_matmul"(%V, %V) {alpha = 1.000000e+00 : f64, device_name = ["@0:0"], device_tag = "cuda", hierarchy = [1], op_name = "ONEFLOW_ERASE_MAGIC", scope_symbol_id = 77777 : i64, transpose_a = false, transpose_b = true} : (tensor<2x4096x320xf16>, tensor<320x320xf16>) -> tensor<2x4096x320xf16>
    %V = "oneflow.broadcast_add"(%V, %V) {device_name = ["@0:0"], device_tag = "cuda", hierarchy = [1], op_name = "ONEFLOW_ERASE_MAGIC", scope_symbol_id = 77777 : i64} : (tensor<2x4096x320xf16>, tensor<320xf16>) -> tensor<2x4096x320xf16>
    %V = "oneflow.add_n2"(%V, %V) {device_name = ["@0:0"], device_tag = "cuda", hierarchy = [1], op_name = "ONEFLOW_ERASE_MAGIC", op_type_name = "add_n", scope_symbol_id = 77777 : i64} : (tensor<2x4096x320xf16>, tensor<2x4096x320xf16>) -> tensor<2x4096x320xf16>
    %V, %V, %V = "oneflow.layer_norm"(%V, %V, %V) {begin_norm_axis = 2 : si64, begin_params_axis = 2 : si64, center = true, device_name = ["@0:0"], device_tag = "cuda", epsilon = 1.000000e-05 : f64, hierarchy = [1], op_name = "ONEFLOW_ERASE_MAGIC", operand_segment_sizes = dense<1> : vector<3xi32>, scale = true, scope_symbol_id = 77777 : i64} : (tensor<2x4096x320xf16>, tensor<320xf16>, tensor<320xf16>) -> (tensor<2x4096x320xf16>, tensor<2x4096xf32>, tensor<2x4096xf32>)
    %V = "oneflow.broadcast_matmul"(%V, %V) {alpha = 1.000000e+00 : f64, device_name = ["@0:0"], device_tag = "cuda", hierarchy = [1], op_name = "ONEFLOW_ERASE_MAGIC", scope_symbol_id = 77777 : i64, transpose_a = false, transpose_b = true} : (tensor<2x4096x320xf16>, tensor<2560x320xf16>) -> tensor<2x4096x2560xf16>
    %V = "oneflow.broadcast_add"(%V, %V) {device_name = ["@0:0"], device_tag = "cuda", hierarchy = [1], op_name = "ONEFLOW_ERASE_MAGIC", scope_symbol_id = 77777 : i64} : (tensor<2x4096x2560xf16>, tensor<2560xf16>) -> tensor<2x4096x2560xf16>
    %V = "oneflow.narrow"(%V) {device_name = ["@0:0"], device_tag = "cuda", dim = 2 : si64, hierarchy = [1], length = 1280 : si64, op_name = "ONEFLOW_ERASE_MAGIC", scope_symbol_id = 77777 : i64, start = 0 : si64} : (tensor<2x4096x2560xf16>) -> tensor<2x4096x1280xf16>
    %V = "oneflow.narrow"(%V) {device_name = ["@0:0"], device_tag = "cuda", dim = 2 : si64, hierarchy = [1], length = 1280 : si64, op_name = "ONEFLOW_ERASE_MAGIC", scope_symbol_id = 77777 : i64, start = 1280 : si64} : (tensor<2x4096x2560xf16>) -> tensor<2x4096x1280xf16>
    %V = "oneflow.gelu"(%V) {device_name = ["@0:0"], device_tag = "cuda", hierarchy = [1], op_name = "ONEFLOW_ERASE_MAGIC", scope_symbol_id = 77777 : i64} : (tensor<2x4096x1280xf16>) -> tensor<2x4096x1280xf16>
    %V = "oneflow.broadcast_mul"(%V, %V) {device_name = ["@0:0"], device_tag = "cuda", hierarchy = [1], op_name = "ONEFLOW_ERASE_MAGIC", scope_symbol_id = 77777 : i64} : (tensor<2x4096x1280xf16>, tensor<2x4096x1280xf16>) -> tensor<2x4096x1280xf16>
    %V = "oneflow.broadcast_matmul"(%V, %V) {alpha = 1.000000e+00 : f64, device_name = ["@0:0"], device_tag = "cuda", hierarchy = [1], op_name = "ONEFLOW_ERASE_MAGIC", scope_symbol_id = 77777 : i64, transpose_a = false, transpose_b = true} : (tensor<2x4096x1280xf16>, tensor<320x1280xf16>) -> tensor<2x4096x320xf16>
    %V = "oneflow.broadcast_add"(%V, %V) {device_name = ["@0:0"], device_tag = "cuda", hierarchy = [1], op_name = "ONEFLOW_ERASE_MAGIC", scope_symbol_id = 77777 : i64} : (tensor<2x4096x320xf16>, tensor<320xf16>) -> tensor<2x4096x320xf16>
    %V = "oneflow.add_n2"(%V, %V) {device_name = ["@0:0"], device_tag = "cuda", hierarchy = [1], op_name = "ONEFLOW_ERASE_MAGIC", op_type_name = "add_n", scope_symbol_id = 77777 : i64} : (tensor<2x4096x320xf16>, tensor<2x4096x320xf16>) -> tensor<2x4096x320xf16>
    %V = "oneflow.reshape"(%V) {device_name = ["@0:0"], device_tag = "cuda", hierarchy = [1], op_name = "ONEFLOW_ERASE_MAGIC", scope_symbol_id = 77777 : i64, shape = [2 : si64, 64 : si64, 64 : si64, 320 : si64]} : (tensor<2x4096x320xf16>) -> tensor<2x64x64x320xf16>
    %V = "oneflow.conv2d"(%V, %V, %V) {data_format = "channels_last", device_name = ["@0:0"], device_tag = "cuda", dilation_rate = [1 : si32, 1 : si32], filters = 320 : si32, groups = 1 : si32, hierarchy = [1], kernel_size = [1 : si32, 1 : si32], op_name = "ONEFLOW_ERASE_MAGIC", operand_segment_sizes = dense<[1, 1, 1, 0]> : vector<4xi32>, padding_before = [0 : si32, 0 : si32], scope_symbol_id = 77777 : i64, strides = [1 : si32, 1 : si32]} : (tensor<2x64x64x320xf16>, tensor<320x1x1x320xf16>, tensor<320xf16>) -> tensor<2x64x64x320xf16>
    %V = "oneflow.add_n2"(%V, %V) {device_name = ["@0:0"], device_tag = "cuda", hierarchy = [1], op_name = "ONEFLOW_ERASE_MAGIC", op_type_name = "add_n", scope_symbol_id = 77777 : i64} : (tensor<2x64x64x320xf16>, tensor<2x64x64x320xf16>) -> tensor<2x64x64x320xf16>
    %V = "oneflow.concat"(%V, %V) {axis = 3 : si64, device_name = ["@0:0"], device_tag = "cuda", hierarchy = [1], max_dim_size = 640 : si64, op_name = "ONEFLOW_ERASE_MAGIC", scope_symbol_id = 77777 : i64} : (tensor<2x64x64x320xf16>, tensor<2x64x64x320xf16>) -> tensor<2x64x64x640xf16>
    %V, %V, %V = "oneflow.group_norm"(%V, %V, %V) {activation = "silu", affine = true, data_format = "channels_last", device_name = ["@0:0"], device_tag = "cuda", epsilon = 1.000000e-05 : f64, hierarchy = [1], num_groups = 32 : si32, op_name = "ONEFLOW_ERASE_MAGIC", operand_segment_sizes = dense<1> : vector<3xi32>, scope_symbol_id = 77777 : i64} : (tensor<2x64x64x640xf16>, tensor<640xf16>, tensor<640xf16>) -> (tensor<2x64x64x640xf16>, tensor<2x32xf32>, tensor<2x32xf32>)
    %V = "oneflow.conv2d"(%V, %V, %V) {data_format = "channels_last", device_name = ["@0:0"], device_tag = "cuda", dilation_rate = [1 : si32, 1 : si32], filters = 320 : si32, groups = 1 : si32, hierarchy = [1], kernel_size = [1 : si32, 1 : si32], op_name = "ONEFLOW_ERASE_MAGIC", operand_segment_sizes = dense<[1, 1, 1, 0]> : vector<4xi32>, padding_before = [0 : si32, 0 : si32], scope_symbol_id = 77777 : i64, strides = [1 : si32, 1 : si32]} : (tensor<2x64x64x640xf16>, tensor<320x1x1x640xf16>, tensor<320xf16>) -> tensor<2x64x64x320xf16>
    %V = "oneflow.conv2d"(%V, %V, %V) {data_format = "channels_last", device_name = ["@0:0"], device_tag = "cuda", dilation_rate = [1 : si32, 1 : si32], filters = 320 : si32, groups = 1 : si32, hierarchy = [1], kernel_size = [3 : si32, 3 : si32], op_name = "ONEFLOW_ERASE_MAGIC", operand_segment_sizes = dense<[1, 1, 1, 0]> : vector<4xi32>, padding_before = [1 : si32, 1 : si32], scope_symbol_id = 77777 : i64, strides = [1 : si32, 1 : si32]} : (tensor<2x64x64x640xf16>, tensor<320x3x3x640xf16>, tensor<320xf16>) -> tensor<2x64x64x320xf16>
    %V = "oneflow.broadcast_add"(%V, %V) {device_name = ["@0:0"], device_tag = "cuda", hierarchy = [1], op_name = "ONEFLOW_ERASE_MAGIC", scope_symbol_id = 77777 : i64} : (tensor<2x64x64x320xf16>, tensor<2x1x1x320xf16>) -> tensor<2x64x64x320xf16>
    %V, %V, %V = "oneflow.group_norm"(%V, %V, %V) {activation = "silu", affine = true, data_format = "channels_last", device_name = ["@0:0"], device_tag = "cuda", epsilon = 1.000000e-05 : f64, hierarchy = [1], num_groups = 32 : si32, op_name = "ONEFLOW_ERASE_MAGIC", operand_segment_sizes = dense<1> : vector<3xi32>, scope_symbol_id = 77777 : i64} : (tensor<2x64x64x320xf16>, tensor<320xf16>, tensor<320xf16>) -> (tensor<2x64x64x320xf16>, tensor<2x32xf32>, tensor<2x32xf32>)
    %V = "oneflow.conv2d"(%V, %V, %V) {data_format = "channels_last", device_name = ["@0:0"], device_tag = "cuda", dilation_rate = [1 : si32, 1 : si32], filters = 320 : si32, groups = 1 : si32, hierarchy = [1], kernel_size = [3 : si32, 3 : si32], op_name = "ONEFLOW_ERASE_MAGIC", operand_segment_sizes = dense<[1, 1, 1, 0]> : vector<4xi32>, padding_before = [1 : si32, 1 : si32], scope_symbol_id = 77777 : i64, strides = [1 : si32, 1 : si32]} : (tensor<2x64x64x320xf16>, tensor<320x3x3x320xf16>, tensor<320xf16>) -> tensor<2x64x64x320xf16>
    %V = "oneflow.add_n2"(%V, %V) {device_name = ["@0:0"], device_tag = "cuda", hierarchy = [1], op_name = "ONEFLOW_ERASE_MAGIC", op_type_name = "add_n", scope_symbol_id = 77777 : i64} : (tensor<2x64x64x320xf16>, tensor<2x64x64x320xf16>) -> tensor<2x64x64x320xf16>
    %V = "oneflow.scalar_div"(%V) {device_name = ["@0:0"], device_tag = "cuda", float_operand = 1.000000e+00 : f64, has_float_operand = true, has_int_operand = false, hierarchy = [1], int_operand = 0 : si64, op_name = "ONEFLOW_ERASE_MAGIC", scope_symbol_id = 77777 : i64} : (tensor<2x64x64x320xf16>) -> tensor<2x64x64x320xf16>
    %V, %V, %V = "oneflow.group_norm"(%V, %V, %V) {activation = "none", affine = true, data_format = "channels_last", device_name = ["@0:0"], device_tag = "cuda", epsilon = 9.9999999999999995E-7 : f64, hierarchy = [1], num_groups = 32 : si32, op_name = "ONEFLOW_ERASE_MAGIC", operand_segment_sizes = dense<1> : vector<3xi32>, scope_symbol_id = 77777 : i64} : (tensor<2x64x64x320xf16>, tensor<320xf16>, tensor<320xf16>) -> (tensor<2x64x64x320xf16>, tensor<2x32xf32>, tensor<2x32xf32>)
    %V = "oneflow.conv2d"(%V, %V, %V) {data_format = "channels_last", device_name = ["@0:0"], device_tag = "cuda", dilation_rate = [1 : si32, 1 : si32], filters = 320 : si32, groups = 1 : si32, hierarchy = [1], kernel_size = [1 : si32, 1 : si32], op_name = "ONEFLOW_ERASE_MAGIC", operand_segment_sizes = dense<[1, 1, 1, 0]> : vector<4xi32>, padding_before = [0 : si32, 0 : si32], scope_symbol_id = 77777 : i64, strides = [1 : si32, 1 : si32]} : (tensor<2x64x64x320xf16>, tensor<320x1x1x320xf16>, tensor<320xf16>) -> tensor<2x64x64x320xf16>
    %V = "oneflow.reshape"(%V) {device_name = ["@0:0"], device_tag = "cuda", hierarchy = [1], op_name = "ONEFLOW_ERASE_MAGIC", scope_symbol_id = 77777 : i64, shape = [2 : si64, 4096 : si64, 320 : si64]} : (tensor<2x64x64x320xf16>) -> tensor<2x4096x320xf16>
    %V, %V, %V = "oneflow.layer_norm"(%V, %V, %V) {begin_norm_axis = 2 : si64, begin_params_axis = 2 : si64, center = true, device_name = ["@0:0"], device_tag = "cuda", epsilon = 1.000000e-05 : f64, hierarchy = [1], op_name = "ONEFLOW_ERASE_MAGIC", operand_segment_sizes = dense<1> : vector<3xi32>, scale = true, scope_symbol_id = 77777 : i64} : (tensor<2x4096x320xf16>, tensor<320xf16>, tensor<320xf16>) -> (tensor<2x4096x320xf16>, tensor<2x4096xf32>, tensor<2x4096xf32>)
    %V:3 = "oneflow.grouped_matmul_bias"(%V, %V, %V, %V, %V, %V) {device_name = ["@0:0"], device_tag = "cuda", hierarchy = [1], op_name = "ONEFLOW_ERASE_MAGIC", operand_segment_sizes = dense<[3, 3, 0]> : vector<3xi32>, scope_symbol_id = 77777 : i64} : (tensor<2x4096x320xf16>, tensor<2x4096x320xf16>, tensor<2x4096x320xf16>, tensor<320x320xf16>, tensor<320x320xf16>, tensor<320x320xf16>) -> (tensor<2x4096x320xf16>, tensor<2x4096x320xf16>, tensor<2x4096x320xf16>)
    %V = "oneflow.fused_multi_head_attention_inference"(%V, %V, %V) {causal = false, device_name = ["@0:0"], device_tag = "cuda", hierarchy = [1], key_hidden_slice_end = -1 : si64, key_hidden_slice_start = 0 : si64, num_heads = 8 : si64, op_name = "ONEFLOW_ERASE_MAGIC", query_hidden_slice_end = -1 : si64, query_hidden_slice_start = 0 : si64, scope_symbol_id = 77777 : i64, value_hidden_slice_end = -1 : si64, value_hidden_slice_start = 0 : si64} : (tensor<2x4096x320xf16>, tensor<2x4096x320xf16>, tensor<2x4096x320xf16>) -> tensor<2x4096x320xf16>
    %V = "oneflow.broadcast_matmul"(%V, %V) {alpha = 1.000000e+00 : f64, device_name = ["@0:0"], device_tag = "cuda", hierarchy = [1], op_name = "ONEFLOW_ERASE_MAGIC", scope_symbol_id = 77777 : i64, transpose_a = false, transpose_b = true} : (tensor<2x4096x320xf16>, tensor<320x320xf16>) -> tensor<2x4096x320xf16>
    %V = "oneflow.broadcast_add"(%V, %V) {device_name = ["@0:0"], device_tag = "cuda", hierarchy = [1], op_name = "ONEFLOW_ERASE_MAGIC", scope_symbol_id = 77777 : i64} : (tensor<2x4096x320xf16>, tensor<320xf16>) -> tensor<2x4096x320xf16>
    %V = "oneflow.add_n2"(%V, %V) {device_name = ["@0:0"], device_tag = "cuda", hierarchy = [1], op_name = "ONEFLOW_ERASE_MAGIC", op_type_name = "add_n", scope_symbol_id = 77777 : i64} : (tensor<2x4096x320xf16>, tensor<2x4096x320xf16>) -> tensor<2x4096x320xf16>
    %V, %V, %V = "oneflow.layer_norm"(%V, %V, %V) {begin_norm_axis = 2 : si64, begin_params_axis = 2 : si64, center = true, device_name = ["@0:0"], device_tag = "cuda", epsilon = 1.000000e-05 : f64, hierarchy = [1], op_name = "ONEFLOW_ERASE_MAGIC", operand_segment_sizes = dense<1> : vector<3xi32>, scale = true, scope_symbol_id = 77777 : i64} : (tensor<2x4096x320xf16>, tensor<320xf16>, tensor<320xf16>) -> (tensor<2x4096x320xf16>, tensor<2x4096xf32>, tensor<2x4096xf32>)
    %V = "oneflow.broadcast_matmul"(%V, %V) {alpha = 1.000000e+00 : f64, device_name = ["@0:0"], device_tag = "cuda", hierarchy = [1], op_name = "ONEFLOW_ERASE_MAGIC", scope_symbol_id = 77777 : i64, transpose_a = false, transpose_b = true} : (tensor<2x4096x320xf16>, tensor<320x320xf16>) -> tensor<2x4096x320xf16>
    %V = "oneflow.fused_multi_head_attention_inference"(%V, %V, %V) {causal = false, device_name = ["@0:0"], device_tag = "cuda", hierarchy = [1], key_hidden_slice_end = -1 : si64, key_hidden_slice_start = 0 : si64, num_heads = 8 : si64, op_name = "ONEFLOW_ERASE_MAGIC", query_hidden_slice_end = -1 : si64, query_hidden_slice_start = 0 : si64, scope_symbol_id = 77777 : i64, value_hidden_slice_end = -1 : si64, value_hidden_slice_start = 0 : si64} : (tensor<2x4096x320xf16>, tensor<2x77x320xf16>, tensor<2x77x320xf16>) -> tensor<2x4096x320xf16>
    %V = "oneflow.broadcast_matmul"(%V, %V) {alpha = 1.000000e+00 : f64, device_name = ["@0:0"], device_tag = "cuda", hierarchy = [1], op_name = "ONEFLOW_ERASE_MAGIC", scope_symbol_id = 77777 : i64, transpose_a = false, transpose_b = true} : (tensor<2x4096x320xf16>, tensor<320x320xf16>) -> tensor<2x4096x320xf16>
    %V = "oneflow.broadcast_add"(%V, %V) {device_name = ["@0:0"], device_tag = "cuda", hierarchy = [1], op_name = "ONEFLOW_ERASE_MAGIC", scope_symbol_id = 77777 : i64} : (tensor<2x4096x320xf16>, tensor<320xf16>) -> tensor<2x4096x320xf16>
    %V = "oneflow.add_n2"(%V, %V) {device_name = ["@0:0"], device_tag = "cuda", hierarchy = [1], op_name = "ONEFLOW_ERASE_MAGIC", op_type_name = "add_n", scope_symbol_id = 77777 : i64} : (tensor<2x4096x320xf16>, tensor<2x4096x320xf16>) -> tensor<2x4096x320xf16>
    %V, %V, %V = "oneflow.layer_norm"(%V, %V, %V) {begin_norm_axis = 2 : si64, begin_params_axis = 2 : si64, center = true, device_name = ["@0:0"], device_tag = "cuda", epsilon = 1.000000e-05 : f64, hierarchy = [1], op_name = "ONEFLOW_ERASE_MAGIC", operand_segment_sizes = dense<1> : vector<3xi32>, scale = true, scope_symbol_id = 77777 : i64} : (tensor<2x4096x320xf16>, tensor<320xf16>, tensor<320xf16>) -> (tensor<2x4096x320xf16>, tensor<2x4096xf32>, tensor<2x4096xf32>)
    %V = "oneflow.broadcast_matmul"(%V, %V) {alpha = 1.000000e+00 : f64, device_name = ["@0:0"], device_tag = "cuda", hierarchy = [1], op_name = "ONEFLOW_ERASE_MAGIC", scope_symbol_id = 77777 : i64, transpose_a = false, transpose_b = true} : (tensor<2x4096x320xf16>, tensor<2560x320xf16>) -> tensor<2x4096x2560xf16>
    %V = "oneflow.broadcast_add"(%V, %V) {device_name = ["@0:0"], device_tag = "cuda", hierarchy = [1], op_name = "ONEFLOW_ERASE_MAGIC", scope_symbol_id = 77777 : i64} : (tensor<2x4096x2560xf16>, tensor<2560xf16>) -> tensor<2x4096x2560xf16>
    %V = "oneflow.narrow"(%V) {device_name = ["@0:0"], device_tag = "cuda", dim = 2 : si64, hierarchy = [1], length = 1280 : si64, op_name = "ONEFLOW_ERASE_MAGIC", scope_symbol_id = 77777 : i64, start = 0 : si64} : (tensor<2x4096x2560xf16>) -> tensor<2x4096x1280xf16>
    %V = "oneflow.narrow"(%V) {device_name = ["@0:0"], device_tag = "cuda", dim = 2 : si64, hierarchy = [1], length = 1280 : si64, op_name = "ONEFLOW_ERASE_MAGIC", scope_symbol_id = 77777 : i64, start = 1280 : si64} : (tensor<2x4096x2560xf16>) -> tensor<2x4096x1280xf16>
    %V = "oneflow.gelu"(%V) {device_name = ["@0:0"], device_tag = "cuda", hierarchy = [1], op_name = "ONEFLOW_ERASE_MAGIC", scope_symbol_id = 77777 : i64} : (tensor<2x4096x1280xf16>) -> tensor<2x4096x1280xf16>
    %V = "oneflow.broadcast_mul"(%V, %V) {device_name = ["@0:0"], device_tag = "cuda", hierarchy = [1], op_name = "ONEFLOW_ERASE_MAGIC", scope_symbol_id = 77777 : i64} : (tensor<2x4096x1280xf16>, tensor<2x4096x1280xf16>) -> tensor<2x4096x1280xf16>
    %V = "oneflow.broadcast_matmul"(%V, %V) {alpha = 1.000000e+00 : f64, device_name = ["@0:0"], device_tag = "cuda", hierarchy = [1], op_name = "ONEFLOW_ERASE_MAGIC", scope_symbol_id = 77777 : i64, transpose_a = false, transpose_b = true} : (tensor<2x4096x1280xf16>, tensor<320x1280xf16>) -> tensor<2x4096x320xf16>
    %V = "oneflow.broadcast_add"(%V, %V) {device_name = ["@0:0"], device_tag = "cuda", hierarchy = [1], op_name = "ONEFLOW_ERASE_MAGIC", scope_symbol_id = 77777 : i64} : (tensor<2x4096x320xf16>, tensor<320xf16>) -> tensor<2x4096x320xf16>
    %V = "oneflow.add_n2"(%V, %V) {device_name = ["@0:0"], device_tag = "cuda", hierarchy = [1], op_name = "ONEFLOW_ERASE_MAGIC", op_type_name = "add_n", scope_symbol_id = 77777 : i64} : (tensor<2x4096x320xf16>, tensor<2x4096x320xf16>) -> tensor<2x4096x320xf16>
    %V = "oneflow.reshape"(%V) {device_name = ["@0:0"], device_tag = "cuda", hierarchy = [1], op_name = "ONEFLOW_ERASE_MAGIC", scope_symbol_id = 77777 : i64, shape = [2 : si64, 64 : si64, 64 : si64, 320 : si64]} : (tensor<2x4096x320xf16>) -> tensor<2x64x64x320xf16>
    %V = "oneflow.conv2d"(%V, %V, %V) {data_format = "channels_last", device_name = ["@0:0"], device_tag = "cuda", dilation_rate = [1 : si32, 1 : si32], filters = 320 : si32, groups = 1 : si32, hierarchy = [1], kernel_size = [1 : si32, 1 : si32], op_name = "ONEFLOW_ERASE_MAGIC", operand_segment_sizes = dense<[1, 1, 1, 0]> : vector<4xi32>, padding_before = [0 : si32, 0 : si32], scope_symbol_id = 77777 : i64, strides = [1 : si32, 1 : si32]} : (tensor<2x64x64x320xf16>, tensor<320x1x1x320xf16>, tensor<320xf16>) -> tensor<2x64x64x320xf16>
    %V = "oneflow.add_n2"(%V, %V) {device_name = ["@0:0"], device_tag = "cuda", hierarchy = [1], op_name = "ONEFLOW_ERASE_MAGIC", op_type_name = "add_n", scope_symbol_id = 77777 : i64} : (tensor<2x64x64x320xf16>, tensor<2x64x64x320xf16>) -> tensor<2x64x64x320xf16>
    %V = "oneflow.concat"(%V, %V) {axis = 3 : si64, device_name = ["@0:0"], device_tag = "cuda", hierarchy = [1], max_dim_size = 640 : si64, op_name = "ONEFLOW_ERASE_MAGIC", scope_symbol_id = 77777 : i64} : (tensor<2x64x64x320xf16>, tensor<2x64x64x320xf16>) -> tensor<2x64x64x640xf16>
    %V, %V, %V = "oneflow.group_norm"(%V, %V, %V) {activation = "silu", affine = true, data_format = "channels_last", device_name = ["@0:0"], device_tag = "cuda", epsilon = 1.000000e-05 : f64, hierarchy = [1], num_groups = 32 : si32, op_name = "ONEFLOW_ERASE_MAGIC", operand_segment_sizes = dense<1> : vector<3xi32>, scope_symbol_id = 77777 : i64} : (tensor<2x64x64x640xf16>, tensor<640xf16>, tensor<640xf16>) -> (tensor<2x64x64x640xf16>, tensor<2x32xf32>, tensor<2x32xf32>)
    %V = "oneflow.conv2d"(%V, %V, %V) {data_format = "channels_last", device_name = ["@0:0"], device_tag = "cuda", dilation_rate = [1 : si32, 1 : si32], filters = 320 : si32, groups = 1 : si32, hierarchy = [1], kernel_size = [1 : si32, 1 : si32], op_name = "ONEFLOW_ERASE_MAGIC", operand_segment_sizes = dense<[1, 1, 1, 0]> : vector<4xi32>, padding_before = [0 : si32, 0 : si32], scope_symbol_id = 77777 : i64, strides = [1 : si32, 1 : si32]} : (tensor<2x64x64x640xf16>, tensor<320x1x1x640xf16>, tensor<320xf16>) -> tensor<2x64x64x320xf16>
    %V = "oneflow.conv2d"(%V, %V, %V) {data_format = "channels_last", device_name = ["@0:0"], device_tag = "cuda", dilation_rate = [1 : si32, 1 : si32], filters = 320 : si32, groups = 1 : si32, hierarchy = [1], kernel_size = [3 : si32, 3 : si32], op_name = "ONEFLOW_ERASE_MAGIC", operand_segment_sizes = dense<[1, 1, 1, 0]> : vector<4xi32>, padding_before = [1 : si32, 1 : si32], scope_symbol_id = 77777 : i64, strides = [1 : si32, 1 : si32]} : (tensor<2x64x64x640xf16>, tensor<320x3x3x640xf16>, tensor<320xf16>) -> tensor<2x64x64x320xf16>
    %V = "oneflow.broadcast_add"(%V, %V) {device_name = ["@0:0"], device_tag = "cuda", hierarchy = [1], op_name = "ONEFLOW_ERASE_MAGIC", scope_symbol_id = 77777 : i64} : (tensor<2x64x64x320xf16>, tensor<2x1x1x320xf16>) -> tensor<2x64x64x320xf16>
    %V, %V, %V = "oneflow.group_norm"(%V, %V, %V) {activation = "silu", affine = true, data_format = "channels_last", device_name = ["@0:0"], device_tag = "cuda", epsilon = 1.000000e-05 : f64, hierarchy = [1], num_groups = 32 : si32, op_name = "ONEFLOW_ERASE_MAGIC", operand_segment_sizes = dense<1> : vector<3xi32>, scope_symbol_id = 77777 : i64} : (tensor<2x64x64x320xf16>, tensor<320xf16>, tensor<320xf16>) -> (tensor<2x64x64x320xf16>, tensor<2x32xf32>, tensor<2x32xf32>)
    %V = "oneflow.conv2d"(%V, %V, %V) {data_format = "channels_last", device_name = ["@0:0"], device_tag = "cuda", dilation_rate = [1 : si32, 1 : si32], filters = 320 : si32, groups = 1 : si32, hierarchy = [1], kernel_size = [3 : si32, 3 : si32], op_name = "ONEFLOW_ERASE_MAGIC", operand_segment_sizes = dense<[1, 1, 1, 0]> : vector<4xi32>, padding_before = [1 : si32, 1 : si32], scope_symbol_id = 77777 : i64, strides = [1 : si32, 1 : si32]} : (tensor<2x64x64x320xf16>, tensor<320x3x3x320xf16>, tensor<320xf16>) -> tensor<2x64x64x320xf16>
    %V = "oneflow.add_n2"(%V, %V) {device_name = ["@0:0"], device_tag = "cuda", hierarchy = [1], op_name = "ONEFLOW_ERASE_MAGIC", op_type_name = "add_n", scope_symbol_id = 77777 : i64} : (tensor<2x64x64x320xf16>, tensor<2x64x64x320xf16>) -> tensor<2x64x64x320xf16>
    %V = "oneflow.scalar_div"(%V) {device_name = ["@0:0"], device_tag = "cuda", float_operand = 1.000000e+00 : f64, has_float_operand = true, has_int_operand = false, hierarchy = [1], int_operand = 0 : si64, op_name = "ONEFLOW_ERASE_MAGIC", scope_symbol_id = 77777 : i64} : (tensor<2x64x64x320xf16>) -> tensor<2x64x64x320xf16>
    %V, %V, %V = "oneflow.group_norm"(%V, %V, %V) {activation = "none", affine = true, data_format = "channels_last", device_name = ["@0:0"], device_tag = "cuda", epsilon = 9.9999999999999995E-7 : f64, hierarchy = [1], num_groups = 32 : si32, op_name = "ONEFLOW_ERASE_MAGIC", operand_segment_sizes = dense<1> : vector<3xi32>, scope_symbol_id = 77777 : i64} : (tensor<2x64x64x320xf16>, tensor<320xf16>, tensor<320xf16>) -> (tensor<2x64x64x320xf16>, tensor<2x32xf32>, tensor<2x32xf32>)
    %V = "oneflow.conv2d"(%V, %V, %V) {data_format = "channels_last", device_name = ["@0:0"], device_tag = "cuda", dilation_rate = [1 : si32, 1 : si32], filters = 320 : si32, groups = 1 : si32, hierarchy = [1], kernel_size = [1 : si32, 1 : si32], op_name = "ONEFLOW_ERASE_MAGIC", operand_segment_sizes = dense<[1, 1, 1, 0]> : vector<4xi32>, padding_before = [0 : si32, 0 : si32], scope_symbol_id = 77777 : i64, strides = [1 : si32, 1 : si32]} : (tensor<2x64x64x320xf16>, tensor<320x1x1x320xf16>, tensor<320xf16>) -> tensor<2x64x64x320xf16>
    %V = "oneflow.reshape"(%V) {device_name = ["@0:0"], device_tag = "cuda", hierarchy = [1], op_name = "ONEFLOW_ERASE_MAGIC", scope_symbol_id = 77777 : i64, shape = [2 : si64, 4096 : si64, 320 : si64]} : (tensor<2x64x64x320xf16>) -> tensor<2x4096x320xf16>
    %V, %V, %V = "oneflow.layer_norm"(%V, %V, %V) {begin_norm_axis = 2 : si64, begin_params_axis = 2 : si64, center = true, device_name = ["@0:0"], device_tag = "cuda", epsilon = 1.000000e-05 : f64, hierarchy = [1], op_name = "ONEFLOW_ERASE_MAGIC", operand_segment_sizes = dense<1> : vector<3xi32>, scale = true, scope_symbol_id = 77777 : i64} : (tensor<2x4096x320xf16>, tensor<320xf16>, tensor<320xf16>) -> (tensor<2x4096x320xf16>, tensor<2x4096xf32>, tensor<2x4096xf32>)
    %V:3 = "oneflow.grouped_matmul_bias"(%V, %V, %V, %V, %V, %V) {device_name = ["@0:0"], device_tag = "cuda", hierarchy = [1], op_name = "ONEFLOW_ERASE_MAGIC", operand_segment_sizes = dense<[3, 3, 0]> : vector<3xi32>, scope_symbol_id = 77777 : i64} : (tensor<2x4096x320xf16>, tensor<2x4096x320xf16>, tensor<2x4096x320xf16>, tensor<320x320xf16>, tensor<320x320xf16>, tensor<320x320xf16>) -> (tensor<2x4096x320xf16>, tensor<2x4096x320xf16>, tensor<2x4096x320xf16>)
    %V = "oneflow.fused_multi_head_attention_inference"(%V, %V, %V) {causal = false, device_name = ["@0:0"], device_tag = "cuda", hierarchy = [1], key_hidden_slice_end = -1 : si64, key_hidden_slice_start = 0 : si64, num_heads = 8 : si64, op_name = "ONEFLOW_ERASE_MAGIC", query_hidden_slice_end = -1 : si64, query_hidden_slice_start = 0 : si64, scope_symbol_id = 77777 : i64, value_hidden_slice_end = -1 : si64, value_hidden_slice_start = 0 : si64} : (tensor<2x4096x320xf16>, tensor<2x4096x320xf16>, tensor<2x4096x320xf16>) -> tensor<2x4096x320xf16>
    %V = "oneflow.broadcast_matmul"(%V, %V) {alpha = 1.000000e+00 : f64, device_name = ["@0:0"], device_tag = "cuda", hierarchy = [1], op_name = "ONEFLOW_ERASE_MAGIC", scope_symbol_id = 77777 : i64, transpose_a = false, transpose_b = true} : (tensor<2x4096x320xf16>, tensor<320x320xf16>) -> tensor<2x4096x320xf16>
    %V = "oneflow.broadcast_add"(%V, %V) {device_name = ["@0:0"], device_tag = "cuda", hierarchy = [1], op_name = "ONEFLOW_ERASE_MAGIC", scope_symbol_id = 77777 : i64} : (tensor<2x4096x320xf16>, tensor<320xf16>) -> tensor<2x4096x320xf16>
    %V = "oneflow.add_n2"(%V, %V) {device_name = ["@0:0"], device_tag = "cuda", hierarchy = [1], op_name = "ONEFLOW_ERASE_MAGIC", op_type_name = "add_n", scope_symbol_id = 77777 : i64} : (tensor<2x4096x320xf16>, tensor<2x4096x320xf16>) -> tensor<2x4096x320xf16>
    %V, %V, %V = "oneflow.layer_norm"(%V, %V, %V) {begin_norm_axis = 2 : si64, begin_params_axis = 2 : si64, center = true, device_name = ["@0:0"], device_tag = "cuda", epsilon = 1.000000e-05 : f64, hierarchy = [1], op_name = "ONEFLOW_ERASE_MAGIC", operand_segment_sizes = dense<1> : vector<3xi32>, scale = true, scope_symbol_id = 77777 : i64} : (tensor<2x4096x320xf16>, tensor<320xf16>, tensor<320xf16>) -> (tensor<2x4096x320xf16>, tensor<2x4096xf32>, tensor<2x4096xf32>)
    %V = "oneflow.broadcast_matmul"(%V, %V) {alpha = 1.000000e+00 : f64, device_name = ["@0:0"], device_tag = "cuda", hierarchy = [1], op_name = "ONEFLOW_ERASE_MAGIC", scope_symbol_id = 77777 : i64, transpose_a = false, transpose_b = true} : (tensor<2x4096x320xf16>, tensor<320x320xf16>) -> tensor<2x4096x320xf16>
    %V = "oneflow.fused_multi_head_attention_inference"(%V, %V, %V) {causal = false, device_name = ["@0:0"], device_tag = "cuda", hierarchy = [1], key_hidden_slice_end = -1 : si64, key_hidden_slice_start = 0 : si64, num_heads = 8 : si64, op_name = "ONEFLOW_ERASE_MAGIC", query_hidden_slice_end = -1 : si64, query_hidden_slice_start = 0 : si64, scope_symbol_id = 77777 : i64, value_hidden_slice_end = -1 : si64, value_hidden_slice_start = 0 : si64} : (tensor<2x4096x320xf16>, tensor<2x77x320xf16>, tensor<2x77x320xf16>) -> tensor<2x4096x320xf16>
    %V = "oneflow.broadcast_matmul"(%V, %V) {alpha = 1.000000e+00 : f64, device_name = ["@0:0"], device_tag = "cuda", hierarchy = [1], op_name = "ONEFLOW_ERASE_MAGIC", scope_symbol_id = 77777 : i64, transpose_a = false, transpose_b = true} : (tensor<2x4096x320xf16>, tensor<320x320xf16>) -> tensor<2x4096x320xf16>
    %V = "oneflow.broadcast_add"(%V, %V) {device_name = ["@0:0"], device_tag = "cuda", hierarchy = [1], op_name = "ONEFLOW_ERASE_MAGIC", scope_symbol_id = 77777 : i64} : (tensor<2x4096x320xf16>, tensor<320xf16>) -> tensor<2x4096x320xf16>
    %V = "oneflow.add_n2"(%V, %V) {device_name = ["@0:0"], device_tag = "cuda", hierarchy = [1], op_name = "ONEFLOW_ERASE_MAGIC", op_type_name = "add_n", scope_symbol_id = 77777 : i64} : (tensor<2x4096x320xf16>, tensor<2x4096x320xf16>) -> tensor<2x4096x320xf16>
    %V, %V, %V = "oneflow.layer_norm"(%V, %V, %V) {begin_norm_axis = 2 : si64, begin_params_axis = 2 : si64, center = true, device_name = ["@0:0"], device_tag = "cuda", epsilon = 1.000000e-05 : f64, hierarchy = [1], op_name = "ONEFLOW_ERASE_MAGIC", operand_segment_sizes = dense<1> : vector<3xi32>, scale = true, scope_symbol_id = 77777 : i64} : (tensor<2x4096x320xf16>, tensor<320xf16>, tensor<320xf16>) -> (tensor<2x4096x320xf16>, tensor<2x4096xf32>, tensor<2x4096xf32>)
    %V = "oneflow.broadcast_matmul"(%V, %V) {alpha = 1.000000e+00 : f64, device_name = ["@0:0"], device_tag = "cuda", hierarchy = [1], op_name = "ONEFLOW_ERASE_MAGIC", scope_symbol_id = 77777 : i64, transpose_a = false, transpose_b = true} : (tensor<2x4096x320xf16>, tensor<2560x320xf16>) -> tensor<2x4096x2560xf16>
    %V = "oneflow.broadcast_add"(%V, %V) {device_name = ["@0:0"], device_tag = "cuda", hierarchy = [1], op_name = "ONEFLOW_ERASE_MAGIC", scope_symbol_id = 77777 : i64} : (tensor<2x4096x2560xf16>, tensor<2560xf16>) -> tensor<2x4096x2560xf16>
    %V = "oneflow.narrow"(%V) {device_name = ["@0:0"], device_tag = "cuda", dim = 2 : si64, hierarchy = [1], length = 1280 : si64, op_name = "ONEFLOW_ERASE_MAGIC", scope_symbol_id = 77777 : i64, start = 0 : si64} : (tensor<2x4096x2560xf16>) -> tensor<2x4096x1280xf16>
    %V = "oneflow.narrow"(%V) {device_name = ["@0:0"], device_tag = "cuda", dim = 2 : si64, hierarchy = [1], length = 1280 : si64, op_name = "ONEFLOW_ERASE_MAGIC", scope_symbol_id = 77777 : i64, start = 1280 : si64} : (tensor<2x4096x2560xf16>) -> tensor<2x4096x1280xf16>
    %V = "oneflow.gelu"(%V) {device_name = ["@0:0"], device_tag = "cuda", hierarchy = [1], op_name = "ONEFLOW_ERASE_MAGIC", scope_symbol_id = 77777 : i64} : (tensor<2x4096x1280xf16>) -> tensor<2x4096x1280xf16>
    %V = "oneflow.broadcast_mul"(%V, %V) {device_name = ["@0:0"], device_tag = "cuda", hierarchy = [1], op_name = "ONEFLOW_ERASE_MAGIC", scope_symbol_id = 77777 : i64} : (tensor<2x4096x1280xf16>, tensor<2x4096x1280xf16>) -> tensor<2x4096x1280xf16>
    %V = "oneflow.broadcast_matmul"(%V, %V) {alpha = 1.000000e+00 : f64, device_name = ["@0:0"], device_tag = "cuda", hierarchy = [1], op_name = "ONEFLOW_ERASE_MAGIC", scope_symbol_id = 77777 : i64, transpose_a = false, transpose_b = true} : (tensor<2x4096x1280xf16>, tensor<320x1280xf16>) -> tensor<2x4096x320xf16>
    %V = "oneflow.broadcast_add"(%V, %V) {device_name = ["@0:0"], device_tag = "cuda", hierarchy = [1], op_name = "ONEFLOW_ERASE_MAGIC", scope_symbol_id = 77777 : i64} : (tensor<2x4096x320xf16>, tensor<320xf16>) -> tensor<2x4096x320xf16>
    %V = "oneflow.add_n2"(%V, %V) {device_name = ["@0:0"], device_tag = "cuda", hierarchy = [1], op_name = "ONEFLOW_ERASE_MAGIC", op_type_name = "add_n", scope_symbol_id = 77777 : i64} : (tensor<2x4096x320xf16>, tensor<2x4096x320xf16>) -> tensor<2x4096x320xf16>
    %V = "oneflow.reshape"(%V) {device_name = ["@0:0"], device_tag = "cuda", hierarchy = [1], op_name = "ONEFLOW_ERASE_MAGIC", scope_symbol_id = 77777 : i64, shape = [2 : si64, 64 : si64, 64 : si64, 320 : si64]} : (tensor<2x4096x320xf16>) -> tensor<2x64x64x320xf16>
    %V = "oneflow.conv2d"(%V, %V, %V) {data_format = "channels_last", device_name = ["@0:0"], device_tag = "cuda", dilation_rate = [1 : si32, 1 : si32], filters = 320 : si32, groups = 1 : si32, hierarchy = [1], kernel_size = [1 : si32, 1 : si32], op_name = "ONEFLOW_ERASE_MAGIC", operand_segment_sizes = dense<[1, 1, 1, 0]> : vector<4xi32>, padding_before = [0 : si32, 0 : si32], scope_symbol_id = 77777 : i64, strides = [1 : si32, 1 : si32]} : (tensor<2x64x64x320xf16>, tensor<320x1x1x320xf16>, tensor<320xf16>) -> tensor<2x64x64x320xf16>
    %V = "oneflow.add_n2"(%V, %V) {device_name = ["@0:0"], device_tag = "cuda", hierarchy = [1], op_name = "ONEFLOW_ERASE_MAGIC", op_type_name = "add_n", scope_symbol_id = 77777 : i64} : (tensor<2x64x64x320xf16>, tensor<2x64x64x320xf16>) -> tensor<2x64x64x320xf16>
    %V, %V, %V = "oneflow.group_norm"(%V, %V, %V) {activation = "silu", affine = true, data_format = "channels_last", device_name = ["@0:0"], device_tag = "cuda", epsilon = 1.000000e-05 : f64, hierarchy = [1], num_groups = 32 : si32, op_name = "ONEFLOW_ERASE_MAGIC", operand_segment_sizes = dense<1> : vector<3xi32>, scope_symbol_id = 77777 : i64} : (tensor<2x64x64x320xf16>, tensor<320xf16>, tensor<320xf16>) -> (tensor<2x64x64x320xf16>, tensor<2x32xf32>, tensor<2x32xf32>)
    %V = "oneflow.conv2d"(%V, %V, %V) {data_format = "channels_last", device_name = ["@0:0"], device_tag = "cuda", dilation_rate = [1 : si32, 1 : si32], filters = 4 : si32, groups = 1 : si32, hierarchy = [1], kernel_size = [3 : si32, 3 : si32], op_name = "ONEFLOW_ERASE_MAGIC", operand_segment_sizes = dense<[1, 1, 1, 0]> : vector<4xi32>, padding_before = [1 : si32, 1 : si32], scope_symbol_id = 77777 : i64, strides = [1 : si32, 1 : si32]} : (tensor<2x64x64x320xf16>, tensor<4x3x3x320xf16>, tensor<4xf16>) -> tensor<2x64x64x4xf16>
    %V = "oneflow.transpose"(%V) {device_name = ["@0:0"], device_tag = "cuda", hierarchy = [1], op_name = "ONEFLOW_ERASE_MAGIC", perm = [0 : si32, 3 : si32, 1 : si32, 2 : si32], scope_symbol_id = 77777 : i64} : (tensor<2x64x64x4xf16>) -> tensor<2x4x64x64xf16>
    %V = "oneflow.output"(%V) {data_type = 9 : i32, device_name = ["@0:0"], device_tag = "cuda", hierarchy = [1], is_dynamic = false, nd_sbp = ["B"], op_name = "_UNetGraph_0_output.0.0_2", output_lbns = ["_UNetGraph_0_output.0.0_2/out"], scope_symbol_id = 12 : i64, shape = [2 : si64, 4 : si64, 64 : si64, 64 : si64]} : (tensor<2x4x64x64xf16>) -> tensor<2x4x64x64xf16>
    oneflow.return %V : tensor<2x4x64x64xf16>
  }
}
